Simulation/saved_data/models/model_large_dataset_test5.pth (torch, 540340 bytes, 10 tensors)

layers.0.weight f4 [128, 6]
000000 f4 cf e7 3d 9e 33 43 3d 88 e5 48 c1 01 49 c6 3d
       0.11318961 0.047656648 -12.556038 0.09681893
000010 11 31 ab bb 65 31 04 3e da 14 c9 be 8e 6a fe be
       -0.005224355 0.12909468 -0.3927372 -0.4969067
000020 f0 de 80 3c 48 27 bc be 15 59 93 ba 2f 66 a7 bf
       0.015731305 -0.3674872 -0.0011241758 -1.3078059
000030 62 4e b9 3e d2 e1 98 c0 69 e0 4a bb 05 42 87 bb
       0.36192614 -4.777566 -0.0030956513 -0.004127743
000040 99 43 a1 bb 4b 6f 89 bb 72 01 ee be cd 45 fb bd
       -0.0049213883 -0.0041941754 -0.46485478 -0.12269173
000050 e5 a0 54 bb b7 bb 2c bf ab 81 96 bd 78 36 c6 3f
       -0.0032444533 -0.6747393 -0.07348951 1.5485373
000060 72 47 57 3a d8 b4 4a 3a cf 00 52 3b a0 41 93 bb
       0.00082122453 0.00077326363 0.003204394 -0.004493907
000070 15 d5 f2 3f 9c 84 f3 bf 4f 1d ba bd c3 7d 0e 3f
       1.8971277 -1.9024844 -0.090876214 0.5566065
000080 a9 bd 03 c0 67 80 c6 bd c4 11 3e bf fc 98 0c 3e
       -2.058451 -0.096924596 -0.7424586 0.13730234
000090 be 4d 1f bd 37 66 68 3f 13 35 4e 3f 80 73 38 bf
       -0.0388925 0.9078097 0.80549735 -0.7205124
0000a0 d6 34 be c0 25 2b ce 3e a5 70 fd 3f c1 e7 08 40
       -5.9439497 0.40267292 1.9800001 2.1391451
0000b0 38 c3 fd bd c9 07 ce bd f4 b6 1e be 8f 13 9b be
       -0.12390751 -0.10060079 -0.15499479 -0.3028836
0000c0 1c 9b 3c 3f 5a 4d 38 3f b6 bb 01 bf ba 59 2e be
       0.7367418 0.7199303 -0.5067705 -0.17026415
0000d0 61 af 52 3e a1 f9 ed 3e 61 a8 25 3c 93 27 22 bb
       0.20574714 0.46479514 0.010110945 -0.0024742826
0000e0 3f ed d9 3f 76 0c da bf be 99 54 bb 90 aa 80 3b
       1.7025527 -1.7035053 -0.003244027 0.0039265826
0000f0 0d 52 3e bd 28 fc 39 bd 03 92 2c be ee ab 17 be
       -0.04646497 -0.04540649 -0.16852574 -0.1481168
000100 1e 9d 8b be f1 43 4e be de 8a a7 be 8c 1f 03 bf
       -0.27268308 -0.20143105 -0.32723135 -0.5122001
000110 8f c4 f1 3e 0d 71 e8 3e eb d3 da bd c6 d7 08 3e
       0.47220275 0.4539875 -0.106849514 0.13363561
000120 77 5d 06 be d5 e1 a9 bb e2 42 d9 3c 79 7f 4f be
       -0.13121592 -0.005184392 0.02652115 -0.2026347
000130 96 1b c1 3c 03 fa 16 bf d5 48 a6 bd fd 67 5e be
       0.023572724 -0.5897524 -0.0811936 -0.21719356
000140 11 b5 0c 3f b3 53 43 bd 22 b6 36 be db ab 00 3e
       0.54963785 -0.047687244 -0.17842916 0.12565558
000150 94 1e 42 bf 46 f2 88 be ae e3 6d 3e 99 5a 9b be
       -0.7582791 -0.2674734 0.23231384 -0.30342558
000160 13 73 06 be fb 60 b3 bd a0 78 2b 40 a4 14 2b c0
       -0.13129835 -0.08758732 2.6792374 -2.6731348
000170 a5 e3 87 3b 92 05 bc 39 95 c5 66 bb 84 b2 a7 3b
       0.0041470104 0.00035862305 -0.0035212983 0.0051177163
000180 ad 31 dd 3e ff 6b 8e 3e 13 81 b5 be be 15 ac 3e
       0.43201962 0.2781677 -0.35450038 0.33610338
000190 19 a8 2d c0 06 d5 03 bf eb a9 2c 3d f5 40 9e 3d
       -2.7133849 -0.5149692 0.042154234 0.07727233
0001a0 5a cf 52 bc 70 c9 87 bd ad 29 91 bd d8 1b 8a bd
       -0.012866819 -0.06630218 -0.07088027 -0.06743592
0001b0 1b e3 71 c0 83 7b 9e 40 68 d0 69 bb b2 7b 4c bb
       -3.7794864 4.952577 -0.0035677198 -0.0031201658
0001c0 8e c0 93 38 e2 f5 94 bb bd 90 31 bf 61 b6 f1 be
       7.045372e-05 -0.004545913 -0.6936148 -0.47209457
0001d0 63 fd 1c 3e f9 cf 41 3e 42 0f ea be fb 05 31 bf
       0.15331034 0.18926992 -0.45714766 -0.6914975
0001e0 aa 21 4a bf 24 9e 33 3e 76 f1 da bd 9c 6a 34 be
       -0.7895762 0.17540795 -0.10690586 -0.17618793
0001f0 02 f2 ed 3b 0d 59 07 be 83 9e 68 bc fa c4 68 bc
       0.0072615156 -0.13217564 -0.014197948 -0.014207119
000200 16 e7 4e 3f 16 79 58 bf a5 83 97 3f b9 07 9b bf
       0.8082136 -0.8455976 1.183705 -1.2111732
000210 f1 b5 14 3d ed 42 f1 be 8e bb 7c be e3 1f e9 ba
       0.036306325 -0.47121373 -0.24680921 -0.0017785992
000220 39 14 bd be 67 be 01 be 63 5b 17 3e c6 62 90 3e
       -0.3692949 -0.12670289 0.14780955 0.28200358
000230 28 34 f0 be e2 d3 c7 be 6d b5 85 3e 5f 1a 0b c0
       -0.46914792 -0.3902884 0.2611498 -2.1734846
000240 77 7f b2 3b 4e 7c 10 3b 5e 78 04 bf fc c7 04 3f
       0.005447324 0.0022046748 -0.51746166 0.5186765
000250 a3 a3 53 3f 01 de 53 bf 42 ab d0 b9 3b 27 22 3e
       0.82671565 -0.82760626 -0.0003980045 0.15835278
000260 6c 80 e6 be 9b 68 03 bf 23 b0 0a bf 0f fd ee be
       -0.45019853 -0.5133149 -0.54175013 -0.46677443
000270 b0 4a ba be 01 44 ed be b9 52 75 bf 11 30 9a 3f
       -0.36385107 -0.46340945 -0.9582935 1.2045919
000280 79 17 22 bd ee 2d 41 be 13 f7 2b 3f 1d fc 16 3f
       -0.039573167 -0.18865177 0.6717388 0.58978444
000290 a4 c8 6b bf 7b 3a 8c be ee 8b b5 3f 73 d3 ae be
       -0.9210303 -0.27388367 1.4183328 -0.34145698
0002a0 c1 af 37 3e a7 b4 4e bf 8c 0e 36 bf bc a7 17 bf
       0.17938139 -0.80744404 -0.71115947 -0.5924032
0002b0 df b4 0f 3f fe 44 1b 3f fb 09 08 c0 55 6f 28 40
       0.5613536 0.6065215 -2.1256092 2.6317952
0002c0 14 85 47 bb c2 d6 e5 3a 69 01 6a 3c c4 d3 88 bb
       -0.003044431 0.0017535316 0.014282563 -0.004175635
0002d0 d5 ae 13 3e 94 75 00 3d 4e 7b a7 bd ed 03 2f be
       0.14422162 0.03136213 -0.081778154 -0.17091341
0002e0 41 35 81 be 98 30 80 be 97 97 92 3c 39 80 3f 3c
       -0.25235942 -0.25037074 0.01789455 0.0116882855
0002f0 3b d4 83 3f 17 5a 84 bf 31 f2 ce 3f 2f 3d cf bf
       1.0299143 -1.0339993 1.6167661 -1.6190547
000300 42 80 a6 be 2f 49 ae 3d 10 24 8c be 0e 22 70 bd
       -0.32519728 0.085100524 -0.27371264 -0.058626227
000310 b7 7e 75 be 04 aa c6 be 42 a4 78 be 4b f4 25 3e
       -0.23974119 -0.38801587 -0.2428141 0.16206472
000320 eb 1e 5e 3e 3b 44 83 bf 23 c4 58 3f 65 aa 51 c0
       0.21691482 -1.0255197 0.8467428 -3.276025
000330 ac 5c 82 bf cd 45 c1 3e c8 d5 76 be 1c 54 9e bf
       -1.0184531 0.37748566 -0.24104989 -1.2369418
000340 71 9c 2d 3e 09 ad 20 c1 94 84 0d bf 74 74 46 bf
       0.16954209 -10.042245 -0.55280423 -0.77521443
000350 02 ed 94 be 52 6e 2f be 3c 93 18 bf 3d 46 1b bd
       -0.29087073 -0.17131928 -0.5959966 -0.03790878
000360 59 9a b0 3f 8f 44 1c c0 53 04 67 3e 66 fb c7 bf
       1.3797103 -2.4416845 0.22560243 -1.5623596
000370 19 df e8 be 44 b0 87 be 2e 0d 06 c2 12 12 54 3f
       -0.4548271 -0.26501667 -33.51287 0.82840073
000380 e9 b4 3a bf d2 e0 ce 3e 4c 1d 49 c0 94 18 47 c0
       -0.72932297 0.404059 -3.1424131 -3.1108751
000390 ee 7b 13 3b 19 b3 cc ba 91 4a 7a bf 67 75 79 3f
       0.0022504288 -0.001561734 -0.9777003 0.97444767
0003a0 37 f9 c6 bf 46 20 c5 3f 07 28 49 3f 65 c7 97 3e
       -1.5544804 1.5400474 0.785767 0.29644313
0003b0 4f 1f 8a 3e 85 0a 17 bf 99 4b c3 be 4c 9f 35 c0
       0.26977012 -0.59000427 -0.38143614 -2.8378477
0003c0 9b 82 21 40 c4 60 cc 3e 04 90 f5 be 76 6d 0a 3a
       2.5235965 0.39917576 -0.47961438 0.0005280593
0003d0 cb 6d 93 bf 7a c4 27 3e 4e f9 36 be 1d 24 ff 3d
       -1.1517881 0.16383544 -0.1786854 0.1245806
0003e0 dd 78 d3 bd 18 d7 3f be 52 51 38 bf 98 98 48 3d
       -0.10325787 -0.18734396 -0.71999085 0.04897365
0003f0 5f 65 19 bc fe eb 5f bb 8b ef 93 bf 87 bd 95 3f
       -0.009362548 -0.0034167762 -1.1557478 1.1698464

layers.0.bias f4 [128]
000000 c2 0d fe bf 2a 42 12 40 05 cc f1 3f 9b cc 0c c1
       -1.9847949 2.2852883 1.8890387 -8.7999525
000010 6a 8a 73 c0 a0 db 81 bf 24 f4 f7 c0 23 c7 76 c1
       -3.8053231 -1.0145149 -7.7485523 -15.423617
000020 99 bf ef c0 ad 2e 7c bd ec 0a 87 3e e4 a2 2e c0
       -7.4921384 -0.06156795 0.2637552 -2.728692
000030 37 80 64 be 92 d7 86 c0 34 61 d4 3f 3a 91 b2 bd
       -0.22314535 -4.2138147 1.6592164 -0.08719106
000040 3d ce 95 bf ed 69 0e bf 38 54 6f c1 b5 61 8c 40
       -1.1703564 -0.5563038 -14.958061 4.386927
000050 11 9a 24 bf 48 81 14 c1 2c 80 e5 3d 15 d8 8e bf
       -0.64297587 -9.281563 0.112060875 -1.1159693
000060 25 43 78 bb 41 3e 0b 40 c9 8d 8e c0 71 3e 53 c1
       -0.0037881818 2.1756747 -4.4548078 -13.2027445
000070 f0 6e a5 c0 16 54 bb c0 d7 14 1e bf a7 56 1c c1
       -5.169792 -5.8540144 -0.6175055 -9.771155
000080 6d d0 2a be b6 3f 95 c0 1e 46 cc 3f e0 93 81 40
       -0.1668107 -4.664027 1.5958898 4.049301
000090 f5 aa 2a c0 3f bf b0 40 39 1d 14 c1 e6 a0 3c c0
       -2.6666844 5.5233455 -9.257134 -2.9473205
0000a0 de e9 46 c1 20 24 0c bf 61 08 68 c1 90 7e 71 40
       -12.4320965 -0.5474262 -14.502046 3.7733498
0000b0 69 bb 09 bf 15 6f b7 bf c9 f5 a1 c0 86 e3 c8 bf
       -0.5380159 -1.4330775 -5.061253 -1.5694435
0000c0 78 72 1a bc 51 6f 82 bd 18 eb cd c0 4a c3 90 3c
       -0.009426706 -0.06368888 -6.434948 0.017671246
0000d0 4a b7 73 c1 23 14 d3 3d b1 7f 4c c0 7f ac 9e c0
       -15.232248 0.10306575 -3.1952937 -4.9585567
0000e0 5c f1 02 be a7 2c 0b 40 b9 0e b6 c0 53 31 53 c1
       -0.12787384 2.1746004 -5.689297 -13.199542
0000f0 e7 7f 3a bf 9e 66 a1 bd 8f c3 b4 bf 77 d7 33 be
       -0.72851413 -0.07880901 -1.412218 -0.17562662
000100 6b fe 9f bf 17 62 64 c0 76 b0 49 be 3f ae 39 3f
       -1.2499517 -3.568487 -0.19696221 0.72531503
000110 f2 0d 97 3e 1d 48 15 c1 a5 55 b2 c0 3c f2 f6 c0
       0.29502827 -9.330106 -5.5729547 -7.7170696
000120 9e 58 38 c1 8b dc f2 3d 65 7c 60 c0 0b 0f 0c c1
       -11.521635 0.118584715 -3.5075924 -8.753673
000130 4b 71 1c c1 70 41 19 be 59 36 98 bf 09 5c 35 c0
       -9.777659 -0.14966369 -1.1891586 -2.8337424
000140 a3 27 a3 c0 bf 78 88 c1 e6 0f 67 c0 e8 63 09 40
       -5.0985885 -17.058958 -3.6103454 2.1467228
000150 49 7b 1f bf ef b7 b0 be 7b 37 e4 ba ef 38 c1 bf
       -0.62297493 -0.3451533 -0.0017411554 -1.50955
000160 1f 96 15 bd 6f 52 82 c1 41 53 05 c0 2a b5 27 c1
       -0.03652012 -16.29025 -2.0832064 -10.4817295
000170 00 36 0b bd 28 0c ba c0 48 bf 17 40 e8 66 87 bc
       -0.033987045 -5.813984 2.37105 -0.016528562
000180 01 ee 14 41 3f e9 22 41 c9 b3 76 c0 b8 67 d5 bd
       9.308106 10.181945 -3.8547232 -0.104201734
000190 23 29 3b c1 93 24 3f c0 29 c2 b5 be c4 eb 2d bf
       -11.697543 -2.9866073 -0.35499695 -0.67937875
0001a0 e1 6a f2 bf 05 0c 14 c0 c9 5f ee c0 4c 86 04 bf
       -1.8938867 -2.3132336 -7.4491925 -0.5176742
0001b0 05 a1 2c c0 c7 38 af c1 6f 77 56 c0 2a 51 73 c1
       -2.6973279 -21.902723 -3.3510396 -15.207315
0001c0 76 c1 7c 40 c8 d8 bf bf 12 69 f1 bd 6e 29 db bf
       3.949308 -1.4988031 -0.11787619 -1.7122018
0001d0 ed c1 c3 c0 d0 bb d4 be 60 87 99 3d 78 29 8a c0
       -6.1174226 -0.4154954 0.07496524 -4.317562
0001e0 27 8b 48 c0 61 7c 09 bf a5 0b 26 c0 e4 57 8a bf
       -3.1334932 -0.5370541 -2.5944607 -1.0808072
0001f0 79 30 af bd 6a 53 f1 c0 d3 d2 1a c1 d2 da 74 bf
       -0.08554167 -7.5414324 -9.676471 -0.95646393

layers.2.weight f4 [256, 128]
000000 6d dd c2 bd cb 6b 12 bd 28 df 00 bd 1a 48 0a bd
       -0.0951489 -0.03574733 -0.03146282 -0.033760168
000010 b9 09 89 3d 50 f7 d5 3b 8b 69 54 bd ac 3c a2 3d
       0.066913076 0.006529726 -0.051858466 0.079217285
000020 f9 72 51 bc cc 2f a0 bd da 68 78 bd 8a 59 a5 bd
       -0.012783759 -0.078216165 -0.06064687 -0.08073719
000030 f2 7d 82 bd 38 3b 67 3d 33 85 48 bd ac 5c e1 bd
       -0.063716784 0.05645296 -0.048955154 -0.11004004
000040 c9 61 a2 bd 0a 8a 35 bc 3d d0 d1 bd e3 92 3d 3d
       -0.07928807 -0.011080274 -0.102447964 0.04628266
000050 7c 9f 56 bd 83 60 80 bd c3 b3 6c 3d d3 29 37 3d
       -0.05239819 -0.06268408 0.05778862 0.04471762
000060 09 c9 b2 bd 75 fc b2 bd 00 23 a9 3c 53 b0 90 bd
       -0.08729751 -0.087395586 0.020646572 -0.07064881
000070 5a e6 d9 bd b7 9c 8c bb 4d c2 91 3b 85 e4 05 3e
       -0.10639639 -0.004291143 0.0044482113 0.13075455
000080 be 85 09 bd 83 8b fb bc 35 66 44 3d 7e 01 cf 3c
       -0.033574812 -0.030706173 0.047949035 0.025269266
000090 a9 51 b2 3d 49 cd a8 3d 11 cd 4b bd 01 07 87 bd
       0.08706982 0.0824228 -0.049756113 -0.06593133
0000a0 45 72 18 3d 61 c8 e5 3c 42 32 05 be d0 c5 8d bd
       0.03721835 0.02804965 -0.13007453 -0.06922495
0000b0 63 77 8b bc 48 fb dd bc 0e 82 a7 3c 58 b4 d0 3c
       -0.017024701 -0.02709736 0.020447757 0.02547662
0000c0 9a 1d 25 3d fd 1a b0 bd 34 c7 01 3e 87 df 7a bd
       0.040311433 -0.085988976 0.12673646 -0.06124833
0000d0 60 a5 ae bd 90 28 03 3c a6 53 54 bd dc 9a 5f bd
       -0.085276365 0.008005276 -0.051837586 -0.054591045
0000e0 8d 56 60 bd d5 a0 19 3c f7 7c 49 ba 91 f3 2e bd
       -0.05477004 0.009376724 -0.0007686163 -0.04271275
0000f0 ae 29 71 bd ad b2 82 be 9c 3d a8 3c dd 36 0d bd
       -0.05887764 -0.25526944 0.02053719 -0.03447615
000100 09 b9 dc bd 20 58 93 bc df 50 92 bc a9 e8 4d bc
       -0.1077748 -0.017986357 -0.017860828 -0.012567678
000110 00 70 fc bb 5c e0 c1 bc bc 24 47 bd ce 61 1c 3c
       -0.007703781 -0.023666553 -0.048619017 0.009544803
000120 d6 d7 1f 3c 05 2e 3d 3d bf 81 a4 bd 37 c3 f6 3c
       0.009756049 0.046186466 -0.080325596 0.030122383
000130 60 67 99 bd 90 4d 58 bd 68 0c c7 bb 0d c3 e1 bc
       -0.0749042 -0.052808344 -0.006074477 -0.027558828
000140 4f cf 17 bd e6 cd 89 bd a4 33 31 bd 61 10 c1 bd
       -0.03706294 -0.06728725 -0.04326214 -0.09426952
000150 9b 34 69 bd b6 56 1d bd 77 52 e3 bc 8b 0a 6f bd
       -0.056934934 -0.038412772 -0.027749283 -0.058359664
000160 a2 6b 60 3d 05 fb 31 bd e7 01 76 3c 32 57 83 bd
       0.054790147 -0.04345228 0.015015102 -0.064131156
000170 30 de ab bd 8d e6 72 bd 02 77 85 bd 18 d7 15 3d
       -0.08391988 -0.0593019 -0.065168396 0.036582083
000180 3d 22 13 be e8 0c 22 be 10 fb 2a 3d f5 d9 a9 bd
       -0.1436853 -0.15825236 0.041743338 -0.08293525
000190 94 c5 d3 bd 8d 48 30 bd d1 fd 06 bd be 40 2a 3c
       -0.103404194 -0.04303794 -0.032956902 0.010391412
0001a0 02 98 b6 bd 1e a9 68 bd 4c 12 8a bd a6 e6 3b bd
       -0.08915712 -0.056801908 -0.06741771 -0.04587426
0001b0 b6 72 8a 3d c1 c4 ec 3c ee 96 99 3d 96 c5 39 bd
       0.067601606 0.028902413 0.07499491 -0.04535445
0001c0 12 d5 21 bd c4 9d 37 3c 2f 7b 52 bd b0 ad b8 bd
       -0.03950984 0.011207048 -0.05138701 -0.09017503
0001d0 3c 92 31 3c 8f b3 8d 3d 4a d3 d3 bd 1e c2 af bd
       0.010838088 0.06919014 -0.103430346 -0.08581947
0001e0 80 98 7f bd 8b d7 ea bd 84 70 98 bd 44 33 c7 bd
       -0.062401295 -0.11466893 -0.07443336 -0.09726575
0001f0 82 58 e5 3c 0b bf 20 bc a3 49 f9 bc 54 25 9b bc
       0.027996305 -0.009811173 -0.03043062 -0.018938698
000200 f3 eb db 3c 97 ce 66 3c bf dc 06 be af ce 88 ba
       0.026845908 0.014087341 -0.13170145 -0.0010437573
000210 19 18 0d bd 11 3c ae bd 0d d6 bf bc 0f df e6 bd
       -0.03444681 -0.085075505 -0.023417497 -0.11273014
000220 6d 62 8c 3d 42 3a 39 bd a5 c1 a3 3c 33 51 14 bc
       0.06854711 -0.045221575 0.019989798 -0.0090525625
000230 17 5f 7e 3d 58 07 0e bd e8 1c 97 39 9b 43 9c bd
       0.062102403 -0.034674972 0.000288225 -0.07630082
000240 cc af a1 bd 88 71 10 bd c1 02 8f 3c 53 01 1f 3c
       -0.07894859 -0.03526452 0.017457368 0.009704906
000250 56 71 12 bd a7 19 5a 3c 2f 95 e7 bd 48 49 1b bd
       -0.035752617 0.01331178 -0.113077514 -0.037911683
000260 43 f0 d4 3c 6a a6 b4 bd f0 cf 24 bd d6 a5 bf bc
       0.025993472 -0.088208035 -0.040237367 -0.023394506
000270 a1 25 29 3d 16 db 7b bc 6d ad a4 bd 8d 5a 4d 3d
       0.04129565 -0.015372058 -0.08040891 0.050135184
000280 a1 b9 f7 bb 6b e1 a1 bd 87 9b 41 3d 0d 09 bd bd
       -0.0075599705 -0.07904323 0.047267463 -0.09230242
000290 96 b5 9f 3d 28 50 55 bd 7d 49 b6 bd 7a fb c4 bd
       0.07798307 -0.052078396 -0.089007355 -0.09618278
0002a0 5b 7d 39 3d ad 22 97 bb ed 6e 9c 3d 72 52 91 3c
       0.045285564 -0.004612288 0.07638345 0.017739508
0002b0 c9 57 b0 bd 46 a0 4c bc 1e 53 98 bd d4 a6 bf 3c
       -0.08610494 -0.012489384 -0.07437728 0.02339498
0002c0 ed 7b 44 3d ba 51 cb bd 74 63 9d bc d2 91 5b bc
       0.047969747 -0.099276975 -0.019212462 -0.0134014655
0002d0 7e 4c c1 bd 8b 62 3b bd 1e 34 0a be 22 f6 1e bd
       -0.09438418 -0.045748275 -0.13496444 -0.03880895
0002e0 8e ea 40 3d 54 48 21 ba 6f 54 d3 bd d5 7d a4 bd
       0.04709869 -0.00061524403 -0.10318839 -0.08031813
0002f0 1b 9e 86 bd fe 3b a4 bd 17 fb c3 bd 22 9a 0a bd
       -0.06573125 -0.08019255 -0.09569376 -0.0338384
000300 2f 21 6f 3c e3 90 9b bd 82 57 77 3d ef 9d f4 bc
       0.014595314 -0.07595994 0.06038619 -0.029860465
000310 57 df 10 bd 69 b5 a2 3d a6 95 10 be fd 58 c3 bc
       -0.035369243 0.079447575 -0.14119586 -0.023846144
000320 9c 15 ad 3b 2b a3 9e bd 80 86 07 bd 1d 10 0a be
       0.005282117 -0.077459656 -0.033087254 -0.13482709
000330 2e 71 20 bd 5a f4 81 bd 0f 10 02 be 4e 42 47 bd
       -0.039170437 -0.063454345 -0.12701438 -0.048647217
000340 c6 4b 08 3d 50 80 dc bd 24 fb cc 3b 57 c3 b4 bd
       0.03327539 -0.10766661 0.0062555242 -0.088263206
000350 c1 2e 90 3c 2d 34 c9 bd a4 22 d3 3c c6 67 23 be
       0.017600419 -0.09824405 0.025773354 -0.15957555
000360 3f a0 98 3d 39 da 4d 3c 43 21 a3 bd 32 3b b7 3c
       0.074524395 0.012564235 -0.079653285 0.022367094
000370 36 ea 15 3d a7 16 ea bd 70 83 e6 bd 31 83 4b bd
       0.036600314 -0.11430102 -0.112555385 -0.04968566
000380 f3 de 32 bc ed 07 8c bd b1 3a 21 bd 40 6e 8e bd
       -0.010917413 -0.06837449 -0.039362613 -0.06954622
000390 c0 21 ad bd ee 36 cc bd fd 66 ef bd 08 1f 4f bd
       -0.08453703 -0.099714145 -0.11689565 -0.050566703
0003a0 99 33 00 be ce 2c c6 bd 71 29 16 be 38 8b 85 3d
       -0.12519683 -0.096765146 -0.14664246 0.065206945
0003b0 cb 8c e5 3d 36 c0 9a bd 94 ab 81 3d 05 b0 f7 3c
       0.11208495 -0.075561926 0.06331554 0.0302353
0003c0 fb 31 8f bd a8 3f db bd 5e de 58 bd 9d ce 75 bd
       -0.06991955 -0.10705501 -0.05294644 -0.060011495
0003d0 16 78 0b 3c bf aa ac 3d 50 bb 1b be 96 77 3f bd
       0.008512517 0.08431005 -0.15208173 -0.046744905
0003e0 ab f6 04 3b de 95 5d 3d 3f d3 27 3d 93 a5 8e bd
       0.0020288627 0.054098003 0.040972944 -0.069651745
0003f0 7a e4 30 3d 97 3b 81 3d 35 b9 d1 bd c7 36 80 bd
       0.043186642 0.06310194 -0.102404036 -0.06260448

layers.2.bias f4 [256]
000000 c1 6d 06 be 3e 08 97 bd 8f 55 24 be 52 9a f2 bd
       -0.13127805 -0.07374619 -0.16048263 -0.118458405
000010 3e 92 39 40 d8 44 a2 be 49 e9 b4 c1 c4 fe 50 be
       2.899551 -0.3169315 -22.613909 -0.20409685
000020 fb 7e 4a 40 ef a6 c0 bd 15 fc e8 bf 9e 66 cf 40
       3.1640003 -0.0940684 -1.8201929 6.4812765
000030 a3 fb 2d bd 42 a4 84 bd 6a ec fd c0 cb bf 34 3f
       -0.042476308 -0.06476642 -7.935109 0.7060515
000040 c5 67 80 be 28 a5 f8 c1 16 44 9b 40 3a 0d fa bc
       -0.2507917 -31.080643 4.8520613 -0.030523885
000050 90 33 ff bd a0 82 65 c1 7f 94 de c0 1b 09 06 40
       -0.12461007 -14.344391 -6.955627 2.0943058
000060 f5 5e 12 bd f5 e1 82 c1 b6 e6 27 41 6e 54 2f c1
       -0.03573509 -16.36033 10.493826 -10.958113
000070 00 6c f9 be 3f 32 c3 bd 90 1a a2 be 73 b2 20 40
       -0.4871521 -0.09531068 -0.3166089 2.5108917
000080 15 45 b8 bd f6 e0 a4 40 0e eb a8 bc 28 8a c8 be
       -0.08997551 5.152461 -0.020619895 -0.39167905
000090 9b 6b bc c1 58 80 e2 bd b2 8f 24 be 40 22 c1 be
       -23.552542 -0.11059636 -0.1607044 -0.37721443
0000a0 e5 be 06 c0 bb e8 41 be 2a 1b b1 40 ec 7a c9 be
       -2.1054013 -0.18936436 5.534566 -0.39351594
0000b0 c3 ed f3 bd 05 eb 8c bd 44 23 8f bd e8 cb bd bd
       -0.11910584 -0.06880764 -0.06989148 -0.09267408
0000c0 cc ed f8 c0 17 cc 64 bd d5 c1 75 bd 52 4e e5 3f
       -7.779028 -0.055858698 -0.059999306 1.7914526
0000d0 3a bc bb c0 73 eb b3 c0 51 03 7b be 49 02 f7 bc
       -5.866727 -5.6224914 -0.24512984 -0.030152457
0000e0 24 39 b1 c0 ca c4 22 be 09 87 93 3c 5d c1 a4 bd
       -5.538225 -0.15895382 0.018008726 -0.080446936
0000f0 be 9d 89 bd 69 eb dd bf 28 f1 7b c0 fe 2b 10 be
       -0.0671954 -1.7337466 -3.936594 -0.14079282
000100 1b a1 89 bd 3c 64 61 bd 94 6b 74 bd 6c f8 97 c0
       -0.067201816 -0.05502723 -0.059672907 -4.749075
000110 ae fc 05 be 25 a6 12 40 ca 40 d3 bc 59 61 ac bd
       -0.13084671 2.2913907 -0.02578773 -0.08417005
000120 c9 cb 09 bc 32 a6 d5 c1 ea 3f 4a bd c5 f6 29 be
       -0.008410403 -26.70615 -0.04937736 -0.16598041
000130 64 89 3c c0 42 3d 01 be 96 f1 c6 be ca dc 8e c1
       -2.9458857 -0.12621024 -0.3885619 -17.857807
000140 25 af 69 be 46 64 04 be b3 fd d3 bd 38 25 da 3f
       -0.22820719 -0.12928876 -0.10351124 1.7042608
000150 85 f2 3f c1 d5 ba 8c c0 c8 96 8a 3f 8e ae 4e bd
       -11.996709 -4.3978066 1.0827265 -0.050459437
000160 b4 5c c9 bd f7 ef f0 bd 27 66 ac bf 80 e8 4a be
       -0.09832135 -0.1176452 -1.3468674 -0.19815254
000170 b2 5c db 3b ae 49 c0 bd 6a 62 45 be 10 bd 6e c1
       0.0066943998 -0.09389053 -0.19275823 -14.921158
000180 ed 3c ee 40 de f7 b9 c1 08 d8 ea 40 e2 eb 5a be
       7.444937 -23.246029 7.338871 -0.21379045
000190 3f b4 c1 c1 bc e1 ac bc 3b 02 b7 c0 93 ac 28 c0
       -24.21301 -0.021103732 -5.7190223 -2.635533
0001a0 0a 7c c1 bd b6 93 42 be 84 48 bf bd ac 98 13 c1
       -0.09447487 -0.1900166 -0.09340003 -9.224773
0001b0 ad 55 8d bd d7 d4 2d be 5f 6e 18 c1 68 e6 e6 40
       -0.06901107 -0.16975723 -9.526946 7.215626
0001c0 72 10 02 bc de 6e 5a be 17 3d cd bb 7c 0f 7b c1
       -0.007938491 -0.21331355 -0.006263386 -15.69128
0001d0 3a b2 1d be 0b 1a ac 3f 3b bc 21 c1 9f 64 1e be
       -0.1540002 1.3445448 -10.108455 -0.15468071
0001e0 4d 51 9a bd 25 4c f6 bf 21 04 f7 bc 87 f4 09 c0
       -0.07535038 -1.9241987 -0.030153336 -2.1555498
0001f0 a7 b7 93 bd 00 71 09 c0 51 45 21 c0 f9 37 f3 3f
       -0.07212763 -2.147522 -2.5198557 1.9001456
000200 e0 8d 7a 3c 0a e7 a3 bd 3b f8 12 3c b6 9a bc 40
       0.015292615 -0.080030516 0.008970316 5.8938856
000210 a2 35 89 c1 5a 79 a7 c0 fb d2 23 c1 23 2e ee bd
       -17.151188 -5.2335634 -10.239009 -0.11629894
000220 cf 57 7c 3c 38 2d 87 bd 27 de f1 bd 64 1f c5 40
       0.015401795 -0.06600422 -0.1180995 6.160082
000230 fc 23 88 bc 56 80 21 be 01 74 9d c1 b4 68 2f be
       -0.016618721 -0.15771613 -19.681643 -0.17129785
000240 ba 81 51 be e8 a5 68 bd 01 d8 34 be d1 d3 97 bd
       -0.20459643 -0.056798846 -0.17660524 -0.07413448
000250 9d 4f 05 40 a3 b8 36 be bf 40 66 bd 19 29 7d bf
       2.0829842 -0.17843871 -0.05621409 -0.98890835
000260 51 74 a2 c1 7e 30 df c0 c8 d4 be bd e4 36 eb bd
       -20.306795 -6.9746695 -0.093179286 -0.11485079
000270 65 36 2f bd 9c b6 90 bd 48 82 39 c1 bb 47 25 40
       -0.042776484 -0.0706608 -11.594307 2.582503
000280 eb 66 03 c1 dc 14 07 3f 7e 99 4b be f5 d9 96 3f
       -8.212626 0.52766204 -0.19882771 1.1785265
000290 a7 d4 8e be f6 72 bc bd f8 2d be bd 9d 0d 05 c1
       -0.27896616 -0.092016146 -0.092861116 -8.315824
0002a0 20 c6 96 be d7 eb f3 bd a1 c9 b5 3b 41 f4 ef 3f
       -0.29448032 -0.11910217 0.0055477177 1.8746415
0002b0 13 a4 5a bd 55 04 c1 bd fa fd 0f bc 11 6b 93 bd
       -0.05337913 -0.094246544 -0.00878858 -0.07198156
0002c0 9f 3e 1f bd d6 76 8b bd ba ac 46 c0 a2 08 fa bd
       -0.03887808 -0.068097755 -3.1042924 -0.12208678
0002d0 28 1d e9 be c3 e7 15 be e1 79 84 3b 53 05 10 be
       -0.45530057 -0.14639191 0.0040428494 -0.14064531
0002e0 1b 6c 29 3f 8c 5f 22 c1 71 f5 24 be 67 9e 15 be
       0.6618058 -10.148327 -0.16109253 -0.14611207
0002f0 3f 4c da bd df ee e4 bd e5 12 14 c0 ef d8 d9 c0
       -0.10659074 -0.111783735 -2.3136532 -6.807731
000300 7b 03 92 bd 42 fc 40 41 43 69 60 40 99 ce 49 c1
       -0.0712957 12.061586 3.5064247 -12.612939
000310 dc 81 83 3c 38 65 01 be 17 e1 b6 be f8 2b 18 bd
       0.016053133 -0.12636268 -0.35718605 -0.037151307
000320 c9 91 9b bd f0 03 be bf be 11 54 bd 77 f0 14 40
       -0.07596166 -1.4844952 -0.051774733 2.3271768
000330 c6 32 10 be cc 17 06 be 8a 29 aa bd 15 ce 1b be
       -0.14081869 -0.13095015 -0.08308704 -0.15215333
000340 09 ba c6 3d 87 c8 31 be 95 37 a9 3c e0 e8 f0 3f
       0.09703452 -0.17361651 0.020656386 1.8821068
000350 b7 4c 0e be f3 f0 ac bd ed 17 31 be e5 0f 45 be
       -0.13896452 -0.08444395 -0.17294283 -0.19244345
000360 d6 d8 bf bd 36 82 a1 c1 f5 9a 6c 3e 62 00 03 be
       -0.0936753 -20.18858 0.23105986 -0.12793115
000370 8e 9d 4f c1 d3 82 08 be 95 96 17 bd df 8b b7 c1
       -12.9759655 -0.13331155 -0.03700884 -22.943296
000380 7c 09 d0 3f 7e 22 7e bd b9 01 8e bc fa 5f 0d be
       1.6252894 -0.062044613 -0.017334806 -0.13806143
000390 a7 37 bf bd 47 e1 ef bc 0c 01 d1 3b c5 1d 45 be
       -0.09336787 -0.029282225 0.0063782986 -0.19249637
0003a0 42 91 08 be 0c d8 28 3c 6e aa 83 c0 5a bb ea bd
       -0.13336661 0.010305416 -4.1145544 -0.11461516
0003b0 a3 58 67 bd 37 88 ba 3c 91 3e 83 bd 8b f8 24 bd
       -0.056481015 0.02277003 -0.06408418 -0.04027609
0003c0 ab 2d d7 c1 be a0 e7 bd 6f b6 12 be fc 01 a9 40
       -26.897299 -0.11309956 -0.14327405 5.281492
0003d0 93 6b e6 c0 0c 3b 08 be 50 80 6a bd 4e 53 cd 3e
       -7.2006316 -0.13303775 -0.057251275 0.4010262
0003e0 40 00 96 bd dd 97 d2 bd 71 71 31 be eb 34 90 3e
       -0.073242664 -0.10282872 -0.1732843 0.28165373
0003f0 fd b5 03 be b8 04 c6 bf 02 c3 6f 40 91 ef 44 bd
       -0.12862392 -1.547019 3.7462773 -0.04808003

layers.4.weight f4 [256, 256]
000000 f4 66 77 3d 38 c9 1f bc 57 ed a2 bd cc 3d 17 bd
       0.060400918 -0.009752564 -0.07955425 -0.03692417
000010 f9 6d 14 3c ce 2a b8 bd 52 61 0d bd c0 84 24 3c
       0.009059423 -0.08992539 -0.03451664 0.010041416
000020 1e 8d 1a bd 38 a8 bc bc 2d 15 35 bd 00 de e0 3c
       -0.037732236 -0.023029432 -0.044209648 0.027449608
000030 51 cf 5d 3c da ed 2e bd 7a 70 9d bd 9d 16 0c 3d
       0.013538198 -0.0427073 -0.07687469 0.034201253
000040 36 f8 bf bc a6 ba 51 3b f6 b0 43 bd 7e f5 6f 3d
       -0.023433786 0.003200212 -0.047776185 0.05858373
000050 80 f6 50 bc ae 69 6b bd cc 96 89 bd ee 7b 97 bd
       -0.012754083 -0.05747383 -0.06718215 -0.073966846
000060 44 f7 68 bd a5 40 90 bd b9 8b 1a bd 65 bb 0a bd
       -0.056876436 -0.0704358 -0.037730906 -0.03387012
000070 a7 46 be bd 00 7e a5 ba 3c 9c 9d bd e8 99 30 3c
       -0.092908196 -0.0012626052 -0.07695815 0.010778882
000080 00 a6 69 bb 02 e9 df 3c 39 e4 12 bd a8 2b 14 bd
       -0.0035651922 0.027332786 -0.03586218 -0.036174446
000090 8d 91 87 bd 28 53 16 bd fc 3e 50 bd 0d 7e e6 bc
       -0.066195585 -0.036700398 -0.050841317 -0.028136278
0000a0 5d 47 9d 3c 63 22 49 bd 72 1d 41 bd 54 87 72 bd
       0.019199068 -0.04910506 -0.047147222 -0.05921109
0000b0 90 36 0f bc 6a 46 59 3d 20 ca f3 bc 2b 45 00 3d
       -0.008741036 0.053045668 -0.029759467 0.031315964
0000c0 7e 7a 51 bd 7c b9 6c bd 9e e0 3e bd c1 dc 08 bd
       -0.05114221 -0.05779408 -0.04660093 -0.033413652
0000d0 53 94 f3 bc 23 6c 1c bb 5e ec 4e bd 26 13 28 bb
       -0.029733812 -0.0023868165 -0.050518386 -0.002564618
0000e0 e8 c9 58 bc ca bb 11 3d 84 7b 53 3d 68 08 76 3c
       -0.013231732 0.03557948 0.051631466 0.015016653
0000f0 f8 46 81 bc 32 9e b3 bb 93 ba 0e 3d ba 30 52 bc
       -0.01578091 -0.005481505 0.0348459 -0.012829
000100 4f 8c 11 bc f0 0b 1a 3c 74 94 d0 bc 89 21 d2 bc
       -0.00888355 0.00940226 -0.025461413 -0.025650756
000110 e0 8a fc bb c9 c5 05 be f0 1a a0 3b 22 27 1d bd
       -0.007706985 -0.1306373 0.0048860237 -0.038367398
000120 1c 25 fe bc a4 3c 2c bc b3 18 0e bd f8 3c 33 bc
       -0.031023555 -0.010512505 -0.034691524 -0.010939829
000130 e0 ac 09 3d cc 4a 8a bc e0 bc 3d bc b7 b7 48 b9
       0.033612132 -0.016881369 -0.011580676 -0.00019141925
000140 a0 68 17 3d 0d 92 0e bd b4 dc aa bc 04 b1 63 3d
       0.036965013 -0.034807254 -0.020857193 0.055588737
000150 2c 3f c2 bb c5 72 59 bd f4 59 38 bd e0 72 39 3c
       -0.005927941 -0.05308797 -0.04500766 0.011318892
000160 80 e4 98 bc ca 3b 0e 3d a4 04 02 be 20 22 15 bc
       -0.018663645 0.034724988 -0.12697083 -0.009102374
000170 b8 91 2c bc 92 58 77 bd 34 24 2e bd 35 82 7b 3b
       -0.010532789 -0.0603872 -0.042514995 0.003837717
000180 62 d9 b4 bc 84 21 08 bd 83 11 0d bd d1 17 38 bd
       -0.022076312 -0.033235088 -0.03444053 -0.044944588
000190 59 4d 8c 3b 3a 33 29 bd 36 15 03 3c e6 70 32 bc
       0.0042816815 -0.04130862 0.008000663 -0.010891175
0001a0 82 cd 40 3d 87 0c f2 3c d7 5f 74 bc f1 15 e5 39
       0.047070988 0.02954699 -0.014915428 0.0004369463
0001b0 34 c7 d9 bc a5 a0 c5 3c 1d 38 30 bd 77 e7 b4 bd
       -0.026584245 0.024124453 -0.043022264 -0.08833211
0001c0 ec d1 b0 3c 83 48 9e bc 54 09 9f 3c 2c 92 48 3d
       0.021584474 -0.019321686 0.019413628 0.048967525
0001d0 31 ce db bc 67 e3 9a 3a 99 48 0f 3c bc 53 e7 bc
       -0.026831718 0.0011817039 0.008745336 -0.02823817
0001e0 fa 61 2c 3d e8 4b 85 3c d8 a6 a5 3c 48 cd 59 bc
       0.042085625 0.016271546 0.020221159 -0.013293572
0001f0 0d 89 09 bd 72 85 22 bd c8 3a 75 3d 3c ac b5 bd
       -0.033577967 -0.039678045 0.05987051 -0.08870742
000200 9c f0 5a bd 38 75 24 3d 72 8e db bc fb e2 14 3c
       -0.05345212 0.04015085 -0.026801322 0.0090873195
000210 c6 df b1 bc 0d a3 22 3d d7 4f 31 bb 83 df 59 bd
       -0.021713149 0.03970628 -0.0027055645 -0.053191673
000220 60 2b 85 bc c0 98 31 bb 80 d4 32 bc ef 87 27 3d
       -0.016256034 -0.0027099103 -0.010914922 0.04090112
000230 88 e0 31 3c 60 6e 70 3d 02 8e 89 bd 54 58 6e 3d
       0.010856755 0.05869901 -0.06716539 0.058189705
000240 f3 36 5c bd d4 fb af bc 56 de 87 3b dc 8d 3e 3d
       -0.05376334 -0.021482386 0.0041463776 0.046522006
000250 78 d0 3f 3d 77 f3 4b bb 25 96 c0 3c 73 40 4d bd
       0.04682967 -0.0031120458 0.023509094 -0.05011029
000260 83 fb dd bd a0 82 bb bc d8 2f b1 bc a4 52 f7 bc
       -0.10838988 -0.022889435 -0.021629259 -0.030190773
000270 70 8a 85 bb 43 d4 28 bd 03 7a e6 3c 64 44 4a bd
       -0.004075341 -0.041218054 0.028134352 -0.04938163
000280 56 04 a9 bd 02 aa b3 bb f8 0e 66 bc a2 05 3e 3d
       -0.0825278 -0.005482913 -0.014041655 0.04639209
000290 1c 89 7f 3d 10 c7 6a bd 70 e1 71 3c 2d 78 b2 bd
       0.062386617 -0.057318747 0.014763221 -0.08714328
0002a0 7d 47 17 3c 6a 27 4a bd bc a1 42 bd 50 5e aa bb
       0.009233353 -0.049353994 -0.047517523 -0.005199231
0002b0 20 07 15 bc ad 0c b3 3c 66 3d eb 3c 86 73 53 3d
       -0.009095937 0.02185663 0.0287158 0.051623844
0002c0 15 7b 16 bd a0 a7 67 3c 60 d9 23 bd f0 24 1d bc
       -0.036738474 0.014139086 -0.040002227 -0.009591326
0002d0 e0 8a e0 3c 32 a0 0e bd 9e 3c 66 bd a4 87 6d 3d
       0.02740997 -0.034820743 -0.056210153 0.057990685
0002e0 4d 19 df bd 11 54 07 3d 60 66 0c 3c 11 41 91 bc
       -0.108934976 0.033039156 0.00856933 -0.017731221
0002f0 39 d0 10 bc d8 ed 8c bc 64 db 3b bd 56 dd 54 3d
       -0.008838707 -0.017203256 -0.045863524 0.051968895
000300 4a c8 87 3c f2 22 f5 bd d8 e3 b9 bd a6 6a b5 3c
       0.016574997 -0.11969556 -0.09076661 0.02214558
000310 5a b6 7e bd 51 cf 7a 3d 12 40 47 bd 94 25 8f bc
       -0.062185623 0.06123287 -0.048645087 -0.017473973
000320 57 bf 31 3d 5f 98 0b bd 9d 71 dd 3c 40 3b 74 bd
       0.043395367 -0.03408086 0.027031714 -0.059626818
000330 27 20 3f bd 46 48 14 3d 84 5b bb 3c dc 89 41 bd
       -0.046661522 0.036201738 0.022870786 -0.047250614
000340 e9 7b 9c bd a0 38 a9 3c 40 6c af 3b ba 4c 17 bb
       -0.076408215 0.020656884 0.0053534806 -0.0023086504
000350 e2 b5 88 bd 30 e1 88 3c c8 ea 3f bd 0c c3 f1 3c
       -0.066753164 0.01670894 -0.046854764 0.02951195
000360 ed 7d 42 bd 4f 82 69 bd 3e dc 09 bd ea 26 94 3c
       -0.047483373 -0.057009038 -0.033657305 0.018084962
000370 c2 47 05 3d 22 ef 1c bd 84 46 30 bd 20 5d 4c bd
       0.032539137 -0.038313992 -0.043036 -0.0498935
000380 62 2b 5a 3a c0 f3 9a bc 08 eb c5 3c 58 3b 17 bc
       0.00083225046 -0.018915057 0.024159923 -0.009230457
000390 98 74 67 3c 7e 27 87 bd a0 b8 a1 bc 2c 36 c1 bc
       0.014126919 -0.065993294 -0.019741356 -0.023585401
0003a0 e0 da 99 bc 32 8a 13 3d c8 47 93 3c a4 65 ea bc
       -0.018781126 0.036020465 0.017978564 -0.02861292
0003b0 d2 83 51 bd a0 bb 40 3b bf 84 1b 3d 5f b4 58 3d
       -0.051151104 0.0029408708 0.037968393 0.05290639
0003c0 03 6b 29 3c 1f ef 6d 3c 40 9c 13 bd 1b 30 0a 3b
       0.010340455 0.014522343 -0.036037683 0.0021085802
0003d0 4a fe 7d bd c8 fb 5e bc 68 18 2b bc 10 d9 6c 3d
       -0.062010087 -0.013609834 -0.010442831 0.057824194
0003e0 b4 32 68 bc 8b 75 5b bc c2 f4 7b bd 9c 57 7e bd
       -0.014172245 -0.013394724 -0.061512716 -0.06209527
0003f0 2a 8d 0a bd a7 42 99 bd 58 16 93 bd 80 3e b2 bb
       -0.03382603 -0.07483416 -0.07181996 -0.0054395795

layers.4.bias f4 [256]
000000 b4 f6 ed bd 81 4b 67 bd bc 53 3c bd 36 4e b5 c1
       -0.116193205 -0.05646849 -0.045978293 -22.663189
000010 10 34 17 c1 7b 6d 57 bd ac 9b 80 40 70 b3 58 bd
       -9.450211 -0.052594643 4.019003 -0.0529055
000020 90 97 0c be 39 05 05 c1 f6 f6 32 be fe 6d 49 c0
       -0.13729692 -8.313775 -0.1747702 -3.1473384
000030 88 6d 36 bd 0f 86 32 be 72 dd 4b c0 fd bd 4a be
       -0.04453805 -0.17433952 -3.185391 -0.19799037
000040 97 d3 7b bd 96 b4 91 c1 d4 e9 21 be 96 2c cf bd
       -0.061481085 -18.213177 -0.15811855 -0.10115926
000050 98 f0 d8 bf 59 c0 8f c1 2d 36 78 c1 79 9f c6 c0
       -1.6948423 -17.96892 -15.5132265 -6.206967
000060 bf fc 15 c1 0a c3 f0 c0 81 04 e4 3d df 56 db bf
       -9.374206 -7.5238085 0.111336716 -1.7135886
000070 a2 e6 ff bc f0 83 8b be 6e 23 9d 3b 8a 48 86 c0
       -0.031237904 -0.27249098 0.0047954833 -4.196355
000080 f2 51 5b c1 75 22 db c0 6c 8f 1e 3c 83 8e 98 c1
       -13.707506 -6.847956 0.009677749 -19.069586
000090 ec bb 6e c1 41 f0 0b 40 ad 24 00 c0 fe 2f ff bd
       -14.920879 2.186539 -2.0022385 -0.12460326
0000a0 e9 95 19 be db 0d f4 40 40 2d a9 41 f2 2d 0b be
       -0.14998592 7.6266913 21.147095 -0.13591745
0000b0 54 df a7 bd 35 ee 4f 40 e0 a6 d4 bd 5c bb 2a c0
       -0.08196893 3.248914 -0.103833914 -2.6676855
0000c0 8d 67 71 c0 14 df 0a 3f 96 30 97 bd 84 4e 58 bc
       -3.7719452 0.5424664 -0.07382314 -0.013202313
0000d0 79 52 56 3a b1 3d 14 c1 15 9a 02 c1 c4 db 39 be
       0.00081757415 -9.265061 -8.162618 -0.1815024
0000e0 1b fa 96 c1 9e ab 8a c0 7e ac 09 be 8b d5 80 3f
       -18.872122 -4.3334494 -0.13444707 1.0065168
0000f0 8b 3e 54 c1 b4 d1 c8 c1 67 3d 35 c1 06 8b 01 c1
       -13.265269 -25.102394 -11.327491 -8.096441
000100 8d 20 07 be 74 be 9d bd 11 d7 73 c1 0f a9 a4 3f
       -0.13196011 -0.07702342 -15.240006 1.2864093
000110 2b 58 01 be e9 a5 95 c0 82 99 bf bd af e7 d4 bd
       -0.1263129 -4.6765027 -0.09355451 -0.10395753
000120 54 38 94 c0 a9 9e ec c1 e6 5b e0 bc 3c 4b 0b be
       -4.631876 -29.57747 -0.02738757 -0.13602918
000130 77 03 71 c1 f2 af 10 3d b1 3c df 40 0c dc 6b c0
       -15.063346 0.035324045 6.9761586 -3.6853056
000140 1e f7 4a c1 4e 33 2e 3e d1 3d 01 3f 58 e3 3e be
       -12.685331 0.17011759 0.5048495 -0.18641412
000150 10 47 a9 c0 c5 40 1a c1 f8 33 a0 bd aa cf cd bd
       -5.2899246 -9.640813 -0.07822412 -0.100493744
000160 2d 60 3e c1 80 72 0d be 82 2e bd 40 82 43 0f be
       -11.89848 -0.1381321 5.911927 -0.13990596
000170 69 aa f7 c0 3b 8c 8e 40 81 b2 94 be 3f ab d9 bd
       -7.739552 4.454618 -0.29042438 -0.10628366
000180 90 39 08 bd dd 56 25 3f 0e 67 15 bd cd 75 a2 bd
       -0.03325802 0.6458567 -0.036475234 -0.07932625
000190 49 9b 9a bd f0 de 38 be 1d 33 88 c1 36 a3 72 c1
       -0.075491495 -0.18053794 -17.024958 -15.164846
0001a0 3a 14 a0 3d 87 bb 96 40 cc e7 05 be e1 33 c1 bd
       0.07816358 4.7103915 -0.13076705 -0.09433723
0001b0 d6 d8 eb c0 29 7a 39 40 4a 9f f0 bd 0c 6b 8f c1
       -7.370219 2.898081 -0.11749132 -17.927269
0001c0 9a 45 ff bd 77 48 3e c0 80 ff ca bc c7 90 9e bd
       -0.12464447 -2.973173 -0.024780035 -0.07742458
0001d0 24 3e d9 be 71 90 2b c0 0b 15 2c c1 09 3b f9 c0
       -0.42430222 -2.680691 -10.755137 -7.7884564
0001e0 9a b6 28 bd e3 27 94 c0 f8 e5 41 bd 85 8c a0 c1
       -0.041189767 -4.629869 -0.047338456 -20.068613
0001f0 68 42 39 3e 9f 04 52 bd 2a 15 c2 bd 94 8a e9 bd
       0.18091738 -0.05127394 -0.09476693 -0.11403385
000200 85 a8 1a 3f 97 3c 0c c1 30 e5 8d bd e6 57 5b bf
       0.6041339 -8.764792 -0.0692848 -0.85681
000210 f1 74 02 3f b3 ff 35 3d 2a e2 ae bf 57 5c cb 40
       0.5095969 0.044433307 -1.366277 6.355022
000220 ad c8 16 c1 7b 0c 1c be b2 29 c3 bd 35 a6 e2 bd
       -9.423993 -0.15239136 -0.09529437 -0.11066858
000230 57 05 2b 3f d2 64 b9 c1 72 7b c5 bd eb e5 1b c1
       0.6680502 -23.174229 -0.09642686 -9.743632
000240 2e 3f 8e 3b c7 a1 c3 c1 0f 0f 89 c1 df b4 ae c1
       0.0043410277 -24.453993 -17.132353 -21.838316
000250 25 e6 99 bc 84 a0 e4 bd 3a e5 ca 40 9b 76 32 bd
       -0.0187865 -0.111634284 6.3404818 -0.043570142
000260 ac c0 02 c1 fb 76 08 be 82 b2 99 bd 29 b1 57 bd
       -8.172039 -0.13326637 -0.07504751 -0.052659187
000270 20 2b af bd ca 72 13 be d5 da 59 3f f5 2f 05 bc
       -0.08553147 -0.14399257 0.85099536 -0.00812911
000280 43 1f be bc e2 4a 49 be 6e aa ec bd 0d 7c b1 bd
       -0.023208266 -0.19657472 -0.115559444 -0.08666239
000290 79 ef 09 c2 9e 12 da bd 1e 32 63 c1 01 50 fe bd
       -34.48386 -0.10648082 -14.199736 -0.12417603
0002a0 e0 e7 91 c1 ad 5a 7a c1 f8 93 39 bd a0 f9 58 c0
       -18.23822 -15.647138 -0.04530713 -3.390236
0002b0 95 24 74 bd a9 77 0d be d8 ac ef bd 82 c5 ef bd
       -0.0596052 -0.13815178 -0.11702889 -0.117075935
0002c0 79 ef 94 c0 fc a1 f4 bf e6 96 2d be a9 63 85 bd
       -4.6542325 -1.9111934 -0.16952094 -0.06513149
0002d0 c8 0e 51 bf 8e 9b a8 c1 5b 16 17 be fc 6c cb bf
       -0.8166318 -21.075954 -0.14754622 -1.5892634
0002e0 36 92 b2 bd 82 fe be bd 9d e8 48 c0 f4 70 21 be
       -0.08719294 -0.09325887 -3.1391976 -0.15765744
0002f0 06 21 8d c0 40 25 96 c0 a0 10 a3 3f 82 0a 80 bd
       -4.410281 -4.692047 1.2739449 -0.06252004
000300 3e 8b 08 c1 69 6b 93 bc af be 02 be ed af 0f c1
       -8.533995 -0.017995553 -0.12768053 -8.980451
000310 96 9e 8b c0 80 cb e5 3d bd 07 1e be 58 d4 cb c0
       -4.3631086 0.11220455 -0.1543264 -6.369671
000320 31 44 9e c0 73 64 53 c1 d3 e7 00 41 83 de 98 bd
       -4.945824 -13.212024 8.056598 -0.07464316
000330 f2 89 12 bd 84 ac cd c0 75 8d 37 bd bf d2 b3 c1
       -0.035776086 -6.427309 -0.04481264 -22.477903
000340 94 76 1f be f6 b9 ad bd 34 d1 09 bf 11 45 a0 bd
       -0.15572578 -0.08482735 -0.53834844 -0.07825673
000350 fa ad 3f c0 68 f2 47 c1 65 a6 31 41 50 c9 96 c1
       -2.9949937 -12.496681 11.103124 -18.848297
000360 dd 70 12 be d1 9b f5 bd fe de ff bd 57 d9 f1 c1
       -0.14300866 -0.1199261 -0.12493704 -30.231123
000370 da 78 7b be 88 76 32 c0 17 a2 fc 3e 46 6e a7 bd
       -0.2455782 -2.7884846 0.49342415 -0.0817533
000380 3e 73 ef bd 17 7b 3f bd b9 69 02 c1 34 23 a6 bd
       -0.116919026 -0.046748247 -8.150811 -0.08112183
000390 78 35 ed c1 2d 4e e2 bd fc b7 cb bf 3f f0 73 c1
       -29.651108 -0.11050067 -1.5915523 -15.246154
0003a0 77 ad 2d c1 3d b6 d5 bb c8 ba 8f 40 d0 8a 31 3f
       -10.85485 -0.0065219686 4.4915504 0.69352436
0003b0 88 de 58 c1 06 26 d4 bd 8f b3 21 be 19 69 0c be
       -13.554329 -0.10358815 -0.15791152 -0.13711967
0003c0 17 a3 3a bd 5f 67 e9 bd 85 be 31 c1 58 55 b1 bd
       -0.04556569 -0.113966696 -11.109014 -0.08658856
0003d0 29 0f 15 be 60 21 26 be 8b a1 0d be af c4 c8 bd
       -0.14556564 -0.16223669 -0.13831155 -0.098031394
0003e0 ef ed e4 3b 23 71 6d c1 da 0a fa b9 d4 80 0f bf
       0.0069863717 -14.840121 -0.000476918 -0.5605595
0003f0 18 b5 0d c1 f7 03 6c c0 8a 0e 07 c0 41 15 43 bc
       -8.856712 -3.687742 -2.1102624 -0.011906923

layers.6.weight f4 [128, 256]
000000 9e 81 ac 3c 6f 04 1f bd 7c 69 5c 3c 67 2f 9a c1
       0.0210579 -0.038822588 0.013452884 -19.273146
000010 e9 b6 82 c0 7a 80 78 bc 31 77 58 3e 44 22 a4 3c
       -4.084828 -0.01516735 0.21139218 0.02003587
000020 63 0d a1 bf 6b d0 9a c0 90 26 16 bd da fc e2 3d
       -1.258221 -4.8379416 -0.03665787 0.11083384
000030 d1 7d 95 ba 5c 0e 70 3d 40 29 82 bf 89 36 a0 bd
       -0.0011405294 0.058607444 -1.0168839 -0.07822902
000040 38 60 70 bc a2 cc 05 3f df 5e 0f 3d 73 8e 34 bd
       -0.014671378 0.5226537 0.035002586 -0.044081163
000050 b7 fb c0 bd 49 64 4d bf 25 ab 0d c0 ca 00 0c c2
       -0.09423011 -0.8023115 -2.2135708 -35.00077
000060 5f eb 8d c1 01 9c af c0 45 81 c5 bd 69 66 f8 3e
       -17.739927 -5.4877934 -0.09643797 0.48515633
000070 39 dc 43 3c 2e 10 b5 3d 61 d9 2b 3a fa 2d 1f bf
       0.011954361 0.08840977 0.00065555243 -0.6217953
000080 73 5c c7 bd 49 87 5c c0 97 af f5 bc ed f9 ae bf
       -0.0973443 -3.4457572 -0.029990954 -1.3670021
000090 0e a9 48 c0 89 c6 15 bd 56 aa 2f bf f1 de 0f 3c
       -3.1353183 -0.03656629 -0.68619287 0.008781181
0000a0 5f 50 f1 3c 7f 20 57 3e e6 bd d9 c0 1b ff 0e bd
       0.02945727 0.2100849 -6.804431 -0.034911256
0000b0 1f 90 96 3d 7c 49 39 bf da fc 97 bc ee 7f 16 bf
       0.07351708 -0.72377753 -0.018553186 -0.58788955
0000c0 2b ff b7 3d 83 de c6 bf 38 3f c0 3a 11 0b 8f bd
       0.08984216 -1.5536655 0.0014667278 -0.069845326
0000d0 7a 62 f2 3c 30 eb ef 3d 6b cb 26 bf 1b 25 65 3d
       0.029587973 0.1171478 -0.6515414 0.05594359
0000e0 a1 ab 7a bf 81 ea 0d 3f 69 42 f0 bc 33 e1 63 bf
       -0.97918135 0.5543595 -0.029328542 -0.890155
0000f0 ce a1 d8 3f ed 39 27 3e 79 3f 44 bf 66 3d ab bf
       1.6924379 0.1633069 -0.7665935 -1.3378112
000100 ef 80 c9 3a 14 56 fb bb fd d9 9c bf 93 70 33 3f
       0.0015373508 -0.0076701734 -1.2254025 0.7009365
000110 cd bf 86 3d 87 3a 8e c0 70 70 d5 bc 5e 5e 09 ba
       0.06579552 -4.4446445 -0.026054591 -0.0005240197
000120 cf 56 cb be 6a 9f 6d c0 44 ec 8e bc f3 41 3d bd
       -0.39714667 -3.7128549 -0.017446645 -0.046205472
000130 fa 74 d0 bf b3 66 2f 3d f4 1a b1 bf 5e 6e 96 c0
       -1.6285698 0.04282255 -1.383635 -4.7009726
000140 21 58 17 c0 f7 ab 2a bf d0 68 75 3f 52 9e 4e bd
       -2.364754 -0.6666865 0.95863056 -0.050443955
000150 eb 54 7e c1 18 cf 87 3d 70 1d 04 3c 9d b4 50 bd
       -15.895732 0.06631297 0.008063659 -0.050953496
000160 0d 77 69 bf ff 5b a5 bd 18 e6 09 c1 27 33 8c bb
       -0.9119728 -0.080741875 -8.618675 -0.004278559
000170 c2 86 36 3e 9d 40 ac c0 49 35 6e 3f 4a 54 aa 3d
       0.17824844 -5.3828874 0.93050057 0.08316858
000180 a1 c3 c0 bd b2 28 90 be 56 d4 66 bd d0 a0 38 bd
       -0.09412313 -0.28156048 -0.056354843 -0.045075238
000190 39 af 86 3b c9 ee 00 bd 46 aa c2 3f 01 8d a3 be
       0.0041102436 -0.031477723 1.5208213 -0.31943515
0001a0 33 e8 19 bd 7b 3d 8a 3e 50 69 2c 3d c8 99 b2 3c
       -0.037574958 0.2700003 0.04209262 0.021801844
0001b0 95 af 2e c1 59 86 90 bf 7a 27 da bc f2 a8 78 3d
       -10.917867 -1.1291 -0.026630152 0.060707994
0001c0 d5 ce 92 3a 8e 6c e4 c0 47 d7 82 3d a2 c7 a3 38
       0.0011200557 -7.1382513 0.06388717 7.80963e-05
0001d0 62 6b c1 3d a6 c9 54 3e 6b cd 9a bc ca be 21 3e
       0.0944431 0.20780048 -0.018896779 0.15795437
0001e0 76 88 88 3c 45 56 e4 bf 74 c5 1c bb b0 4f b1 c1
       0.016666632 -1.7838827 -0.0023921402 -22.16391
0001f0 53 a5 87 bd 90 2f 4e 3d 6f b6 c1 bd 73 44 b6 bb
       -0.0662333 0.050338328 -0.094586246 -0.005562359
000200 22 13 77 c0 a4 e1 1c c1 01 4b 01 3d d8 23 8c 3d
       -3.8605428 -9.805088 0.03156567 0.06842774
000210 15 10 9e 3f 7b bd cb bf 92 c5 1a bd a2 38 5c be
       1.2348658 -1.59172 -0.037786074 -0.21505979
000220 6c 0b 63 c0 dd 2b a8 3c 37 d8 3e 3d e3 43 b6 3c
       -3.5475721 0.020528728 0.046592917 0.022249168
000230 a9 ca 59 3f 2e 08 04 bf 87 d1 2d bd eb e4 db c0
       0.8507486 -0.5157498 -0.04243615 -6.871694
000240 27 30 fb bc a5 25 4f c0 49 e1 c4 be e4 58 be bf
       -0.03066261 -3.2366726 -0.3845313 -1.4870877
000250 88 fa 8f 3d 5b f8 38 bd 83 0c 4c bf b4 b2 8c 3b
       0.07030207 -0.045158725 -0.7970659 0.004293764
000260 d9 70 24 3e ae cd 1e bd 40 0b cb bc cc 8b 8d bd
       0.16058673 -0.03877037 -0.024785638 -0.0691143
000270 93 0c ff 3d c0 24 21 bd 84 09 30 3e aa d8 ae bc
       0.1245357 -0.03934169 0.1719113 -0.021343548
000280 4a 2a 33 3c 88 96 8d 3c 55 ae 77 bc 13 d4 cc 3c
       0.0109353755 0.017283693 -0.015117248 0.025003469
000290 f2 c9 bb c1 22 8d 08 bd 16 0d b8 be 59 98 d8 3b
       -23.473606 -0.03333772 -0.35947484 0.006609958
0002a0 72 c8 53 3f f1 c0 15 c0 5f c2 ad 3c 3f 3b 81 c1
       0.8272773 -2.3399012 0.021210847 -16.153929
0002b0 ca 57 19 3d 1b d3 6f bd f5 21 93 3d 0d ae 8b bd
       0.037437238 -0.058550935 0.07184211 -0.06820307
0002c0 e0 02 0c 3d a7 01 4d c1 5e 4d a5 bd 12 b3 0d bd
       0.03418243 -12.812903 -0.08071397 -0.034594603
0002d0 c3 bf a4 3f 6a 5e de c0 e7 83 5e bd ed 56 27 3d
       1.2871021 -6.949025 -0.05432501 0.040854383
0002e0 63 88 70 bd 06 fb 3a bd ab 1e 65 3e 45 3f a3 bc
       -0.05872382 -0.04564955 0.2237498 -0.01992763
0002f0 2d 05 36 bd 44 d4 c0 c0 fd 04 9c be 97 28 34 bd
       -0.04443853 -6.0259113 -0.30472556 -0.043984022
000300 3d 82 dd c0 09 0b f4 bc 71 4a 66 3d 8a fc f4 3e
       -6.922148 -0.029790418 0.056223337 0.47848922
000310 5b 43 73 bd eb 78 fd 3d 24 da 0a 3d 15 8d 17 c1
       -0.059390407 0.12376579 0.03389944 -9.471944
000320 54 c8 a9 c0 ed 05 56 3f 05 a6 d0 c1 65 c0 d3 3c
       -5.305704 0.8360279 -26.081064 0.025848577
000330 bf be 65 3c cf f6 77 3f 28 36 24 be dd 45 1c c1
       0.014022528 0.96860975 -0.16036284 -9.767056
000340 4c 6e f7 bb a4 58 c7 3c 7b e4 c1 bd c5 21 c6 bb
       -0.00755099 0.02433426 -0.09467407 -0.006046506
000350 e1 92 e8 be 4f 77 02 bf a6 e7 0b 3d c7 14 91 c0
       -0.4542456 -0.509633 0.034156464 -4.5337863
000360 23 13 27 3c f0 80 b4 3c 23 1e 53 bd 63 d9 f6 bf
       0.010197434 0.022034138 -0.051542412 -1.9285091
000370 75 3e 21 3e cd b3 62 3c ff dc 4f c0 f1 d3 e4 3c
       0.15746482 0.013836813 -3.2478635 0.027933093
000380 c8 9a 76 3c e5 c3 27 bd 18 44 e5 3e 1f 39 00 bd
       0.015051551 -0.040958304 0.44778514 -0.031304475
000390 44 b6 b5 3e ac 55 a8 3d 43 f6 4c 3e 8a 93 0d c1
       0.3549062 0.082194656 0.20015816 -8.84852
0003a0 2a 68 06 c1 25 e7 01 3d f5 02 da be c8 ce 6f c0
       -8.400431 0.031714577 -0.4258038 -3.746996
0003b0 87 18 19 c1 30 7c 2c bd d5 5b 50 3d 72 53 c4 3c
       -9.568488 -0.042110622 0.050868828 0.023965571
0003c0 23 f2 74 bd bb 6d 52 bd a2 e0 3d c1 11 30 90 3d
       -0.059801232 -0.05137418 -11.867342 0.07040418
0003d0 c1 98 da bd ef 41 a8 3b 9b 56 98 3c e0 1b 85 3c
       -0.10673667 0.005134813 0.018595984 0.016248643
0003e0 40 96 d2 3c ef 16 1f 3f 70 78 8d bc b9 64 bf be
       0.02570641 0.6214437 -0.017269343 -0.37381533
0003f0 f7 96 c4 bf 6e bd 19 bf b6 67 5c 3e ba de 50 3b
       -1.5358571 -0.6005467 0.21523938 0.0031871037

layers.6.bias f4 [128]
000000 ff ea b3 c0 7b 3a 86 c0 b0 27 a0 be 8b a5 73 bf
       -5.622436 -4.1946387 -0.3128028 -0.95174474
000010 ad 84 17 3f 6f 5a 59 be 99 85 ad 3f 4b 1d 9c be
       0.5918682 -0.21225904 1.3556396 -0.304911
000020 37 f9 70 c0 50 99 dd c0 3a a6 32 c0 30 7b a2 3e
       -3.7652109 -6.924965 -2.7913957 0.3173461
000030 8d c6 81 c0 0b d5 39 3f c8 e6 f5 bf 45 cf 8e bf
       -4.055487 0.725907 -1.9211054 -1.1157004
000040 9f cf f5 bf 2c e4 93 be 70 86 c8 3f 0a 24 04 3f
       -1.9203986 -0.2888502 1.5666027 0.5161749
000050 aa 04 dd bf 2f 18 6d 3f 1b ce 4a bf 07 d9 15 3f
       -1.7267048 0.92615026 -0.7922074 0.5853428
000060 5c 1e a9 bf 9b 7e 15 3f 52 a7 ad c0 64 ed b9 bf
       -1.321239 0.5839631 -5.426675 -1.4525571
000070 2e 98 05 bf 7c b4 1e c0 e9 79 e7 3d ad 6a a8 be
       -0.5218533 -2.479766 0.113025494 -0.32893887
000080 8e ba ae be 7d 09 40 be 54 0c ae be c4 4d 6d be
       -0.34126705 -0.1875362 -0.3399378 -0.23174196
000090 ea 0d 62 be 51 63 3b c1 12 b1 b3 be 08 24 8e c0
       -0.2207562 -11.711747 -0.3509603 -4.4418983
0000a0 b7 d4 a0 bf f3 f6 d5 3e ea 2a 8e be e1 1e 52 3f
       -1.2564915 0.4178997 -0.27767116 0.8207837
0000b0 f9 89 fb 3e 21 ca 86 c0 9e 00 20 bf 15 c1 e2 be
       0.49128702 -4.212174 -0.6250094 -0.44287935
0000c0 9c 33 38 be 16 47 10 bf a2 1c c9 bf 10 a9 07 bf
       -0.17988437 -0.5635847 -1.5711863 -0.52992344
0000d0 5c 12 1f bf c3 c1 24 bd 05 d3 3f c0 19 98 a7 be
       -0.6213739 -0.040223848 -2.9972546 -0.3273323
0000e0 e9 5b fb bf 4b 00 f1 be 8a 7c fb bf 6d 89 4d c0
       -1.9637424 -0.47070536 -1.9647381 -3.2115128
0000f0 01 f5 4d c0 ed 95 b3 c0 b5 77 a4 3e 8b 28 1f be
       -3.2180789 -5.6120515 0.3212258 -0.1554281
000100 4b 8b 22 bf 83 d5 54 3e 4d 63 fa c0 4a c6 57 be
       -0.63493794 0.20784573 -7.8246217 -0.21071735
000110 b7 cc 42 3e ed ee e0 bc db bc 3a be a8 d0 b9 bf
       0.19023405 -0.027457679 -0.18236105 -1.4516802
000120 bb f6 88 be b4 3f 6b bf b9 ed d4 be fd 33 c4 c0
       -0.2675074 -0.9189408 -0.41587618 -6.131346
000130 bc 8b cc 3e 45 d1 da c0 6f 4a 83 be e0 93 0a c1
       0.3995036 -6.8380456 -0.25642726 -8.661102
000140 0b 9d 89 bf b7 d5 df bc 52 29 8c c0 8c ed 5b c1
       -1.0751051 -0.027323587 -4.380044 -13.745495
000150 06 32 04 bf e8 69 61 c0 35 6b 73 be 88 9a 53 c0
       -0.5163883 -3.522089 -0.23771365 -3.3063068
000160 28 7a ce bf 3a f1 c3 bf 38 93 8e c0 6e 98 ed bf
       -1.6131029 -1.5307992 -4.455471 -1.8562143
000170 16 90 4b c1 b6 c4 b5 c0 ce 38 c4 be 09 61 89 be
       -12.722677 -5.6802626 -0.3832459 -0.26831844
000180 7f fb 9a be 8b 32 d6 be 63 bc 5d c0 cd cc 5c 3e
       -0.3027 -0.41835436 -3.4646232 0.215625
000190 6d 42 d4 3e 99 39 dd be 0b f8 bf be 4e 40 a9 be
       0.4145693 -0.43208006 -0.3749393 -0.33056873
0001a0 c9 d1 bc be 4a 61 68 3e ef bc a3 c0 52 b9 0c c1
       -0.36878803 0.22693363 -5.116813 -8.795244
0001b0 5f 79 1d c1 25 88 b7 bd d1 60 03 c1 93 3d 0b c1
       -9.842132 -0.089615144 -8.211137 -8.702533
0001c0 e9 1e 5d bf 8a 18 43 3f 4d 91 4e 3f 7d 75 c7 be
       -0.8637529 0.7620932 0.8069046 -0.38956824
0001d0 c9 cc d7 c0 ff 06 67 c0 a9 ed b6 be 00 9c 9a c0
       -6.743748 -3.609802 -0.35728195 -4.831543
0001e0 43 df d8 be eb fb 4b be 00 65 92 c0 8c f5 a1 bf
       -0.42357835 -0.19920318 -4.574829 -1.265306
0001f0 1c 72 ca be 82 a7 19 bf e3 c0 d7 be a3 11 7b 3f
       -0.39540184 -0.6002122 -0.42139348 0.98073786
