Simulation/saved_data/models/model_mzm_mzm_pm_attempt_300k_lets_try_again8x128_256_256_128_11_ZeroMean.pth (torch, 542868 bytes, 10 tensors)

layers.0.weight f4 [128, 8]
0	0x3cc5bbbf	0.024137376
1	0x3b462a8a	0.0030237758
2	0x3c94addb	0.018149307
3	0x3f8b0503	1.0860904
4	0xbc1103c3	-0.0088509945
5	0xbf8a30aa	-1.0796101
6	0x3c336498	0.010949276
7	0xbc2fd5bf	-0.010732113
8	0x3b064ed9	0.0020493774
9	0xbea1e471	-0.316196
10	0x3c8f0de7	0.017462684
11	0x3a5f213c	0.0008511727
12	0xbb596fd1	-0.003317822
13	0xba547f3c	-0.00081061176
14	0xba30ba33	-0.0006741613
15	0x3ec426cc	0.3831085
16	0xbdff0c0a	-0.12453468
17	0x3c867f6f	0.016418187
18	0x3ccdbe6d	0.025115216
19	0x3f0cee3c	0.55051017
20	0x3c2f3024	0.01069263
21	0xbf102fb4	-0.5632279
22	0x3cabf509	0.020990865
23	0xbc60b56d	-0.01371513
24	0xbb62f596	-0.0034631244
25	0xc0977126	-4.732562
26	0x3d7e1d6f	0.06203979
27	0xbbff812e	-0.007797382
28	0xbc967dbb	-0.0183705
29	0x3c2df437	0.010617307
30	0xbad98927	-0.0016596661
31	0x3c456ae4	0.0120494105
32	0xbefdae57	-0.49547073
33	0xbe5a8d6d	-0.21343012
34	0xbe9cd783	-0.30633172
35	0xbd2eb9bc	-0.0426576
36	0xbe344746	-0.17605314
37	0xbdcf63e0	-0.101264715
38	0xbda98c21	-0.082786806
39	0xbd930e92	-0.071805134
40	0xc053188c	-3.2983732
41	0xbf589a6a	-0.8461062
42	0xc03a1d95	-2.9080555
43	0x3cfc5686	0.030802976
44	0xbf4a6362	-0.79057896
45	0xbefdd19e	-0.49573988
46	0x3ee048e1	0.43805602
47	0xbe26cbdd	-0.16288705
48	0xbf1291d0	-0.5725374
49	0xbe8d5d1c	-0.276101
50	0xbe917afc	-0.28414142
51	0xbd5a8c28	-0.05335632
52	0xbe2b54fd	-0.16731639
53	0x3d860b72	0.06545152
54	0xbe81bd23	-0.25339612
55	0xbe0e4447	-0.13893233
56	0xbe2b7d45	-0.16747005
57	0xbc5dc875	-0.013536562
58	0xbec05d54	-0.37571204
59	0xbe6c2c23	-0.23063712
60	0xbc7e1565	-0.015508031
61	0x3f30d400	0.69073486
62	0xc066ce5f	-3.606346
63	0x3d23bc73	0.03997464
64	0xbe80ca06	-0.25154132
65	0xbe8a50fe	-0.27014917
66	0xbdb77fbd	-0.08959911
67	0xbdd9a1b8	-0.106265485
68	0xbdfa9323	-0.12235095
69	0xbdafc990	-0.08583367
70	0xbe272a0a	-0.1632463
71	0xbd934ed3	-0.07192769
72	0xbea159b7	-0.3151376
73	0xbd4f30fe	-0.050583832
74	0xbc44104d	-0.011966777
75	0xbd13dc4d	-0.036098767
76	0xbd827e15	-0.063717045
77	0xbda3ff5d	-0.08007691
78	0x3dad424a	0.08459909
79	0xbd1e0567	-0.03857937
80	0xbfd84ec6	-1.689904
81	0xbf2013b4	-0.62530065
82	0xbff9b32b	-1.9507803
83	0x3fa393e1	1.2779504
84	0xbf126580	-0.57186127
85	0x3e0958fa	0.13412848
86	0xbdd45c07	-0.10369115
87	0xbe14b05f	-0.14520405
88	0x3f38828f	0.72074217
89	0xbe998bce	-0.29989475
90	0xbfd774f8	-1.6832571
91	0x3b84728c	0.0040419754
92	0x3b4fba89	0.0031696877
93	0x3b88511e	0.0041600605
94	0x3b1705fe	0.0023044343
95	0xbb10c1bc	-0.002208813
96	0x3dc42809	0.095779486
97	0xc057e133	-3.37312
98	0xbfe5f288	-1.796464
99	0x3f1ad39f	0.6047916
100	0xbdc76b23	-0.097372316
101	0xbfa8df5c	-1.3193164
102	0xbf09ce16	-0.5383009
103	0xbe8a041e	-0.26956266
104	0xc0ca1b07	-6.315799
105	0xc069d7b5	-3.6537907
106	0xc11fa4df	-9.977752
107	0xc0354cbe	-2.832809
108	0xc0018ed4	-2.0243425
109	0x401414b8	2.3137646
110	0xc0fac541	-7.836579
111	0x3fc1e62a	1.5148365
112	0x3e2e28bb	0.17007725
113	0xbf493883	-0.78601855
114	0x3b773b41	0.0037724527
115	0xbb9a3f7c	-0.004707275
116	0xbc133a55	-0.008986075
117	0x3df6bf11	0.12048162
118	0xc0eb2858	-7.348675
119	0xbcb2de53	-0.021834528
120	0xbf866f0a	-1.0502636
121	0x3d2578f5	0.040398557
122	0x3df5c48b	0.12000378
123	0x3c785f14	0.015159387
124	0x3b979902	0.0046263942
125	0xbc9be762	-0.01903123
126	0x3f80982f	1.0046443
127	0xbb79c1b4	-0.003810984
128	0x3dc77aa4	0.09740189
129	0x3ce21db0	0.027602047
130	0x3da33967	0.07969933
131	0x3f5e507f	0.8684158
132	0xbc0a1a42	-0.008429112
133	0xbf59237a	-0.8481976
134	0xbd173b2f	-0.036921676
135	0xbb4e602f	-0.0031490435
136	0x3c4fa95c	0.012674656
137	0x3d2adb27	0.041712906
138	0x3decfffd	0.115722634
139	0x3b570b2a	0.003281305
140	0xbe67639a	-0.22596589
141	0xbdfe4eb3	-0.124173544
142	0xbd68c51d	-0.056828607
143	0xbe8c1d05	-0.2736589
144	0x3d411389	0.04713777
145	0xbf38864b	-0.72079915
146	0xbda3c9d9	-0.07997484
147	0x3d061ee3	0.0327443
148	0x3d830714	0.063978344
149	0xbe9cf274	-0.30653727
150	0xbe8fc62b	-0.28080878
151	0xbe4bf70a	-0.19918457
152	0xbdfe1db6	-0.12408011
153	0xbdd73187	-0.105074935
154	0xbd37e6f6	-0.044897996
155	0xbd86ff4a	-0.06591661
156	0xbe6f0335	-0.23341067
157	0xbd2343ab	-0.039859455
158	0xbdf6da3b	-0.12053343
159	0x3e242cc1	0.16032697
160	0x3bcbd669	0.006220628
161	0x3b1af065	0.0023641821
162	0x3b407ead	0.002937238
163	0x3b4e3836	0.003146661
164	0x3f877f6d	1.0585762
165	0xbf86c895	-1.0529963
166	0xbafd2c07	-0.0019315489
167	0x3b55d71a	0.0032629431
168	0xbc4fbf42	-0.012679877
169	0xbdfd922a	-0.12381394
170	0xbc6c86b5	-0.0144364135
171	0x3ba719aa	0.005099495
172	0x39ad81f7	0.00033093963
173	0xbb77f61f	-0.0037835909
174	0x3b80797e	0.003920733
175	0x3f8b7cf9	1.0897514
176	0xc1051c49	-8.319406
177	0xc06b8445	-3.679948
178	0xc0a426fc	-5.129759
179	0xbc49b79f	-0.012311845
180	0x3f639cc2	0.8891107
181	0x3ce3e34c	0.027818345
182	0x3eb132df	0.34609124
183	0xbdc4d969	-0.0961178
184	0xbc2b621a	-0.010460401
185	0xbb90436e	-0.0044025695
186	0xb9f136a2	-0.00046007807
187	0x3ba901c6	0.005157682
188	0x3b8490b8	0.004045572
189	0xbb821aea	-0.0039704936
190	0xbff38890	-1.902605
191	0xba50dd60	-0.0007967558
192	0xbdbdcbd2	-0.09267391
193	0xbd8d093d	-0.06886528
194	0xbdb197e2	-0.086715475
195	0xbd33f439	-0.04393408
196	0xbdeff666	-0.11716919
197	0x3a0f7217	0.0005472018
198	0xbd119ef7	-0.03555199
199	0xbdc8771c	-0.09788343
200	0xbe81d6cc	-0.2535919
201	0xbe68a5ea	-0.22719541
202	0xbde66820	-0.11250329
203	0x3c6dd6e0	0.014516562
204	0xbe1c61e6	-0.1527172
205	0xbde60d3e	-0.112329945
206	0xbd1977c0	-0.037467718
207	0xbe6a83b5	-0.22901805
208	0x3cc8e2de	0.024522241
209	0xbb7c7a6e	-0.0038525122
210	0xbd2a4023	-0.04156507
211	0x400345a2	2.051125
212	0xbbf5bb5d	-0.007499142
213	0xc0016992	-2.0220685
214	0xbb8a3ea6	-0.004218894
215	0x3bdcccdf	0.0067382897
216	0xbd3517b6	-0.044212066
217	0xbd204f53	-0.03913815
218	0xbd3eefa4	-0.046615258
219	0x3c581e3a	0.0131908
220	0xbd0bcb0b	-0.034129184
221	0xbdb28858	-0.08717412
222	0x3cb513f4	0.022104241
223	0xbc9f1323	-0.019418305
224	0xc1702925	-15.010045
225	0xbf388c6a	-0.72089255
226	0xbfbbfa2a	-1.4685719
227	0x3dbe7db2	0.09301318
228	0xbd362291	-0.04446656
229	0x3e76baf0	0.24094748
230	0x3ca1d1cd	0.019753361
231	0xbd44d2e8	-0.0480527
232	0xbf51d8ac	-0.8197124
233	0xc014c96d	-2.324794
234	0xbf8245f1	-1.0177594
235	0xbedd15d0	-0.43180704
236	0x3ce15c95	0.027509967
237	0xbea7451f	-0.32669923
238	0x3e09e0f1	0.13464715
239	0xbe89c6a9	-0.26909378
240	0x3e135b7a	0.14390364
241	0xc098963c	-4.768339
242	0x3f300957	0.6876425
243	0xbcbfcc60	-0.023412883
244	0x3c3ff19c	0.011715319
245	0xbcae321c	-0.021264128
246	0xbcc56faf	-0.024101106
247	0x3c31cb37	0.010851673
248	0xc0575de5	-3.3651059
249	0x3f2be28e	0.6714257
250	0xc030a00f	-2.7597692
251	0xc0f02963	-7.505052
252	0x3d667cc4	0.05627133
253	0x3e9253fd	0.28579703
254	0xc05b5115	-3.4268239
255	0xbf7d790b	-0.9901282

layers.0.bias f4 [128]
0	0xbd85d8a2	-0.0653546
1	0xbf1f90e9	-0.6233049
2	0xbfb04a55	-1.3772684
3	0x3feeda66	1.86604
4	0x3f3f0e8b	0.74631566
5	0x4011917e	2.2745051
6	0x3fd0d817	1.6315945
7	0xc0038455	-2.054952
8	0x3f18f7bd	0.5975302
9	0xbed1930c	-0.409325
10	0xc04c6e88	-3.1942463
11	0xbd9b6f5e	-0.07589601
12	0x3fc3f4e9	1.5309116
13	0x3f821acd	1.0164429
14	0x3f83a7b1	1.028555
15	0xc0c219c4	-6.065645
16	0xc067e9ab	-3.623637
17	0xbea19859	-0.31561545
18	0xbe202250	-0.15638089
19	0xbf99bf1a	-1.2011445
20	0x3c8b4538	0.01700078
21	0xc0e480af	-7.1407084
22	0x3f9cb244	1.2241902
23	0x407077df	3.7573164
24	0x3e2ca094	0.1685813
25	0x3e4b16ba	0.19832888
26	0xc0cfbb7d	-6.4916368
27	0xbe81bc64	-0.25339043
28	0x404acaa1	3.1686175
29	0x40646274	3.568509
30	0xbe09096e	-0.13382503
31	0x408a7b48	4.327549
32	0x40554a82	3.3326726
33	0x407cb332	3.9484372
34	0xbec9c839	-0.3941057
35	0xc0f3822e	-7.609641
36	0xbf7b5788	-0.9818044
37	0x40a3157a	5.0963717
38	0xbe681fff	-0.22668456
39	0xc14359cb	-12.209422
40	0x405e1199	3.469824
41	0x3fea6591	1.8312246
42	0x3fb4e1dc	1.4131427
43	0xc046bb61	-3.1051867
44	0xc04a7aa1	-3.1637347
45	0xc04c6bc7	-3.1940782
46	0xc068cf2a	-3.6376443
47	0x3fadac9c	1.3568301
48	0x3e62c27c	0.22144502
49	0xbedfe0eb	-0.43726286
50	0x3f94e810	1.163332
51	0xbae92ae4	-0.0017789272
52	0x410ae4c2	8.680849
53	0xc117ccb0	-9.487473
54	0xbf9a499c	-1.2053714
55	0xbdb5d5f8	-0.08878702
56	0xbda4bf5a	-0.0804431
57	0xc0682d35	-3.6277592
58	0x40dd953b	6.9244666
59	0xc10f9f90	-8.976456
60	0x3ddaf551	0.10691322
61	0xc09f7637	-4.9831805
62	0x3fbf0ae7	1.4925202
63	0xc0a3ca3e	-5.118438
64	0x3fe13818	1.7595243
65	0xc0c77f80	-6.234314
66	0xbe2573fd	-0.16157527
67	0xbfbc61b1	-1.4717313
68	0xbe08c53d	-0.1335649
69	0xbe5f7194	-0.2182067
70	0xbffc2783	-1.9699558
71	0x3f04f758	0.51939917
72	0xbeb76c05	-0.358246
73	0x402665e0	2.599968
74	0x401fd1ef	2.4971883
75	0xbe09b60a	-0.13448349
76	0x3f9d21d4	1.2275949
77	0x3f926ac2	1.143883
78	0x3f35e4a9	0.7105203
79	0x40a9bcc0	5.304291
80	0x40563781	3.3471377
81	0x403568cb	2.834521
82	0xbea6710b	-0.3250812
83	0xc0e56b4a	-7.169347
84	0xc0d36db5	-6.607142
85	0x3ed25cce	0.4108643
86	0x3dfc90fb	0.1233234
87	0xbe8ad5df	-0.27116296
88	0x4086e88a	4.215886
89	0x40161619	2.3450987
90	0x406bdcb1	3.685345
91	0x3e9e0220	0.30860996
92	0xc05c0f6f	-3.438442
93	0x3ec0a3a4	0.37624848
94	0x3fe62934	1.7981324
95	0xc1115a72	-9.084581
96	0x3fa1766b	1.2614263
97	0xbf522778	-0.82091475
98	0x3ff7482a	1.9318898
99	0x403c2fee	2.9404254
100	0xbfc4133e	-1.5318372
101	0x40119a37	2.2750375
102	0xc050a4d8	-3.2600613
103	0x3e5b12e3	0.21393923
104	0xbe7a417b	-0.24439041
105	0xc0452472	-3.0803494
106	0xbea5534e	-0.3229012
107	0x3db5a176	0.08868687
108	0xc05c22a5	-3.4396145
109	0x408d175a	4.4091005
110	0xbf10bc28	-0.56537104
111	0xc0ac15b5	-5.37765
112	0xbe8ede8d	-0.27904168
113	0x404c8cc4	3.1960917
114	0xbf80f93a	-1.0076058
115	0x400533bf	2.0812833
116	0x40365dcb	2.8494747
117	0xbec6cca1	-0.38827994
118	0xc0b40a00	-5.6262207
119	0xc123ad35	-10.229787
120	0xbeebb078	-0.46033072
121	0xc0bb5fd0	-5.855446
122	0x3eafe608	0.34355187
123	0x3ff3fb2b	1.9061025
124	0x409fd566	4.9947996
125	0xc0b18e8d	-5.548651
126	0x3ef6ab56	0.48177594
127	0x3f5fd277	0.8743052

layers.2.weight f4 [256, 128]
0	0xbd4546e2	-0.048163302
1	0xbd313339	-0.04326174
2	0x3ec00e9f	0.37511155
3	0xbe16a5c1	-0.14711668
4	0x3ccbfb16	0.0249
5	0x3d53707c	0.051620945
6	0x3e1cff6b	0.15331809
7	0xbde1fc71	-0.110344775
8	0xbdcf3090	-0.101166844
9	0xc0ccfe49	-6.4060407
10	0xbdba1c19	-0.090873905
11	0x3f861844	1.0476155
12	0xbb355ca9	-0.0027673638
13	0x3e25816d	0.16162653
14	0x3dd671f1	0.10470951
15	0xbe053cbc	-0.1301145
16	0x3e9a79b5	0.3017098
17	0xbd66e0af	-0.05636662
18	0x3d8821e7	0.06647091
19	0xbcb1065e	-0.021609481
20	0x3c0de319	0.008660101
21	0x3d23eb8a	0.04001955
22	0xbe767cca	-0.24071041
23	0xbeb9dde6	-0.36302108
24	0xbdfed1e7	-0.124423794
25	0x3d85922b	0.0652202
26	0xbe6b73d3	-0.22993402
27	0xbeb7da00	-0.35908508
28	0x3eed6ff0	0.46374464
29	0xbd7300d0	-0.059326947
30	0x3e28a18f	0.1646788
31	0x3e6bc234	0.23023301
32	0xbe1a4330	-0.15064692
33	0xbdcad93d	-0.09904716
34	0xbe564f35	-0.20928653
35	0xbd126600	-0.035741806
36	0x3e42f0f4	0.19037229
37	0x3e2b75f1	0.1674421
38	0xbdc272d5	-0.09494559
39	0xbe9c85e0	-0.3057089
40	0x3e2203c8	0.15821755
41	0xbcbf30a9	-0.023338633
42	0xbe0416d6	-0.12899336
43	0xbc276e86	-0.010219222
44	0xbecf8298	-0.40529323
45	0xba9b064f	-0.0011827442
46	0x3d9b0a79	0.07570357
47	0xbf117cab	-0.56830853
48	0x3cbf36d6	0.023341578
49	0xbfcfc724	-1.6232648
50	0xbe0616a2	-0.13094571
51	0x3c82d3d1	0.015970143
52	0x3eb2fb9f	0.34957597
53	0x3cc88df1	0.024481745
54	0xbdb73124	-0.0894492
55	0x3dbd2641	0.09235812
56	0xbf9a7a25	-1.2068526
57	0xbceebefa	-0.0291438
58	0xbf379bda	-0.71722186
59	0xbcd5f815	-0.026119271
60	0xbfbcac08	-1.474
61	0xbe15935f	-0.14606999
62	0x3e5700cc	0.20996398
63	0xbec72e8d	-0.38902703
64	0xbe90ba93	-0.28267345
65	0xba1cf5a8	-0.00059875334
66	0xbdf93139	-0.121675916
67	0xbf411dcf	-0.7543611
68	0x3d032e49	0.032026563
69	0xbda52a93	-0.08064761
70	0xc01dfa06	-2.4683852
71	0xbd1fe40a	-0.039035834
72	0x3d7dd8f8	0.061974496
73	0x3cd028ca	0.025410075
74	0xbdad9cec	-0.08477196
75	0xbec2faa1	-0.3808184
76	0x3f604b4f	0.8761491
77	0xbf32efa7	-0.6989693
78	0xbffcdb16	-1.975436
79	0xbf6a88c2	-0.91614926
80	0x3db87459	0.090065666
81	0x3c5db018	0.013530754
82	0x3e44507e	0.1917133
83	0x3d7858e0	0.060631633
84	0xbb8ae187	-0.0042383107
85	0x3e441601	0.19149019
86	0x3da1c4b0	0.07898843
87	0xc0099496	-2.149694
88	0x3e153285	0.14570053
89	0x3d6fb57e	0.058522694
90	0x4008a11d	2.1348336
91	0x3d7d6dfb	0.061872464
92	0xbe65f262	-0.22455743
93	0xbe10b0a1	-0.14129879
94	0xbe57ba74	-0.2106722
95	0x3e7800bb	0.24219029
96	0xbda7af0b	-0.08187684
97	0xbdbb56fa	-0.09147449
98	0x3e041263	0.12897639
99	0xbfcc88dd	-1.5979267
100	0x3d66acec	0.056317255
101	0xbda0bc7c	-0.078484505
102	0xbf94279f	-1.1574591
103	0xbc98c7d2	-0.01864997
104	0xbe7d0fa5	-0.24712999
105	0xbff89770	-1.9421215
106	0xbe5b38ec	-0.21408433
107	0xbeb29087	-0.3487589
108	0xbee600f4	-0.44922602
109	0xbdabff13	-0.08398261
110	0xbb919d31	-0.0044437875
111	0xbf620f58	-0.8830466
112	0xbd64d66d	-0.055868555
113	0x3c8c7c4b	0.017149111
114	0xbf530633	-0.82431334
115	0xbe7ab03e	-0.24481294
116	0x3d3a9ede	0.045561664
117	0x3dddf7fd	0.10838316
118	0x3d7d9173	0.06190629
119	0xbc88fd5f	-0.01672238
120	0x3ed881c9	0.42286518
121	0x3d97fa41	0.07420779
122	0xbda8b2ce	-0.08237229
123	0x3cb36cbf	0.02190244
124	0x3f18c3c6	0.59673727
125	0x3dd1c2d8	0.102422416
126	0x3c54ba58	0.012983881
127	0x3c2b52ab	0.010456721
128	0xbd8c14b0	-0.06839883
129	0xbdffeb92	-0.12496103
130	0x3d766f2e	0.060164623
131	0xbd4a1392	-0.04933507
132	0xbd58caba	-0.05292771
133	0xbd80c1b9	-0.0628695
134	0xbe14e17a	-0.14539137
135	0x3ba35bb5	0.0049852976
136	0xbdaffb58	-0.08592862
137	0xbca45db7	-0.020064218
138	0x3d100dfe	0.035169594
139	0xbda7d428	-0.081947625
140	0xbd020687	-0.031744506
141	0x3e0534bc	0.13008398
142	0xbc46b008	-0.01212693
143	0xbd907c51	-0.070549615
144	0x3cdfc245	0.027314315
145	0x3d70ea01	0.058816914
146	0x3d4814a7	0.04884782
147	0xbdfa56d9	-0.12223596
148	0xbdbe94a2	-0.09305693
149	0x3d1bd68c	0.038046405
150	0xb84433c6	-4.677826e-05
151	0xbc8e86b8	-0.017398223
152	0xbbeff9a2	-0.0073234597
153	0x3bdd3c30	0.0067515597
154	0xbd5863e2	-0.05282963
155	0x3cb890f8	0.022530064
156	0xbdbcf365	-0.09226111
157	0x3dc519ae	0.09624039
158	0xbd1491aa	-0.03627173
159	0xbca2c7b9	-0.019870626
160	0xbcee31ac	-0.02907642
161	0xbd08d5f4	-0.033407167
162	0xbd113286	-0.035448574
163	0x3c7cb751	0.015424565
164	0xbc26a6d4	-0.010171611
165	0xbc9b51d7	-0.018959923
166	0xbdb1b5bb	-0.086772405
167	0xbd877601	-0.06614304
168	0x3d0fb85e	0.035087936
169	0xbd004c59	-0.03132281
170	0xbd3e9d11	-0.04653651
171	0xbdb6091e	-0.08888458
172	0xbcf530e9	-0.029930549
173	0xbd2df3cd	-0.042468835
174	0xbddf19fd	-0.10893629
175	0xbc8026ed	-0.015643561
176	0xbda2902d	-0.079376556
177	0xbc20ad7d	-0.009806988
178	0xbdac8235	-0.084232725
179	0xbd98af14	-0.074552685
180	0xbcb18f20	-0.021674693
181	0x3ce06a94	0.02739457
182	0x3d35f120	0.044419408
183	0xbda13cde	-0.078729376
184	0xbe4c26e5	-0.19936712
185	0x3b8b5b0e	0.004252798
186	0xbd5b65af	-0.05356377
187	0x3d693200	0.05693245
188	0x3d3d27a3	0.04618038
189	0xbd4b052d	-0.049565483
190	0xbdc83663	-0.097759984
191	0xbce1a154	-0.027542748
192	0xbe05930a	-0.13044372
193	0xbc48f04b	-0.012264322
194	0x3d1d6ea0	0.03843558
195	0x3d433319	0.047656152
196	0x3c6aec31	0.014338539
197	0xbbebe16e	-0.007198504
198	0x3c581216	0.013187906
199	0xbdd1c09f	-0.10241818
200	0xbd7b6017	-0.061370935
201	0x3dd32235	0.10309259
202	0xbd3eec5a	-0.04661212
203	0x3ca9ca69	0.0207264
204	0x3d57c735	0.052680213
205	0x3d9712e7	0.07376652
206	0xbd91dada	-0.07121821
207	0xbcee4fc4	-0.02909077
208	0xbc765d96	-0.015036961
209	0x3d01f7af	0.03173035
210	0xbe01cc08	-0.12675488
211	0xbd6266e7	-0.055273917
212	0xbcac3424	-0.021020956
213	0xbdc1bfaf	-0.09460389
214	0xbd53dd5e	-0.051724784
215	0x3dbaf35e	0.0912845
216	0xbd591054	-0.052994087
217	0x3ab1beb6	0.0013560865
218	0xbcef5227	-0.029213978
219	0xbbc51b3e	-0.0060152104
220	0xbe1821e6	-0.14856681
221	0xbe177b6a	-0.14793172
222	0xbdaf8232	-0.08569755
223	0xbdd12d6e	-0.10213743
224	0x3d709048	0.058731347
225	0xbdfc5679	-0.12321181
226	0xbdd322a3	-0.10309341
227	0x3dc8fb8f	0.09813606
228	0x3b8b3851	0.004248657
229	0xbe00bd46	-0.12572202
230	0x3d86600b	0.065612875
231	0xbd46e9ef	-0.04856294
232	0x3b8560e0	0.0040703863
233	0xbc39ef18	-0.011348508
234	0x3d988ad2	0.07448353
235	0xbd4f4828	-0.050605923
236	0xbe17c34f	-0.14820598
237	0xbdadf64f	-0.08494245
238	0xbca11180	-0.019661665
239	0xbd6d6609	-0.057958636
240	0xbcb53e5c	-0.022124462
241	0xbd7e1df7	-0.062040295
242	0x3c02ad67	0.007975913
243	0x3cf400f0	0.029785603
244	0xbd1785e8	-0.036992937
245	0xbdfcd591	-0.12345422
246	0xbc3bd08f	-0.011463298
247	0x3d95985b	0.0730445
248	0x3d959f3b	0.073057614
249	0xba381892	-0.0007022704
250	0x3c424b84	0.011858825
251	0xbd4a332a	-0.0493652
252	0xbb4a194c	-0.0030837832
253	0xbd2fa867	-0.04288521
254	0xbcfb4db0	-0.030676693
255	0xbd46f029	-0.04856888

layers.2.bias f4 [256]
0	0xc08d24d9	-4.410748
1	0xbdfd8b0e	-0.12380038
2	0xbc528814	-0.012849826
3	0xbc475935	-0.012167265
4	0xc01d133b	-2.4542987
5	0xc0af2e27	-5.474384
6	0xbddfd8a6	-0.10929994
7	0xbdfa13b4	-0.12210789
8	0xbfa40d83	-1.2816623
9	0xc0b92f15	-5.7869973
10	0xbe04695f	-0.12930821
11	0xbdcaadc1	-0.09896422
12	0xbda26413	-0.07929244
13	0xbcf01ca8	-0.02931054
14	0xbd196336	-0.03744813
15	0xbdce2638	-0.100658834
16	0xbd8b6320	-0.06806016
17	0x3d2ee97f	0.042703148
18	0xc07cc6f7	-3.9496439
19	0xc0812276	-4.0354567
20	0xbe0c4a95	-0.13700326
21	0xbe04a361	-0.12952949
22	0x3fa155a9	1.2604266
23	0xbd9ece50	-0.07754195
24	0x3ecbb99e	0.39790052
25	0xc0c91e51	-6.2849507
26	0x3f2423f6	0.6411737
27	0xbc905428	-0.017618254
28	0xbe0f8127	-0.14014111
29	0xbd865066	-0.065583035
30	0xc0927668	-4.576954
31	0xbe12e87e	-0.14346501
32	0xbd6b7e89	-0.05749372
33	0xc0f26f4c	-7.576086
34	0xbd95ddf5	-0.073177256
35	0xbe15c373	-0.14625339
36	0xc01afb15	-2.4215748
37	0xbdb68756	-0.08912532
38	0xbddf07a8	-0.10890132
39	0xc0e9f12b	-7.3106894
40	0xbd8075de	-0.062724814
41	0xbfc7bc29	-1.5604297
42	0xbdb4c2f7	-0.08826249
43	0xc011ee6a	-2.2801766
44	0x3c226338	0.009911351
45	0xbd42f824	-0.047599927
46	0xbdf3e56d	-0.11908994
47	0xbd58c70e	-0.05292421
48	0xbe601f95	-0.21887048
49	0xbe040dce	-0.12895891
50	0xbe720f0f	-0.23638557
51	0x3ee01851	0.43768552
52	0xc0774b46	-3.8639693
53	0xbe0def4f	-0.1386082
54	0xbd47e1ea	-0.048799433
55	0xbe022eae	-0.1271312
56	0x3e46f88c	0.1943075
57	0x3e927ea1	0.28612235
58	0xbe063eb0	-0.13109851
59	0xc01f8364	-2.4923944
60	0xc022fc22	-2.546639
61	0xbe430803	-0.19046025
62	0x3c1d7cba	0.009612257
63	0xbdf89f32	-0.12139739
64	0xbdb04298	-0.08606452
65	0xc0825753	-4.0731597
66	0xc0120596	-2.281591
67	0xbfb8a266	-1.442456
68	0xbe1cfd24	-0.1533094
69	0x3e0d3f47	0.1379367
70	0xbd88fae1	-0.06688476
71	0xbdf93901	-0.12169076
72	0xbfb882ec	-1.4414954
73	0xbdb4bbe2	-0.08824898
74	0xbd0f81b8	-0.03503582
75	0x3ba75fe0	0.0051078647
76	0xc0e898ba	-7.2686434
77	0xbd9ee870	-0.07759178
78	0xbd9803f8	-0.07422632
79	0x3f51e590	0.8199091
80	0x3e0df208	0.13861859
81	0x3f460712	0.7735454
82	0x3ca0f833	0.0196496
83	0xbf209a87	-0.6273579
84	0x3fc7287d	1.5559231
85	0x3f8ab8a5	1.0837599
86	0x4024044b	2.562762
87	0xbd41a42d	-0.04727571
88	0x3bac9d50	0.0052677765
89	0xbe6bf532	-0.23042753
90	0xbc138acf	-0.0090052625
91	0x3fa23aaa	1.2674153
92	0xbe23c86c	-0.15994424
93	0xbdb68b14	-0.08913246
94	0x3f571d32	0.84028924
95	0x40084a1b	2.129523
96	0x3f5587df	0.8341045
97	0x3b2675cd	0.0025399805
98	0xc0065ca4	-2.0994043
99	0xbe1304e2	-0.14357331
100	0xbdf20256	-0.11816852
101	0xbd362326	-0.044467114
102	0xbf6be8ae	-0.92151916
103	0xbdec620e	-0.1154214
104	0x3fa3b94e	1.2790926
105	0x3fc91e11	1.57123
106	0xc0864d8f	-4.1969676
107	0xbdbefd79	-0.0932569
108	0x3ea0cbf7	0.31405613
109	0xbd8ff6f2	-0.07029523
110	0x3ebfc624	0.37455857
111	0x3da3fb18	0.08006877
112	0xbf25fcbe	-0.6483878
113	0xbd8650de	-0.06558393
114	0xbda92ad6	-0.082601234
115	0xc0b665fb	-5.699949
116	0x3ef20d2b	0.4727567
117	0x3d87a935	0.066240706
118	0xbce3d8e5	-0.027813384
119	0xbe1bf6a5	-0.15230806
120	0xbfda12d8	-1.7037001
121	0xbe036f6f	-0.12835477
122	0xbe8f9a0c	-0.28047216
123	0xbe479a77	-0.19492517
124	0x40159c00	2.3376465
125	0xbdd39bd4	-0.10332456
126	0xbcb942f5	-0.022614935
127	0xbd960105	-0.07324413
128	0xbf98ee52	-1.194773
129	0x3f84f559	1.0387374
130	0x3ff6bf80	1.9277191
131	0xc01dd6ab	-2.4662273
132	0xc0516f00	-3.2724
133	0x3a2cadbc	0.0006587168
134	0xbbdec8d1	-0.0067988415
135	0xc0fc9428	-7.8930855
136	0xbccbb486	-0.024866354
137	0xbe366668	-0.17812502
138	0xbe1b8abc	-0.15189642
139	0x3cc40c83	0.023931747
140	0xbda2ddf1	-0.07952488
141	0xc0723c94	-3.7849474
142	0xbe10c33a	-0.14136973
143	0xbfaeb359	-1.3648483
144	0xbf3ff8b8	-0.7498889
145	0x3e9b6036	0.3034684
146	0x3c22dc7b	0.009940262
147	0xc11786c2	-9.4704
148	0xbd0bf39a	-0.034167863
149	0xbc144104	-0.009048704
150	0x3b6904b2	0.0035555777
151	0xc0bb2af6	-5.8489943
152	0x3c131448	0.008977003
153	0xbe138632	-0.1440666
154	0x3d0c7e17	0.034299936
155	0xc10757ee	-8.458967
156	0xbc7c33eb	-0.015393238
157	0xc0ccce96	-6.400218
158	0x3d0dcfa3	0.034621846
159	0xbd773ea6	-0.06036248
160	0xbf83582b	-1.0261282
161	0xbf9c609f	-1.2216986
162	0xbe4444bb	-0.19166844
163	0xbf9bac52	-1.2161963
164	0xbd22b109	-0.039719615
165	0xbd3432cd	-0.04399376
166	0xbf10079b	-0.56261605
167	0xbd5de3cd	-0.054172326
168	0x3d6d62a0	0.057955384
169	0xbff08a6d	-1.8792244
170	0xbcbda4c9	-0.023149865
171	0xbf8ce698	-1.1007872
172	0xbfe398a8	-1.7780962
173	0xbe12a5bc	-0.14321035
174	0xc03db081	-2.963898
175	0xc064d6c7	-3.575609
176	0xbe8745a4	-0.2642032
177	0x4020d817	2.513189
178	0xc08138ad	-4.0381684
179	0xbf10237d	-0.5630415
180	0x3ca9ea66	0.020741653
181	0xc025a9bf	-2.5884855
182	0xbec87103	-0.3914872
183	0xc040b178	-3.0108318
184	0xbdafeb82	-0.085898414
185	0xbe4c849a	-0.19972458
186	0x3f41b400	0.75665283
187	0xbd05067f	-0.0324769
188	0xbe23c6c4	-0.15993792
189	0x3fec0978	1.844039
190	0xbd9d5b16	-0.07683389
191	0xbb9df7e3	-0.00482081
192	0xbdb3e172	-0.08783235
193	0xbd5babab	-0.053630512
194	0xbdef44c7	-0.1168304
195	0xbc7f2683	-0.015573147
196	0xbddf8a88	-0.109150946
197	0xc07b40b9	-3.9258254
198	0xbfd9b847	-1.7009362
199	0xbd890ec7	-0.06692272
200	0xbd8ed76a	-0.06974681
201	0xbdfa9969	-0.12236292
202	0x3d97986d	0.0740212
203	0xc09f8a4b	-4.9856315
204	0xbdd71154	-0.10501352
205	0xbdc1ae1c	-0.09457037
206	0xbd9b881a	-0.07594319
207	0x3f9119d1	1.1336004
208	0x401c6e9f	2.4442518
209	0xbd0334a4	-0.032032624
210	0xbb9b73ae	-0.0047440147
211	0xbe048a61	-0.12943412
212	0xbdba44f0	-0.0909518
213	0xbde10c1c	-0.10988638
214	0xbdec7e04	-0.11547473
215	0xbdc27ede	-0.09496854
216	0xbdcd1bba	-0.10015054
217	0xbdae6078	-0.08514494
218	0xbff18708	-1.8869333
219	0xbe2f498a	-0.17117897
220	0x400f3f42	2.238236
221	0xbd11437a	-0.03546474
222	0xc10d3dfb	-8.827632
223	0x3f26a4aa	0.6509501
224	0xc098334a	-4.756261
225	0xbe06f8b8	-0.13180816
226	0xc10b5717	-8.708762
227	0xbdf8003b	-0.12109419
228	0x3fd7d102	1.6860659
229	0x3aa9bb82	0.0012949558
230	0xbc44a443	-0.012002054
231	0xc0037c10	-2.0544472
232	0x3c851563	0.01624555
233	0xbe4883eb	-0.19581573
234	0x3ca2b620	0.019862235
235	0x40330f3c	2.7978048
236	0xbdbb605d	-0.09149239
237	0x3f84b60b	1.0368055
238	0xbdd064a4	-0.10175446
239	0xbdf1710a	-0.117891386
240	0xbfe4a33e	-1.7862318
241	0xc0943ed1	-4.632668
242	0xc0fde688	-7.934391
243	0xbe1bc7d2	-0.15212944
244	0xbf10572b	-0.5638301
245	0xc0ecf0a1	-7.4043736
246	0x3fee96d5	1.863978
247	0xbe0e5b98	-0.13902128
248	0xbbb9f564	-0.005675005
249	0xc0d70a80	-6.7200317
250	0xc037dc19	-2.8728087
251	0xbff057be	-1.8776777
252	0xbdc6c2b0	-0.097051024
253	0x3e4618a1	0.19345333
254	0xbe13b1a6	-0.14423236
255	0x3cdb33e4	0.026758142

layers.4.weight f4 [256, 256]
0	0xbfab972a	-1.3405507
1	0x3d125d54	0.035733536
2	0xbc62c4bf	-0.013840853
3	0x3d62e70f	0.055396136
4	0x3c38afa9	0.011272349
5	0xbcc1deb8	-0.02366577
6	0x3dd3ba5c	0.103382796
7	0xbd5b5e7f	-0.053556915
8	0xba8a5001	-0.0010552407
9	0x3c9d82f8	0.01922749
10	0xbc91a8ad	-0.017780626
11	0x3c911fce	0.017715361
12	0xbe029657	-0.12752663
13	0x3c02208b	0.007942329
14	0xbb80f0fd	-0.003934978
15	0xbd4c11ae	-0.04982155
16	0x3d6b678e	0.057471804
17	0xbdfcd0c6	-0.12344508
18	0x3d363765	0.044486422
19	0xbd686217	-0.05673417
20	0x3d36e6a1	0.04465354
21	0xbd177f91	-0.03698689
22	0xbe8ed103	-0.27893838
23	0xbd3ce5ab	-0.046117466
24	0x3da4759e	0.08030246
25	0xbd06f95c	-0.03295265
26	0x3ca316c2	0.019908313
27	0x3d856d61	0.06515003
28	0xb98707bc	-0.0002575497
29	0x3cc8aaa3	0.024495428
30	0xbd0de202	-0.034639366
31	0xbd187853	-0.037224125
32	0xbe39793e	-0.18112656
33	0x3c602336	0.01368027
34	0xbd28b462	-0.04118765
35	0xbd059bac	-0.032619163
36	0xbc4e9765	-0.012609337
37	0xb9e758eb	-0.00044126002
38	0xbc5e2c08	-0.013560303
39	0xbd164418	-0.036686033
40	0x3db1103b	0.08645674
41	0x3cb1432c	0.021638475
42	0xbd2f5b62	-0.04281176
43	0x3e2bb995	0.16770013
44	0x3c458d99	0.012057685
45	0x3cec90f5	0.028877715
46	0x3bb0f406	0.0054001836
47	0x3c136445	0.008996074
48	0xbd73cc9a	-0.059521295
49	0xbcc70cec	-0.024298154
50	0x3d00005d	0.031250346
51	0x3b3fea61	0.0029283988
52	0xbc9839c6	-0.018582236
53	0x3da7eed9	0.081998535
54	0xbd251f72	-0.04031319
55	0xbd08745a	-0.033314086
56	0xbdbb463b	-0.09144255
57	0x3dd02cd1	0.10164798
58	0x3ca0038a	0.019532938
59	0xbd70ce13	-0.058790278
60	0xbd61d343	-0.055133116
61	0x3d62fe4a	0.05541829
62	0x3c29e5bb	0.010369713
63	0xbd12b031	-0.03581256
64	0x3d942e07	0.072353415
65	0x3e36b8dc	0.17843956
66	0xbe4e40f1	-0.2014196
67	0x3e87c109	0.26514462
68	0x3d197ee6	0.037474535
69	0xbe9bbf8d	-0.3041958
70	0xbd0e24dc	-0.03470312
71	0x3cc700b4	0.024292327
72	0xbd85ff46	-0.0654283
73	0xbc9d3b52	-0.019193325
74	0xbbf57e48	-0.0074918605
75	0xbc82ff3e	-0.01599085
76	0xbca29779	-0.019847618
77	0x3b938242	0.004501612
78	0xbd69cd41	-0.05708051
79	0x3d13dc4e	0.03609877
80	0x3c74ac91	0.014933721
81	0xbe7a9057	-0.24469124
82	0x3d7b0186	0.06128075
83	0xbe0de7c5	-0.13857944
84	0xbcf8bf0d	-0.030364538
85	0xbd92d2b7	-0.07169097
86	0xbf2bad39	-0.6706119
87	0x3cc7e6d2	0.024402056
88	0x3db22776	0.08698933
89	0x3dcc9a07	0.09990316
90	0x3d9b9777	0.07597249
91	0x3cb2884d	0.021793509
92	0x3ced69f1	0.02898118
93	0x3b1218c9	0.0022292605
94	0xbed0e947	-0.40802976
95	0xbf433df4	-0.7626641
96	0x3cf7d389	0.030252235
97	0x3d202d86	0.039105915
98	0xbeb65da0	-0.35618305
99	0x3c903aea	0.017606217
100	0xbc386b5f	-0.011256068
101	0xbdac9970	-0.084277034
102	0xbe0e1aa9	-0.13877358
103	0x3d480fe3	0.048843276
104	0x3e4b5f46	0.19860563
105	0xbb6291ad	-0.0034571693
106	0xbc73654e	-0.014855696
107	0x3b892453	0.0041852384
108	0x3d06dad8	0.03292355
109	0x3d730548	0.05933121
110	0x3d51eeac	0.051253006
111	0x3c9b6eb3	0.018973684
112	0xbd3371ea	-0.04380981
113	0x3d4f910c	0.050675437
114	0xbd06cbc7	-0.03290918
115	0x3c69d0bb	0.014270957
116	0xc0044635	-2.066785
117	0x3c95c0f7	0.01828049
118	0xbddfe1aa	-0.10931714
119	0x3d6e9cf3	0.058255147
120	0xbf3fd42c	-0.74933124
121	0xbc6f91a3	-0.014622125
122	0x3b93b863	0.0045080646
123	0xbc65474e	-0.013994051
124	0xbdc6d6d3	-0.09708943
125	0xbd561bbf	-0.052272554
126	0xbc811323	-0.015756195
127	0xbce22ba5	-0.027608702
128	0xbe6a3e58	-0.22875345
129	0xbedaf0fe	-0.42761987
130	0x3caac9ce	0.020848181
131	0x3c860578	0.01636003
132	0xc09b0598	-4.844433
133	0x3ce66aa9	0.028127031
134	0x3be9726c	0.007124236
135	0xbc6195e4	-0.013768647
136	0x3c1a9e99	0.009437227
137	0x3baf36e7	0.005347121
138	0x3cc290a4	0.02375061
139	0x3d1b86a6	0.037970208
140	0xbd0c7e9f	-0.034300443
141	0xbd5b6d73	-0.053571176
142	0x3c745c86	0.014914637
143	0x3c4f28cd	0.012644005
144	0xbde3574b	-0.11100634
145	0x3ee18457	0.4404628
146	0x3c9a2824	0.018817969
147	0xbb6b70c4	-0.0035925368
148	0x3c922a64	0.017842479
149	0xbd484ffd	-0.048904408
150	0xbd1508e0	-0.036385417
151	0x3ef195d3	0.4718462
152	0xbd11bcf5	-0.035580594
153	0x3d63f003	0.055648815
154	0xbd9578ad	-0.07298408
155	0xbac91659	-0.0015341743
156	0xbbca479f	-0.0061730887
157	0xbd1ab501	-0.037770275
158	0x3ac751c1	0.001520686
159	0xbd6cdbb4	-0.057826713
160	0x3cb13748	0.021632805
161	0xbc7bf2fd	-0.015377757
162	0xbd6d58c7	-0.057945993
163	0xbfb604eb	-1.4220251
164	0x3c4024db	0.011727537
165	0xbd8ecb07	-0.06972318
166	0xbe14fd96	-0.1454986
167	0xbd276e6e	-0.0408768
168	0xbd7515e3	-0.059835326
169	0xbd832a4f	-0.06404554
170	0xbc618af0	-0.013766035
171	0xbef80ec5	-0.48448768
172	0xbda4aabf	-0.0804038
173	0x3d470b2f	0.04859465
174	0xbdf554aa	-0.11979039
175	0x3c88e78b	0.01671197
176	0xbd2e04a0	-0.04248488
177	0xbae5ad6b	-0.0017522996
178	0xbca0a8ab	-0.019611677
179	0x3e46a49e	0.19398734
180	0xbd9e639b	-0.07733842
181	0xbd9ad6b7	-0.07560485
182	0xbf0a2de8	-0.539763
183	0x3f835df2	1.0263045
184	0x3b9c7fee	0.0047759926
185	0xbdcb7e0a	-0.099361494
186	0xbd814db2	-0.06313647
187	0xbcf33927	-0.029690338
188	0x3b10aae6	0.002207452
189	0xc0860cf3	-4.1890807
190	0xbcabdbd5	-0.020978848
191	0xbd16cc9f	-0.036816236
192	0x3ca7ad85	0.020468483
193	0xbd4b90b0	-0.04969853
194	0x3c846e84	0.01616598
195	0xbd84bdaa	-0.06481488
196	0xbd7ee028	-0.06222549
197	0xbd4d4e7e	-0.050123684
198	0xbf2e38cb	-0.6805541
199	0x3bd7cd1b	0.00658573
200	0x3d51dce6	0.051236056
201	0xbc70285d	-0.014658061
202	0x3c616463	0.013756844
203	0xbe8615d3	-0.26188526
204	0x3de8c7f0	0.1136626
205	0xbc3238d5	-0.010877808
206	0xbd06e045	-0.032928724
207	0x3c7a0ed2	0.0152623225
208	0xbd999c63	-0.075005315
209	0xbcaaf93f	-0.020870803
210	0x3def89b1	0.116961844
211	0x3d6ebbb3	0.058284473
212	0x3d188bad	0.03724258
213	0xbd8bdcdb	-0.06829234
214	0x3b99fdf9	0.0046994654
215	0xbc53382b	-0.012891809
216	0xbca2d5e7	-0.019877387
217	0x3d41f764	0.04735507
218	0xbe562f23	-0.20916419
219	0xbd3a1150	-0.045426667
220	0xbe274e2d	-0.16338415
221	0x3cd7763c	0.026301496
222	0xbe105215	-0.14093812
223	0xbcaa27f2	-0.020771
224	0xbd259ba1	-0.040431622
225	0xb9fc877f	-0.00048166138
226	0xbeb86f0e	-0.36022228
227	0x3d4ffde4	0.05077924
228	0xbe8b2a4a	-0.27180701
229	0x3bdb469e	0.006691768
230	0xbd5efb9b	-0.05443917
231	0x3ed40ea7	0.4141743
232	0xbe0269d6	-0.12735686
233	0x3c424cb4	0.011859108
234	0xbceff194	-0.029289998
235	0x3e959681	0.29216388
236	0xbecc4eba	-0.39903814
237	0x3d144200	0.036195755
238	0x3c4ddf37	0.012565426
239	0x3d014f7f	0.031569954
240	0xbf0cbbcf	-0.54974073
241	0x3dacde09	0.08440787
242	0xbe631af4	-0.2217825
243	0xbda055da	-0.07828875
244	0x3db002ea	0.08594306
245	0xbe9e44ec	-0.30911958
246	0xbd1f3ad7	-0.038874473
247	0x3d1f9b98	0.038966745
248	0xbd4a61fd	-0.049409855
249	0xbcdd8b08	-0.027043834
250	0x3e02a7cb	0.1275932
251	0xbd3cd2ed	-0.046099592
252	0xbc35e934	-0.011102963
253	0xbd6c2249	-0.057649884
254	0xbc6b045f	-0.014344304
255	0xbdfe17f0	-0.124069095

layers.4.bias f4 [256]
0	0xbf410f06	-0.7541355
1	0xbf928588	-1.1447
2	0xbde8d30e	-0.113683805
3	0xbda7be5d	-0.08190606
4	0xbe0e6b1d	-0.13908048
5	0x3f185d72	0.59517586
6	0xbfbc93eb	-1.4732641
7	0x3f09d744	0.53844094
8	0xbfac3bf7	-1.34558
9	0xbddd5211	-0.108066685
10	0x3f323679	0.6961437
11	0xbf175e5c	-0.59128356
12	0xbdbdc448	-0.09265953
13	0xbfb906bd	-1.4455181
14	0xbf50739e	-0.8142642
15	0xbf076d89	-0.5290151
16	0xbf0979db	-0.5370156
17	0xbf823a5c	-1.017406
18	0xbfb367b2	-1.401602
19	0xbf0951d9	-0.53640515
20	0xbd932ffe	-0.07186888
21	0xbdeb36a1	-0.11485029
22	0xbf7aacc1	-0.9791985
23	0x3faa1846	1.3288658
24	0xbe04e577	-0.12978159
25	0xbdfbdff7	-0.12298577
26	0xc0a0752e	-5.014304
27	0xbfc5521c	-1.5415683
28	0x3e211177	0.15729319
29	0xbd3f7909	-0.046746287
30	0xbfdbc67e	-1.716995
31	0x3ef3dd05	0.47629562
32	0xbe255357	-0.16145073
33	0xbf19c422	-0.600649
34	0xbf9d7948	-1.2302637
35	0xbe88d2dc	-0.26723373
36	0xc05c0605	-3.4378674
37	0x3ded0da5	0.11574868
38	0x3e554dd5	0.20830472
39	0xbdd350ca	-0.10318144
40	0xbdd67b1f	-0.10472702
41	0xbfd7c82e	-1.6857965
42	0xbe0744b5	-0.13209803
43	0xbeaeb988	-0.34125924
44	0xbd7c0853	-0.061531376
45	0xbd5da645	-0.054113645
46	0xbe54b387	-0.20771609
47	0xc0737a1f	-3.8043287
48	0x3ed36c8b	0.4129375
49	0xbc6a893a	-0.014314944
50	0xc0bb664f	-5.856239
51	0xbe06b8cf	-0.13156436
52	0x3f6466ac	0.89219165
53	0x3c7414bb	0.014897521
54	0xbedb0d8e	-0.4278378
55	0x3f484193	0.7822506
56	0xbedfa99c	-0.4368409
57	0xbd6f00db	-0.058350425
58	0xbf9f6f64	-1.2455869
59	0x3e5e81e3	0.21729235
60	0xbff9fe93	-1.9530815
61	0x3f2eac38	0.68231535
62	0x3e5edcea	0.2176396
63	0xbfef2726	-1.8683822
64	0x3e6e89f1	0.23294808
65	0xbf482f08	-0.78196764
66	0x3eabc443	0.33548173
67	0xbf2e63cd	-0.68121034
68	0xbdbad191	-0.09122003
69	0xbe176a7f	-0.14786719
70	0xbdb5d4e1	-0.08878494
71	0xc052a938	-3.2915783
72	0xc087af27	-4.240131
73	0xbf51759c	-0.8182008
74	0xbf258318	-0.6465316
75	0xbfa6013f	-1.296913
76	0xbf76e605	-0.9644473
77	0xbefef027	-0.49792597
78	0xbf077d95	-0.52926
79	0xbcf364a1	-0.02971107
80	0xbfeabb26	-1.8338363
81	0xbdaf059a	-0.0854599
82	0x3ebe76e8	0.37200093
83	0xbf61c7d3	-0.8819553
84	0xbdeebdc2	-0.11657287
85	0xbee317fe	-0.44354242
86	0xbdad2eee	-0.08456217
87	0xbdc947cc	-0.09828147
88	0xbddc40e4	-0.107545644
89	0x3f630397	0.8867735
90	0xbd4fdefb	-0.05074976
91	0xc0afc644	-5.4929523
92	0x3f0f314b	0.5593459
93	0xbe620ae1	-0.22074462
94	0xbe01c205	-0.12671669
95	0x3f094ad6	0.53629816
96	0xbdb413e2	-0.08792855
97	0x3f892b86	1.0716407
98	0xc00a866e	-2.164455
99	0xc0283f0d	-2.6288483
100	0xbf176561	-0.59139067
101	0x3f03fc0e	0.5155648
102	0x3e9471d2	0.28993088
103	0xbe0ee13f	-0.13953112
104	0x3e53b39a	0.20673981
105	0xc006568f	-2.099033
106	0xbd907305	-0.07053188
107	0x3cc16fb5	0.023612836
108	0xbd89ed66	-0.06734733
109	0x3e7ae51b	0.2450146
110	0x3f1e6344	0.6187022
111	0xbe000e4a	-0.12505451
112	0x3f324dcd	0.69649965
113	0x3eb75e1c	0.35813987
114	0x3e9df251	0.30848935
115	0xbe04e45f	-0.12977742
116	0xbde95190	-0.1139251
117	0xbe04d4db	-0.12971823
118	0x3f981a48	1.188302
119	0xbfd6ec79	-1.6790916
120	0xbe0b3fc5	-0.13598545
121	0xbdb58906	-0.08864026
122	0xc014ba5b	-2.3238742
123	0xbf73bc25	-0.9520896
124	0x3e632489	0.22181906
125	0xbfe3b2b6	-1.7788913
126	0xbf64102a	-0.89087164
127	0xbe9623e4	-0.29324257
128	0xbdb0e28c	-0.086369604
129	0x3f8c886f	1.0979136
130	0xbfffb840	-1.9978104
131	0xbfcc21fe	-1.5947874
132	0xbe3618f0	-0.1778295
133	0x3f431205	0.7619937
134	0xbded2b0e	-0.11580478
135	0xbfd3a1bf	-1.6533736
136	0x3f845b1b	1.0340303
137	0xbde66aa1	-0.112508066
138	0xbd2559a6	-0.0403687
139	0xbdf15c32	-0.11785163
140	0xbf867b22	-1.0506327
141	0x3e3d4fcf	0.18487476
142	0xbed7487f	-0.42047498
143	0xbe119c5c	-0.14219803
144	0xbf0ae9f9	-0.54263264
145	0xc0165798	-2.3490963
146	0xbd8fc31a	-0.070196345
147	0x3f4c4773	0.7979652
148	0xbe0bb302	-0.13642505
149	0xbe04c325	-0.12965067
150	0xbd52e53a	-0.05148814
151	0xbd5ce64e	-0.053930573
152	0xbfc84cdb	-1.5648454
153	0xbfd2d1a5	-1.6470228
154	0x405e0e07	3.4696062
155	0xbf8aeb37	-1.0853032
156	0xbf37ddf3	-0.7182304
157	0x3ed34862	0.4126616
158	0xc04832e8	-3.128107
159	0xbdd63f60	-0.104613066
160	0xbdf1192c	-0.11772379
161	0xbf49f620	-0.7889118
162	0x3ed84c0f	0.42245528
163	0xbdd31384	-0.10306457
164	0x3eacba95	0.337361
165	0xbde44ccf	-0.111474626
166	0x3f653b51	0.89543635
167	0x3e8fffea	0.28124934
168	0xc080b958	-4.022625
169	0x3e87cc32	0.26522976
170	0xbdb481bd	-0.08813808
171	0xbfb24544	-1.3927388
172	0xbe27603f	-0.16345309
173	0x3f06b10a	0.5261389
174	0x3f1bff8b	0.609368
175	0xbe57cdc9	-0.21074595
176	0xbddeff5a	-0.10888548
177	0xbda8c8c9	-0.08241422
178	0xbdf80239	-0.12109799
179	0xbe2705e7	-0.16310845
180	0xbdd45cff	-0.103693
181	0xbd8b7584	-0.06809524
182	0xbf98dc65	-1.1942259
183	0xbe0cd466	-0.13752899
184	0xbf7272b8	-0.94706297
185	0xbda17643	-0.07883885
186	0x3f2fb5a7	0.68636554
187	0x3eecbbd0	0.4623704
188	0xbdf888c4	-0.12135461
189	0x3e28e932	0.16495207
190	0xbd731bdc	-0.05935274
191	0xbf945d29	-1.159093
192	0xc004b8b8	-2.0737743
193	0xc02504a0	-2.5784073
194	0xbf7abe71	-0.9794684
195	0x3f2872e6	0.6580032
196	0xbda6b382	-0.08139707
197	0xbf2ad71e	-0.6673449
198	0xbd8046d1	-0.06263507
199	0xc00ef953	-2.2339675
200	0xbe452c4b	-0.19255178
201	0xbd8b28d8	-0.067949
202	0xbfa2e7fc	-1.2727046
203	0x3fba5857	1.4558209
204	0x3f7f8133	0.9980652
205	0xbdb47543	-0.088114284
206	0xbfe7fd1f	-1.8124121
207	0x3f58cb74	0.84685445
208	0xc0103b73	-2.2536285
209	0xc009709a	-2.1474977
210	0xbddbba76	-0.10728924
211	0xbfce46ab	-1.6115316
212	0xbeb56564	-0.35428917
213	0xbdb413af	-0.08792817
214	0xbf6ecaba	-0.93278086
215	0x3fd516db	1.66476
216	0xbe0e38a7	-0.13888799
217	0xbe006fef	-0.125427
218	0x3e196298	0.14979017
219	0xbe19864d	-0.14992638
220	0xbf812b44	-1.0091329
221	0xbe1025ce	-0.14076921
222	0xbe21b856	-0.15792975
223	0x3f6d8d7f	0.9279403
224	0x3cf44af4	0.029820897
225	0xbe638259	-0.22217692
226	0xbf8c8a40	-1.097969
227	0xbf7e74df	-0.9939708
228	0xc01eafbe	-2.4794765
229	0xbd81b371	-0.06333054
230	0xbda633b5	-0.08115331
231	0xbd8f87b2	-0.07008304
232	0xbe03bf74	-0.12866002
233	0xbdc5d452	-0.096596375
234	0xbfe83475	-1.8141009
235	0xbea9400e	-0.33056682
236	0xbe3c95c5	-0.18416508
237	0xbe0d0676	-0.13771996
238	0xbeb0c3b0	-0.34524298
239	0xbe5ba869	-0.21450962
240	0xbf3758f0	-0.7162008
241	0xbdff44f8	-0.124643266
242	0xc000d225	-2.0128262
243	0xbe0c25af	-0.1368625
244	0xbdfaec20	-0.122520685
245	0x3ea45bb8	0.32101226
246	0xbe1b82ba	-0.15186587
247	0xbe1f3475	-0.15547355
248	0x3eda02b6	0.42580193
249	0xbcfb57f8	-0.030681595
250	0x3f207226	0.62674177
251	0xbe04f4ef	-0.1298406
252	0xbe1c30b9	-0.15252961
253	0xbfb814f7	-1.4381398
254	0xbdbe0b7c	-0.09279534
255	0x3e688057	0.22705208

layers.6.weight f4 [128, 256]
0	0xbab26a0c	-0.0013611927
1	0xbcb4eff3	-0.022087073
2	0xbcaabf98	-0.020843312
3	0xbcda875c	-0.026675873
4	0x3d2d5266	0.04231491
5	0xbc9e0d73	-0.019293522
6	0x3be4f550	0.0069872513
7	0xbd2f6352	-0.04281933
8	0x3cc5b659	0.024134802
9	0xbd9973f2	-0.07492818
10	0xbd5723a0	-0.05252421
11	0xbd57bd58	-0.052670807
12	0x3bfd96c0	0.007738918
13	0x3c8413ff	0.016122816
14	0xbd28d4c4	-0.041218534
15	0xbbb2ba97	-0.005454372
16	0xbd90981d	-0.07060263
17	0xbcb4d37f	-0.022073505
18	0x3c4b54b1	0.012410329
19	0xbd19c3a6	-0.0375401
20	0xbc097428	-0.00838951
21	0xbcb1b284	-0.021691568
22	0x3cf01fbb	0.029312005
23	0xbdae7938	-0.085192144
24	0xbd0ecc88	-0.034863025
25	0xbd4c1f54	-0.049834564
26	0xbc221b38	-0.009894185
27	0xbc656dd8	-0.01400324
28	0xbcb27a2f	-0.021786777
29	0xbd9e4905	-0.07728771
30	0xbcb3f954	-0.021969475
31	0xbb2bca7e	-0.0026213224
32	0xbd035178	-0.032060117
33	0x3c808fbd	0.01569354
34	0xbd29f5f0	-0.04149431
35	0x3d2ccde1	0.04218853
36	0x3d652d62	0.055951484
37	0xbd11ed48	-0.03562668
38	0xbd3d7252	-0.046251602
39	0xbd02bfd8	-0.031921238
40	0x3cd84a88	0.026402727
41	0xbd9d34b9	-0.07676072
42	0xbd384426	-0.044986866
43	0xbce4f69c	-0.027949624
44	0xbc78f088	-0.015194066
45	0xbd33133c	-0.043719515
46	0xbd1ef46a	-0.03880731
47	0x3c2507a8	0.010072626
48	0x3d6f4d68	0.05842343
49	0xbd58540b	-0.052814525
50	0xbd0c8ac9	-0.034312043
51	0xbd72efea	-0.05931083
52	0xbc958112	-0.018250022
53	0xbd29a857	-0.041420307
54	0x3c75a2bf	0.014992415
55	0xbdbd94f7	-0.092569284
56	0x3d50cafd	0.050974835
57	0x3d20c33e	0.039248697
58	0x3d2fb2f2	0.042895265
59	0xbd6e9682	-0.058249004
60	0xbd6aa54a	-0.05728654
61	0xbd1752b3	-0.036944102
62	0xbd8dcc34	-0.06923714
63	0xbd101c12	-0.03518302
64	0xbca55cd1	-0.02018586
65	0xbbca0150	-0.0061647072
66	0xbc942300	-0.018083096
67	0x3ca912a8	0.020638779
68	0xbc1a4a30	-0.009417102
69	0xbaec6b80	-0.0018037409
70	0xbd6109d6	-0.05494102
71	0x3d47894e	0.04871493
72	0xbc9dc8d0	-0.019260794
73	0xbd483250	-0.048876107
74	0xbd3403b7	-0.043948855
75	0x3cbc081e	0.02295309
76	0xbda2d627	-0.079510026
77	0xbcc6dfb0	-0.024276584
78	0x3c9d6244	0.019211896
79	0xbdbd52f0	-0.09244335
80	0xbbdcf250	-0.006742753
81	0x3ce4c84c	0.02792754
82	0x3d06bece	0.03289681
83	0xbd6cf15f	-0.057847377
84	0xbd11ffec	-0.035644457
85	0x3cf9c560	0.030489624
86	0x3a2b8b80	0.00065439194
87	0xbd4b6448	-0.049656183
88	0x3d47cae4	0.048777476
89	0xbd74e8ad	-0.05979221
90	0xbb7eb52b	-0.0038865309
91	0x3c48c091	0.012252943
92	0xbdaa6c78	-0.0832147
93	0xbca3ed88	-0.020010725
94	0xbd4efad6	-0.050532185
95	0x3d44c528	0.048039585
96	0x3bf53720	0.007483378
97	0xbd9c5276	-0.07632916
98	0xbc85d420	-0.0163365
99	0x3d6debb1	0.0580861
100	0xbd87e10c	-0.06634721
101	0xbd39b836	-0.045341693
102	0x3c753208	0.014965542
103	0xbd4cb6f6	-0.049979173
104	0xbc8336cd	-0.016017342
105	0xbdbeec94	-0.093224674
106	0x3d287452	0.041126557
107	0x3c961d00	0.018324375
108	0x3ad5f7c0	0.0016324446
109	0xbdb9d9ee	-0.0907477
110	0xbd89c095	-0.06726185
111	0xbc55f978	-0.013059966
112	0x3c6c9f30	0.01444225
113	0xbd2d2fe0	-0.042281985
114	0xbd1fa050	-0.038971245
115	0x3cbffb60	0.023435295
116	0xbd6b8d4a	-0.05750779
117	0x3d58c876	0.05292555
118	0xbd1c226a	-0.038118757
119	0xbcb7a968	-0.022419646
120	0xbbc19e48	-0.005908761
121	0xbd4f6334	-0.050631717
122	0xbcf45c81	-0.029829266
123	0xbcee890c	-0.029118083
124	0xbdc6ea0a	-0.09712608
125	0x3c234880	0.009966016
126	0x3c2c301f	0.01050952
127	0xbd95d646	-0.0731626
128	0x3be13960	0.0068732947
129	0xbc720150	-0.014770821
130	0xbcccecd9	-0.025015282
131	0x3d4d3848	0.050102502
132	0xbc360cd0	-0.011111453
133	0x3c5166a0	0.012780815
134	0xbbcf1f30	-0.0063208565
135	0xbdcaace0	-0.098962545
136	0x3c537e82	0.01290858
137	0xbd4b87ce	-0.04969006
138	0xbd4fb3ee	-0.050708704
139	0x3d0abd10	0.03387171
140	0xbc7c4922	-0.015398296
141	0xbd92101a	-0.071319774
142	0xbd4ff16d	-0.05076735
143	0xbd1e40e0	-0.03863609
144	0xbdbf1541	-0.09330226
145	0xbdbaea3f	-0.0912671
146	0xbd49e734	-0.049292758
147	0xbdc9b4e5	-0.09848956
148	0xbd5aff34	-0.053466037
149	0x3d4bf6f8	0.049796075
150	0xbd4900f8	-0.04907319
151	0xbd0abc20	-0.033870816
152	0x3c5a2168	0.013313629
153	0x3c609b6c	0.01370893
154	0xbca94fe8	-0.020667985
155	0xbd771484	-0.0603223
156	0xbd151cb4	-0.036404327
157	0xbd83ad0b	-0.0642949
158	0xbc918d51	-0.01776758
159	0xbd3519e8	-0.04421416
160	0x3d549be4	0.05190648
161	0xbd43af2d	-0.047774483
162	0x3c201d08	0.009772547
163	0xbd78458a	-0.060613193
164	0xbd061b84	-0.032741085
165	0xbccd62b4	-0.02507148
166	0xbd3a3428	-0.045459896
167	0x3b6a6809	0.0035767576
168	0xbd8f5df8	-0.07000345
169	0xbcea222a	-0.028580744
170	0xbd472922	-0.04862321
171	0xbceaa61d	-0.028643662
172	0x3ce87080	0.028373957
173	0xbbd2e5c0	-0.0064360797
174	0xbd4e2f40	-0.05033803
175	0x3cc477e5	0.023982951
176	0x3c232da0	0.009959608
177	0xbb5d2820	-0.003374584
178	0xbc0db7a8	-0.008649744
179	0x3d513bc6	0.051082395
180	0xbd194ef0	-0.037428796
181	0xbd2d0d0e	-0.042248778
182	0x3d0c8f26	0.034316204
183	0x3d3bff04	0.0458975
184	0x3c9888ab	0.018619856
185	0xbd7cd4da	-0.06172643
186	0x3ceb3544	0.028711922
187	0xbc5691fc	-0.013096329
188	0x3d7a6374	0.061130002
189	0xbd9f7449	-0.077858515
190	0x3d083192	0.0332504
191	0xbd1b5c62	-0.0379299
192	0x3bd61358	0.0065330677
193	0x3d2f3a18	0.042780012
194	0xbda59103	-0.080842994
195	0xbd317cc6	-0.043331884
196	0xbb091fc0	-0.0020923465
197	0xbd81eeff	-0.06344413
198	0x3d7e59c4	0.062097326
199	0x3cb37924	0.02190835
200	0x3d1cc240	0.03827119
201	0xbcc15384	-0.023599394
202	0xbdaec4ea	-0.08533652
203	0x3b88ab9c	0.004170848
204	0xbd3fbf8e	-0.04681354
205	0x3d018b98	0.031627268
206	0xbb8e9a80	-0.004351914
207	0xbd8dce9f	-0.069241755
208	0x3c73a35c	0.014870491
209	0xbd1bf74f	-0.03807765
210	0xbd632542	-0.055455454
211	0xbde0a995	-0.10969845
212	0xbd2c9f40	-0.04214406
213	0x3d0105fe	0.031499855
214	0x3bddbbda	0.0067667784
215	0xbcabe007	-0.020980848
216	0x3ca7fac8	0.020505324
217	0xbbcd2840	-0.0062609017
218	0xbc80b042	-0.015709046
219	0xbd64fcb8	-0.055905074
220	0xbc45c38d	-0.012070549
221	0x3d33e774	0.043921903
222	0xbd3b8582	-0.04578162
223	0xbd8a51b4	-0.06753865
224	0x3c0a8b68	0.008456089
225	0xbd7e926f	-0.06215137
226	0xbd40f85a	-0.047111847
227	0x3d2301ec	0.039796755
228	0xbb6fa800	-0.0036568642
229	0x3d637eaa	0.05554072
230	0xbcab3094	-0.020897187
231	0xbcf4b12c	-0.029869638
232	0x3be40e60	0.0069597214
233	0x3cf597a0	0.029979527
234	0x3c718510	0.014741197
235	0xbe06bc61	-0.13157798
236	0x3c435563	0.011922213
237	0xbd58b8cc	-0.05291061
238	0x3d19bec2	0.037535436
239	0x3ca02e43	0.01955331
240	0xbd6fecd2	-0.05857546
241	0xbd6b6f82	-0.05747939
242	0xbd50e9ac	-0.051004097
243	0xbd303726	-0.043021344
244	0xbd4af7c6	-0.0495527
245	0xbce7e9a2	-0.028309647
246	0xbc87689f	-0.01652938
247	0x3c2e08f0	0.010622248
248	0xbcad6dbe	-0.021170493
249	0xbcee1fec	-0.029067956
250	0xbcbf8dcf	-0.02338305
251	0xbbcc8d90	-0.0062424615
252	0x3d77c660	0.06049192
253	0xbdf6a93f	-0.12044
254	0xbce0d814	-0.027446784
255	0x3c1136f8	0.008863203

layers.6.bias f4 [128]
0	0xbe2cf1f9	-0.1688918
1	0xbdbd89da	-0.09254809
2	0xbdedd91a	-0.116136745
3	0xbd0a41e1	-0.033754233
4	0xbe323fb1	-0.17407109
5	0xbe7f6ece	-0.24944612
6	0xbe7af421	-0.2450719
7	0xbe103d0b	-0.14085786
8	0x3d3b1ad2	0.045679875
9	0x3ea365d7	0.31913635
10	0xbdedbf82	-0.11608793
11	0xbe69041d	-0.22755475
12	0xbe42de8b	-0.19030206
13	0xbe08be42	-0.13353828
14	0x3eb1538b	0.3463405
15	0xbe2abb69	-0.16673054
16	0x3d00a335	0.031405646
17	0xbe428817	-0.18997227
18	0x3d75f59c	0.060048684
19	0xbe22a11a	-0.15881768
20	0xbdc37122	-0.09543063
21	0xbc999cf3	-0.018751597
22	0xbe51262c	-0.20424718
23	0x3ed9f711	0.4257131
24	0xbdf46683	-0.11933615
25	0xbe49264a	-0.19643512
26	0x3d69de69	0.057096872
27	0xbcbcabd4	-0.023031153
28	0xbe2503f9	-0.16114797
29	0xbe4718a3	-0.19442992
30	0xbdfb625a	-0.122746184
31	0xbe8e75a3	-0.27824125
32	0x3edd8c56	0.4327113
33	0xbe38bd2b	-0.18040912
34	0xbd138471	-0.036014978
35	0xbe0f86a4	-0.14016205
36	0x3e9735a3	0.2953311
37	0xbe899e27	-0.26878473
38	0xbe0d1b5b	-0.13779967
39	0xbe87127b	-0.26381287
40	0x3d5510b9	0.0520179
41	0x3c49be24	0.012313399
42	0xbdacf4d3	-0.08445134
43	0x3d8a02c3	0.06738808
44	0xbdc06ee1	-0.093961485
45	0x3da2ae5f	0.07943415
46	0xbe0eff03	-0.13964467
47	0xbde413f6	-0.1113662
48	0xbddd30cb	-0.10800322
49	0xbefc93f1	-0.4933162
50	0xbe4fe819	-0.20303382
51	0xbe470d85	-0.19438751
52	0x3da80c82	0.08205511
53	0xbcf55e68	-0.029952243
54	0xbe14dd91	-0.14537646
55	0xbe14522d	-0.14484473
56	0xbdc9fd2c	-0.09862742
57	0x3bf4bcb0	0.0074687824
58	0xbe22863b	-0.15871517
59	0xbed2be67	-0.4116089
60	0xbe0d9e19	-0.1382984
61	0x3e643952	0.22287491
62	0xbdadd0c7	-0.08487087
63	0x3e66e64c	0.22548789
64	0xbdce59ec	-0.10075745
65	0xbdce0488	-0.10059458
66	0xbde271cf	-0.110568635
67	0x3d1934a9	0.037403736
68	0x3ef51a04	0.4787141
69	0x3e8d4c0c	0.27597082
70	0xbde93199	-0.11386413
71	0xbd849564	-0.064738065
72	0x3daea094	0.085267216
73	0xc0700f88	-3.750948
74	0x3d8033de	0.06259893
75	0x3e388bcb	0.18022077
76	0xbe396938	-0.18106544
77	0xbe04806a	-0.12939611
78	0x3e8c2406	0.27371234
79	0xbe47a132	-0.19495085
80	0xbe658cda	-0.22417012
81	0x3c8f7ea2	0.017516438
82	0x3e2b22f2	0.1671255
83	0x3e5901ee	0.21192142
84	0x3da3bd06	0.07995038
85	0xbdf71c3a	-0.12065931
86	0xbd81c9a4	-0.06337288
87	0xbee6ccb7	-0.4507806
88	0xbd5b124c	-0.053484246
89	0x3d091e96	0.033476435
90	0xbe3ef77e	-0.18649098
91	0xbe18756a	-0.1488854
92	0x3d912739	0.07087559
93	0x3e1d750a	0.15376678
94	0xbe41f18d	-0.189398
95	0xbdc04909	-0.0938893
96	0x3eb86ca0	0.36020374
97	0xbe48c777	-0.1960734
98	0xbe01837c	-0.12647814
99	0x3e4f4535	0.20241244
100	0xbe292e6b	-0.16521613
101	0xbe54e030	-0.20788646
102	0x3ebb6fbe	0.3660869
103	0x3db371b2	0.0876192
104	0xbfd935f3	-1.6969589
105	0xbe0abdb5	-0.1354893
106	0x3e14b2cd	0.14521332
107	0xbd8776ca	-0.06614454
108	0x3e1c8080	0.15283394
109	0xbccab703	-0.02474547
110	0x3d691bd6	0.056911312
111	0xbe1de70c	-0.15420169
112	0xbdc46c0e	-0.09590922
113	0xbd6b80f1	-0.057496015
114	0xbdd60990	-0.10451043
115	0xbe4d43c8	-0.20045388
116	0xbe1c3cb3	-0.1525753
117	0xbe079d03	-0.13243489
118	0x3e55fca7	0.2089716
119	0xbf94f0f9	-1.1636039
120	0xbeeddf50	-0.46459436
121	0x3dc6f004	0.09713748
122	0xbe74c683	-0.23903851
123	0xbdff74c7	-0.124734454
124	0x3e6556d4	0.22396404
125	0xbe0d62a1	-0.13807155
126	0xbd9a5269	-0.0753525
127	0xbf6a3c7b	-0.91498536
