Simulation/saved_data/models/model_8_128_256_256_128_11_mzm_mzm_pm_300k_samples_batch_size_64.pth (torch, 542102 bytes, 10 tensors)

layers.0.weight f4 [128, 8]
00000000: 2b19 2f3f 2e0e 5abe 6459 98bf 61d3 65bb
00000010: 547f 243a 5e07 b53b 791d 2fbb 3e22 5bbb
00000020: d673 13c1 9fa0 ecc0 1112 89c1 1b96 9ebd
00000030: 0e68 d53c 6696 d7be 1ab6 ac3e 3dc0 40be
00000040: 8979 aabe 2c2e c2be 8400 cebf 41b0 08bb
00000050: 0ebd e83a e0a0 e0bb 6ec3 a43b 7818 883b
00000060: d964 b0be d211 d9bd 7dfa 77be 6699 96bc
00000070: 9e65 2ebe 2528 963d ab76 b6be 7f6e 18be
00000080: fb8d aabd df48 0bbc 4ebf 78bd ef66 4dbd
00000090: a2cc c63d 9b3a 75be 79a4 a9bd e656 193e
000000a0: 26e1 86be a48b a8be d92b aabe 584a 93bc
000000b0: 444d d43d 4236 15bd c71c 44be f7ad 62bd
000000c0: fa72 4abe 3953 15be fad9 efbd e873 dbbd
000000d0: 1915 c03d f2b3 ddbe 50f8 16be 5c17 f5be
000000e0: 226a 26c0 65dd c6be 1b2b 753e cce4 b3bf
000000f0: 2920 50bf 7858 623e 7bc5 14bf 5a4a 573d
00000100: 75e9 f33c 69bf 4d3d 3e87 433e bf0d 1cbd
00000110: ba97 d0bd a64a 82bc 5797 54bd 925c 603b
00000120: 55a6 a1bf 782b 1b3f 6bd5 94be eec3 a7be
00000130: e629 a1bd 02ed 2fbf 8eb3 18c0 d2b3 62c0
00000140: e15b 33bb 373b 26bb 023b f43a 05d2 ee3a
00000150: ccbb 7fba 133d 87ba 1b89 ff39 cf65 07c0
00000160: 9057 18c0 a1e2 383f 01fa a9c0 90c8 fbbd
00000170: 995a 38bd 192a 63be d45a da3b 2f23 9dc0
00000180: 2811 49c1 2e57 fbc0 9993 83bf 2fa8 3b3f
00000190: 60ea 733e 30f5 553c 6f55 f0bf bd2e 45c0
000001a0: e032 c7bd 0618 59be 30a4 6ebd e656 a8be
000001b0: 941a 2abd 3ca0 973c cb99 02c0 754b dcbd
000001c0: b94d 183e 1fb3 1dc0 1877 c73e e67b 843b
000001d0: f940 4eb9 4b5d cc3b b505 fcbb 3e0a c7ba
000001e0: fc01 92be 1230 64be 6daa 81be 4a15 b73d
000001f0: 7331 f8bd cf91 0ebe 1abd 09bf 8d0d f9be
00000200: 613e abbd a92b 8cbe 8863 15bd 887e 3abf
00000210: 7587 0dbe 592b 773e 4e55 99bf 1f0f aebd
00000220: d2b8 b53e bd56 893e d914 25be df0a 6f3e
00000230: c08e bebe e1dc 89bf 69e7 abbf aae3 8ebf
00000240: 362a c3bd f10a a23d 7237 94be 8389 35bd
00000250: 3a42 4ebe 4ae0 263d 5af4 a6bb 8175 6e3d
00000260: 8d1a bc3b cf62 7dbc c484 04bc 333a 23bb
00000270: d199 5d3f 41bd 5dbf 32b1 03bb 3472 4f3a
00000280: f2ff f6be 8299 6dbe 3cfd e8be 9ef5 1ebd
00000290: b2a0 09be ddac 3b3d e197 99be 76c1 1ebe
000002a0: 4c0f 75bd f812 a83d 201f cbbb aa69 d5bc
000002b0: 6a1d 3cbd f6b9 b3bd ab9a cabd 9c66 3e3f
000002c0: be10 bc3c 51d6 29be 3b83 c3be 8e78 fcbe
000002d0: c244 b9be 2c89 6ebe d6c4 b63d f76f 4dbe
000002e0: 8720 a23e 4b58 853e df7e 903e 94c3 a7bd
000002f0: bb39 79bd ab45 b7bd 8c10 cabd 5748 cebd
00000300: a12f 773d a5cb 343f fc45 e53d fa7b ac3a
00000310: 4851 21bb cb91 163a a523 153b 563e d339
00000320: 5689 d6bd b7f2 00be 8fa4 8fbc d764 d0bd
00000330: b474 aebe d366 a2be a197 f0bd 95ee 0bbe
00000340: fdad 963d 9ca8 f6be e9ba 68bd caac 843d
00000350: 39b3 4abe a7d2 2bbf 22a5 a9bd b5be 9abd
00000360: 7c1f bebe 14ae 063d aaab dabb 1e6a 56bd
00000370: 6618 11bb e489 dcbd 8852 2abe 4081 d33d
00000380: e85e 29bd 6622 5dbb 2c66 073c 83cf 15bf
00000390: 0801 0d3f a7be 293d 1d3c e73b f5ec 87bc
000003a0: ef7b a6bd 0ef5 a9be f13c 913e cba9 0abe
000003b0: 2d21 99be 795f 9abd 50a9 afbe 1797 85be
000003c0: 1e5b 2b3e 574c 82bd be2e 71be 32d3 d0bd
000003d0: 8fa5 0bbe 5a33 fabd b56f 02bf 6f64 d9bd
000003e0: 90a5 19be 5011 f53c 6664 f83d b964 9bbd
000003f0: 1436 8b3d cf77 0cbe ae85 d5bb f054 f9bd
0.6839778 -0.21294472 -1.190228 -0.0035068619 0.0006275077 0.00552456 -0.0026720448 -0.0033437158
-9.21578 -7.394607 -17.133821 -0.07743474 0.026050594 -0.42106932 0.33732682 -0.18823333
-0.3329585 -0.3792585 -1.6093907 -0.0020857009 0.0017756538 -0.0068551153 0.00502818 0.0041533075
-0.3445194 -0.10599102 -0.24216647 -0.018383693 -0.17030951 0.07331876 -0.3563741 -0.14885901
-0.08327862 -0.008501261 -0.060729317 -0.050146993 0.09706999 -0.23948137 -0.08283324 0.14974555
-0.2634365 -0.32919037 -0.33236578 -0.017979786 0.103663 -0.036428697 -0.19151603 -0.055341687
-0.19770423 -0.14582528 -0.117114976 -0.10715467 0.09379024 -0.4330135 -0.14743161 -0.47869384
-2.6002278 -0.38840786 0.23942225 -1.4054198 -0.8129907 0.2210406 -0.5811383 0.05256114
0.029774407 0.05023137 0.1909456 -0.038099047 -0.101851895 -0.015904736 -0.05190214 0.0034234864
-1.2628886 0.60613203 -0.29069075 -0.3276667 -0.078693196 -0.6872102 -2.3859591 -3.5422254
-0.0027367997 -0.0025364885 0.0018633308 0.001822055 -0.0009755462 -0.0010317884 0.00048739542 -2.115589
-2.3803444 0.7222081 -5.311768 -0.12294114 -0.045008276 -0.22184028 0.0066636596 -4.910545
-12.566689 -7.854392 -1.0279418 0.733035 0.23819876 0.013058946 -1.8776072 -3.0809777
-0.097265005 -0.2120057 -0.05826205 -0.32878798 -0.041529253 0.018509023 -2.0406368 -0.1075658
0.14873399 -2.4640577 0.3895805 0.00404309 -0.00019669895 0.0062367073 -0.00769111 -0.0015185548
-0.2851714 -0.22283962 -0.25325337 0.089396074 -0.12118807 -0.13922809 -0.5380417 -0.4864315
-0.08361507 -0.2737706 -0.036471874 -0.7284932 -0.13821204 0.2413763 -1.1979158 -0.08498978
0.3549257 0.2682399 -0.16121234 0.2334399 -0.37218285 -1.0770532 -1.3429996 -1.1163228
-0.095295355 0.07912243 -0.2894855 -0.044320595 -0.20142451 0.040741242 -0.005095047 0.05821753
0.00574047 -0.015465452 -0.008088294 -0.0024906516 0.8656283 -0.86616904 -0.002009463 0.0007913441
-0.48242146 -0.2320309 -0.45505702 -0.038808458 -0.13440207 0.045819152 -0.29998687 -0.15503487
-0.05982904 0.08206743 -0.0061987787 -0.026051361 -0.04592649 -0.087757036 -0.09892782 0.7437532
0.022957202 -0.16585661 -0.38186058 -0.49310726 -0.3618527 -0.23294514 0.08924262 -0.20062242
0.3166544 0.26043925 0.28221795 -0.081916004 -0.06084607 -0.08948835 -0.09866437 -0.100723915
0.060348157 0.70623237 0.11194989 0.0013159506 -0.0024615098 0.0005743771 0.0022756841 0.000402915
-0.104754135 -0.12592588 -0.017534522 -0.10175484 -0.34073412 -0.31719074 -0.11747671 -0.1366523
0.073574044 -0.48175514 -0.056818876 0.064782694 -0.1979493 -0.67118305 -0.0828345 -0.07555906
-0.37133396 0.032880858 -0.006673296 -0.052347295 -0.0022139787 -0.10768488 -0.16633046 0.10327387
-0.041350275 -0.0033742427 0.008264106 -0.5851976 0.550797 0.041441586 0.0070567266 -0.016592482
-0.08129107 -0.33194774 0.28366807 -0.13541333 -0.29908124 -0.07537741 -0.34308863 -0.26091835
0.16733977 -0.06362217 -0.23552987 -0.10196532 -0.13637374 -0.12216826 -0.509517 -0.10614859
-0.15004563 0.029915482 0.121285245 -0.07587571 0.06797424 -0.13717578 -0.00651618 -0.12174404

layers.0.bias f4 [128]
00000000: 9eac 11bd a275 1441 96ee d73f 5aa1 dbbb
00000010: 5e8b d9bf 7265 97be 549e 0cbe 068c f2bd
00000020: 2c6b 67bf 3364 b43f 0d27 8640 465e b43e
00000030: fbc1 bf40 158f a53e ba01 fb3e 624b a13e
00000040: 93f2 92bf 90d4 b8bf e5ca 30bf 2d7f 6f3e
00000050: 63c6 f13e f7ae c2c0 3a84 f13d c069 09c0
00000060: 9d9b 1abf 7a12 06bd 63e9 7fbe 9005 3fbf
00000070: 60fe e0bf 5051 86be 5285 d43c 6014 3bbf
00000080: 1057 ba40 92d7 7940 8d25 db3f 00bf 5a3e
00000090: d4d4 a13f d36f 45bd 7867 afbf 389a 6abe
000000a0: 7652 b13f c874 243e 6516 e1be f959 9dbf
000000b0: 1994 9e40 895f a8be bebb 613f be1e febf
000000c0: 50fc 71bf bfc5 b0be 5043 243d 613d 8abc
000000d0: af92 a440 7f7a 53bf 0327 c2be 18b0 aabe
000000e0: 2b6f 19bf f1da 2e40 0fdd bcbc cf6e a8bd
000000f0: 01af 7a3e 238e c43f 0570 b1be f1e8 90bd
00000100: b99c efbe 590b 773e 7bcb af40 10fa cdbe
00000110: c168 b8be 4f33 5dc1 2894 84c0 942a 0abe
00000120: 3c7b 083d 80bb ecbc d856 9dc0 2852 eebf
00000130: b30a 86c1 e718 efbd 7c54 9dbe cc9c 61c1
00000140: e68e f6be ef16 cdbf 14fc dd3f 243e 91c1
00000150: dc88 17bf 070d 483e c575 97be eaab 8dbf
00000160: 691c 5fbe 7126 0a3d 97ea 95bd 0ada c5be
00000170: 6e72 8b3f d776 63c0 50e0 91bf 7b8f fbbf
00000180: daee 82bf 18fd 87bf e7e6 8f40 7f3a ebbf
00000190: 8e53 60be a84f 9cbe 7486 8240 423f 51c1
000001a0: 4153 79c0 7c56 88bf 1fe5 96bf 17ec 9dc0
000001b0: cd09 173f 5d0c 61c1 3795 ac3e 1a54 aa3f
000001c0: 1bbe ff3d c6da 2a40 4117 51bd 96ed 0a40
000001d0: 448b 3940 c708 0bbf 2f4b 0bc0 c072 c0be
000001e0: ea6d 9e3f 9290 2e3f bfcf dbc0 b3aa c8be
000001f0: d7d7 afbe 13bf 80be 73e0 aebe 2341 b2be
-0.03556501 9.278719 1.6869686 -0.006702584 -1.6995656 -0.29569584 -0.13732272 -0.118431136
-0.90397906 1.4093078 4.192267 0.35228175 5.9924293 0.32335725 0.49024755 0.31502825
-1.1480278 -1.4439869 -0.6905959 0.23388357 0.4722167 -6.083858 0.11792798 -2.1470795
-0.603937 -0.032732464 -0.24991374 -0.7461786 -1.7577629 -0.26233912 0.025942478 -0.73077965
5.8231277 3.9037824 1.7120835 0.21361923 1.2643075 -0.048202347 -1.3703451 -0.22910392
1.385329 0.16060174 -0.43962398 -1.2293082 4.9555783 -0.32885388 0.88177097 -1.9853132
-0.94525623 -0.34525868 0.040103257 -0.01687497 5.1429057 -0.8260879 -0.3792039 -0.33337474
-0.59935254 2.7321131 -0.023054628 -0.0822426 0.24480821 1.5355877 -0.34655777 -0.0707568
-0.46799257 0.24125423 5.493589 -0.40229845 -0.3601742 -13.8250265 -4.1430855 -0.13492805
0.03332065 -0.028898 -4.916851 -1.8618822 -16.755224 -0.116746716 -0.3072852 -14.1007805
-0.48155898 -1.6022624 1.7342553 -18.155342 -0.59193206 0.1953622 -0.2958204 -1.1068089
-0.21788181 0.033728067 -0.07320135 -0.38642913 1.0894296 -3.5541284 -1.139658 -1.9653162
-1.0229142 -1.0624113 4.4969363 -1.8377227 -0.21906874 -0.30529523 4.0789127 -13.077944
-3.8957064 -1.0651393 -1.1788672 -4.9350696 0.5899933 -14.065518 0.33707592 1.3306916
0.124874316 2.6696029 -0.051047567 2.170751 2.899125 -0.5431027 -2.1764638 -0.37587547
1.2377293 0.68189347 -6.8691096 -0.39192733 -0.3434436 -0.25145778 -0.34155616 -0.3481532

layers.2.weight f4 [256, 128]
00000000: eb8e 0b3d 4686 0fbd ee65 f1bd d503 2f3d
00000010: a2ec fa3c 4231 e6bd c8e5 adbb 87b3 e63c
00000020: 2247 a1bd ba3e 9fbc 461f 76bc 7344 cdbc
00000030: 2736 33bc bc06 e8bc 079e 85bd 1544 42bd
00000040: 2436 8dbd 8419 b23d bdef 33bb fa2d 8a3b
00000050: be26 1f3d 2c11 373b 8468 1abd fefd 583d
00000060: 495d a3bd 8bbc a73d 7132 4dbd 148c 90bc
00000070: ac15 2bbb 932f 7fbd eaf3 b43c 5bdd 97bd
00000080: c784 8fbd dfd9 f8bc 9a09 383d 2c33 debc
00000090: df13 e0bc 6d18 9bbd 1701 5bba b134 a5bd
000000a0: 5bb9 9ebd 2d67 5c3d 15a0 883d 9cff 253d
000000b0: 50b6 91bd c992 c3bd 6dc0 dcbd 0e6e 983b
000000c0: b2b0 b5bd 40fa 1fbd 6a2c acbd 9ef0 5e3d
000000d0: 2a67 793c 16ed 6dbd fd82 9c3c 985b e33c
000000e0: 9e06 cfbd 49be 5c3d cc4b e0bd 7c2f fc3c
000000f0: 0530 fcbc ced4 d8bd 6f3a 443d 54d5 413d
00000100: c8d9 1a3d 8862 3d3a af28 a13d 2db6 e2bd
00000110: 61ef 193d 0191 5fbc 3a2f 3b3d 1ea9 85bd
00000120: 9dfc d83c 7bf0 63bd dd4d dabd 53c1 56bb
00000130: a41b 2ebd 41ca 4fbc dc9b 5ebd 36c4 8f3d
00000140: d3d3 04be ccff 6cbd 46a2 e0bd 5bc2 e6bb
00000150: 6254 b93c cb6a 073d 5f99 55bd 55c9 743d
00000160: 97fc 5bbd 8ec6 393d cebc f9bc 7611 2abd
00000170: 2f54 aabd 222b 043c 22bb 97bd 04cb cc3b
00000180: 9bd2 4fbd edc4 f9bd f774 13bd ca5e 9eb9
00000190: 0c53 01bd 9a0b a8bc dbee 053d 9e67 72bd
000001a0: b936 b3bc 5555 623d 0af9 f03c 8cca d1bd
000001b0: 1016 b8bd 399a 06bd 33bc 0dbd 5356 c0bd
000001c0: dea8 99bc 48de a8bd fa88 e8bc 3637 21bc
000001d0: 75b5 753d f048 04bd 2c2a 453d 8964 903b
000001e0: 5b12 8bbd 8573 70bd a401 c0bd 7e07 a5bd
000001f0: 808c 93bd 3170 f33c be14 d1bc a6bf a0bc
00000200: bb6b 9ebf 2233 9c3d 0b80 cbbe 2b08 2a3d
00000210: 4e99 683d 0db0 fcbd f3e9 23bd b638 31be
00000220: 7364 0ebe 402e b13e 2b5e a8bd 7696 d6be
00000230: 88b0 9f3d fb0c 78be e237 a43d 51f7 aabd
00000240: d701 243e 8a2a d13d 1c90 0bbd d01a 54bd
00000250: 867c 1abd a818 1e3e 0d19 25bd 6342 aa3d
00000260: 2d1a c6bd c487 563d 2e58 e73d f073 4a3d
00000270: 7de7 a5bc 4cb6 913d f5ce fdbd 1da2 9dbd
00000280: 1622 1cc2 b75c 5dc0 f42f ef3e 2f1e 66bd
00000290: b5da 01bd 3aab df3d ba8d 2fbc c1af a73d
000002a0: b409 7c3e d997 bdbe d6d3 85bd e5bd 1b3e
000002b0: 5e33 883d 20d0 febc 70a8 a5be e94f 183d
000002c0: db6b 373c efb7 97be 2f0d 8d3d 5e27 66be
000002d0: 29c7 41c0 7b12 a83d 8391 57bd 8214 8abc
000002e0: c303 283d d96a 37bf 3d77 203d a02c 02be
000002f0: e081 0fbc 40c7 11bf 962c 893d b764 163d
00000300: d577 0e3e f876 cbbf f5c8 a53e fb98 99be
00000310: 4473 a7bd f725 21bc 83fe 4ebf 35c5 fe3d
00000320: 0498 ebbd c52b 003e a1c0 bcbf 975e bf3d
00000330: aa01 2fbb 4d73 32bd f0f3 d83d 6e13 8abd
00000340: f142 323e 6c8c bc3d 378c 11bf e16c 853b
00000350: 7dab 573d 0a40 93bc 3d84 a8be 16bc 44bd
00000360: 7be8 e9bd ee5d 8d3d ef4c 8cbc 1c57 47bd
00000370: fcaf 813f b0b4 a7bd 93ce 8e3e ad43 16bf
00000380: 521f 6f3e 23e4 dcbd b9a3 bfbf 179e 5b3d
00000390: 0624 a13c ff2f 023d 8e9e 133e b9d1 8a3c
000003a0: e619 2bbf c8d6 853d 1d6b ad3f 5a7a 723d
000003b0: a0ee 993d 029f bf3f 7cad 13be dc36 9abc
000003c0: c161 cfbe 5710 e03c 1473 063e 0119 81be
000003d0: 0749 49bd 6473 393f 3dbc 15bc fef7 ddbd
000003e0: f459 9b3c 8107 fe3e c07e c33c 8463 23be
000003f0: 95cb 293c c5bd c9bc 6f05 d53d 9d85 88bd
0.034071844 -0.035040163 -0.1178702 0.042728264 0.030630413 -0.11239864 -0.005306933 0.028161777
-0.07874896 -0.01943909 -0.015022105 -0.025057053 -0.010938204 -0.028323524 -0.06524282 -0.04742821
-0.06895092 0.08696273 -0.0027456128 0.0042169066 0.038855307 0.002793382 -0.03769733 0.0529766
-0.07976777 0.081902586 -0.050096933 -0.01764492 -0.0026105447 -0.06230123 0.022088964 -0.07415267
-0.07007747 -0.030377327 0.04493103 -0.02712401 -0.027353225 -0.07573018 -0.00083543494 -0.08066691
-0.077501975 0.053809334 0.06671158 0.04052697 -0.071148515 -0.095494814 -0.1077889 0.0046517914
-0.088715926 -0.039057016 -0.08406909 0.05442869 0.01522235 -0.05808743 0.019105429 0.027753636
-0.10108684 0.053892408 -0.10951957 0.030784361 -0.030784616 -0.10587464 0.04790729 0.047322586
0.03780535 0.000722446 0.07869088 -0.110699035 0.037581805 -0.0136454115 0.045699336 -0.06526397
0.026487643 -0.055649262 -0.106593825 -0.0032769039 -0.04250683 -0.012682498 -0.054347858 0.07019846
-0.1297143 -0.057861134 -0.10968451 -0.007042212 0.022623245 0.03306083 -0.05214822 0.059762318
-0.053707685 0.045355372 -0.030485537 -0.04152056 -0.08316838 0.008066924 -0.074087396 0.0062497873
-0.05073796 -0.12195764 -0.03600022 -0.00030206732 -0.03157334 -0.020513345 0.032698493 -0.05918085
-0.02187668 0.05525716 0.029415626 -0.10243711 -0.08988583 -0.032861922 -0.03460331 -0.09391465
-0.01875728 -0.08245522 -0.028385628 -0.0098398235 0.059987504 -0.03229612 0.04813592 0.004406516
-0.067906104 -0.058703918 -0.09375313 -0.0805807 -0.072045326 0.029716583 -0.025522586 -0.019622635
-1.2376627 0.0762694 -0.39746127 0.041511696 0.056786828 -0.123382665 -0.040018033 -0.1730679
-0.13905506 0.34605598 -0.08221086 -0.41911668 0.077973425 -0.24223702 0.08018471 -0.08347953
0.16016327 0.10213192 -0.03407298 -0.051783383 -0.03771641 0.15439093 -0.040307093 0.083134435
-0.096729614 0.05237557 0.11296116 0.049426973 -0.020251984 0.071148485 -0.123929895 -0.07696936
-39.033287 -3.4587839 0.46716273 -0.05618113 -0.031702716 0.10921331 -0.010714943 0.08187819
0.24613076 -0.37029913 -0.06534545 0.15209158 0.066504225 -0.031105101 -0.3235507 0.037185583
0.011195148 -0.29632518 0.0688728 -0.22475955 -3.0277808 0.0820665 -0.052629005 -0.016855482
0.041019212 -0.7164741 0.039176214 -0.12712336 -0.008758992 -0.56944656 0.06697957 0.036717143
0.139129 -1.5895681 0.3237988 -0.29999527 -0.08176282 -0.009835712 -0.80857104 0.12439958
-0.11503604 0.12516697 -1.4746286 0.093442135 -0.0026703873 -0.04356699 0.105934024 -0.06741987
0.17408349 0.09206471 -0.56854576 0.0040718173 0.05265378 -0.017974872 -0.3291339 -0.048030935
-0.11421295 0.06902681 -0.017126529 -0.04866706 1.0131831 -0.0818876 0.2789198 -0.58697015
0.23351792 -0.10785701 -1.4971839 0.053617563 0.019670498 0.031784054 0.14415953 0.016945707
-0.6683639 0.06535107 1.3548313 0.059198715 0.07516217 1.49704 -0.14421648 -0.018824987
-0.40504268 0.027351541 0.13129836 -0.2521439 -0.04914191 0.724417 -0.009139118 -0.108383164
0.018963791 0.496151 0.02386415 -0.15955931 0.010363479 -0.024626622 0.10401427 -0.0666611

layers.2.bias f4 [256]
00000000: 14b1 30be 7e75 a13f 3490 01be b1e6 4dbe
00000010: b899 e3bd 2945 84bd cdc7 b4bd c550 1cc1
00000020: 457b 87bd 0f51 5abd 153d 07c1 2262 83bd
00000030: d804 febd 28e2 60bd 9097 fdbd bf95 123f
00000040: bbbe 213f 5fcd ea3f 7e8c b23e 5f1b b63e
00000050: 1984 19be 8327 ccbd 9657 34be 59d2 0dc1
00000060: 5920 13c1 970c 1cbe 6b05 c2c0 7e78 37bd
00000070: 5100 303f 0af3 cbbc 9022 31c1 d139 14be
00000080: bc3d 26be 9e7f 25be 1068 32be 7537 83be
00000090: 8d3c 96bd 7de9 d9bc 6ac4 abbe 7da4 b4bd
000000a0: 7e44 26be c4f8 55be 9763 373f e1b4 84bd
000000b0: 4ac4 e9bc cb15 0cbe 95b3 3dc1 09fb 42bd
000000c0: 2978 62be 447e 26be 591a 06be 0486 e6c0
000000d0: 9ff1 f3bd f4a3 12be 4ad2 51c0 3ccb 02c1
000000e0: 4ca9 00be 2cec cfbd 787c 3d3d e02b ccbd
000000f0: f8f5 c6bd ce69 10be 0825 b3bf 2ae5 59c1
00000100: d91d c9bd 06ac 5dbd 54e2 3b3c 642c 00be
00000110: 6333 9cbe d5b6 05be 5a52 c9bd b4b0 42be
00000120: 500f 743e 8fd8 25be ef3d 22be fc41 3dbe
00000130: 97fe 05be cf2a ca3e 087a e9bd 655e 5ec0
00000140: 8e4f 62c0 7ed4 513f a8e1 23be e99b 07be
00000150: 7510 bebd 717a 9bbd 3913 83bd 737d 14c0
00000160: eba6 31bd d03c ebbd 58f3 e33f a56b 1abe
00000170: c7d7 9cc0 6e6c 75be 84c1 23c1 7c68 d3c0
00000180: fe8d 84bd 341b 3dc1 133c 7ac1 eea5 d3bf
00000190: 80b8 e9bd ac68 7dc0 6e2f 30bf f378 e1bd
000001a0: ed2d 9cbd 9520 96bd 223f 3ebc 96ff c0bb
000001b0: abe5 bebd b900 37be cae6 67bd c9f4 35c1
000001c0: aba4 ecbd f2a5 d3bf e2b5 07be 41af edbd
000001d0: 85dd 083e e52f 2cbe c456 0840 f180 8ebf
000001e0: dfb9 52be 270e 0ebd 3148 3ebe 4402 fabf
000001f0: 2d92 2ebc d558 52bd ddc9 c9bd c309 99bd
00000200: 4a47 e63e 6257 34be 530c 76bd be57 3cbe
00000210: 1f8c b139 aef4 90bd 34ad 21be 6c37 40be
00000220: 9a89 66be 9600 8dbd 5ac3 25bd eb9c 78bd
00000230: 1f37 16be e84e c5bb 5395 4dbd ea51 55bc
00000240: e7d5 953f fe36 24c1 9761 9abd d227 21be
00000250: e02b 40c0 601d 05be a9db 0a40 cbcb 42bd
00000260: 8a86 36bd 2a2e 3ebd 2ec3 5dbe 3258 11be
00000270: 3421 0dbe 80ca cec1 1ee7 8b3d 042e 0bbe
00000280: fbea 5e3d 6dd4 ddbe 674c 05be d1bb b2bd
00000290: fd2b 04be 8aeb f4bd 8b81 a2bd 7831 e4c0
000002a0: 723d 05be 7b6a d4bc 0d7e e6bd d83c 193d
000002b0: 203b 433f d7e0 23c1 9dd2 a8bf 01d1 8bbd
000002c0: 17c1 fabd e5f0 a3bd d57a 08c0 ac5a cabd
000002d0: 20c5 19bf 38ce dfc0 5dac c3bd a369 51be
000002e0: 9bd5 2a40 e413 23c0 3c0b c1bd af88 b2bd
000002f0: 349d 7cbd 0e34 b740 dd54 8fc0 d26d 32be
00000300: b96a d3bd 8fe4 d0c0 965b e3bc b558 2dbe
00000310: f305 e0bd 4c27 19be 39eb 0dbe dd46 53c1
00000320: 0c5d 0ac1 ea81 06c0 054f 06c0 9243 1dbe
00000330: 369d 2abe 4a5c c0bd f612 7cc1 2de7 fdbd
00000340: 1bc1 02be 8451 60c1 8ac9 dcbd d8fa 1abe
00000350: 0ca2 b9bd 6c17 33be 355b 4bbe 0b70 09be
00000360: 8542 febd 59ff ccbd d12f 5ec0 0bd2 f3bd
00000370: d432 38be e7c7 75c0 b0fe bfbd 78d9 923b
00000380: b0b9 fac0 a4bb b7bd 5118 27c0 9293 06c1
00000390: ebe3 04be 3c8d 263b 1a8e 71bd 512d 85bd
000003a0: 305e e5bd 1238 abc0 a61d 7ebf 5523 1bc0
000003b0: 9ef5 10bd 12da e6bd ba05 e03e 37b5 ebbd
000003c0: 4283 3abe a575 23be 83fb 37be 4f0c 863c
000003d0: e16d 23be 2edd b3bd 851f 683f 44f2 4cbd
000003e0: 3edc f03b 7e6c 06be 65ac cebf 1053 e8bd
000003f0: 6430 babd b123 f5bd 9ee9 09be 084f 10be
-0.1725505 1.2613981 -0.12652665 -0.20107533 -0.11113304 -0.06458504 -0.088271715 -9.769719
-0.06615309 -0.05329996 -8.452413 -0.06415202 -0.124032676 -0.05490318 -0.12382424 0.57259744
0.63181657 1.8343924 0.34872812 0.35567757 -0.14991798 -0.09968474 -0.17611536 -8.863854
-9.195397 -0.15239178 -6.0631614 -0.044792645 0.6875048 -0.024896163 -11.070938 -0.1447518
-0.16234487 -0.16161963 -0.17422509 -0.25628248 -0.07335768 -0.026600594 -0.3354829 -0.08820436
-0.16237065 -0.20895678 0.7163634 -0.064798124 -0.02853598 -0.13680188 -11.856343 -0.047602687
-0.2211615 -0.16259104 -0.13095988 -7.2038593 -0.1191132 -0.14320356 -3.27846 -8.174618
-0.12564582 -0.10152468 0.04626128 -0.09969306 -0.097148836 -0.14102861 -1.3995676 -13.618448
-0.09820146 -0.054119132 0.011467535 -0.12516934 -0.30507955 -0.13058026 -0.098301604 -0.1901272
0.23833966 -0.16195892 -0.15843938 -0.18482202 -0.130854 0.39485785 -0.11400229 -3.4745114
-3.5361056 0.8196486 -0.1600405 -0.13243069 -0.09280483 -0.07591713 -0.06400151 -2.3201568
-0.043372076 -0.114862084 1.7808638 -0.15080126 -4.90134 -0.23967144 -10.234745 -6.6065044
-0.06472395 -11.819141 -15.639667 -1.6535013 -0.11412144 -3.9595137 -0.6882237 -0.11009397
-0.07625947 -0.07330433 -0.011611732 -0.005889843 -0.093211494 -0.1787137 -0.056616582 -11.372262
-0.115548454 -1.6535017 -0.13252977 -0.11605693 0.13365753 -0.16815145 2.1302958 -1.11331
-0.20578717 -0.034681465 -0.18582226 -1.9531941 -0.010654968 -0.051354248 -0.098529555 -0.07472565
0.44976264 -0.17611459 -0.060070347 -0.18392846 0.0003386447 -0.07077919 -0.15788728 -0.18771142
-0.22513428 -0.068848774 -0.040469505 -0.060696524 -0.14669465 -0.0060213692 -0.050191235 -0.013020018
1.1705903 -10.263426 -0.07538145 -0.15737846 -3.002678 -0.12999487 2.169657 -0.047557633
-0.0445619 -0.046430744 -0.21656486 -0.141938 -0.13782197 -25.848877 0.068311915 -0.13591772
0.054423314 -0.4332613 -0.13017426 -0.087272294 -0.12907405 -0.11958988 -0.079348646 -7.1310387
-0.13011721 -0.02592968 -0.11254511 0.03741154 0.7626209 -10.242393 -1.3189274 -0.06826974
-0.1224386 -0.08004931 -2.132497 -0.098805755 -0.60066414 -6.993923 -0.0955436 -0.20450453
2.6692874 -2.548089 -0.09425971 -0.087174766 -0.061673358 5.7251043 -4.4791093 -0.17424706
-0.1032309 -6.5279 -0.027753633 -0.1692837 -0.10938635 -0.14956397 -0.13859262 -13.204801
-8.6477165 -2.1016793 -2.098573 -0.15357807 -0.16661534 -0.09392603 -15.754629 -0.12397609
-0.12768976 -14.019901 -0.10780628 -0.15134752 -0.09064111 -0.17489403 -0.19859011 -0.13421647
-0.12415031 -0.10009641 -3.4716685 -0.11905297 -0.1798814 -3.840326 -0.0937475 0.0044814907
-7.835167 -0.089713365 -2.6108592 -8.411028 -0.12977569 0.0025413772 -0.05897341 -0.06502784
-0.111996055 -5.3505945 -0.9926399 -2.4240315 -0.03539049 -0.11272062 0.4375437 -0.11509173
-0.18214133 -0.15962847 -0.17967038 0.016363291 -0.15959884 -0.08782421 0.90673095 -0.05003573
0.0073504737 -0.13127324 -1.6146361 -0.11343968 -0.09091261 -0.11969698 -0.13468024 -0.14092648

layers.4.weight f4 [256, 256]
00000000: 201b 333b 002f 65be 9c11 29bd 40f1 793c
00000010: 8edb 09bd b075 e43c 52f4 8bbc d68f 73be
00000020: 1042 b53b d0da 60bd 613e e53d 2a86 5e3c
00000030: cc3f f4bc ec13 4e3d be6c 603d 03ef 173d
00000040: a4b2 9abc 3bc3 8cbd fa8b 9d3e 8226 913f
00000050: 5e3e 6b3d 8842 65bd 0a15 a4bc 582a 643e
00000060: 9963 aa3e ffa7 963b 24d8 543d af94 c03b
00000070: c07d b3be f0d3 65bd 0911 6f3e 6ad1 853c
00000080: 3bf6 05bd 41e2 2c3d 56be 603c 18ff 4a3c
00000090: c07a 6fbd 46a2 7fbd 0567 80be 1152 c6bc
000000a0: 4042 a3ba b859 5b3c eecc 3a3d 3ca1 b3bc
000000b0: a4b0 213d b0af fcbc 615c 13c2 7c84 d93c
000000c0: 9fd6 8ebd bea5 25bd 1e69 3cbd ec3d 4fbe
000000d0: b340 c93c f010 b5bc fec9 c2be f114 9c3f
000000e0: 807e 113a 90d7 613c a45a 8a3c 9838 30bd
000000f0: 0093 4cba 62af 083d ea36 093f 2062 70bf
00000100: 98b4 573d 0489 e0bb 2ed7 4d3c f412 49bd
00000110: b89c e5bd 3552 b0bd b452 cabc 9e3b 6cba
00000120: 86be 39bd 7c6c 84bd 002b 9b3b 5abf 373d
00000130: 20ba 80bc ac86 5ac2 7c30 453d e74c 94be
00000140: 94a6 bf3f 1034 73be 2489 cfbc c8a3 073c
00000150: d7f9 953b 0d31 4e3d 443c 9cbc adee f63d
00000160: 4cfa 723d cc97 99bc 312e 68be 160e 7ebd
00000170: 0c78 9dbf cad7 00bd deb3 d8be 93e4 0cbe
00000180: 64d2 66bc da05 123f 54e5 893f 94c2 873a
00000190: beae 503d e74b 2a3b cef1 b9bb 002c 67bc
000001a0: 7a59 0a3d d2b8 1ebd 35bd d5bd f7c1 bbbc
000001b0: 8828 e13c a933 2ebd ec06 863c 0713 223f
000001c0: b0ad f7bb 18bd 30bd 1cc8 6d3d ff23 213d
000001d0: 3cff 243d 229d ecbb 9f25 c8bf 601a 8ebd
000001e0: f275 1c3d f71b eeba 11d2 ea3c 9479 913f
000001f0: ea05 15bd c8a7 6dbc f478 533d 941e 803c
00000200: d62d 663d f8cc a6bc 64f4 863c 6c64 f2bc
00000210: f2d5 7bbd 04f0 c6bc 2020 9d3c 7a59 13bd
00000220: 00e4 b1bc 0485 3cbd a417 863c 804a 423b
00000230: 4492 39bd d0fd ca3b 4fd9 73bd 5a32 843c
00000240: 25b3 a13d d7ab b8c0 9a38 a4bc 125e 3e3c
00000250: ffb5 cb3e e42a 69bd 4982 80ba 6ca0 8abc
00000260: f3ba 02bd a52e 643b c02b 1cbb 9058 5bbd
00000270: 74ed 46bd 9a92 70ba dfb1 9b3c 77b2 70bc
00000280: be59 39bc 73e0 9f3d 469a 2b3d b68b 31bd
00000290: 67af 3f3d f48f c7bc b663 70bd f292 0bc0
000002a0: 589b 1d3c 3be9 523d a4f9 1dbd 936e f6be
000002b0: b6ae 883f 0529 2e3f f309 5cbf 0658 243d
000002c0: 068a 6b3d 9a71 073d edfd 22bf 2c60 bcbc
000002d0: 2a0e dd3d a6d6 12bf cbed 63bd 1451 7abd
000002e0: d146 bfbc 5b9d d13d 1a3a 5a3d 026e 5a3d
000002f0: eadd 2bbd d730 6fbd 90d3 913f da2e 44bd
00000300: eaa2 483d b57f 763e 5ce5 4cbd 6fd3 c8bc
00000310: 282a 673c 367e 3ebd 40f9 a73c 7f4f 423f
00000320: 2779 be39 8c0d 36bc 2d4c 5dbf ea1c 66bd
00000330: 80c4 d0bb e5e7 103c 5002 8fbd c800 efbc
00000340: 4a8a 45bd bbef 0ec1 b801 35bc 3616 82bc
00000350: 68cc cabc dc6b 40bd 88b2 1c3d 6c66 983c
00000360: 8b71 96bb d9cc 483d 80fc 7fbe 9885 5ebd
00000370: 4081 f63b 10a2 15c1 f782 a53b fd59 3fbd
00000380: 7f96 1fbf 60f5 8ebc 0c6c 9ebf 78ad c5c1
00000390: 00e2 f93c abbf 5c3c c648 5bbd 907d a43c
000003a0: 80d8 5d3b 1196 753c 2a64 da3c 0c18 d13c
000003b0: 1857 483c 40a5 223c 0cad 85c1 9eb0 e4bc
000003c0: 634a fc3c ef83 4abd 99e9 50bd 8089 ea3c
000003d0: c4a0 ad3c 5169 9bbd 3ec0 c2bd b424 b0bc
000003e0: c27e 61bd 08a7 8e3c f233 ae3d 80e3 d3bb
000003f0: a0d8 c5bc 1464 7e3d b4ea 42bd a89a 40bd
0.00273294 -0.2238121 -0.04127656 0.015255272 -0.03365665 0.027888149 -0.017084274 -0.23785338
0.005531557 -0.054896176 0.111935385 0.013581792 -0.029815577 0.050311968 0.054791205 0.037093174
-0.01888401 -0.06873175 0.30770856 1.1339877 0.057432525 -0.055971652 -0.020029563 0.22281778
0.33279112 0.0045976634 0.05196394 0.0058770995 -0.35056877 -0.056110322 0.23346342 0.016335208
-0.032705527 0.04220796 0.013717255 0.012389921 -0.058466673 -0.062410615 -0.25078598 -0.024209054
-0.0012455657 0.01338809 0.045605592 -0.021927468 0.0394751 -0.030845493 -36.840214 0.026552431
-0.069745295 -0.040441267 -0.045998685 -0.20238465 0.024566984 -0.022102803 -0.38044733 1.2193891
0.0005550161 0.013784304 0.016888924 -0.043022722 -0.0007803887 0.033370383 0.5359942 -0.93899727
0.052662462 -0.006852271 0.01256351 -0.04909034 -0.11211532 -0.0860943 -0.024697639 -0.0009011569
-0.045347713 -0.06466004 0.0047353506 0.04486022 -0.015713751 -54.631516 0.04814194 -0.28964922
1.4972711 -0.23750329 -0.025333948 0.008278795 0.0045769024 0.050339747 -0.019071706 0.120572425
0.059320733 -0.01874914 -0.2267387 -0.062025152 -1.230226 -0.031455792 -0.42324728 -0.13759069
-0.014088247 0.5704018 1.077311 0.0010357671 0.050947897 0.0025985183 -0.0056745773 -0.0141096115
0.033776738 -0.038750477 -0.10436479 -0.022919638 0.027485147 -0.042529736 0.016360722 0.63310283
-0.007558547 -0.043149084 0.058052167 0.03934097 0.040282473 -0.00722088 -1.5636481 -0.069386244
0.03819842 -0.0018166293 0.02866462 1.1365228 -0.036382593 -0.014505334 0.05162902 0.01563958
0.056196056 -0.020361409 0.016473956 -0.0295889 -0.06148333 -0.02428437 0.019180357 -0.035974003
-0.021715164 -0.04602529 0.016368695 0.0029646456 -0.045305505 0.0061948076 -0.059533413 0.01613729
0.07895497 -5.7709765 -0.020046521 0.011619108 0.3978729 -0.05692567 -0.0009804453 -0.016922198
-0.03191657 0.0034817841 -0.0023829788 -0.053551257 -0.048566297 -0.0009177119 0.019005714 -0.014690987
-0.0113129 0.07806482 0.041895173 -0.04334613 0.046798136 -0.024360634 -0.05868884 -2.1808438
0.009619556 0.051491957 -0.038568154 -0.48131236 1.0678318 0.6803134 -0.8595268 0.04012301
0.057504676 0.033067323 -0.6366871 -0.022995077 0.10793717 -0.5735878 -0.0556467 -0.06111248
-0.023349198 0.10235091 0.053278066 0.053327568 -0.04195968 -0.058396187 1.1392689 -0.047896244
0.048983492 0.24072154 -0.05002342 -0.024514882 0.014109172 -0.046507083 0.020504594 0.7590255
0.0003632989 -0.011111628 -0.8644436 -0.05617992 -0.006371081 0.00884435 -0.06982863 -0.029175177
-0.048227586 -8.933528 -0.011047773 -0.015879732 -0.024755672 -0.046977863 0.0382562 0.018603526
-0.004591172 0.049023483 -0.24998665 -0.054326624 0.007522732 -9.352066 0.0050510126 -0.04671668
-0.62339014 -0.017450988 -1.2376723 -24.709702 0.030503273 0.013473432 -0.0535362 0.020079404
0.0033850968 0.014989392 0.02665909 0.025524162 0.012227796 0.009927094 -16.709496 -0.027916249
0.03079719 -0.049442228 -0.051004026 0.028630018 0.021194823 -0.07588447 -0.095093235 -0.021501876
-0.055052526 0.017413631 0.085060015 -0.006466329 -0.024151146 0.06210716 -0.04758711 -0.04702249

layers.4.bias f4 [256]
00000000: ffb6 09be 0a92 9bbf 6ba9 2ac1 1d0a d6c1
00000010: 955d 2c3f 25ce a7bf 310d 41be f384 0d3f
00000020: 67a5 1abe 90bf 28be f4d0 29c0 3b2c 8a3d
00000030: bb3d 20c0 feca 0e3f 8230 bdbd 5627 0dc0
00000040: bb91 06be 9a68 febd e32a dac0 c32a 0ebe
00000050: 9a9c 0dc0 a108 32be 39ce 63bf 8603 35be
00000060: a26e 2e3e ca3f aabe 9bf8 003f 64cb f4bd
00000070: e1bd 6ac0 e046 a5bf 3da8 413f d317 2abe
00000080: 4288 743d 9d75 70be fc1d 0abe 1460 53be
00000090: 5893 07bf ea87 7ebf 2544 bcc0 936b b4bf
000000a0: 3d92 88be 6ad7 9ebd 277c b7bd 6487 49bf
000000b0: 19a5 35be 661f 12c0 202f 78be 810e 85bf
000000c0: 3601 39be d295 043f 5471 32c1 1740 0fbe
000000d0: 0ffe d7bd e816 2ebd d899 e4bd 536c dabf
000000e0: 584d 7f3f f9ee c3bd fa3a 8bbe e11d 13bf
000000f0: 62ed bf3e de84 a1bd 71e2 44be 889d 863e
00000100: 0904 ddbf 9b44 4bc0 ea40 8fbf d512 adbd
00000110: 5505 2ebe d3f1 bebe d738 d7bd f754 f03e
00000120: 2e3f d23e b7fb 06be b26a 80bf c14f 33be
00000130: eb36 56c0 5ab6 b7bd acb5 8e3f b76a 33c0
00000140: ab4f d4bf 4117 253f 2ace 35bf b092 48be
00000150: 91fa 903f 4489 fcbf d429 c2bd 853a d0be
00000160: 066e 0bbf 07f8 28c0 ee11 20be 9fdf 803d
00000170: 584f 97be 5dff 953e 4614 adbd e3db 0fbe
00000180: e988 1bc1 3f57 1f3e bafe 583f 78a1 333f
00000190: b2fe 5dc0 6472 6ec0 a05b b83f b953 0bbe
000001a0: 47a5 67be 4889 9f3e c5f7 503f cbd6 c2bd
000001b0: 8625 aebf a596 99bf 3c6d ee3f 6ff7 27be
000001c0: 292d 01c0 c829 48be 4ab7 81bd 98a7 41bf
000001d0: 80e9 36bf e9e1 3f3f a21a 1cbe 4a64 30be
000001e0: fe5b 3fc0 f571 05be 4ea6 1abe 9384 123f
000001f0: 05fb 1cbe 11e1 46be f444 a7bf 4c89 cebd
00000200: e463 c1bd 1626 95bf 87bc 37bf 849a b8be
00000210: 6c40 f6bd 9dad 49bd faa7 023f 7595 9ebd
00000220: 689e 83be 339c 56be 9b72 68c2 8f43 cebd
00000230: 194a 14bf 2c9c 81be 7e70 ba3c 0c0e 80bf
00000240: 3815 91c0 9f49 30be e464 46be 6677 9ebe
00000250: 213f 5dbd 5cbe 0bc0 b4da eabf 13f0 22c1
00000260: 0c26 3abf f3f4 61be 78e0 06be 77dd d93e
00000270: 1036 41bf a3fc 0dc0 001c c9bd 5d96 b53e
00000280: ccc6 fbbd 93f4 e6bd 8826 6e3f 1bfd 433f
00000290: fa2b b2bd 333f 2c3f 6045 083e 5342 53be
000002a0: 128a f63c 3f67 8dbe c492 26be 62f6 eebd
000002b0: 178d e2be f458 f7bf 8adb 093f b76c b9bd
000002c0: 4bb7 42c0 bd1f a4c0 acf8 e8be 5ec7 c7bd
000002d0: b6d0 bdbd 12be c1bd 81a1 4ebf 1f9a 493e
000002e0: 26ac 01be 8466 1a3f 4922 fbbe a5f5 9bbd
000002f0: d9af dabd 81e4 17be 4758 8ebd fffa 15be
00000300: b1d4 673f 1565 05bf d40d 15c0 5059 62bf
00000310: 7f8c 94be f3c6 7b3e cfa6 933e 6468 4dc0
00000320: 5134 01c0 6609 f1bd 9a63 6a3d a94a 03c0
00000330: dd08 1dbf 3926 1dbe 9869 69bd b204 febd
00000340: 5b7f cdbe b748 cdbd 86f2 ecbe 2781 ecbc
00000350: d967 a8bd dac7 e5bd f789 4ebd 2f04 05c0
00000360: 576b e43e 9b54 f73e 34cf fb3e 15c3 ebbe
00000370: 64e1 9dbf ee6d 61bd 3db7 01be f4fc 203f
00000380: b763 46bf 87cc de3e f818 513f 4c6f 10bf
00000390: 6006 ecbd 932e d6c0 ffa1 7d3f 84b4 10be
000003a0: 9568 98bf b95a 653f 5ce2 adbd b44b a3bd
000003b0: 2e90 6dc0 53f2 b3be f45e 1fc1 4383 2dbe
000003c0: da27 73be e163 09be d555 fabf 5a6e 17c0
000003d0: 3ec5 563f 1571 88bf d8c6 0b3f 19b8 93bd
000003e0: 6eac 53be 6432 18c0 8f5d d5bf f5ab 1cbe
000003f0: f4cc 39be 841e 24bf 5ba2 dcbd 3501 14bf
-0.13448714 -1.2153943 -10.666362 -26.754938 0.67330295 -1.3109785 -0.18852688 0.5528099
-0.15102158 -0.16479325 -2.6533785 0.067467175 -2.5037677 0.5577849 -0.09237768 -2.2055259
-0.1314153 -0.12422295 -6.817735 -0.138835 -2.2126832 -0.17386104 -0.88986546 -0.17677125
0.1703439 -0.33251792 0.5037934 -0.11952856 -3.6678393 -1.2912254 0.75647336 -0.1661065
0.059700258 -0.23482366 -0.13488 -0.2064212 -0.52959204 -0.9942614 -5.8833184 -1.4095329
-0.2667407 -0.07755931 -0.08959227 -0.78722215 -0.17738761 -2.2831664 -0.24236727 -1.0395051
-0.18066868 0.5179111 -11.152668 -0.13989292 -0.10546505 -0.042502314 -0.11162156 -1.7064308
0.9972739 -0.09567065 -0.27193433 -0.57467467 0.37485796 -0.078866705 -0.19227006 0.26292062
-1.7266856 -3.1760623 -1.1191685 -0.084508575 -0.16994222 -0.37293872 -0.10508888 0.46939823
0.41063827 -0.13181959 -1.0032561 -0.17510892 -3.347102 -0.08970328 1.1149192 -2.8033884
-1.6586813 0.6448861 -0.71017706 -0.19587207 1.1326467 -1.972939 -0.09480634 -0.40669647
-0.5446476 -2.6401384 -0.1563184 0.06292652 -0.29552722 0.2929639 -0.084511325 -0.14048724
-9.720925 0.15560625 0.8476368 0.70168257 -3.4686704 -3.7257318 1.4402962 -0.13606156
-0.22621642 0.31159425 0.81628066 -0.09513625 -1.3605201 -1.1999098 1.8627086 -0.16402982
-2.0183814 -0.19547188 -0.06333788 -0.7564635 -0.7145004 0.74954087 -0.15244535 -0.17225757
-2.9899898 -0.13031752 -0.15102503 0.5723354 -0.15330131 -0.19421794 -1.3067918 -0.10084781
-0.09442881 -1.1652248 -0.71772045 -0.36055386 -0.12024006 -0.049237836 0.5103756 -0.077433504
-0.25706792 -0.20958023 -58.11192 -0.100714795 -0.57925564 -0.25314462 0.022758719 -1.0004287
-4.53384 -0.17215584 -0.19374424 -0.3095047 -0.054015283 -2.1834936 -1.8347993 -10.183612
-0.72714305 -0.22066097 -0.13171566 0.42551777 -0.7547312 -2.2185447 -0.09819794 0.3546628
-0.12293777 -0.112771176 0.93027544 0.76558083 -0.08699794 0.67283934 0.13307714 -0.2063077
0.030095134 -0.27617833 -0.16266924 -0.116680875 -0.44248268 -1.9324021 0.53850615 -0.09053939
-3.0424373 -5.1288743 -0.45502222 -0.09754823 -0.09268324 -0.09460081 -0.80715185 0.19687699
-0.12663326 0.60312676 -0.49049595 -0.07615212 -0.106780715 -0.14833261 -0.06950431 -0.14646529
0.90558916 -0.52107364 -2.328969 -0.8841753 -0.2901344 0.24587612 0.28838202 -3.2094965
-2.0188181 -0.11769371 0.057223894 -2.051432 -0.6134165 -0.15346612 -0.056985468 -0.12403239
-0.40136227 -0.10023635 -0.4627878 -0.028870178 -0.08222932 -0.11219759 -0.050424542 -2.0783803
0.44613144 0.48306736 0.4918152 -0.46047273 -1.2334409 -0.055036478 -0.12667556 0.62885976
-0.774959 0.43515417 0.81678724 -0.56419826 -0.115246534 -6.6931853 0.9907531 -0.14131361
-1.1906916 0.89591557 -0.0849044 -0.079734236 -3.711925 -0.35145816 -9.960682 -0.16944604
-0.23745671 -0.13417007 -1.9557444 -2.3661103 0.8389472 -1.065951 0.54600286 -0.07212848
-0.20671245 -2.3780756 -1.6669177 -0.15299971 -0.1814459 -0.64109063 -0.10773154 -0.5781434

layers.6.weight f4 [128, 256]
00000000: 924f f8bc d89e f8bd 28c7 1e3e c50c 9bbf
00000010: 4df5 393e 554b 7b3e 161d 6abb 2807 00be
00000020: 5b0c 2cbc 8886 d43d 1ee7 c8bf 059b 9dbd
00000030: f0bc 093e abeb 9ebe be22 e2bb 25de 08bf
00000040: 15af d13c 606c a5bd fcb1 fabf 6f28 7fbd
00000050: c41f 0ebf aae4 1bbc 3667 0e3f 21bd aa3d
00000060: be73 9cbf 237c 863d b2e5 84c0 3dfa b33b
00000070: 5214 453d 517f 8ebe ca67 e2bd 86e3 bcbd
00000080: b5c1 c33e c5fd 5dbd a6d0 cf3c 2ebb 62bd
00000090: 4655 80be 246d 49be 864f abc0 b924 05be
000000a0: afd7 58bc ca90 923c f323 af3c bc88 793d
000000b0: a6a5 473d 7f54 7c3d b537 9cbd 968f 8f3d
000000c0: 74a0 31bd 7d36 babf 4c54 29bc c125 10bc
000000d0: 6b13 81bd e0f8 ad3d 8b89 e0bc 026e 19be
000000e0: 085f 37bd 72e6 1abd eba2 59bd e421 0fbe
000000f0: 85fc 60ba 41e7 f43b e5db 0d3b 04f2 31bf
00000100: 89f8 c1be 2229 c9bf 6dfe 423e 3e7e 8d3d
00000110: 948d d33e 0194 5abd db85 33bd 76af 4abe
00000120: 8594 a63d 63c9 d63b b341 62be 0aca 08be
00000130: 9157 953e e874 2bbd 6503 5ebe e926 3cbe
00000140: fcd8 213f d783 913e 8f8e 2f3e c9f9 31bd
00000150: ce5e 733e c38f ccbd 267d 863b e956 d2bd
00000160: a033 b1b9 4d1a adbd b34c 0f3d dcb1 14be
00000170: 6dd8 74be 6eb9 b8be 3c6e 86bc 8ef7 02bd
00000180: 606d 9fbe 6fb7 3ebd d0ec d13c e14b 513d
00000190: cb57 5dbe 9eb0 6ec0 f73c fabd a088 263e
000001a0: 4dc1 41bd dfa5 f03e a34e ccbe 100f 1b3c
000001b0: 8e0d 713d a3c4 3dbe f916 94be 7597 b63c
000001c0: 9ce1 763a 4e00 073d 7a48 8dbd 081d fa3d
000001d0: 37c1 af3c 8311 52bc aaf8 a63d 27af f83c
000001e0: 738b 2d3f 8a9f 8dbd c61b 653d 8597 873d
000001f0: cdc9 42bd 2d30 4dbe 83d1 06be 36e0 2e3d
00000200: 7aae 08bd 74d9 2ac0 8a85 b63d 63a1 9c3e
00000210: 5540 c0bb 2a3c 13bc ac35 f03e 37b6 7fbd
00000220: 8bd3 f93d a919 97be c319 303e f7e3 dbbc
00000230: 0d7a b03d 9b5c e4bc 764c 663e f33e 943c
00000240: 1ee1 f5be 6961 29bd f8e5 16bd ebb3 913e
00000250: acfa 823e 6d1e c7bd ebe4 d3bd bf17 27c0
00000260: 54fb 0e3d 1471 2a3d 7156 20bc 6a87 ca3e
00000270: 0963 603d 20b6 51be 2f42 85bd e54d 973d
00000280: 3ea0 ce3d 8d6e a63c 0b95 32bf 9759 e53d
00000290: 411c f93d 4c9f a0bc a22b 37bf 37be 923d
000002a0: 56c3 03bd 87e2 00bd 95ac c4bc 3a72 34bb
000002b0: 0da9 813d 725b b43e a6f7 8ebd 0495 efbd
000002c0: ec9b a63c 9b40 e53d ea7f eebd 359e 853c
000002d0: 8c59 413c b234 30bc bf5c 6dbf dbdd 4d3d
000002e0: dc94 9a3d b8c3 503e e696 65be a09e c5bc
000002f0: 24bc 06bd a5a7 383d 6127 22bc e56f 29bd
00000300: b9e7 7dbd 1ad4 b1bd fa61 18bd 0344 203d
00000310: 76e4 433c 769c 903d aa64 18bc 650e 92bc
00000320: 22ae ebbd 3d62 e8bb f9bb 5bbe 5c0f 6bbe
00000330: cdb7 a23d b83f 913b b7ab a4bb 1373 61bd
00000340: 2fd5 b43d 2e3d d53d cb0d c5be dc33 643e
00000350: fe30 d5bc 3d18 03bd 2a55 93bb 37b5 df3d
00000360: 4cb5 4fbf 4360 3ebe db51 5e3e 7678 f03d
00000370: 7a3f c0be e561 28bf 3b6b 043c 909a fdbe
00000380: 03b6 8fbd 4169 66be 9d0e 053e 1650 733c
00000390: 6bc8 43bd 18e6 09bd 7ff9 37be 0da2 4dbd
000003a0: 331c abbd 4e42 abbe 4c1f 97bd d125 a13c
000003b0: 5e16 01bf 8839 90bc 9c7c 213f 5f36 fa3c
000003c0: 45e3 36bd e931 653d 9b40 9e3e eb06 aa3d
000003d0: f91e 133e 9d16 c33b 1fb1 31bf d03c 013d
000003e0: 4570 773d 9014 4abc 7f2e 58be 5e6a d93c
000003f0: a9b9 42bd dfbb 113b 256f e43c bb17 4ebf
-0.03031138 -0.12139672 0.1550566 -1.2113272 0.18159981 0.24540456 -0.0035722903 -0.1250273
-0.010500993 0.10377222 -1.5695531 -0.07695583 0.1345098 -0.31039175 -0.0069011142 -0.53463966
0.02559618 -0.080773115 -1.9585567 -0.06229442 -0.5551722 -0.009514967 0.5562624 0.08336855
-1.2222822 0.06566646 -4.153039 0.005492477 0.048115082 -0.2783151 -0.110549524 -0.09223084
0.38233724 -0.05419709 0.025368046 -0.05535429 -0.25065058 -0.1967054 -5.3534575 -0.1300229
-0.013235017 0.017891306 0.021379447 0.060921416 0.04874196 0.06160402 -0.07627813 0.07009809
-0.04336591 -1.4547879 -0.010335039 -0.008798064 -0.06302532 0.08494735 -0.027409336 -0.14983371
-0.044768363 -0.037817426 -0.053133886 -0.13977772 -0.000858255 0.0074738567 0.002164596 -0.6950991
-0.3788493 -1.5715678 0.19042368 0.069088444 0.41318953 -0.053363804 -0.043828826 -0.19793496
0.081337966 0.006554769 -0.22095375 -0.13358322 0.2916837 -0.041859537 -0.21680982 -0.18374218
0.63221717 0.28420898 0.17144226 -0.043451104 0.23766634 -0.09988358 0.0041042743 -0.10270483
-0.00033798534 -0.08452282 0.034985255 -0.14520973 -0.23910685 -0.36078972 -0.016409986 -0.031974368
-0.31138134 -0.046561655 0.025625616 0.051097754 -0.21615522 -3.7295299 -0.12218659 0.16263056
-0.047303487 0.4700155 -0.39903745 0.00946404 0.058850817 -0.18532042 -0.28923777 0.022289017
0.00094177737 0.032959275 -0.068985894 0.122125685 0.021454437 -0.012821558 0.08152898 0.030356957
0.6779091 -0.06915195 0.05593469 0.06620697 -0.047555733 -0.20037909 -0.1316586 0.042694293
-0.03336952 -2.6695223 0.08912189 0.30591878 -0.005867044 -0.008986512 0.46915948 -0.062429633
0.12198552 -0.29511765 0.17197327 -0.0268421 0.08617029 -0.027876189 0.22490105 0.018096423
-0.48023313 -0.041352663 -0.03684041 0.2845758 0.25581872 -0.097226 -0.10346397 -2.6108243
0.034907654 0.041611746 -0.009786234 0.39556438 0.054781947 -0.20479631 -0.06506764 0.07387904
0.100891575 0.020316387 -0.6975867 0.111987285 0.12163592 -0.019607209 -0.71550953 0.07165187
-0.03216871 -0.031466033 -0.024008075 -0.0027533905 0.06331072 0.35226017 -0.06980829 -0.11698344
0.020338021 0.11193963 -0.116454914 0.01631079 0.011801135 -0.010754751 -0.92719644 0.050260406
0.07547924 0.20387161 -0.22420844 -0.02412349 -0.03289427 0.045081753 -0.009897084 -0.041366477
-0.061988566 -0.08683033 -0.037202813 0.03912736 0.011956325 0.070610926 -0.009301344 -0.01782913
-0.115078226 -0.007091789 -0.21458425 -0.22955078 0.079452135 0.0044326447 -0.005025353 -0.055041384
0.08829724 0.1041206 -0.38487086 0.22285408 -0.026024338 -0.032005537 -0.0044962363 0.10923236
-0.8113601 -0.18591408 0.21710913 0.11741726 -0.3754843 -0.65774375 0.008082206 -0.49531984
-0.07017138 -0.22501089 0.12993856 0.014850637 -0.047798555 -0.0336667 -0.17966269 -0.05020337
-0.08354988 -0.33449024 -0.07379016 0.019671353 -0.50424755 -0.017605558 0.63080764 0.030543504
-0.044650335 0.0559558 0.30908665 0.08302101 0.14367284 0.0059536234 -0.6941089 0.031552136
0.060409803 -0.012334004 -0.21111487 0.026539978 -0.04754034 0.0022237224 0.02788503 -0.8050496

layers.6.bias f4 [128]
00000000: de92 583e 35d9 6ebe 8f3c 3b3d a6c0 0fbc
00000010: 2492 27be b678 10be dce1 773d 9dd2 1d3e
00000020: a77e 6dbe 931c 5c3d 719e 5c3e 8a15 14be
00000030: fdd9 de3d acaf 20be e873 0f3e f935 59be
00000040: b556 333e 3557 84be 2c47 81b9 d009 8d3e
00000050: 49ae 1abc 9987 e2bd 86b5 3abe 1962 4abd
00000060: 3a90 f43d 6cb5 93be 2522 51be 21d8 bd3e
00000070: 5a92 123e 88d2 cabe a5e5 933e 92df 86be
00000080: 90b0 e2bd e867 113d 4d61 92bd 1f34 d73e
00000090: 8a31 d33d 44e3 0cbe 1a15 8fbe ea13 a0bd
000000a0: e492 e53d 63c7 1cbe 325f 7b3c b5ac 0ebf
000000b0: d5dc 40bc 214e 4a3e 8108 98be ce28 90be
000000c0: 6fbf b7be 14f1 08bf 2f63 0a3d c5a3 21be
000000d0: 36b6 e33d 981b 18be 5bd3 ccbe 2c38 9ebd
000000e0: 42e9 aebf 6cca cf3d 84ba 973d 42df d4bd
000000f0: 7314 423e dc8e 1ebd 0309 54be c929 64bd
00000100: fe46 9d3d ae6d 2bbc 6b05 68be 265c 26be
00000110: bd34 20be 48e4 253c 5771 38bf 93ba 80bd
00000120: 3724 c9bd e2ca 39be 5c60 1bbe f4d3 40be
00000130: a49e c6bd c70d 3dbd 0181 dcbc 04a5 b0bd
00000140: 14d9 12bf 2a4a b2bc 8ebd bfbb d9b7 85bc
00000150: b4ff 32be da70 883d 9af5 103d 6853 363e
00000160: 36af 15bf c5c8 fd3e bab1 293e 2184 173e
00000170: 8d01 8ebe 6b79 0a3d 3e77 77be a268 143d
00000180: 4311 3ebe c6a4 db3b 30ca ba3d 0d80 873e
00000190: 885f 3ebe f5b1 3fbe b9b9 503d 4ea8 513e
000001a0: 003a 36be 0cc7 073f e48f 2dbe 35e4 8ebd
000001b0: 3191 53be 9387 02be 5747 2e3e d086 a3be
000001c0: 8f57 20be 7a2a 50be f73c a43d a32c f1be
000001d0: db09 463d 71be 0ec0 f09d 863d 7fec c93d
000001e0: 79a2 173d 9af4 aa3d 012d 8cbe bffa e5bc
000001f0: 7708 9d3e eda4 04be 656f c3be a7d4 39be
0.21149775 -0.23325045 0.04571205 -0.008773958 -0.16364342 -0.14108548 0.06051813 0.15412374
-0.23192845 0.053738188 0.21544816 -0.14461342 0.10881422 -0.15692014 0.14009058 -0.21211995
0.17513545 -0.25847784 -0.00024657825 0.2754655 -0.009440967 -0.110610195 -0.18233308 -0.04940996
0.119415715 -0.2884935 -0.20423181 0.37078956 0.14313641 -0.39613748 0.28886142 -0.26342446
-0.11068833 0.035499483 -0.07147465 0.42031953 0.10312183 -0.1375857 -0.27945787 -0.07816298
0.11209658 -0.15310435 0.015342521 -0.5573228 -0.0117714 0.19756366 -0.29693988 -0.28156132
-0.3588824 -0.53492856 0.033785995 -0.1578513 0.11118738 -0.14854276 -0.40005 -0.07725558
-1.3664935 0.10146031 0.07408622 -0.103941455 0.18953113 -0.03871046 -0.20706563 -0.055703912
0.07679556 -0.010463161 -0.22658317 -0.1624609 -0.15645118 0.010125227 -0.7204794 -0.06285586
-0.098213606 -0.181438 -0.15173477 -0.18830854 -0.09698227 -0.046155717 -0.026916983 -0.08625224
-0.57362485 -0.02176388 -0.005851454 -0.016323017 -0.17480356 0.0666215 0.035390474 0.17805254
-0.58470476 0.49567237 0.16571704 0.14796497 -0.27735558 0.0338072 -0.24166581 0.036232598
-0.18561272 0.006702992 0.091205955 0.26464882 -0.1859113 -0.18720229 0.05095837 0.2047436
-0.17795563 0.53038096 -0.16949421 -0.06977121 -0.20660855 -0.1274703 0.17019401 -0.3193879
-0.15658401 -0.20328704 0.080194406 -0.47104368 0.048349243 -2.2303736 0.06573093 0.09859561
0.03702018 0.08347435 -0.27378085 -0.028073667 0.3067052 -0.12953539 -0.38170925 -0.18147527

layers.8.weight f4 [11, 128]
00000000: 197f 593b 833c 023d 8434 49bb 6bfb e1bb
00000010: 833a 063b e19d 973d d16c 43ba 6476 68bd
00000020: 995e ab3c 5d18 403a 840c 0b3d 6b20 1c3e
00000030: c320 1cbd 6ee7 9abc 5c0a 993b 483c 893c
00000040: 1fd4 7a3d de57 cd3d 84d6 6bbc af4d 7a3b
00000050: 1e88 1abd 91ab 44bd 02e8 46bc 8c74 9fbc
00000060: f527 0739 af03 91bc 9c66 24bc 58ae d3bd
00000070: a9a3 cd3c ce78 00bd 730c 14bc 3f16 b33c
00000080: 0e04 923d ed78 a535 03b6 4dbb 23f5 dc3b
00000090: 36ad 2abd 5a93 c9bb 3760 bd3d 8c4c b33b
000000a0: 1a89 f339 d1fc bebc 5913 f5bc e5ae db3d
000000b0: 2bf5 063b 58d2 40bb 2f57 4fbd d1ac ddbc
000000c0: eaca 7f38 50a1 80be 1f36 2d3b 54b2 a83d
000000d0: d88e d13c 3bd4 e4ba 60f1 61ba 0d68 5dbb
000000e0: bc9a 5cbd 531a f63b dcc9 babc b596 233d
000000f0: 14b7 403b 5fc1 633b db97 98ba 77b5 3dbc
00000100: 8d30 5d3d e07e 3c3c 5187 fbbb a510 9a3b
00000110: 8a98 02bd 2b10 5abb 6c6a 803e ef05 a53b
00000120: ffc8 b2bc 5a1a 3e3c 1b9d 0f3d 2f16 e73d
00000130: 7763 65bb de04 883d cb49 c03a db10 183c
00000140: 790a 29bd a878 e23c 12da 8abb 4565 a4bc
00000150: 6bf5 813c 5657 9fbb 3bd4 5abb 07f2 073d
00000160: ba82 20bd 11fd d53b d28e 32bc bd62 60bd
00000170: 5013 1c3e 46bf 853d 208e a23d 078b d5bb
00000180: 580a a33c 5893 d439 6c5c 1bbb 8b92 d33c
00000190: 1164 a2bb 01c1 debc d845 973c 3b60 a9bc
000001a0: 195d 68bb 6e61 5abd 1dcf 27bb efd5 5bbb
000001b0: f99c d6bc 3c11 48bc ba20 61bc b022 583d
000001c0: c699 a53a 2c80 3abd c9a4 c03c f860 9f3a
000001d0: 57f5 5a3c cc07 01bd d080 d43c 915a ebbb
000001e0: 1fd2 a53a 394c febc cff3 05bc 7704 d8bc
000001f0: 501e 1dbc 4d23 eb3b b16c afbc 7b2c 073d
00000200: 2fb5 8e3b 46ce 4b3c 7f61 ae3b cb5f 54bb
00000210: 3e0e 273c 6ddb b03d a44f 0abc 2a61 debc
00000220: 09eb 4b3d ae68 6839 75cb 983c 76cd 053d
00000230: 1bc6 463d eed8 17bd e2fc 883b 33f3 48bb
00000240: b366 63bd b91d ccbb c495 083c 6946 023c
00000250: 42c6 24bd 4c6a 403d f61b a6bc 0b37 233c
00000260: daf0 26ba cea4 14bc 4340 7a3c bffd 43bd
00000270: 8087 123d 234f 3c3d b3e6 5dbb 5af3 83bc
00000280: 76e4 8a3d 94ac 7fb8 1751 f9bb b46f a9ba
00000290: 2228 8dba 9126 f63c c0c8 e739 e80f 463b
000002a0: 479b 6bbb aa74 27bd 44f3 483c 229c 6a3e
000002b0: 36e5 abbb eac3 98bb f7df b43d 88eb 543d
000002c0: 3bea bdbd 8682 473e 21e5 313a ea1e 77bc
000002d0: 4b89 fe3c bfde b23c 8a1a fdbb de41 b2ba
000002e0: e8a8 47bd d3c6 d73b e835 debb c7ba eb3a
000002f0: c827 46b8 19d4 1ebd 5a9c b53d be5e 44bc
00000300: fdca f1bb 4f43 70bb 601a 98ba 45d1 7f3c
00000310: 1440 3abd 49d1 2fba 9e2a 1b3e 9eac b13c
00000320: bfdd 7cbd 77c2 4e3d 1f81 b13d 8d4f c0bc
00000330: 31ef 483c 76fe 84bd 6b51 49bb 38a0 d3bc
00000340: a340 d63d 3140 873c 18fe 35bb cd20 c8bb
00000350: 066b dc3c 22a3 a8bc 8c69 393a bb55 8f3c
00000360: 1dbd 293d 93cd 893c 3fff 3b3b 98de d8bc
00000370: 4a68 b9bd 99e0 8abd 1321 f13c b289 ecbb
00000380: 8160 44bd 7c14 8d3b a400 303a bb1e 073d
00000390: 7c5c 35bc f8f2 e73d e679 a93c 4c67 2f3c
000003a0: 3b3c 2cbb 25bb e2bc cd92 55bb 2cd7 e03a
000003b0: 0441 fe3b 16d9 48bd 1636 02bd 18f5 c7bd
000003c0: 2fad 0dbd d4c2 d6bc bdf6 fe3b b47b d3bb
000003d0: 4e14 8f3c 81d2 90bc 8c18 073d 92b8 1fbc
000003e0: dd23 8e3b a25b 1abd 64ae 82bd aae5 a13d
000003f0: b657 30bc d041 92bd bea7 01be 6d12 193d
0.0033187328 0.03179599 -0.0030701468 -0.0068964264 0.0020481653 0.0740316 -0.00074548746 -0.05675353
0.020919131 0.0007327849 0.033947483 0.15246741 -0.03811718 -0.018909182 0.0046704244 0.016752377
0.06123745 0.10026525 -0.014394406 0.0038193276 -0.037727468 -0.04801518 -0.012140276 -0.019464754
0.00012889488 -0.017701952 -0.01003423 -0.10335988 0.025102453 -0.03136521 -0.009036171 0.021861194
0.071296796 1.2328652e-06 -0.0031389005 0.0067430898 -0.041669093 -0.006151599 0.09246867 0.0054717716
0.0004645072 -0.023313912 -0.029916452 0.10726718 0.002059291 -0.002942225 -0.050620254 -0.027059944
6.0985716e-05 -0.25123072 0.0026429964 0.082371384 0.025580809 -0.0017458269 -0.00086190365 -0.0033783943
-0.053858504 0.0075104623 -0.022801332 0.039938647 0.0029405998 0.003475271 -0.0011641936 -0.011578909
0.05400138 0.011504859 -0.007676043 0.004701691 -0.031883754 -0.0033273797 0.25081193 0.0050361077
-0.021824358 0.011602962 0.035061937 0.11283528 -0.0035001913 0.06641553 0.001467043 0.009281362
-0.041269753 0.027645424 -0.004237422 -0.02006782 0.015864095 -0.004862706 -0.003339066 0.0331898
-0.03918717 0.006530412 -0.010898309 -0.054781664 0.15241742 0.06530623 0.079372644 -0.0065168175
0.019902393 0.0004054557 -0.002370621 0.025826713 -0.0049557765 -0.02719164 0.018465921 -0.02067577
-0.003545588 -0.053315572 -0.0025605627 -0.0033544262 -0.026197897 -0.01221114 -0.013740713 0.052767456
0.0012634329 -0.04553239 0.023516076 0.0012159636 0.013364158 -0.031501576 0.025940329 -0.007182427
0.0012651122 -0.031042205 -0.008175804 -0.026369317 -0.009589747 0.007175839 -0.021414133 0.033001404
0.004355095 0.012439316 0.005321681 -0.003240573 0.010196267 0.08635602 -0.008441839 -0.02714594
0.049784694 0.0002216424 0.018651703 0.032666646 0.04852877 -0.037072115 0.0041805366 -0.0030662536
-0.055517863 -0.006229129 0.008336488 0.007951357 -0.040228136 0.046976373 -0.020277005 0.009961854
-0.0006368287 -0.009072496 0.01527411 -0.047849413 0.035773754 0.04597391 -0.0033859431 -0.01610725
0.06781857 -6.0957464e-05 -0.0076085436 -0.0012926967 -0.0010769407 0.030047687 0.00044209324 0.0030221883
-0.0035950707 -0.040882744 0.01226503 0.22911122 -0.00524583 -0.0046620267 0.088317804 0.051982433
-0.092731915 0.19483384 0.0006786157 -0.015083054 0.031071326 0.02183473 -0.007724111 -0.0013599952
-0.048745066 0.006584981 -0.0067813285 0.0017984741 -4.7243928e-05 -0.03877649 0.08867712 -0.011985479
-0.0073789344 -0.0036661213 -0.001160454 0.015613859 -0.045471266 -0.0006706906 0.15152976 0.021688756
-0.06173491 0.050478425 0.08667206 -0.023475433 0.012264059 -0.06493847 -0.0030718695 -0.025833234
0.10461547 0.016510101 -0.002776986 -0.006107426 0.026906502 -0.0205856 0.00070729177 0.017496934
0.041440118 0.016821658 0.0028686074 -0.026473328 -0.09053095 -0.0678112 0.029434716 -0.007218563
-0.047943596 0.0043054204 0.00067139626 0.03298829 -0.011069413 0.113256395 0.020688009 0.01070578
-0.0026281017 -0.027677128 -0.003258872 0.001715397 0.0077592153 -0.049035154 -0.03178986 -0.09763545
-0.03458899 -0.026215948 0.0077808783 -0.0064539555 0.017465737 -0.017678501 0.032982394 -0.009748595
0.0043377713 -0.037685044 -0.063809186 0.07905133 -0.010763099 -0.07141459 -0.12661645 0.037371088
