Simulation/saved_data/models/model_otherNormWay.pth (torch, 540178 bytes, 10 tensors)

layers.0.weight f4 [128, 6]
000000 0f 5a d8 bd b1 f6 33 3e 5c 9f 2d bd f5 61 de bd
       -0.10564052 0.17574574 -0.042388305 -0.108585276
000010 3c 53 8d bd 7f 82 76 bd 76 54 64 be 6e a1 53 3d
       -0.06900641 -0.060183045 -0.22297844 0.051667623
000020 10 63 c7 bf 98 b1 69 c0 6a 5e b1 bf fb 0f c3 be
       -1.5577106 -3.6514645 -1.3856938 -0.3809813
000030 6f fb b6 bc 47 94 bd bc 9a 2c 18 3e 3c b9 6e bf
       -0.02233669 -0.023141993 0.14860764 -0.93251395
000040 1e 10 fe bc c8 9a e3 bd 5c 31 67 3e 26 d5 94 bf
       -0.031013545 -0.111135066 0.22577423 -1.1627548
000050 0c e3 18 be 90 5a 34 be f0 8f a4 be f2 45 22 bf
       -0.14930362 -0.17612672 -0.32141066 -0.6338798
000060 23 5a a5 bf 2d 62 a5 3f 2e af a1 3a 1a 29 a5 bb
       -1.2918133 1.2920586 0.0012335533 -0.0050403
000070 c5 4d c5 bb 2c 03 e5 3b 69 8b ac be c9 21 a6 be
       -0.0060212337 0.0069889035 -0.33700112 -0.3244765
000080 82 e0 cd be 3d a3 8b be 9a 43 fa 3d 7d 2e c3 be
       -0.40210348 -0.27272978 0.12219925 -0.38121405
000090 b5 f8 ac bf 2b a2 1b 3f 00 55 11 bf 90 6c c0 3e
       -1.3513399 0.60794324 -0.56770325 0.37582827
0000a0 52 c6 2b c1 1b 42 67 c1 6e b2 5f be 67 40 2e bd
       -10.735918 -14.453639 -0.2184541 -0.042541888
0000b0 e4 7c 37 be f8 96 b3 3d 01 e9 02 3d 00 a3 01 bd
       -0.17918736 0.087690294 0.03196049 -0.03164959
0000c0 bc a1 7e bf 4e a5 59 bf 5e e3 81 bf 5c 11 9b be
       -0.9946554 -0.8501786 -1.0147512 -0.30286682
0000d0 ee a1 53 be f2 c6 b4 be 3f 9d 5f 3a bf 60 d8 3c
       -0.2066724 -0.35308033 0.00085302064 0.02641332
0000e0 97 b3 d9 be 29 5f ff 3d 45 dd 89 bc 69 28 2a bd
       -0.4251983 0.12469322 -0.016829142 -0.041542444
0000f0 75 08 5d bf 3e e0 36 bf f6 bd d4 bf ab 02 bc bf
       -0.8634103 -0.71435916 -1.6620471 -1.4688314
000100 ec 6a ce bd 49 47 81 3e 96 af 96 be 18 f7 15 bd
       -0.100789875 0.252497 -0.29430836 -0.0366126
000110 78 10 4c 3d 68 9a 32 be fe 19 80 be 2b d8 40 be
       0.049820393 -0.17441714 -0.2501983 -0.18832462
000120 0a 38 38 be 17 80 ab bd 34 8e 01 be be 68 5d be
       -0.17990127 -0.083740406 -0.12651902 -0.21621987
000130 8f 48 cd bd 96 6b 97 be 81 65 bd bf 5a e7 1f 40
       -0.10023605 -0.2957427 -1.4796602 2.4984956
000140 3c 53 43 bb bd 66 88 ba 62 22 a9 ba ef dd 73 bb
       -0.002980425 -0.0010406595 -0.0012903924 -0.003721114
000150 75 1f 9f 3e 13 c5 01 bd 64 c7 29 c1 aa 0b 0a bf
       0.31078687 -0.031682085 -10.611179 -0.5392405
000160 59 1d 15 be 1a 74 dd be 0d 71 e3 bd 8b 26 c1 bd
       -0.14561976 -0.4325264 -0.11105547 -0.094311796
000170 5c 8c b8 be 6a 12 e2 3d 29 9b 65 bd ab a4 b0 bd
       -0.36044586 0.110386685 -0.056056175 -0.08625158
000180 ad 0f 65 3e d6 32 40 3e d1 bd 46 be 8b 82 b6 3c
       0.22369261 0.18769392 -0.19408347 0.022279045
000190 28 56 ec bd 4f b0 57 bd 06 b0 87 c0 66 ba 65 c0
       -0.115398705 -0.052658375 -4.240237 -3.5895019
0001a0 bc 1b 8f bb c5 ab 87 3c df f0 12 3b fd 28 9f bb
       -0.00436732 0.016561398 0.0022421402 -0.004857181
0001b0 3f 2d f3 bf a6 bf fb bf 5a b3 b5 bf 69 cf 99 be
       -1.8998183 -1.9667861 -1.4195359 -0.30041054
0001c0 99 a2 ea 3d c8 cb af 3d c3 76 92 3e 3e c6 37 c0
       0.11456794 0.0858379 0.28606233 -2.8714747
0001d0 31 51 1e be 4b e1 10 bf 99 6f ac be 59 8b 0d bf
       -0.1546066 -0.5659377 -0.33678892 -0.5529075
0001e0 4a ca 94 bd 00 2f d3 bd 44 f8 81 3e 44 55 db be
       -0.07265146 -0.10311699 0.25384724 -0.4283849
0001f0 32 11 89 bc 50 d3 13 bd 95 e2 05 3c 1b 7d cc bb
       -0.016731832 -0.036090195 0.008171697 -0.0062404997
000200 d5 da 9b bb 15 22 92 3b 7e db 88 bf ed bf 88 3f
       -0.0047563114 0.0044596293 -1.0691984 1.0683571
000210 cb aa 88 be e0 34 2d 3e 4a 03 40 3c b6 a1 e5 bd
       -0.26692805 0.16914701 0.011719534 -0.112124845
000220 41 51 30 bd b2 2d 2e bc 64 9d 3c bf b3 26 5b be
       -0.04304624 -0.010631012 -0.7367766 -0.21401481
000230 fa c3 24 be 3b 3f ea 3c d2 e3 10 be cc 76 3c bd
       -0.16090384 0.028594604 -0.14149407 -0.04601173
000240 93 12 db bd a2 ed 8f bf a8 c1 ed 3d 5d f7 50 bf
       -0.10696902 -1.1244395 0.116092026 -0.81627446
000250 5f c6 8e 3c 1c 37 dd bd c5 5a e2 3e 11 d5 43 be
       0.017428575 -0.10801527 0.44209877 -0.19124247
000260 44 86 b9 bf 5a 3d 0e c0 17 96 95 3c 07 f0 07 c0
       -1.44941 -2.2224946 0.018260045 -2.124025
000270 a9 db 0f 3f b0 82 c1 bf 7e 93 97 3a e3 4b d9 3b
       0.5619455 -1.5118008 0.0011564342 0.006631361
000280 29 de 3a 3a 35 f7 aa 3b 56 56 62 bf 97 d0 9c bf
       0.00071284414 0.0052174577 -0.8841299 -1.2251157
000290 11 6c 1f bf a3 8f 18 3e 64 e5 c6 bd db 08 50 bf
       -0.6227427 0.14898543 -0.097117215 -0.8126351
0002a0 44 d7 f8 bd 0a 7b 83 be 48 c9 96 be a0 b0 63 bc
       -0.12150434 -0.2567981 -0.2945044 -0.013897091
0002b0 dc 02 ea bd ac eb c7 be 42 c7 4a 3c a0 b4 8d be
       -0.11426327 -0.3904699 0.012376608 -0.27676868
0002c0 46 12 c1 bd 1d 10 a2 3c 06 ab db bd 5f 27 63 3c
       -0.094273135 0.019783074 -0.107259795 0.013864367
0002d0 49 fe af ba 32 07 ce 3d d1 8b 98 bf 8c b6 15 bf
       -0.0013427223 0.10059966 -1.1917669 -0.5848167
0002e0 4d 10 19 be ce 71 78 be 1c dd 16 be 8d 92 c3 3e
       -0.14947625 -0.24262163 -0.14732784 0.38197747
0002f0 50 b6 48 bd 1c 70 ac bd 1c 6e a8 bc c0 ae 1d bd
       -0.04900199 -0.08419821 -0.020560317 -0.038496733
000300 42 b2 07 3d b8 4e 1a 3d 91 e9 9a 3e f5 b5 d8 bf
       0.033128984 0.03767273 0.30256322 -1.6930529
000310 3a ad 93 be 32 a5 75 bd 29 53 d1 bf 26 50 06 3f
       -0.288431 -0.059971996 -1.6353503 0.52466047
000320 e7 03 3c bf 57 f4 a4 be aa e7 64 bf 70 e8 5d be
       -0.73443455 -0.32217667 -0.8941599 -0.21670699
000330 89 44 26 c1 c4 ad 1e c1 e9 42 dd 3c cf 8f 20 bc
       -10.391732 -9.917423 0.027009444 -0.009799912
000340 f6 49 cc 3b 46 77 28 ba 8c dd 47 3c f3 f7 a7 bb
       0.006234403 -0.00064264645 0.012198817 -0.0051259934
000350 6f 7e 04 bc 5e 41 4b 3c c7 cc ad 3f 1c 66 ad bf
       -0.008086785 0.0124057215 1.3578118 -1.3546786
000360 05 05 1f be c3 29 b9 bd 79 7a 99 3c fa 7b d7 be
       -0.15529259 -0.090411685 0.018735157 -0.42086774
000370 b6 86 17 bd 6b 14 6b bd 68 fc d1 bb 3a 0c b3 ba
       -0.036993705 -0.05739252 -0.006408263 -0.001366026
000380 c0 16 93 3c 19 c7 0e bc d1 00 31 c0 85 50 31 40
       0.017955184 -0.008714461 -2.7656748 2.7705395
000390 e1 04 66 39 54 c1 64 3b 1e 1a 96 3f 0b 5c 96 bf
       0.00021936327 0.0034905272 1.172672 -1.1746839
0003a0 14 51 74 3a 1d 8f 19 bb 88 49 3a bf 44 88 c3 be
       0.0009319943 -0.002343125 -0.7276845 -0.381899
0003b0 31 fa ce be a1 3d a4 be 56 6d 6d bd 80 dc 2c be
       -0.40425256 -0.3207827 -0.0579656 -0.16880989
0003c0 7c ea 2b 40 7b 20 c2 bf a2 63 f1 3b 23 f1 cf 3b
       2.6861868 -1.5166162 0.0073666135 0.0063458844
0003d0 60 d3 3f ba 44 77 df 39 45 a6 a2 be ee 96 70 be
       -0.0007317569 0.00042622734 -0.3176748 -0.23495075
0003e0 14 60 da be d3 9d 23 be df d2 39 be 1d 60 5d be
       -0.42651427 -0.15978174 -0.18146847 -0.21618696
0003f0 fb 94 39 bd ed b4 b6 be 17 23 f5 3b c4 d8 cf bb
       -0.045308094 -0.3568491 0.0074809897 -0.006342979

layers.0.bias f4 [128]
000000 2e 5e 3d bf 5a 94 03 40 65 db 3b bf b2 b7 19 be
       -0.7397183 2.0559297 -0.73381644 -0.1501148
000010 16 b3 e8 bc 12 57 b8 be fc be 35 3e 9d d0 5c bf
       -0.028405707 -0.3600393 0.17748636 -0.8625582
000020 ec d5 8c 3f 76 a3 59 bf 1f 34 34 bf ba 1d 3b be
       1.1002784 -0.85015047 -0.7039203 -0.18273059
000030 0d ae db 3e 43 cd 10 c1 f8 af 0a bf e1 25 b8 be
       0.42906228 -9.050113 -0.54174757 -0.359664
000040 8e 32 fe bf cc 23 16 40 fe 7e 96 3d 02 61 fd 3e
       -1.9859178 2.3459349 0.073484406 0.49488074
000050 4a fb c2 bf 6d a4 c5 ba f7 d7 54 bf 82 fd 72 3e
       -1.5232937 -0.001507891 -0.83142036 0.23729518
000060 76 e8 fd be 8a ae d0 bf 9f 58 ff 3e b1 0b 98 3e
       -0.49591416 -1.6303265 0.498723 0.2969642
000070 9f e6 45 be 89 99 04 be 16 df 40 be 5f f8 dd bf
       -0.19326256 -0.12949194 -0.188351 -1.7341422
000080 53 8a e9 bf 29 44 5d bf 5a a3 71 40 14 16 e8 3b
       -1.8245338 -0.8643213 3.7755952 0.00708271
000090 a6 2f 42 3d b1 79 30 c1 86 f6 9a bc 68 2e 3d 3f
       0.047408722 -11.02971 -0.01891638 0.73898935
0000a0 b2 d6 1b c1 af c1 05 3f da 1c e5 be 1a cd 64 bf
       -9.739916 0.5224866 -0.44748574 -0.8937546
0000b0 ca d6 eb c0 96 c6 40 3f 57 b8 e0 bf e7 84 4a be
       -7.3699694 0.7530302 -1.7556256 -0.1977726
0000c0 1d 39 30 c1 4c 43 1e bf 53 9c 46 bd 96 82 93 bf
       -11.013944 -0.61821437 -0.048488926 -1.1524227
0000d0 da cc 5d bf 8e 90 b7 bc 32 87 60 bf 93 43 28 40
       -0.86640704 -0.022407796 -0.8770629 2.6291244
0000e0 f8 ab 4a be 6d d4 96 bf 63 51 48 c0 9c 27 fb be
       -0.19792163 -1.1783577 -3.1299675 -0.49053657
0000f0 8b 42 c8 3e 70 37 8b bf 8f a0 99 3e 26 aa c1 40
       0.39113268 -1.0876293 0.3000531 6.05202
000100 9f f7 66 3e cf 84 c2 be 4a e9 d0 be 35 19 19 3f
       0.22555397 -0.3799195 -0.40802985 0.5980409
000110 4f 41 2a bf 74 66 b5 3d 22 01 a5 bf ae 8d 0a bf
       -0.66505903 0.08857432 -1.2890971 -0.54122436
000120 7a eb 35 40 6c 40 88 be 25 b7 0a bf 0f ab 9d 3f
       2.8424973 -0.2661165 -0.54185706 1.2317828
000130 c7 ff 16 3f e7 cb 29 40 d0 b7 87 be 93 30 a3 bd
       0.58984035 2.6530702 -0.26507425 -0.07968249
000140 08 9f 1c bd 02 4f 1e 3e 68 f4 a2 be d1 40 e3 3e
       -0.0382376 0.15459827 -0.31827092 0.44385388
000150 bc 73 ce bb dc 97 e7 be 11 27 ee 3e 6a 86 7a bf
       -0.0063004177 -0.45233047 0.4651418 -0.9786135
000160 6a 0e 68 3f e8 bd 3d 3f 8d cd 8b 3f 7c bf 3b bf
       0.90646994 0.741179 1.0922104 -0.73339057
000170 46 75 ec be 14 4b 8e bc cf be a5 c0 8b 08 2e c0
       -0.46183223 -0.017369784 -5.179542 -2.7192714
000180 85 d4 4b bf 93 78 0a 3d 65 62 12 40 fe 58 ac bf
       -0.79621154 0.033806395 2.2872555 -1.3464658
000190 8c e7 98 bd ac 97 7c be 9c e1 63 be 23 7d 3b bf
       -0.07466039 -0.24667233 -0.22254032 -0.7323782
0001a0 aa 7c 0c bf af 18 89 be 74 da 89 be 87 34 25 be
       -0.5487772 -0.26776645 -0.2692448 -0.16133319
0001b0 b1 1e 44 c0 e9 86 f5 3f 23 45 05 bf fc f2 f5 bd
       -3.0643733 1.9181796 -0.5205862 -0.12009236
0001c0 ba df 18 bf 8e 8a 7c be b2 d8 db 3e 5d 14 6e bf
       -0.5971638 -0.2466223 0.42938763 -0.9299982
0001d0 ee 6a 1f 3f 42 78 05 40 21 d9 60 bc c3 bc b5 be
       0.62272537 2.085465 -0.013723643 -0.35495576
0001e0 2b 59 a8 bb f9 79 ad 3e d7 31 84 be 0f 99 bc 3d
       -0.005137583 0.3388212 -0.25819275 0.09208881
0001f0 62 e2 cb 3e e8 46 b2 be 03 14 94 bf 1b f0 2b 3d
       0.39821154 -0.34819722 -1.1568607 0.04197703

layers.2.weight f4 [256, 128]
000000 01 af fe bc a6 f3 e2 bd 27 f1 55 bd 78 67 20 bc
       -0.031089308 -0.110816285 -0.052231934 -0.009790294
000010 7b 0a 97 bc 6e 99 4c 3d 72 80 b5 bc bb 64 9f 3d
       -0.018437615 0.04995101 -0.022155974 0.07782885
000020 bf 59 5a bb 15 1a 23 bc 7f 96 37 3c 26 e3 19 3d
       -0.0033317653 -0.009954949 0.011205315 0.03757014
000030 ea 71 b8 bd 32 e6 a0 bd 44 2b c1 bd fb 26 86 bd
       -0.090061024 -0.07856406 -0.094320804 -0.06550404
000040 3d 58 48 3d 26 8e 16 bd 73 40 a6 bd 5c 33 81 bd
       0.048912276 -0.036756657 -0.081177615 -0.06308624
000050 ce 82 73 bd 04 59 c6 bd 69 92 42 bd 92 85 da 3c
       -0.059450917 -0.09684947 -0.04750291 0.02667502
000060 85 25 78 3d 0b c9 24 bd 02 e7 cb bd bb 11 81 3c
       0.060582656 -0.040230792 -0.099561706 0.015755525
000070 ee af 55 3d 5b e5 e1 3c fb f7 9e bd 65 00 b5 bc
       0.052169733 0.027575186 -0.07762142 -0.022094915
000080 e5 48 df 3c 25 c3 c8 bd e9 c2 50 bc 64 3a 58 bd
       0.027256439 -0.09802846 -0.012741783 -0.05279006
000090 aa 81 75 bc 85 13 4f 3c 6d 79 58 bd 12 62 74 3d
       -0.014984528 0.012638931 -0.052850176 0.05966384
0000a0 02 9e 89 bd 09 22 a4 bd 03 a5 53 3b 4d c2 c2 bd
       -0.06719591 -0.08014304 0.00322944 -0.09509716
0000b0 03 9b 33 3b b3 99 3c 3d 93 2d c5 bd 09 4c 43 3c
       0.0027405627 0.046045016 -0.09627833 0.011919984
0000c0 96 94 60 3d 04 97 3f 3d 27 09 bb 3b fa cc f8 bc
       0.054829203 0.04677488 0.005707878 -0.030371178
0000d0 7e 82 ff 3b 9a 0d 92 3d ca 97 32 3d 20 e0 ba bd
       0.0077975383 0.071315005 0.04360179 -0.0912478
0000e0 92 cc 4f 3d 54 aa b1 bd ce 0d b1 bc f2 75 61 ba
       0.050732203 -0.08675066 -0.021613028 -0.0008600644
0000f0 da 74 d2 3c 26 4f fb bc b2 41 b2 bc 24 69 9f bd
       0.025690485 -0.03067739 -0.021759842 -0.07783726
000100 aa ab 96 bd f4 cb a8 bd 45 67 03 bd c6 69 9f bd
       -0.07356961 -0.08242026 -0.032080907 -0.077838466
000110 a2 52 99 bd fe 00 67 3d 79 64 92 bd 03 6c 29 3c
       -0.07486464 0.05639743 -0.0714807 0.010340693
000120 0f c5 82 bd 9b 08 8b bd 7d 42 14 bd 39 e9 8b 3d
       -0.06385242 -0.06788751 -0.03619622 0.06831593
000130 95 42 12 bd 0b fd 0d 3d 23 63 9c bd a4 9e 25 bd
       -0.03570803 0.03466515 -0.07636096 -0.040434495
000140 95 d1 9b 3d 6e 8c 8b bd 33 a8 ab 3d f6 30 d4 bd
       0.07608334 -0.06813894 0.08381691 -0.10360901
000150 79 6c 6f 3c 12 8b 8c 3c d4 3e 0d bd 22 3e c6 3c
       0.014613264 0.017156158 -0.034483746 0.02419955
000160 8b db 65 3d 94 ad 48 bd 4d e1 2b 3d 55 73 01 bd
       0.056117576 -0.048993662 0.04196291 -0.03160413
000170 fd a5 1b bd 7e 87 1a bb b3 f0 c9 bd 84 dd c7 bc
       -0.038000096 -0.0023579295 -0.09860363 -0.024397619
000180 67 d4 13 3d 1c b1 7c bd 2b 91 53 3a 35 ed 69 3d
       0.036091235 -0.061692342 0.0008070643 0.057110984
000190 2f 91 20 bd 16 3c 8d bd fa 09 14 bd 7e de 25 3d
       -0.039200958 -0.06896226 -0.036142327 0.04049539
0001a0 bc 48 31 3d 4b c0 8e bd ba a9 62 3d 3f fa 57 bd
       0.043282256 -0.06970271 0.055337645 -0.052728888
0001b0 8c 9c 31 bd c0 54 2f 3d 9e 9b 1b bb c6 6a a6 bd
       -0.043362185 0.042805433 -0.0023743878 -0.08125834
0001c0 61 d7 77 3d 34 ca c4 3c 21 4c d6 3b 91 64 7c bd
       0.060508136 0.0240222 0.006539837 -0.061619345
0001d0 a2 31 60 bd 88 0f 65 3d 1c 35 9b bc 90 39 ce 3b
       -0.054734834 0.055923015 -0.018946223 0.006293483
0001e0 18 b3 fe 3c f2 82 bd bd b2 fd 00 3d f3 df ae 3d
       0.031091258 -0.092534915 0.031491943 0.08538809
0001f0 b2 51 09 3d e4 d3 05 bc 16 e2 d2 bd 08 6c fd bc
       0.033525176 -0.008168194 -0.10297029 -0.030935302
000200 26 ac 0e 3e 3c 57 65 be 98 68 2e bd 6c db c4 3d
       0.13932857 -0.22396559 -0.042580217 0.09612164
000210 4d 48 ab 3b 00 f4 50 3d ec 42 43 c0 c1 d2 64 3e
       0.005227125 0.051013947 -3.0509596 0.22346021
000220 2d e5 a5 ba 83 7a 26 3d 72 cb 4c be bb 6a 9a bd
       -0.0012656801 0.04064418 -0.19999483 -0.075398885
000230 24 14 2f 3e 5c 6e ad bd 0a 99 7b 3e 9f fd 5e be
       0.17097527 -0.08468315 0.24570099 -0.21776436
000240 c9 bc 3b be 08 e1 3c 3e 8a bf 83 be 43 24 86 3e
       -0.18333735 0.18445218 -0.2573207 0.2619954
000250 67 da 4a be 47 12 85 c2 53 54 2d bd 95 6b ac 3d
       -0.19809876 -66.5357 -0.042316746 0.08418957
000260 0e 63 8c 3e cf e3 af be 5e b0 9c ba e8 17 20 bd
       0.27419323 -0.34353492 -0.0011954417 -0.0390853
000270 95 f1 27 bd 92 d0 fb 3c 66 80 05 3d c3 45 60 bd
       -0.041001875 0.030739103 0.032593153 -0.05475403
000280 7f f3 8d be d7 78 ec bd d4 9a 08 c0 88 28 21 bf
       -0.27724835 -0.11546486 -2.13445 -0.6295247
000290 fe 54 86 bd cf 15 9f 3d 48 7b 13 c2 f0 7b 04 c0
       -0.0655918 0.077678315 -36.87039 -2.0700645
0002a0 40 c3 1d 3b 68 51 c1 be dc d3 09 be 5f 93 7f be
       0.0024072677 -0.3775742 -0.13459724 -0.24958561
0002b0 d3 a5 00 3f c6 ca a6 3e 04 77 a4 bf ee 9c 8d 3d
       0.5025303 0.3257658 -1.2848821 0.069146976
0002c0 2b b7 e1 bd 27 69 02 3c b0 a3 c3 ba 80 93 28 bd
       -0.11021265 0.007959641 -0.0014926102 -0.041156292
0002d0 9b 8a 50 be 5a 52 6c be 71 3f 4f be e1 5a 1f bd
       -0.20365374 -0.2307829 -0.20239045 -0.03890503
0002e0 0c 18 0b be 36 da e6 3d b6 db 93 3c 4c 6f 3a 3e
       -0.13583392 0.11272089 0.018049102 0.18206519
0002f0 67 3d 01 3e 24 e1 17 be 41 af 39 bd 7f 4e 26 3c
       0.1262108 -0.14831978 -0.04533315 0.010150551
000300 69 19 b1 bd 16 b0 10 bd b1 80 d6 bc 7c 96 fb 3b
       -0.08647425 -0.03532418 -0.026184412 0.0076778512
000310 78 ff 3d be 60 bc 39 bc be 13 77 3e 24 c4 a9 bf
       -0.18554485 -0.011336416 0.24128625 -1.3262982
000320 0e 06 cd 3c 07 9a ab bd 12 ad 24 3d 5a 04 1c be
       0.025027301 -0.08378988 0.040204115 -0.15236035
000330 0e cd 88 bf 5a 02 5c bd e1 4a ab 3e d4 fe a4 bc
       -1.0687578 -0.05371318 0.33455566 -0.020141043
000340 44 a5 a5 bd 43 32 d8 3d 75 12 23 be 93 9b 1c bf
       -0.080881625 0.10556462 -0.1592501 -0.6117489
000350 a9 a6 73 39 2a de 4d 3e 8e 70 00 bf 6b 81 2a be
       0.00023236372 0.2010428 -0.50171745 -0.16650932
000360 cf f9 f1 bc fb ab 6b be 8a 32 47 c0 ca 69 d3 3c
       -0.029538063 -0.23014824 -3.1124597 0.02580728
000370 be 04 46 bd 11 c4 41 bc d9 b0 fb 3c 1b d9 f4 3d
       -0.048344366 -0.011826531 0.030723976 0.11955472
000380 d7 bd ea bd 4c 6b 21 bd 18 2f 9b bd 81 46 67 bc
       -0.1146199 -0.039408967 -0.07577342 -0.014115931
000390 0c 56 2e bc 95 2b e3 bd 27 37 c7 ba 18 53 0e bd
       -0.010640632 -0.11092297 -0.0015198932 -0.034747213
0003a0 c1 e9 f3 be 06 0d 82 bc ce 81 f1 3c 08 e8 b0 bd
       -0.47639278 -0.01587535 0.029480841 -0.086380064
0003b0 1d 34 41 bf 54 da a2 3c ca 5e 55 be c4 f7 9b bd
       -0.75470144 0.019879498 -0.2083694 -0.07615617
0003c0 38 62 57 bc cc 26 b7 3b 4d 10 39 39 aa fc c3 bd
       -0.013145976 0.0055893417 0.00017649047 -0.09569676
0003d0 c2 c0 77 be 32 5a c1 bd ca 8b a3 39 42 f2 87 bd
       -0.24194625 -0.094410315 0.00031193934 -0.06638004
0003e0 39 39 ff 3d 3c bd 4d 3e 9a a8 99 be fb 63 21 3d
       0.12462086 0.20091718 -0.30011445 0.03940199
0003f0 4a cb 83 bd 0e b8 b9 bd 53 4b 0f be 8a 68 00 be
       -0.06435259 -0.09068309 -0.13993578 -0.12539878

layers.2.bias f4 [256]
000000 ff 84 1b 3d f0 c0 d3 3f 96 4c 5a bf b1 62 be 3c
       0.03796863 1.6543255 -0.8527311 0.02324042
000010 c6 f5 76 bd 1d 71 0d bc ab 76 9b bd 9b 81 4f bd
       -0.06029298 -0.008632925 -0.075909935 -0.05066071
000020 6e 6e 29 be 1f c5 c6 be 93 90 06 3f a3 57 e4 bd
       -0.16546032 -0.38822266 0.5256435 -0.11149528
000030 9a a3 2e be 68 5b 87 bd 98 da 29 bd 0c d8 2a bd
       -0.17054597 -0.06609231 -0.041468233 -0.041709945
000040 72 c3 30 be 9d d2 94 bd 17 bb 23 be 83 2d 0a bf
       -0.17262056 -0.07266734 -0.15989338 -0.53975695
000050 25 a6 22 3c 69 cb 85 3d 6e b3 25 3f 13 fc aa 3c
       0.009927307 0.06532938 0.6472691 0.020872151
000060 8e ee 30 be 63 f4 6c 3c 85 48 09 be 11 ab d7 3f
       -0.17278501 0.014462563 -0.1340657 1.684908
000070 4f 59 f7 bf d4 6a 68 bd 20 18 b3 c0 1a e2 7c bd
       -1.932413 -0.056742504 -5.596695 -0.061739065
000080 1e 9b cc bc 4b b6 a2 bd eb 63 f6 bf cb 19 e2 3f
       -0.02497631 -0.07944926 -1.9249243 1.7664121
000090 65 30 19 bd 34 bc d0 bd 25 3e 07 be 1b b6 64 c0
       -0.03739967 -0.10192147 -0.132073 -3.5736148
0000a0 83 1e 15 c1 81 d2 a2 bd e8 bd 7e 3c 69 25 04 be
       -9.319949 -0.07950307 0.015548207 -0.12904896
0000b0 58 2a 91 bd aa fb 2a be 9e 6b d1 3f 3d 37 f8 bd
       -0.070881546 -0.16697565 1.6360967 -0.12119911
0000c0 17 0e 15 be 3b be 9d bd d2 94 cc bd df 7e b6 bc
       -0.14556156 -0.07702299 -0.09989323 -0.022277294
0000d0 a2 e4 05 be 13 80 13 be 30 b3 2e bd c9 23 61 bc
       -0.13075498 -0.14404325 -0.042651355 -0.013741442
0000e0 88 59 29 bd 4f 5c f0 bd d0 e9 35 be ec fe 44 bc
       -0.04134515 -0.117363565 -0.17764974 -0.012023669
0000f0 a8 08 51 bb 92 a2 5a bf 29 96 3e be 7c 91 7f bd
       -0.0031896029 -0.8540431 -0.18611969 -0.062394604
000100 43 f1 d5 3c ac 2c fa ba 9c bb bb bd 6b 40 0e be
       0.02611602 -0.00190868 -0.09166643 -0.13891761
000110 a2 3b e6 bd 6c 63 16 be 40 0f 1a 3d c5 fe 11 be
       -0.11241843 -0.14686364 0.0376122 -0.14257343
000120 72 a6 5e be ab a1 05 be ed b1 82 be 20 b0 a0 bd
       -0.21743181 -0.13049953 -0.25526372 -0.07846093
000130 38 59 e8 bd 77 7f c2 bd 5f 07 3d 3c ee a2 cb bd
       -0.11345142 -0.09496968 0.011537402 -0.09943186
000140 c0 35 6b be db d7 2b bd 75 8c 85 be eb b2 e9 bc
       -0.22969723 -0.041953903 -0.26083723 -0.028527698
000150 9c bf 01 be f4 25 7a bd 9a 5b d7 bd e5 5a 9e bd
       -0.1267075 -0.06107135 -0.105155185 -0.077321805
000160 db ba 19 be c7 11 58 c0 7f e7 2a c0 ea ff f0 bd
       -0.15012686 -3.376085 -2.6703794 -0.11767562
000170 8e 1e 8c be 81 ae 85 bd 29 f2 8f bd 49 0b 81 bb
       -0.2736706 -0.065274246 -0.0702861 -0.003938113
000180 5e a8 fa bd ec b7 cd 3c bf d4 59 bd 9d ba 3f be
       -0.12239145 0.025112115 -0.053181406 -0.18723531
000190 37 46 78 be 19 84 17 bd 20 51 59 3c 2e eb a3 bd
       -0.24245535 -0.036991213 0.013263971 -0.08003841
0001a0 13 46 8d be 3f 05 d7 bd 65 1a aa be a7 43 39 3f
       -0.27592525 -0.104990475 -0.33223262 0.72368854
0001b0 98 5d 36 bc 27 54 22 c0 43 49 3c be 74 2d 95 bd
       -0.011130713 -2.5363863 -0.18387322 -0.0728406
0001c0 de f2 a9 bd 34 7a ff bd cf 23 d8 bd 9c 3e dd bc
       -0.08298276 -0.1247448 -0.10553705 -0.027007394
0001d0 1e e0 a1 bd 21 32 8b c0 7b a3 76 3d 0c 96 0a 3d
       -0.07904075 -4.3498693 0.0602145 0.033834502
0001e0 93 1f 9f 3f e5 d3 f3 bb ed 69 91 bd 20 d7 9a be
       1.2431511 -0.0074410313 -0.07100282 -0.30242252
0001f0 e3 0a 74 be 0c 82 9f bd a8 d8 90 bb 68 93 a7 3d
       -0.23832278 -0.07788476 -0.0044203587 0.081824124
000200 94 d7 08 be a9 a4 bc 3c 85 b0 0a be 55 4b 0c bd
       -0.13363487 0.023027735 -0.135439 -0.03425153
000210 95 b6 ce bd 19 3c 2c bc 28 75 0c be 17 90 23 bd
       -0.100934185 -0.010512375 -0.13716567 -0.039932337
000220 6b 5c 05 bd 2e db dd c0 3e de bd bd b8 25 8c bd
       -0.03255884 -6.9330053 -0.09270905 -0.06843132
000230 fe 75 d2 bd 47 48 29 be db 61 d7 bd 85 01 fa 3e
       -0.102764115 -0.16531478 -0.10516711 0.48829284
000240 53 43 b4 bb 76 45 e0 bd eb 8e d8 bc 3e 21 48 bd
       -0.0055011897 -0.109507486 -0.026435336 -0.048859827
000250 26 92 78 be f2 d8 31 bd 74 b1 41 be 95 69 82 c0
       -0.24274501 -0.043419786 -0.18915349 -4.0753884
000260 f2 60 07 be 95 53 1d be f6 f4 4f be 37 f1 ce bd
       -0.13220575 -0.15363915 -0.20308289 -0.10104602
000270 e9 51 0b bd b3 5b 70 bd 26 30 71 bd 5f 8e e2 bd
       -0.034013662 -0.0586812 -0.05888381 -0.110623114
000280 56 8d 06 be e6 70 34 bd a1 b4 27 bd 0d bd dd bd
       -0.13139853 -0.04405298 -0.040943746 -0.10827074
000290 8f 6e 8a bd f6 07 47 be ea 74 3d be 71 3c a7 bd
       -0.06759369 -0.1943663 -0.1850163 -0.08165825
0002a0 ad 67 bd bd 1f f4 0f bf e2 a6 0a c0 22 57 c4 bd
       -0.0924829 -0.56231874 -2.1664357 -0.09586932
0002b0 87 54 c4 bd 93 d8 0b bd 85 ad 6b 3f 4e fd 05 bc
       -0.09586435 -0.03414209 0.92061645 -0.008178068
0002c0 83 19 94 c0 88 6b 3b 3d d2 e7 4b 3d cf 2f f9 3f
       -4.628114 0.045756847 0.049781628 1.9467715
0002d0 e4 61 32 be 2c e1 2d bd 95 fc f7 bf 40 36 d8 bd
       -0.17420155 -0.04245107 -1.9373957 -0.10557222
0002e0 7d 24 3a be 27 07 a7 3c f8 ce 6c bd 6e 37 86 c0
       -0.18177982 0.020389153 -0.05781457 -4.1942663
0002f0 05 78 74 be 6e af 31 be cf 38 29 c0 5f b7 0b be
       -0.23873909 -0.17352077 -2.6440923 -0.1364417
000300 1a 73 0f be 18 bd 45 c0 f5 b8 89 be 1b 2f 5d bb
       -0.14008752 -3.0896664 -0.26898924 -0.003375
000310 86 9a 6a be 17 6c 14 be c6 81 cb bc d4 d4 89 bd
       -0.22910509 -0.14494358 -0.024842154 -0.06730047
000320 5b 2a ca be 82 fb 51 40 f7 0c 3d be 0d 21 01 be
       -0.3948544 3.2809758 -0.18461977 -0.12610264
000330 e7 9b 28 be f5 f0 64 be 88 b7 3d bd 84 e4 85 bd
       -0.16465722 -0.22357543 -0.046317607 -0.065377265
000340 4d 2f 8e be f4 31 06 c1 c5 d0 2e bd 8b d3 d0 bd
       -0.27770463 -8.387196 -0.042679567 -0.101965986
000350 60 3b de bd b6 e3 2e bd 7d fe 19 be 2d cb 44 bd
       -0.10851169 -0.04269763 -0.15038486 -0.048045326
000360 a9 2b 1b be 69 1f 8b bd 6d 69 16 be 97 0e 22 be
       -0.15153374 -0.067931004 -0.14688654 -0.15825878
000370 16 08 8b bd e4 00 d1 bb f4 a1 22 3b 64 74 f0 bd
       -0.06788652 -0.00637828 0.002481577 -0.1174095
000380 e8 49 0c be 97 03 8e bd fc 0f 88 3a 2b 5e cc bd
       -0.13700068 -0.069342785 0.001038074 -0.099788986
000390 bb f8 cb bd cd 4a 8c bd 8b a8 74 bc 6b 11 28 c0
       -0.09959551 -0.068502046 -0.014932762 -2.626063
0003a0 08 00 6f 40 05 c1 6b be ad f1 20 bb 43 db 1d 3c
       3.734377 -0.2302285 -0.0024558112 0.009634796
0003b0 22 cb b6 bd 2a 8d 71 bd 6c d1 89 bc 88 82 32 be
       -0.08925463 -0.058972515 -0.016823493 -0.17432606
0003c0 bd 69 bc bd 69 bb 9e bc 07 b1 a6 bd ff ac ed bf
       -0.091998555 -0.019376474 -0.08139234 -1.8568419
0003d0 d1 82 32 bd 5c d3 e1 bd 5c d1 96 3c 6a 62 c8 bc
       -0.043581787 -0.11026642 0.018410377 -0.02446099
0003e0 69 6b 00 be 2a d8 09 3d 5e 84 ff bd 1c a3 0a bd
       -0.12540974 0.033653416 -0.12476419 -0.03384696
0003f0 cb 71 dc bd ef 33 51 be df de 76 bd 2a 68 26 be
       -0.10763892 -0.20429967 -0.06027114 -0.16250673

layers.4.weight f4 [256, 256]
000000 b8 57 38 3d 9a 0d 9a bd e6 5a 3e bd 8e d0 40 bd
       0.04500553 -0.075221255 -0.046473406 -0.047073893
000010 5c 44 c1 3c 44 17 da 3b a0 f5 67 bd ba 5d 18 bd
       0.023592167 0.0066556055 -0.05663073 -0.03719876
000020 14 28 fe bc 63 01 34 bd 2a cd 27 3d fe 34 5a bd
       -0.03102497 -0.043946635 0.040967144 -0.053273194
000030 e0 8f 35 3c 40 9f 3d bd f8 c0 5a 3d 06 79 45 bd
       0.011081666 -0.04629445 0.053406686 -0.04821112
000040 18 7d 70 bc c8 cf e2 3c a8 28 97 3c 7f 7f 89 bc
       -0.014678262 0.027686968 0.018452004 -0.016784428
000050 5c cd 2f bd 59 9a 86 bd 23 6d fd 3b 64 d6 08 bd
       -0.042920455 -0.06572408 0.0077339574 -0.033407584
000060 20 eb e1 ba 32 b9 1b 3d 00 21 a3 3c e4 fa 29 bd
       -0.001723621 0.038018413 0.019913197 -0.041499034
000070 58 16 b1 3c 70 3c 55 bd d7 ee f3 bb ae ee 35 3d
       0.0216171 -0.05205959 -0.0074442434 0.044417076
000080 c0 88 50 bc c8 2b 5d 3d 2c 00 45 3c dc 49 58 bd
       -0.012727916 0.05399683 0.012023967 -0.052804813
000090 98 fd 66 3c ac f4 f7 bc 60 89 a5 bb 36 83 18 bc
       0.014098547 -0.030268036 -0.0050517768 -0.009308627
0000a0 85 e1 0d bd 5d 4a 7d bd d4 fc 42 3d ca 56 7c bd
       -0.0346389 -0.061838496 0.047604397 -0.061606206
0000b0 a4 4c 75 3d 4e f5 2a bd 5d 57 8c bc 2e ac 75 bd
       0.059887543 -0.041737847 -0.017131502 -0.059978656
0000c0 48 12 7d bd 00 06 c6 3b 90 b6 1b 3d 2c 2e 8b bd
       -0.061785012 0.0060431957 0.038015902 -0.06795916
0000d0 98 1e 79 bc 18 bd 7b bc e8 3f 97 3c be 23 7a bd
       -0.015205048 -0.015364908 0.01846309 -0.061069243
0000e0 10 40 8a bc 6a 34 14 3d 5f c1 fd 3c 2a 48 04 bc
       -0.01687625 0.0361828 0.030975996 -0.008073846
0000f0 e8 4e 43 3c 80 94 46 bd c4 ce 82 3c 87 0a 2b bd
       0.011920668 -0.048481464 0.015967734 -0.041758087
000100 3b 04 3e bd 8e 34 75 bd 10 d5 f5 bb f8 fb 0b 3c
       -0.046390753 -0.059864573 -0.0075022057 0.008543961
000110 44 88 27 3d 2e 92 0d bd a0 7b 47 bd 64 d7 b4 3c
       0.040901437 -0.034563236 -0.048701882 0.022075363
000120 46 19 80 bd 7e 30 20 bd 5a 20 57 bd 51 4e 95 3c
       -0.062548205 -0.039108746 -0.052521087 0.01822582
000130 42 9e f3 3b de 70 5d 3d 50 46 ef bb e0 9a c5 bc
       0.0074346373 0.054062717 -0.007302083 -0.024121702
000140 04 5d 97 3c ec a8 72 3d 18 d1 ec 3c 1a 52 49 3d
       0.01847697 0.059243128 0.028908297 0.049150564
000150 0a d7 73 bd d8 85 d6 bc a6 42 04 bd ef a1 8a bd
       -0.05953125 -0.026186869 -0.032290123 -0.06769168
000160 40 96 3b 3c db 20 e4 bb ec 74 01 3d cc 97 87 3c
       0.011449397 -0.0069619245 0.031605646 0.016551875
000170 b0 83 74 bd 9d 23 96 3c 52 09 29 3d 72 df 42 bd
       -0.0596959 0.018327529 0.041268654 -0.047576375
000180 84 3b 73 3d 10 e0 28 3a f8 77 05 bc 4e 57 69 3d
       0.05938293 0.00064420793 -0.008146279 0.056968026
000190 c8 22 33 3c 9e a2 b4 bc 2b 8e 8f bc 00 7a 30 ba
       0.010933585 -0.022050198 -0.017523846 -0.00067320466
0001a0 8c 73 ad 3c e0 1f 5e 3d 2b be c6 3c ed 31 67 bd
       0.021173261 0.054229617 0.024260601 -0.056444097
0001b0 10 70 16 bc 0f 0c b4 bc 14 67 4e 3d ac 6b 45 bd
       -0.009181991 -0.021978406 0.05039127 -0.048198387
0001c0 38 8a af bc 7c d3 d6 3c 06 ed c3 bc a4 1a d2 3c
       -0.021428213 0.02622389 -0.023916733 0.025647469
0001d0 33 d0 21 bd 65 51 aa bc d5 ee fd bc 40 cc 6e 3c
       -0.039505195 -0.020790765 -0.030997673 0.014575064
0001e0 76 e4 53 bd 16 83 99 bb d0 47 2f bd 34 12 eb bc
       -0.05173155 -0.004684816 -0.042793095 -0.028695203
0001f0 58 9f 02 bd 84 01 96 3c ee df 1b bd 4f de 62 3c
       -0.031890243 0.01831127 -0.038055353 0.013846948
000200 c0 e7 f1 3c b1 1d 5e 3d da 62 96 bd 86 b8 7c bd
       0.029529452 0.054227535 -0.07343073 -0.061699413
000210 f2 4a 27 bd 2c 83 49 3d 00 46 72 3d e8 8f db bc
       -0.040842958 0.04919736 0.05914879 -0.026802018
000220 d8 8d 50 bd 62 c9 8c bd 8e ca 6c 3d 88 bc 06 bd
       -0.050916523 -0.06874348 0.05781036 -0.03289464
000230 20 c2 d1 3b 54 46 e4 bc 70 ac e5 bc 51 96 46 3d
       0.0064013153 -0.027865566 -0.028036326 0.048483197
000240 98 6b 01 bd 9c c3 16 bd e7 04 2f bc 64 e9 c0 bc
       -0.03159675 -0.03680764 -0.010682321 -0.02354879
000250 92 9e 03 bd 06 07 04 3d 59 93 2c 3d 21 45 3b bd
       -0.032133646 0.03223326 0.04213271 -0.045720223
000260 00 3d a3 3c e4 19 51 3d cb a7 0c bb 44 ea a8 bc
       0.019926548 0.05105008 -0.0021462317 -0.020619519
000270 48 38 ab 3c 30 dc a3 3c 60 3c 33 3b 12 80 24 bd
       0.02090086 0.020002455 0.0027349219 -0.0401612
000280 37 55 16 bd 6f 03 35 bd a8 e0 d2 3c f4 26 94 3c
       -0.03670236 -0.044192728 0.02574189 0.01808498
000290 4e e8 12 bd a4 cf 56 bd 14 2b e0 3c 4a 6a 61 bd
       -0.035866074 -0.052444115 0.027364291 -0.055033006
0002a0 58 4a 0e bc cb b5 56 bd 50 2f 50 bd bb 54 29 bd
       -0.008684717 -0.052419465 -0.05082637 -0.04134057
0002b0 88 3f 71 3d 19 9c 0c 3c 36 6a 8c bc b5 c6 41 bc
       0.05889848 0.008582138 -0.01714049 -0.011827161
0002c0 44 74 76 bd 88 82 7f bc 4e 51 f7 bc bf 98 cd bc
       -0.060169473 -0.015595086 -0.030190136 -0.02509725
0002d0 4c 35 62 bd 00 5e ab 3a f8 6e 3d bc fc 15 6e bd
       -0.05522661 0.0013074279 -0.011562102 -0.058126435
0002e0 28 89 f3 bc 51 3f 55 bd f4 ae 19 bd 77 1f b6 bb
       -0.029728487 -0.052062336 -0.037520364 -0.00555795
0002f0 34 5b e5 bc 0c 71 ef bc 90 ff 63 bd 06 bd 5e bd
       -0.02799759 -0.02922871 -0.055663645 -0.054379486
000300 13 36 82 bd 52 cd 5d bd 32 ba 34 bd 8c 70 10 bd
       -0.0635797 -0.054150887 -0.044122882 -0.035263583
000310 ec 3c 9a bc b0 81 32 bc a3 cb 36 bd 70 39 f1 3c
       -0.018827878 -0.010895178 -0.044627797 0.029446334
000320 d0 02 44 bc a5 4f 8a bc 91 6d f1 bc f0 b3 36 3c
       -0.011963561 -0.01688368 -0.02947119 0.011151299
000330 64 45 dd 3c 68 51 5d bd 2b 6f c6 bc 10 09 f5 3c
       0.027010627 -0.054032713 -0.02422293 0.029911548
000340 8f 09 6f 3c 38 1b db 3c 1b e6 53 bd c4 30 a8 bc
       0.014589681 0.026746377 -0.051733118 -0.020531066
000350 9a b5 69 bd 11 0b ee 3b 43 f4 99 3c 9a f8 3a 3d
       -0.057057954 0.007264503 0.01879323 0.04564724
000360 60 9f 75 3d 4f 2e 9f 3b 56 05 29 bd 00 f2 7d 3a
       0.059966445 0.0048578153 -0.041264854 0.0009687245
000370 20 d2 f2 bb 62 56 1b bd e8 03 15 bc e0 a5 69 bd
       -0.0074103028 -0.037924178 -0.00909517 -0.057042956
000380 bc 01 24 3d 40 43 dd 3a 16 89 09 3d 35 3e be 3a
       0.040040717 0.0016881004 0.033578 0.0014514389
000390 da 63 5b 3d 50 d8 ae bc 08 8d 81 bd f3 50 59 bc
       0.053562023 -0.02134338 -0.06325728 -0.013263929
0003a0 d7 d1 71 bc 20 a0 2e bd bd 8a 3b bd ae 3c b2 3c
       -0.014759502 -0.042633176 -0.045786608 0.02175745
0003b0 0e 40 44 3d 16 f2 0a bd 60 ff 2c bd 50 bd 93 bc
       0.04791265 -0.033922277 -0.042235732 -0.018034607
0003c0 84 05 1c 3d ca e3 12 bc 08 d0 2a 3c 61 65 06 bc
       0.038091198 -0.008965442 0.010425575 -0.008202882
0003d0 e8 f6 36 3c 96 1c 6b bd 79 b8 d1 bc eb 98 34 bd
       0.0111672655 -0.05740031 -0.025600659 -0.044091146
0003e0 ee 78 2b bd 9f 72 8f 3c f8 b2 59 3c 04 7d 36 3d
       -0.041863374 0.01751071 0.013287298 0.044552818
0003f0 db 77 1c 3c f2 d3 49 bd 2c 5e 0b 3c 18 28 75 3c
       0.00955006 -0.049274392 0.008506339 0.014963172

layers.4.bias f4 [256]
000000 e4 da de bc ce a0 6f bd aa af 05 be 46 55 d4 bd
       -0.027203985 -0.058502965 -0.13055292 -0.10367827
000010 68 47 08 3d 04 37 2c bd a9 4e 0f 40 3f 0b 14 be
       0.033271223 -0.042044654 2.239176 -0.14457415
000020 49 5c ea bd 19 aa a5 bf 2e 8b d9 bd 66 3c ec bc
       -0.11443383 -1.2942535 -0.106222495 -0.028837394
000030 03 41 2e bc 9a b9 c4 c0 84 69 89 3c 74 a1 c8 c0
       -0.010635617 -6.1476564 0.016773947 -6.2697086
000040 46 48 ea bc fe cd 75 bf 10 b4 fe bd 27 f1 1a be
       -0.028598916 -0.96017444 -0.12436688 -0.15131055
000050 5a 4b 0c be af fc 97 3c e6 9f e2 bd 28 2d 53 bf
       -0.1370062 0.018553106 -0.110656545 -0.8249078
000060 4e 78 a9 3c bd 65 23 3f 12 e9 22 39 06 a3 b1 bd
       0.020687249 0.63827115 0.0001553635 -0.086736724
000070 b8 bb fe 3e 86 0b b0 bd 57 0e 1f bd 56 98 06 c0
       0.49752593 -0.08595948 -0.038832035 -2.1030478
000080 e0 1a 76 3d fd 54 be be fc 68 98 bd a4 bf a3 bd
       0.060084224 -0.37174216 -0.07441899 -0.07995537
000090 11 6f a2 bd df 6d d1 bd c4 85 1a bd a7 3c d1 bd
       -0.079313405 -0.102260344 -0.037725225 -0.10216647
0000a0 df f2 7a 3d 1c 40 05 bf e2 d3 78 bd 18 64 d8 bd
       0.061266776 -0.5205095 -0.060748942 -0.10565966
0000b0 67 29 9c bd bf 14 04 be 20 bb b8 bd 5a 24 49 c0
       -0.07625084 -0.12898539 -0.09020066 -3.1428437
0000c0 ed 94 df bd ee ec 72 bf aa c2 2b bc d4 16 88 3c
       -0.10917077 -0.94892776 -0.010483423 0.016612448
0000d0 d2 57 76 3c ed df 86 bd 20 9f e4 bd 4b 38 a3 c0
       0.015035586 -0.06585679 -0.11163163 -5.1006217
0000e0 7d f2 dc bf 2c 51 c9 bd fb 65 6c c0 2c b7 11 3e
       -1.7261502 -0.098299354 -3.6937244 0.14230031
0000f0 4f f2 9d bf fc 56 31 be 0d c1 27 bf 15 70 bc 3e
       -1.2339572 -0.17318338 -0.6552895 0.36804262
000100 eb 22 88 c0 e5 7a 08 bf 50 37 13 bd bc a8 44 bd
       -4.2542624 -0.5331252 -0.035941422 -0.04801248
000110 3c c0 09 3c fb 9b 25 be 14 85 0f bf 6a 3f f4 bd
       0.008407649 -0.16172783 -0.56062436 -0.11926158
000120 86 35 a4 bd 83 6f 28 3e 8b f8 af c0 85 56 21 c0
       -0.08018021 0.16448788 -5.4990897 -2.5209057
000130 34 b8 f2 bd 9a e4 a5 3e 86 35 4e 3f f4 32 e6 bd
       -0.1185154 0.32400972 0.8055042 -0.11240187
000140 46 89 de bc 28 30 08 bd cb 5d df bd 34 f9 de bf
       -0.027165066 -0.03324905 -0.109065615 -1.7419801
000150 f3 f5 51 be 06 6a 9d bd 74 d7 45 3c a3 f8 06 be
       -0.20503978 -0.07686238 0.012075294 -0.13180785
000160 7a bd 11 be c0 67 ee bd 1f 18 8b bd c4 52 fd bd
       -0.14232436 -0.116408825 -0.0679171 -0.12369302
000170 e8 64 cf 3c f8 b6 62 ba b4 c0 fd bd f0 21 ed be
       0.02531667 -0.000864848 -0.12390271 -0.46314955
000180 4c 9f 23 bd ac ec df bf e1 15 83 bd 33 db 21 c0
       -0.03994684 -1.7494102 -0.064006574 -2.5290039
000190 a0 b5 05 bd 12 65 ee 3c 86 97 b7 bd df 66 74 bd
       -0.032643914 0.029100928 -0.08964448 -0.059668418
0001a0 e5 72 37 bd c0 24 5d c0 5e 95 a7 3c 04 3f 9c bd
       -0.044787306 -3.455368 0.020456966 -0.07629207
0001b0 2d 6e 72 c0 c0 ce 13 be 1d d4 5c bc 3c 89 bd bd
       -3.7879746 -0.14434338 -0.013478306 -0.09254691
0001c0 26 5e 01 be 4b 60 2e c0 6c ee ac bd 39 d0 ee bf
       -0.12633571 -2.7246273 -0.08443913 -1.8657295
0001d0 59 76 45 bd 03 3e 9c bf e1 59 25 c0 b4 92 aa bd
       -0.04820857 -1.2206424 -2.5836108 -0.08328763
0001e0 2a 1e 2a c0 70 d9 c1 bf 26 2c 26 3f aa e7 37 c0
       -2.658091 -1.5144482 0.64911115 -2.8735147
0001f0 04 13 be bd b6 42 87 3f b3 da d0 bc da 1a 9f bd
       -0.09280971 1.0567234 -0.025494909 -0.077687934
000200 10 6d 9b c0 c8 9b a0 3c c7 70 e9 bf 2e 5e 18 bd
       -4.8570633 0.019605532 -1.8237542 -0.03719919
000210 a1 89 1a be 05 9e 97 3f ea 83 fc bd 38 48 83 bd
       -0.15091564 1.1845099 -0.12329848 -0.06410259
000220 35 00 c8 3d c7 1a 66 c0 e3 9a 1d 3e 55 f4 d9 bc
       0.097656645 -3.5953844 0.15391116 -0.026605764
000230 b3 70 46 3f 84 ff df bd dd 18 42 bf 0f 9a 3f bd
       0.77515715 -0.109374076 -0.7581919 -0.04677778
000240 9d e3 2f 3d a2 c2 f7 bd dc 81 8a bd d8 19 9d bd
       0.04294168 -0.1209767 -0.0676305 -0.07670945
000250 dd 6b be bd 81 91 e5 3e 67 0c a7 bd 0e cf 45 3e
       -0.09297917 0.44837573 -0.081566624 0.19317266
000260 01 7a ab bd 5d 59 c8 bd eb 8d 6f bf b3 3b 52 bc
       -0.0837288 -0.0978267 -0.93575925 -0.012831616
000270 31 6c 13 be 67 87 cf bb b0 c5 1d be 97 7f 8e c0
       -0.1439674 -0.00633328 -0.15407443 -4.453075
000280 84 19 5b bd a8 65 44 be b8 ee 29 bf 6d 39 c6 bf
       -0.05349113 -0.19179404 -0.6637988 -1.5486275
000290 c0 9c 22 bd b5 63 61 bd be 23 bb bd 4b c8 3f c0
       -0.03970027 -0.05502673 -0.09137677 -2.9966
0002a0 f4 45 47 3d 76 47 bb bf f3 cc 7f 3e 7a b7 aa bd
       0.048650697 -1.4631183 0.24980526 -0.083357766
0002b0 e5 48 a7 bd 7d 96 3d 3d 62 64 04 bd fd 3d 10 be
       -0.081682004 0.046286095 -0.032322295 -0.14086147
0002c0 7d 85 8b bd 9e cd b0 bd 74 87 5d 3f b3 94 b8 3b
       -0.0681257 -0.08632968 0.8653481 0.0056329607
0002d0 1c e9 a7 c0 ee 33 e9 bd 09 68 8f 3e 0c b3 e2 bd
       -5.2472057 -0.11386858 0.2800906 -0.11069307
0002e0 b8 13 8a bd 9b 5a dc bd bf 7b 31 bd 7c 43 10 c0
       -0.06742042 -0.10759469 -0.043330904 -2.254119
0002f0 33 0f fb bd b2 23 da 3c b6 15 de bd bf dd 9f bd
       -0.122587584 0.026628349 -0.10843985 -0.078059666
000300 04 bd 37 be 32 27 aa bf 92 a1 bd 3f 0c cb 06 c0
       -0.17943197 -1.3293211 1.4814932 -2.106143
000310 00 75 8e bc 11 b7 95 3c 57 db 12 be f1 55 12 40
       -0.017389774 0.01827577 -0.14341484 2.2864954
000320 79 db c4 bc 4b 2f 28 bf 67 1a af bd 51 14 fe c0
       -0.024030434 -0.65697163 -0.08549958 -7.93998
000330 b8 69 9e bd d6 3f 5f bd 28 47 c2 bd 83 d6 2d 3e
       -0.07735008 -0.054504238 -0.09486228 0.16976361
000340 38 74 fd bd 61 be 74 bd 39 08 e4 bd c1 20 3c 3c
       -0.123756826 -0.059751872 -0.11134381 0.0114824185
000350 f6 0a 1d bd 81 f0 f1 bc 0b f2 5d bd 1b 53 80 bc
       -0.03834053 -0.029533627 -0.05418591 -0.015664628
000360 07 71 28 bf f9 db 36 c0 2f 00 04 40 b6 fe e9 bd
       -0.65797466 -2.857176 2.0625112 -0.114255354
000370 b2 41 cb bd 8d 14 bc bd a5 b6 12 be 14 9f 7b bd
       -0.0992464 -0.09183607 -0.14327486 -0.061431006
000380 cc 59 c9 bb d0 ce c8 3d bf da da 3f 69 a6 38 bd
       -0.006144738 0.09805071 1.7098006 -0.045080576
000390 6f fe c5 bd e9 2a 41 3d 03 42 93 bd 0d 8e d5 bd
       -0.0966767 0.047160063 -0.07190325 -0.10427485
0003a0 d2 65 8c bd 2b 50 00 bf 28 dc c9 bf c0 5e 32 3d
       -0.06855358 -0.50122327 -1.5770311 0.043547392
0003b0 1e 27 cd c0 3b ba eb bd 0e 72 a4 bd 37 8d 3f bd
       -6.411025 -0.1151013 -0.08029567 -0.046765532
0003c0 a8 a5 cd bd f5 d3 cb bd e8 3f 09 40 d8 6c d7 bd
       -0.10041362 -0.09952537 2.1445255 -0.10518807
0003d0 70 fc bb bd 49 ca 90 c0 b7 36 00 bf 01 b7 d1 3e
       -0.09179008 -4.524693 -0.5008349 0.40959933
0003e0 5e 44 3e 3d c5 f5 36 bd 3b 6f 74 3e 80 8b e1 bc
       0.04645192 -0.044667978 0.23870556 -0.02753234
0003f0 02 db d1 c0 ab 2c b2 bd ff 62 09 bf 14 0c e2 bf
       -6.5579844 -0.08699926 -0.5366668 -1.7659936

layers.6.weight f4 [128, 256]
000000 fc 49 db bc 70 47 e2 3b 7f 41 7e bd 0f 4b 4b 3d
       -0.026768677 0.0069054887 -0.06207418 0.04963213
000010 ea 10 13 bc 3c cb 86 bc 8e 6d 6a bd 54 91 48 3d
       -0.008976201 -0.016454332 -0.057233386 0.04896672
000020 b4 23 12 bd 64 6e ba 3c c0 65 be 3a f2 4e 0b bd
       -0.03567858 0.022757716 0.0014526173 -0.034010835
000030 c8 54 9a bc 45 7f cb 3c 4c de fd 3b 1c fb 2c bc
       -0.018839255 0.02484096 0.007747447 -0.010557916
000040 4c e7 13 bd 40 4c a6 bd 4c 93 62 3b 70 cb 35 3c
       -0.036109254 -0.08120012 0.003457266 0.011095867
000050 44 e1 1c bb 67 a9 27 bd 7f 59 78 3d 4c cd ed bc
       -0.002393798 -0.04093304 0.060632225 -0.029028557
000060 51 d2 d7 3c 5c f7 e4 3a f0 81 d7 bb 2f 80 6c 3d
       0.026345404 0.0017468738 -0.006576769 0.057739433
000070 1f 2c 36 be 84 bc 2f 3d 5a d6 5b 3d 29 30 8c bb
       -0.17790268 0.042904392 0.05367122 -0.004278202
000080 88 f5 2a 3c f1 2a da 3b de 75 56 bd dc e1 03 3d
       0.010434516 0.006657951 -0.0523585 0.03219782
000090 d5 6b 76 3d bf 3d ed 3c 6a 2f 58 bd ba 95 56 bd
       0.06016143 0.028960107 -0.052779593 -0.052388884
0000a0 33 e4 a1 bd c5 c2 06 3d 10 8c 66 3c bf 6d 7c bb
       -0.07904854 0.03290059 0.014071479 -0.0038517562
0000b0 21 63 2d bd 3c f0 73 3d c0 2e bd bc 55 22 c3 bc
       -0.042330865 0.059555277 -0.023093581 -0.023820082
0000c0 e8 a5 be bc 48 65 dc 3a 41 f1 e2 bc 7a a7 c8 3b
       -0.02327247 0.0016814852 -0.02770293 0.0061234804
0000d0 9e d0 8e 3c 14 2f a6 3c a2 9c a5 3b 91 e0 f6 bc
       0.01743346 0.02028612 0.0050540725 -0.030136378
0000e0 39 b7 34 be 30 47 53 3d 9b 56 fe 3c 95 fb c8 bd
       -0.17648019 0.05158156 0.031047156 -0.098136105
0000f0 1a 42 05 3d 55 a1 60 3c d7 62 66 3d d8 dd 4d 3a
       0.032533742 0.01371034 0.056246605 0.00078531867
000100 e5 ee 7d bd 0a 29 aa bd 92 4b 99 bc b3 c9 6b 3b
       -0.061995406 -0.08308609 -0.018712793 0.0035978376
000110 e8 d9 2d 3d 5c 1f 14 bd f5 b4 a0 3c b8 af 2a bd
       0.04244414 -0.03616272 0.019617537 -0.041671485
000120 c6 be ce bb ad 7b 84 3d 6b 08 27 3d dd ee 97 3c
       -0.006309363 0.06468902 0.040779512 0.018546516
000130 2d 65 b1 bc 59 de 2d bd b4 ba d8 bc 29 08 6a 3c
       -0.02165469 -0.042448375 -0.026456214 0.014284172
000140 85 80 83 3c f0 36 23 3d a0 af f8 bc be 80 10 bc
       0.016052494 0.039847314 -0.030357182 -0.008819757
000150 28 5c 89 bc 36 a0 62 bb d2 42 54 bd 12 d9 17 3d
       -0.016767576 -0.0034580356 -0.051821537 0.03707225
000160 70 c1 17 bd 28 57 12 3d b2 05 03 bd 97 7a a9 bc
       -0.03704971 0.03572765 -0.031987853 -0.020688338
000170 60 19 cc 3c 02 52 bb bc e2 19 ee 3c a0 0f 6a bd
       0.024914443 -0.022866253 0.029065076 -0.057143807
000180 25 97 93 3c 72 72 a6 3b 30 0b 02 bc 8c 44 0f bd
       0.018016407 0.005079561 -0.007937238 -0.03497748
000190 92 a1 1f 3d ec 54 2a bd cc 8c af 3c e0 3c c0 bc
       0.038972445 -0.041584894 0.021429442 -0.023466527
0001a0 b5 54 2e bd 91 d5 3b 3d ce f3 25 bd 91 96 1c 3a
       -0.04256125 0.04585797 -0.040515713 0.0005973364
0001b0 dc e6 0d 3d 3c 96 12 bd 6b a8 88 3c c0 dc 75 bd
       0.034643993 -0.035787806 0.01668187 -0.060024977
0001c0 ff e0 dc 3c e2 db 6c bd 4c d1 ef bb c8 bc 81 bd
       0.026962755 -0.057826884 -0.0073186513 -0.06334835
0001d0 01 17 4d 3d 3b b4 cc bc 7e bf 9e bd ba fb b8 3a
       0.050070766 -0.024988284 -0.07751368 0.0014113106
0001e0 12 57 7a bd b3 bf 37 3b 6b 67 52 bd 0a 3b 30 bb
       -0.061118193 0.0028037846 -0.05136816 -0.0026890659
0001f0 34 ff 89 3b f1 a0 11 3d 18 e5 7b ba be 89 4f 3d
       0.004211331 0.035553876 -0.0009609028 0.05066847
000200 20 3d 8f 3c 03 b2 78 3c 50 9d 7e 3d 09 db 23 3c
       0.017485201 0.01517916 0.062161744 0.0100009525
000210 72 3f 31 bc 31 c0 a5 bc 00 4b 66 bb 04 60 b9 bc
       -0.010818349 -0.020233246 -0.0035139918 -0.022628792
000220 43 67 a1 bc c4 43 99 bd 62 02 a2 3c 17 0c 01 bd
       -0.01970256 -0.074836284 0.019776527 -0.03150567
000230 41 dc 50 bc 5e a2 9f b9 60 54 10 bd 7a b9 0b 3d
       -0.012747825 -0.00030447816 -0.035236716 0.03411243
000240 25 fe 97 3d 20 f3 5d 3d 7f ac 90 3c 26 9e 49 3b
       0.07421521 0.05418694 0.017660378 0.003076443
000250 77 67 53 bd 42 9f 52 bc ad be a7 3c 19 67 0f bd
       -0.051612344 -0.012855353 0.020476663 -0.03501043
000260 27 31 d8 bc b4 03 0b 3d 7b 45 23 be 1e 0b 13 3d
       -0.026390625 0.03393908 -0.15944473 0.035899274
000270 48 15 39 bd bf c4 0e bd 62 a6 ae 3c ef 6a 16 3d
       -0.04518631 -0.0348556 0.021319572 0.036723074
000280 70 a9 4a bd 36 62 5c bd 6c 75 1b bd 75 ca 94 3c
       -0.049477994 -0.0538046 -0.03795378 0.018162945
000290 2e de cd bc d7 68 a7 ba 13 81 54 bd 4d cc 2e bd
       -0.025130358 -0.0012772334 -0.051880907 -0.042675305
0002a0 63 29 55 bd b9 83 27 3a 25 01 58 bd d3 ea 66 3c
       -0.052041423 0.00063901726 -0.052735467 0.014094072
0002b0 e6 f7 69 bd 3c aa 7b 3d 36 31 17 be cb 1a 83 bc
       -0.05712118 0.061441645 -0.14764866 -0.016003987
0002c0 d9 15 1f bc 7c 16 be 3c 69 9b a0 bc b3 48 c6 bc
       -0.009709799 0.02320408 -0.019605355 -0.024204588
0002d0 31 55 c4 bd 8f 77 a5 3b 34 f9 8f bd 94 2f 33 bd
       -0.095865615 0.005049653 -0.070299536 -0.043746546
0002e0 d0 11 3d bd b5 30 79 bd a4 e7 4a 3d 84 b7 37 3d
       -0.046159565 -0.060837466 0.049537316 0.04485275
0002f0 70 51 29 bd e9 4e 1d bd 50 cc 10 bd 65 34 69 3d
       -0.04133743 -0.038405333 -0.035351098 0.056934733
000300 97 39 fb 3c 83 d7 e0 bc fe 45 ce bd 3f d7 7f 3b
       0.03066711 -0.027446514 -0.10071944 0.0039038209
000310 17 7c 92 38 dc f8 2c bc 2e 26 62 3d cc 55 cc bd
       6.984936e-05 -0.01055738 0.055212192 -0.09977302
000320 6f 09 86 bb 0c a3 28 3d 26 28 02 3d 12 90 87 3d
       -0.00409048 0.04117112 0.03177657 0.06619276
000330 62 33 70 bd 46 c4 3b bd c5 b7 75 3d 18 27 93 3c
       -0.058642752 -0.045841478 0.05998971 0.017962977
000340 13 37 4b 3d 80 f5 d2 3c 38 bd c0 3c 6b f8 13 bd
       0.04961307 0.02575183 0.023527727 -0.03612558
000350 e3 10 e9 bc ae c3 6f bd c2 53 1c 3d 2a 7a ba bd
       -0.028450435 -0.058536224 0.038165815 -0.09105332
000360 8e 5d 09 bd 8a 96 a0 3c ae ad 8a bc d6 ae 45 bb
       -0.033536486 0.019603033 -0.01692852 -0.0030164025
000370 51 a5 fd 3c f0 f5 1f bd bf dc 74 3d 8d 83 ca bb
       0.030962618 -0.039052904 0.059780832 -0.006180233
000380 5e 02 74 3d 7f 16 07 bc 61 56 5e 3c 54 b5 da 3c
       0.05957257 -0.00824511 0.013570399 0.026697792
000390 53 76 d4 3c 07 42 58 3d 01 c3 53 3c 44 5c f1 bc
       0.025935328 0.052797344 0.0129249105 -0.029462941
0003a0 99 a3 45 bd 63 d3 2f bd a3 ae 6b 3d 3e 61 d3 bd
       -0.048251722 -0.042926203 0.057539593 -0.10321282
0003b0 9a 09 02 bd 4e b6 1d bd b0 d9 38 3d 5f e6 22 3c
       -0.031747438 -0.038503937 0.045129478 0.00994262
0003c0 98 ed 22 3d 8e 60 20 bb 6a 21 38 bd 30 f1 69 3c
       0.03977737 -0.0024471614 -0.04495374 0.014278695
0003d0 5e 73 09 bd a5 5d 34 bd 92 c5 91 bd 8e 24 ac bd
       -0.03355729 -0.04403462 -0.07117762 -0.0840541
0003e0 9e d1 d0 3c fa ae 26 3d a6 04 26 bc 2a 9f 36 3c
       0.025490578 0.040694214 -0.010132944 0.011146346
0003f0 57 3e 66 bd 7a e3 2f bc 21 3f 1c 3c 80 7b 1f bc
       -0.056211796 -0.010735387 0.0095365355 -0.009734035

layers.6.bias f4 [128]
000000 a6 5d 58 be ee 3e 06 be 43 dd d1 bd b6 cd 91 bd
       -0.21129474 -0.13109943 -0.102472804 -0.071193144
000010 cb 4d d0 bd 88 d8 a0 3c e8 77 52 3e 68 74 85 3e
       -0.10171088 0.0196345 0.20553553 0.26065373
000020 bf df 0a c0 9d ff d5 be 16 74 38 be b0 c9 07 3c
       -2.1699064 -0.4179658 -0.18013033 0.008287832
000030 98 07 3d be 8a fb 4d be 07 14 e7 bd fd b0 02 be
       -0.18459928 -0.20115486 -0.11283117 -0.12762828
000040 7e 17 a5 bd 6d f1 2e be 31 87 8a bd e0 f7 0e be
       -0.080611214 -0.17084284 -0.06764067 -0.13961744
000050 59 26 d8 bd cd 1f 23 be 47 f0 ef bc df b6 f1 bd
       -0.10554189 -0.159301 -0.029289378 -0.11802458
000060 94 73 6e bd af 4f dd bd 2a 5e 6d be ad 9a 16 be
       -0.058215693 -0.10806214 -0.23180452 -0.14707442
000070 27 96 10 be 2d 90 a0 bd 67 09 d5 bd ca 0b 6e 3d
       -0.14119779 -0.07839999 -0.10402184 0.05811671
000080 31 41 ab be 6f e6 fc bd 67 62 15 be cc 8b 30 be
       -0.33448175 -0.12348639 -0.14588319 -0.17240828
000090 2d 68 b4 bf e8 7e d3 bd 20 fe a9 bd 49 46 11 bf
       -1.4094292 -0.1032694 -0.083004236 -0.5674787
0000a0 69 74 47 be e7 a9 2e be 0b 29 2f bd 12 16 3a be
       -0.19478 -0.17057 -0.04276375 -0.18172482
0000b0 34 65 05 be 2f 6b e0 bd c5 11 eb bd bb 69 40 c0
       -0.13026887 -0.10957944 -0.11477999 -3.0064533
0000c0 35 68 cb bd 9b e8 11 be 96 e0 17 be af 91 20 be
       -0.09931985 -0.14248888 -0.14831766 -0.15680574
0000d0 a8 b1 2b be 45 d5 9a 3f b5 8a 14 bf 53 33 9e bd
       -0.16766989 1.2096335 -0.5802415 -0.07724633
0000e0 92 cf 67 bf 2a 5e 22 be 0d b5 49 3c 39 16 aa 3e
       -0.905511 -0.15856233 0.012311232 0.3322008
0000f0 f3 63 d1 bd 89 48 71 bd 37 15 c9 be 9c c3 01 bf
       -0.10224142 -0.058907066 -0.39273998 -0.506891
000100 79 ff 4d bf 9a 65 d6 bd ef 9c 0d bd 70 4c 6b 3d
       -0.80467945 -0.10468598 -0.03457349 0.057445943
000110 6a f2 ae 3e a7 6d 97 bf ff c3 00 be 66 8d 05 bd
       0.34169322 -1.1830338 -0.12574767 -0.03260555
000120 e7 df 35 3d b1 94 04 3e 79 66 4d bd aa 9f d8 bd
       0.044402983 0.12947346 -0.050146554 -0.105773285
000130 90 84 83 be b3 1e 0a bf 30 cf d2 bd 74 c8 16 bf
       -0.25687075 -0.53953093 -0.10293424 -0.5889962
000140 dc 76 f5 bd e3 f5 15 be 82 41 f4 bd 07 f8 06 be
       -0.11985561 -0.1464458 -0.11926557 -0.13180552
000150 4f dc bb bd b3 b6 a8 3e 0a 03 b1 3f d3 6c 50 be
       -0.0917288 0.32951888 1.3829052 -0.20354013
000160 68 be be bf c2 24 cd 3e 6f b6 31 be 37 30 bb bd
       -1.4901857 0.40067106 -0.17354749 -0.091400556
000170 c0 6e 7e 3d 6a f7 44 be 2e a8 0c be 07 2e b2 bd
       0.06211734 -0.19235006 -0.1373603 -0.08700185
000180 a1 58 8e bf f0 77 b8 bd 9b 20 13 be 4e 6d ac 3e
       -1.1120797 -0.09007251 -0.14367907 0.33677143
000190 38 38 66 bd 27 8f fd bd ca 7c 2a be f9 2a b9 3d
       -0.056205958 -0.1238082 -0.16649166 0.090413995
0001a0 41 8c 4a bf d1 40 9a bd d7 08 30 bf 27 42 91 bd
       -0.7912026 -0.07531894 -0.6876349 -0.07092696
0001b0 44 b2 0b be f7 7f e2 bd 97 88 16 be 03 be 2e 3d
       -0.13642222 -0.110595636 -0.14700542 0.042661678
0001c0 ae 53 ce bf 77 ec a9 be 8c d8 be bd 7a 57 04 be
       -1.6119287 -0.3318822 -0.09318647 -0.12923995
0001d0 ad fc f9 bd 00 41 b7 be bc 01 c6 3e 6c cf 2e bd
       -0.12206397 -0.3579178 0.38673198 -0.04267828
0001e0 53 96 e4 bd 3f ff cb bd e1 28 d7 bd 6d 96 cb bd
       -0.111614846 -0.09960794 -0.10505844 -0.09940801
0001f0 6e 4a 13 bf f6 0f 35 bd e4 7e 17 be 7a 48 8e bd
       -0.57535446 -0.044204675 -0.14794499 -0.069474176
