Simulation/saved_data/models/model_mzm_mzm_pm_attempt_100k_ddmzm_norm3308x128_256_256_128_11_NoZeroMean.pth (torch, 541858 bytes, 10 tensors)

layers.0.weight f4 [128, 6]
00000000: 8c75 68bf 2aa2 32bf 7fb6 e0be ade4 fe3e
00000010: 0d34 37be 874e 60be 3e73 ec3d 4b63 d3bb
00000020: e034 aabd 4b26 aebd 9c2f 1dbd a6fc 1fbd
00000030: 31cd f0be e424 1ebe 2c96 43bf 899d 3dbf
00000040: 58d4 f93c 03e0 d9be 0009 fabe 9d42 1a3e
00000050: c7d3 e7bd b1be 0abe eb56 eabd e909 2dbe
00000060: 832b f03d 7c37 503c 8cc6 f0bc d36c 963d
00000070: 647a 4dbd 6dca 8fbd f4b5 40bf 1616 1fbe
00000080: 415a a6be 8319 3e3e 60da 5bbe 5c18 1ebe
00000090: dcd4 ee3e 4d65 0ebe 26e3 3fc0 1570 74bf
000000a0: c195 e1bd 7840 7bc0 6b77 1340 65a8 07c0
000000b0: 0f48 313c ab01 a7bb cb58 643b 8264 32bb
000000c0: 357c e1be 57c6 0dbf dd28 c43e 7067 f83e
000000d0: 29d6 f0be f9ee 0c3e b363 97be 27d1 1cbe
000000e0: a1c4 c4bd 4f53 5cbe e394 9abe a293 723d
000000f0: 5a99 dbbe 95f6 b8be ada2 9abc 3494 16be
00000100: 7cca 3bbf afd2 31bf 9539 27bd 0915 2c3f
00000110: 7d6c f6c0 5c03 9ac0 913c 603e c5ba 9bc0
00000120: 6332 1cbe 6cba 9bbe 913a 2d3d 4c53 1dbe
00000130: 3a30 303d 66e6 6d3d 83c1 573d 0b1e f3be
00000140: 764d a73d 6234 aabd ff41 c8be c021 26bd
00000150: 012c 27bf 5155 f1be 81ca 123d d7f2 043f
00000160: 259f 8fbd c80c 20c0 af75 c9be 2c2b 59be
00000170: 0a96 cfbf b977 72c0 21dc c73e 01b9 adc0
00000180: 9862 ddbf f5ef ddbf cd19 f4ba 8f8f 343c
00000190: a620 333b 6a9c e83b c9de b9be fd46 f1bf
000001a0: 1f76 57bd 5bc8 e0bd 354b 81bd 970c 35bd
000001b0: 9732 29be 5e59 93be edb5 dfbf 5a63 e3bf
000001c0: a735 003d 00ec 023e 9e68 dfbe 693c 01be
000001d0: c438 c53d bf0f c4bc e844 80be 8818 0dbe
000001e0: 317a 613e d118 11bf db93 8bbf 957a 81bf
000001f0: 1af2 81bf 5bf1 30bf 52ae 2b40 0c82 2ac0
00000200: 91f7 ae3b 81a6 043c 4609 44bb 1c3a 6d3c
00000210: 08bb 23c0 a41b 0bc0 f962 b2bd ca0b 7bbd
00000220: 3be3 3f38 a802 85be c527 b0c0 1128 a8c0
00000230: da3a 25bc 62a1 c6ba d1fd 1ebc 16a7 a8bb
00000240: b542 6d3d d57d 3bbf df6f 313d 9286 7f3d
00000250: d488 c2be 61cd 05bf 3e7b 6dbb c0c7 173b
00000260: e970 24ba 12da 453b 04dc efbf a21a f03f
00000270: c12f 0ac0 e600 a1c0 aa02 de3f 39f8 cbbf
00000280: bdb4 cfc0 da07 603d 9b2e 473e 6306 903e
00000290: 4c98 03be e602 9fbe b7cf 22bf 7695 22bf
000002a0: b602 5cbc 16cf 11bf e2d2 09be 3db2 083e
000002b0: ac04 2cbd 0db6 98be 587c 653e 790a 6bbd
000002c0: b70b 89bd 538e 85bd 3545 1fbe 0a2f ecbc
000002d0: c851 b8bf 0cb8 89bf cf0b de3c cd76 75be
000002e0: 8506 97bf 735e 99be 1ecd 0ec0 b712 19c0
000002f0: 613b d33e b77f f1be 9258 babf 8f6d b2be
00000300: 2025 29bf b6c0 f93d 5d06 a33d 7c90 30be
00000310: fc41 1abe f20b 8abd f453 493f 6458 193f
00000320: 8722 c5bd c99a 053c a896 c4be b240 bebf
00000330: b2eb 4dbf 34b5 4cbf 57fd be3d a733 cd3d
00000340: cf0d bdbd d741 e3be 8ef4 c9bf 9722 03c0
00000350: df48 a4be 5a06 7bbe 17c2 30c0 30c4 d93c
00000360: 10e5 97be 89a7 1dbc 917d dabe 52cb 15bc
00000370: cbd3 9cbe b206 c1be a01e 08bf 7684 a9be
00000380: 73d1 1cbd 4237 b8bd 1cd0 68bd 7cac 8bbd
00000390: 3cb6 2dc0 4fa1 b8bf 7036 e5be 3d4e 2cbf
000003a0: 8847 febf da46 4abf c29b f7ba 1124 03bb
000003b0: e605 d5ba 789b 2f3b 8234 7f3f 0eaf 7fbf
000003c0: bae6 2fbe 5cb9 0fbe 55fa b0be 2e97 61be
000003d0: 6c7f df3d 9410 e3bb 1fe2 50bf 8232 48bf
000003e0: 2c57 4fbe f711 593d ecbb c03c d7c8 95be
000003f0: 89a3 8bbe c5b7 c9be bf5f 30be d14f 80be
-0.9080436 -0.6977869 -0.43889233 0.4978384 -0.1789095 -0.21904956 0.11545418 -0.0064510456
-0.08310866 -0.085033976 -0.038375482 -0.039059304 -0.4703155 -0.1544376 -0.7640102 -0.74068505
0.030496761 -0.4255372 -0.4883499 0.15064473 -0.1131969 -0.13549305 -0.114423595 -0.16898312
0.11727049 0.012708541 -0.02939155 0.07344975 -0.05016555 -0.070210315 -0.7527764 -0.15535769
-0.32490733 0.1856442 -0.21470022 -0.1543898 0.46646774 -0.1390583 -2.998239 -0.95483524
-0.110148914 -3.9258099 2.3041637 -2.119653 0.010820403 -0.0050966344 0.0034842964 -0.0027220552
-0.44040075 -0.5538077 0.38312426 0.48516417 -0.4703839 0.13763036 -0.29568252 -0.1531416
-0.096078165 -0.21516155 -0.30191717 0.059222825 -0.42890435 -0.36125627 -0.018876398 -0.14704973
-0.7335584 -0.694621 -0.0408264 0.672196 -7.700743 -4.81291 0.21898104 -4.866549
-0.15253596 -0.30415666 0.04229218 -0.15363806 0.043014742 0.058081053 0.05267478 -0.47483858
0.081690714 -0.083107725 -0.3911285 -0.04055953 -0.6530152 -0.47135404 0.035837654 0.51933044
-0.07012776 -2.50078 -0.39347598 -0.21207875 -1.6217663 -3.7885573 0.39035133 -5.4288335
-1.7295713 -1.7338854 -0.0018623412 0.011020555 0.0027332692 0.007098724 -0.36302784 -1.8849789
-0.052602883 -0.10975715 -0.06313173 -0.04420146 -0.16523205 -0.2877912 -1.7477394 -1.7764695
0.031301167 0.1278534 -0.43634504 -0.12620701 0.09629968 -0.02393329 -0.2505257 -0.13778889
0.22019269 -0.5667849 -1.0904497 -1.0115534 -1.0152009 -0.6911828 2.6825147 -2.6641874
0.005339571 0.008096338 -0.0029912754 0.014479186 -2.5582905 -2.173562 -0.08710284 -0.06129054
4.5749573e-05 -0.2597859 -5.5048547 -5.254891 -0.010084832 -0.0015154297 -0.009704069 -0.0051468713
0.057924945 -0.7323888 0.04331958 0.062384196 -0.37995017 -0.5226651 -0.0036236788 0.0023159832
-0.00062729284 0.0030189794 -1.8739018 1.8758128 -2.1591647 -5.0313597 1.7344563 -1.5935127
-6.490813 0.054694988 0.19451372 0.28129873 -0.12851065 -0.310569 -0.635982 -0.6350931
-0.013428381 -0.56956613 -0.13459352 0.13349243 -0.041996643 -0.29826394 0.22410715 -0.057383034
-0.066916876 -0.06521287 -0.15553744 -0.028831024 -1.4399958 -1.0759292 0.02710524 -0.239711
-1.1798865 -0.29954872 -2.2312694 -2.3917673 0.4125624 -0.4716775 -1.455828 -0.34849212
-0.66072273 0.1219496 0.07960198 -0.17242616 -0.15064234 -0.0674056 0.7864373 0.599005
-0.09625726 0.008154579 -0.38396192 -1.4863493 -0.8043777 -0.79963994 0.093256645 0.100196175
-0.092311494 -0.4438617 -1.5777757 -2.0489862 -0.32086846 -0.24514142 -2.7618463 0.026582807
-0.29666948 -0.009622463 -0.42673925 -0.009142714 -0.30630335 -0.3770042 -0.5317173 -0.33108872
-0.038285684 -0.089949146 -0.056839094 -0.06820008 -2.7142477 -1.4424227 -0.44768095 -0.6730688
-1.986558 -0.7901436 -0.0018891024 -0.002001051 -0.0016252368 0.0026795547 0.99689496 -0.9987649
-0.17177859 -0.14035553 -0.34565988 -0.22030327 0.10912976 -0.0069294665 -0.81595033 -0.7820207
-0.20248097 0.05299565 0.023527108 -0.2925479 -0.27273205 -0.39398018 -0.17224024 -0.25060895

layers.0.bias f4 [128]
00000000: a505 fdbf 92af f6be 4ade 253f 0f5a a0be
00000010: 3ae4 7ebf 08a6 fcbe d411 dfbe 9d18 dfc0
00000020: e015 3cc0 ab71 8ebd 6b4c 6f3f 0c18 0cc0
00000030: 8ad2 50bf 5aab d3be 5b76 863e 42ee 84be
00000040: a421 8540 bee5 0b3f 4eea 753f 80b6 78be
00000050: 45e2 353f 542e c5bd 95d1 573f f6f8 4040
00000060: ee49 00bf 5bd6 70c0 6866 6c3c 051b d1bf
00000070: a8ad d5be 1f10 71bf 97a4 2b3f df29 46bf
00000080: ad1b 27bf 3320 83c0 a271 c1be 2a1b b53f
00000090: ad2d 8a3e 7296 af3e 421e 4740 2346 ffbf
000000a0: d9e7 1dbf 07e3 3f3d b4aa 183f f70b 05be
000000b0: a105 f3c0 2d07 5abe f242 e5be a5c4 9cbf
000000c0: 335a c4bf 2189 53bf 3afc a5bf 529f 20bf
000000d0: 3856 713f 6af5 fa3e 0dfd 50bf 7f29 ccbe
000000e0: 9ff8 8b3f 736d a83e 969d 94bf bed7 1bbf
000000f0: 3cf0 4cc0 208b d4be 0ce8 87bf a90f 083f
00000100: 4d27 95c0 bccf ee3f 460f 8e40 d48b 73be
00000110: e065 47bf cef2 e33f 5adf 543f 7d8c 1a40
00000120: 64f2 343f 49ea 5abe 37fa d6bd eecd 2abf
00000130: ffb4 823c 0720 e6be 0117 8a3f ac66 673f
00000140: 5614 dbc0 6a2e 543d d775 973f 47f7 e93b
00000150: df5b 4fbe 98d7 4840 13d7 99bd 52f0 fd3b
00000160: 5f31 46bf 1c75 1c3f 2dba c9bd 719e 9ebe
00000170: 77c2 e1bd 0768 e63d 0eee fbbe 40f1 573e
00000180: cd64 f8c0 23c9 d93e 3b9d f8bf 06ac a1bf
00000190: 63d4 d0bf 8c37 0dbf 904c 713b 9018 e1c0
000001a0: f698 57bf 6cd7 7d3e 8914 40bf 966f 0abf
000001b0: 0b5e 79bf 1630 86be 23cf 443f e3ba 8040
000001c0: d806 0bc0 addb 42bf a027 3e3f f77a 903e
000001d0: 7f0e ccbf 595a 34bf 8328 3dbf e1fa c0c0
000001e0: 6262 bac0 2fc7 a5bf c053 49be dc97 853f
000001f0: 59ee 42be f5ba b13f 36d2 cc3e 079f 37be
-1.9767348 -0.48180825 0.6479231 -0.3131871 -0.99566996 -0.49345422 -0.4356829 -6.9717546
-2.9388351 -0.06955274 0.9347598 -2.1889677 -0.8157126 -0.41341668 0.26262173 -0.25963026
4.1603565 0.54647434 0.96060646 -0.24288368 0.71048385 -0.09627977 0.8430417 3.0151954
-0.5011281 -3.7630832 0.014428712 -1.6336371 -0.41734052 -0.94165224 0.6704802 -0.7740764
-0.65276605 -4.0976806 -0.37782007 1.4148915 0.26987973 0.34294468 3.1112218 -1.9943279
-0.61681896 0.04684737 0.5963547 -0.12992845 -7.594437 -0.212918 -0.44777638 -1.2247511
-1.5340027 -0.8263112 -1.2967598 -0.62743104 0.94272184 0.4901536 -0.81636125 -0.3987541
1.0935248 0.32896003 -1.1610591 -0.6087607 -3.2021627 -0.41512394 -1.061769 0.53148896
-4.6610475 1.8657146 4.4393644 -0.23783809 -0.77889824 1.7808473 0.8315331 2.4148247
0.7068236 -0.21378435 -0.104969434 -0.66720474 0.015955446 -0.4494631 1.078827 0.9039104
-6.8462324 0.051802076 1.1832837 0.0071400735 -0.2024989 3.1381588 -0.07511725 0.0077495957
-0.77419084 0.61116195 -0.09849963 -0.30980256 -0.11023419 0.112503104 -0.4920506 0.21088123
-7.762305 0.42536268 -1.9422983 -1.2630622 -1.6314815 -0.5516288 0.0036819316 -7.0342484
-0.84217775 0.24789208 -0.75031334 -0.54076517 -0.97409123 -0.26208562 0.76878566 4.0228133
-2.1722927 -0.7611645 0.7427921 0.28218815 -1.5941924 -0.7045036 -0.7388994 -6.030625
-5.8245096 -1.2951411 -0.19660854 1.0436969 -0.19036235 1.388518 0.40004128 -0.17931758

layers.2.weight f4 [256, 128]
00000000: 7239 343d d7f1 bcbd 7120 3c3d 7810 f6bd
00000010: 69ec 77bc 096a df3b 93c0 b6bb 034e 553c
00000020: d6a3 36be a290 883c 747a 9b3d 55ec 0ebc
00000030: 7c34 ebbd abb2 b5bd c8f9 463d 8b65 bc3d
00000040: 0602 34be 4dc5 adbb 309d 68bc 8fb4 e1bc
00000050: 291b 35bc b1fd 2bbe 7268 08be ffae 83bc
00000060: ba5e 533d 287b babd 6435 3dbc 1e65 a3bd
00000070: bf9e 01bd 274c 21be f45e d93d 908c 27bd
00000080: 7eab bcbc 8274 5fbd 9166 f7bc a75d 283d
00000090: 42b0 8f3c a124 b5bd 61c6 a2bd 9a20 d4bc
000000a0: 7916 8bbc c70a 3d3e acfa 3dbd 4fc1 1b3b
000000b0: e620 373d 3d60 0cbd 31e8 20bd 538c 223d
000000c0: e5bd 1d3c 984c e53c 18f5 8fbd 780a 18be
000000d0: 4c90 a03a efda 9cbd 9afe f4bd 5692 52bc
000000e0: 118b 29bc f7a8 1e3d b80f 6d3d 6c3c cebd
000000f0: b3ee 9bbd bf09 92bc 4a8a 97bd e83d f73d
00000100: 0329 4d3d b979 d1bc 6653 26bd 5204 343d
00000110: 1f57 193c 6529 d9bd a48a e3bb f258 b9bd
00000120: 2448 adbd 1b99 3abd ed8b 88bd 27bd 18bd
00000130: 853b a3bd a3ae a5bd ffc0 edbd 79e0 9cbc
00000140: 9682 383d 4e9a 2fbd 467b 0ebe 2589 f8bc
00000150: 3c68 ad3d f54e ec3d 0d8b e8bd 4973 74bd
00000160: 5f47 97bd 2450 da3c 4d80 d6bd 9e2c 86bc
00000170: 62b1 a0bd b782 a9bd 7ee1 89bb 780c a9bd
00000180: 3ef2 aebd 62f6 e4bd 4b50 22be 8505 74bc
00000190: 2614 a8bd 9736 8cbd d2b4 9cbd 6ff4 f53c
000001a0: cb46 edbc 80ff 97bd b844 0a3d 6048 ae3d
000001b0: ddd8 bfbb 2973 a5bd 9feb 3dbe 73ae 623c
000001c0: de16 c33d cad5 00bc 6d9c 35bd a118 44bd
000001d0: fca7 acbd 4889 96bd 2a67 4abd ffc1 0bbd
000001e0: d99e b63b 8d90 07be b2db 463d dfdf 55bc
000001f0: bb13 213c 27f6 57bd 2432 973d 0152 f5bd
00000200: 6c3d 76bc c694 08be 836f 5c3c c7b7 5cbd
00000210: 8784 7fbb a8d5 093c 53c5 613d 6409 46bd
00000220: 2459 47bd 4d44 653c 513d b1bd 7d3d 5b3d
00000230: f1f3 23bd 21b4 05bb e47a bfbb 1f28 903d
00000240: df2b 12be 68a7 f5bc 3402 acbd d253 56bd
00000250: e050 94bd 3ff9 b13c 93d8 383d 1a0b 193a
00000260: 91ff 753c 5f29 d33c d67d eb3c bcc7 843d
00000270: 33a4 17bd 95b1 0abe 0993 c33c 89bf 4d3c
00000280: 8e7e d4bd 772c 103d 1381 ecbd be81 56bd
00000290: ce5f e4bc e731 d6bd 0273 36be b75a a2bd
000002a0: 055a 92bd e054 b8bc caa0 10bd d9a1 9dbc
000002b0: 2771 fe3c bd26 d7bc a797 a93d c751 63bc
000002c0: 5007 b0bd 9823 7fbd ea03 74bd 7812 7bbd
000002d0: afa6 ca3d 138f 01bd d599 09be 74b1 43bc
000002e0: b46c 18be 95ce 57bd 1168 493d ad06 f03c
000002f0: 2ccd cd3c 4993 c1bd f7ae 17bd 989b 673d
00000300: 3603 cc3d 78ea 09bd 2fdb 573c 3d24 ba3d
00000310: 91c5 48bc ee58 60bd 8c3a bd3c 396a 9e3c
00000320: f319 e0bd ac25 0e3d a600 a43d 352a 923c
00000330: 3eeb 1fbc 5a21 3ebd 8495 63bd 1b6c 2d3d
00000340: 8058 87bd c390 d53d 9603 a63d d568 fc3b
00000350: 4ee4 b33d b0c4 18bd c4d6 a53c 6938 5a3c
00000360: 5988 8ebd 2122 05be 7889 0a3e 89b5 093d
00000370: 179b a23d 6c43 35bd 26f8 a3bb 6247 42bd
00000380: 27ed 9bbc 7ef0 8abd cba3 7abd aac0 4dbd
00000390: 0ebb 323d 6a06 94bb 818f 0abe 0b3a bcbd
000003a0: b6f3 ab3c 0a39 0abd da6f a1bd 8937 873d
000003b0: b181 a33d 5883 f93c 79ce b2bc 43d4 6d3d
000003c0: 46cb e33d 7ccb 27bd d97c e7bd c15d 9ebd
000003d0: 4457 aabd f69d 27bd ffb0 093d 34dc a7bd
000003e0: 9154 e2bc 36c0 21be 25c0 203d fe9f ba3d
000003f0: 27f8 cebc 6dab 1bbe 8ba0 a0bd 48a3 233c
0.044000097 -0.09225815 0.045929376 -0.1201486 -0.015132048 0.0068180603 -0.005577156 0.013019088
-0.17835936 0.016670529 0.075917155 -0.008723338 -0.1148462 -0.08871969 0.048578054 0.09199055
-0.17578897 -0.005303061 -0.014197633 -0.027551917 -0.011053839 -0.16795994 -0.13321093 -0.016074656
0.05160401 -0.091055214 -0.011548374 -0.07978271 -0.031645533 -0.15751706 0.10613814 -0.040905535
-0.023030993 -0.05455447 -0.030200275 0.04110494 0.017540101 -0.08844877 -0.07947994 -0.025894452
-0.01697849 0.18461142 -0.046381637 0.0023766344 0.04470911 -0.034271467 -0.039283935 0.039684605
0.009627794 0.027990624 -0.0702917 -0.14847744 0.0012250035 -0.07658946 -0.11962624 -0.012852272
-0.010348097 0.038735356 0.05787632 -0.10070118 -0.07613888 -0.017826913 -0.073994234 0.120723546
0.05008794 -0.025570737 -0.04060688 0.043949433 0.00935915 -0.106035985 -0.0069440175 -0.09050168
-0.08461025 -0.04555617 -0.06667314 -0.037289765 -0.07970337 -0.0808995 -0.11609077 -0.019150006
0.04504641 -0.042871766 -0.13914213 -0.030338833 0.08467147 0.11538497 -0.11354647 -0.059680257
-0.0738666 0.026649542 -0.1047369 -0.016378697 -0.07846333 -0.08276885 -0.004207789 -0.08254331
-0.08542298 -0.11179806 -0.15850942 -0.014893894 -0.08206968 -0.0684635 -0.07651676 0.030023782
-0.02896442 -0.0742178 0.03375694 0.08509898 -0.0058547095 -0.08078606 -0.18546914 0.013835537
0.09525846 -0.007863471 -0.044338632 -0.04787505 -0.08430478 -0.07350403 -0.04941479 -0.034120556
0.0055731353 -0.13238735 0.04854936 -0.013053863 0.009831364 -0.052724984 0.073826104 -0.11978532
-0.015029293 -0.13338003 0.013454321 -0.0538862 -0.0038988905 0.008412756 0.055119824 -0.0483488
-0.048668995 0.013993335 -0.08654273 0.053525437 -0.040027563 -0.0020401555 -0.005843507 0.070389025
-0.14274548 -0.029987052 -0.08398858 -0.05232603 -0.07241988 0.021725295 0.045128416 0.0005838141
0.015014545 0.025776563 0.028746527 0.06483409 -0.037021827 -0.13544305 0.023873823 0.012557873
-0.10375701 0.035198655 -0.115480565 -0.052369826 -0.027877714 -0.10458737 -0.1781731 -0.07927459
-0.07146076 -0.022501409 -0.03530959 -0.019242214 0.031059815 -0.026263589 0.082808785 -0.013874478
-0.08595145 -0.062289804 -0.059574045 -0.06129691 0.098950736 -0.031630587 -0.13437589 -0.011944164
-0.14885217 -0.052687246 0.04917151 0.029300058 0.025122248 -0.094519205 -0.037032094 0.05654487
0.0996155 -0.033670872 0.013174816 0.09088943 -0.012254135 -0.05477231 0.023099206 0.01933776
-0.109424494 0.034703895 0.08007936 0.017842392 -0.009760676 -0.046418525 -0.05556251 0.042339426
-0.06608677 0.10428002 0.08106153 0.0077029266 0.0878378 -0.03729695 0.02024401 0.013319113
-0.069596 -0.130013 0.13529003 0.03362039 0.07939737 -0.04425375 -0.005003947 -0.047431357
-0.019033981 -0.067841515 -0.06119136 -0.050232567 0.04363542 -0.004517366 -0.13531305 -0.09190758
0.020990234 -0.033745803 -0.07882662 0.06602389 0.07983721 0.030458137 -0.02182697 0.058063757
0.11122756 -0.040965542 -0.1130311 -0.07732726 -0.08317426 -0.040922128 0.033616062 -0.08196297
-0.027628215 -0.15795979 0.039245743 0.09112547 -0.025264813 -0.15202112 -0.07843121 0.00998766

layers.2.bias f4 [256]
00000000: 4d0d 30be d64e 7fbe 4b58 1abe 7d19 dabf
00000010: 2270 a03f 1407 c53f e674 9bbf 0c8d d4c0
00000020: 72b1 8cbd 8d5c f3bf abfc a0bd fef2 77bf
00000030: b852 25be 8052 dbbd c5ce 75bf 8cb8 12c0
00000040: 52b3 52bf 0e7c 54bc dc26 b13f 6d4b a1bf
00000050: 587a 0840 6917 273f b702 4040 7fcb 71be
00000060: 0240 05be 4c00 9bbd 0a2c f9bd 2f78 09be
00000070: da5b 30c0 2d52 f1bf f862 6fbe 3de0 d9bd
00000080: 67ff e4bd 2e09 5840 b977 d2bf d349 193f
00000090: d28c b2bf b0ad 52bf de87 5fbe 3da5 d1bd
000000a0: f316 aa3f 4bb0 97bb bd8d 4a3f dc66 febd
000000b0: f353 27c1 2ed8 4bc0 8853 08be 83a0 5fc0
000000c0: 3dde 98be 0939 a7c0 6fd2 55bd 9ce0 913f
000000d0: 91ad 14c1 c25a 42be da9e 35be 722e 3bbe
000000e0: 45e2 16be e7fa 17be 8b3e a2bd 6ea0 0dbe
000000f0: 0b9b 8cc0 8e51 0ebe 0e35 9dc0 95ff 02c0
00000100: 7422 90be 6a49 443e 848b 17c0 d7f9 99bd
00000110: f245 00c0 f11e b1bd 6268 ccbd c11d 56bf
00000120: 52b2 4cc0 faf9 6bbd f8cd bf3f 674f 42c0
00000130: 931f 373f 1dea 1bbc 6af5 20c0 63fa b4bf
00000140: 76bc a83f cab1 89c0 ffff 50be 0947 97bd
00000150: ddf8 b2bd 4476 1fbe 026a 05c0 d08c d3bd
00000160: 6e90 5abe 9f0e 1ac0 325c b7bd b679 82be
00000170: 704b ebbf 4b88 edbd 7a53 95c0 d556 99c0
00000180: 47f7 40c1 157e c0bd 249f 45bd d504 18c0
00000190: d27a bfc0 f1b4 85c0 70da acc0 7789 73bd
000001a0: 14da 243f f0ed 60be 3d3d febd c46f 5ebe
000001b0: dea0 29c0 6871 e9bf b305 21be 4dae 23be
000001c0: 44ae eabf 9da8 67c0 28bd a0bd 086d 97c0
000001d0: a172 4ec0 e287 7cc0 1930 06be 4c87 143f
000001e0: d62a 91bd c842 88c0 0377 3fbd 3661 fabd
000001f0: 86b9 35bd 062a 69be 9612 5bbf dda1 a6bd
00000200: ba18 24be c2e7 02be 46a5 2240 6090 5bbe
00000210: 4ece 9fbd bee7 8b3f a827 ebbf e8a6 09c1
00000220: 44e7 78bb 4fbf 8ebf 0c4a e3bd a7cb 0bbd
00000230: 3c06 05be 4447 1bbe 085c 42be 5214 bebd
00000240: 2c4e bdbd 7987 85bf e8a5 09be e42d c83b
00000250: 52f4 a0bd d80c 51be d25e 17c0 04ad 18bd
00000260: 8ce5 d7bd 2449 97be 420c 4d3f 4f90 0fbe
00000270: 2059 b3bd 2f08 bfc0 dbb7 14bc 101d 3d40
00000280: 8789 21bf 673b 59c0 ad1f 97c0 5829 4abe
00000290: f328 4c3f e324 dbbd 9266 b0c0 54cc 21be
000002a0: b94b 2ac0 fa0d 77bd 34bb a6bd 3212 bcc0
000002b0: 3f79 1cbf 1e79 dd3e 2acd b7c0 e3a5 61c0
000002c0: cb39 0ebe 8ff5 73bd ae3f 35be b924 debf
000002d0: 8520 bdbf 2b52 aabd 8794 c9be 8e60 a63f
000002e0: cf76 04bd c745 47c0 e3ec c2be eca4 30c0
000002f0: 53d6 1bbe 61a3 e0bd 86b0 78bd 09cb a9be
00000300: 424f a0bd 0811 3bbd 245b 54bd 5498 17c0
00000310: 75a0 d9bf d316 07be d2e5 31c0 09e3 7ec0
00000320: 8a95 e8bd 32fc fabf 4f48 91bd c6d5 45be
00000330: ba1e a3bd b293 32bd fcc5 c7bd 5b8f 06bd
00000340: bfc2 ddbc 4f9b c6bf c679 e5c0 8bee 8b3f
00000350: 7b0b 51bd 8b11 543f 9194 15bf a0ef 21be
00000360: 12fe 26c0 54a3 53be 43fa f0bd 2d95 91c0
00000370: 9927 5abf 9f56 d43e 9f46 3abd bf98 e7bd
00000380: c928 02be 6317 51c0 8770 bfc0 532f 95be
00000390: 8262 afbe 6891 9dbd 359a a5ba 7ce1 24be
000003a0: cde2 84bf 9353 c3bd ff61 cabf 0adf 84c0
000003b0: 73d8 24c0 b6a2 b1bf 0da9 f7bf cb07 e6bd
000003c0: 658e fdbd 4ac9 febf 40f2 8abd 052b c4bd
000003d0: 3cf0 31c0 c3e1 103f 6acc 15be 503d b2be
000003e0: 8afb b93f 73ea e43e f33c 4fc0 6a59 66c0
000003f0: 3ba6 25c0 b9da a1bd 8bbc 863e 7cc2 44be
-0.17192574 -0.24932417 -0.15072744 -1.7039028 1.253422 1.5392785 -1.214505 -6.6422176
-0.068697825 -1.9012619 -0.078606926 -0.9685515 -0.16144836 -0.10709095 -0.9601863 -2.2925138
-0.8230487 -0.01296903 1.3839984 -1.2601143 2.1324673 0.65270096 3.0001657 -0.23612784
-0.13012698 -0.07568416 -0.12166603 -0.13424753 -2.7556062 -1.8853203 -0.23377597 -0.10638473
-0.11181527 3.3755603 -1.6442786 0.5987827 -1.3949225 -0.82296276 -0.21829173 -0.10236595
1.3288254 -0.00462917 0.79122525 -0.124219626 -10.457995 -3.1850696 -0.13313115 -3.4941719
-0.29857054 -5.2257123 -0.05220264 1.139667 -9.292375 -0.18979934 -0.17736378 -0.18279436
-0.14734752 -0.14841805 -0.079220854 -0.1383073 -4.393926 -0.13898298 -4.9127264 -2.0468495
-0.28151286 0.1916863 -2.3678904 -0.07518356 -2.0042691 -0.0864848 -0.09980847 -0.8363915
-3.1983838 -0.057611443 1.4984732 -3.0360963 0.71532553 -0.009516266 -2.514979 -1.4138912
1.3182514 -4.302953 -0.20410155 -0.07386596 -0.08738873 -0.15572459 -2.0845952 -0.10329592
-0.21344158 -2.4071424 -0.08953132 -0.25483483 -1.8382397 -0.115982614 -4.66644 -4.7918496
-12.06037 -0.09399048 -0.04824747 -2.375295 -5.9837427 -4.1783376 -5.4016647 -0.05945727
0.6439526 -0.21965766 -0.12414024 -0.21722323 -2.6504436 -1.8237734 -0.1572483 -0.15984459
-1.8334432 -3.6196663 -0.07848579 -4.7320595 -3.2257464 -3.9457936 -0.13104285 0.58018947
-0.070882484 -4.258152 -0.046744358 -0.12225573 -0.044366382 -0.22769937 -0.85575235 -0.08136342
-0.16025057 -0.12783721 2.5413375 -0.21441793 -0.07803021 1.0930097 -1.8371477 -8.603249
-0.0037979642 -1.1152133 -0.11098108 -0.034129765 -0.1299066 -0.15163904 -0.1898042 -0.092812195
-0.09243426 -1.0431968 -0.13442194 0.006108986 -0.078591004 -0.20415056 -2.3651624 -0.037274376
-0.105418295 -0.2954799 0.8009683 -0.14019893 -0.087572336 -5.969749 -0.009077038 2.9548988
-0.63100475 -3.3942506 -4.7226167 -0.19742334 0.79749984 -0.10700395 -5.512521 -0.15800601
-2.6608717 -0.060316063 -0.08141175 -5.877221 -0.61122507 0.43256468 -5.7437944 -3.52575
-0.13889234 -0.059560355 -0.17700073 -1.7354957 -1.4775549 -0.083164535 -0.3937113 1.2998216
-0.032339867 -3.1136339 -0.38071355 -2.760066 -0.15218477 -0.10968662 -0.06071522 -0.33162716
-0.07827617 -0.04567054 -0.05184473 -2.3686724 -1.7002093 -0.131923 -2.779652 -3.9826071
-0.11356647 -1.9608214 -0.0709387 -0.1931983 -0.07964845 -0.043597884 -0.097545594 -0.03285156
-0.027070401 -1.5516146 -7.171115 1.0932173 -0.05103634 0.8283927 -0.5842982 -0.15814066
-2.6092572 -0.20667773 -0.11766484 -4.54946 -0.8521667 0.41472337 -0.045477506 -0.11308431
-0.12710871 -3.2670524 -5.9824862 -0.29137668 -0.34254843 -0.0769375 -0.0012634458 -0.1610164
-1.0381714 -0.09537425 -1.5811156 -4.1522264 -2.575711 -1.387778 -1.9348465 -0.11231955
-0.12380675 -1.9905179 -0.06784487 -0.09578518 -2.7802877 0.56594485 -0.14628759 -0.34812403
1.4529889 0.4471012 -3.238095 -3.5992074 -2.588271 -0.07903046 0.26315722 -0.19214815

layers.4.weight f4 [256, 256]
00000000: 3ca7 b43c cf2d 3b3c d023 5ebd 96c2 94bd
00000010: 24a1 41bc 7a2d 93bd 55dd 97be 2bfe 943e
00000020: 3e0b 3dbd 7026 243f d0e6 13bd bb10 e6c0
00000030: b84b f3bc e377 433c 46ba aebc fc7c 69bd
00000040: 1250 313f f9c8 4dbd 2b94 ae3f 86b1 3dbd
00000050: 4f2e 013f ee96 b2bd c4a9 01bf f00f 46bd
00000060: 825a 5cbd 4c51 ecbc 9e71 0e3c cb34 3d3d
00000070: be70 89bd c2b9 11c0 904d 043c d253 7abd
00000080: e3b2 8abc b816 ddbc 6a14 7ebc eb1b 59bd
00000090: fa03 c33e 2ec7 6bbe d39e b2bc 88ec 9abc
000000a0: 18d3 733f d03d 21bd 1aa3 f4bf 2897 6b3c
000000b0: 9882 0dc0 d006 debc 0d57 563d f6c7 383c
000000c0: 64d9 e1ba 094a 8abd 9086 383c 0232 3fbf
000000d0: 2b0a e43e 66df 483d d931 28bd 5fa2 883c
000000e0: b015 e3bb a2ba 173d 700a 68bd ccaf cc3c
000000f0: ba0b 3f3d bca8 b0bc 7d8d aabc df93 9bbc
00000100: d73b 99bd 018f a5bb 3e23 30bd 5885 0e3d
00000110: 667a 87bd 9d53 733c 0807 6f3c 5526 d83b
00000120: ce7d 7dbd 947a 3b3d cc58 34bd 659c 91bf
00000130: 8ec4 5bbd 313b a4bf 1420 cfbc b40b 8dbc
00000140: dc3e 86bf 7c2c bfbc 92be 873c b1af 37bd
00000150: 74f4 ebbc 909c ed3b 881a 433f 6a77 973c
00000160: fcae 283b d9dc 5fbc 66c6 43bd 7caf 38bd
00000170: a7fe 953b 9bd5 453d f231 babd f749 88bc
00000180: 6301 bdbc 972e 1d3d e0a8 b53c 2e4b 91c0
00000190: 5d9e eabb fcac cac0 a533 93bf 0e82 74bd
000001a0: 4c4a 6f3c ee36 0e3d c2e6 9dbc f8eb cb3c
000001b0: 6d7a 08c0 d505 16bf 3c1d 9a3c 8a04 49bd
000001c0: 1a03 0c3d b0d4 543f 4a2f 70bd 9c30 6c3d
000001d0: dd81 1b3e 9014 323d 53c1 f53c da15 37be
000001e0: 0511 56bd d34a adbb 0ae2 453d c02d 0d3c
000001f0: a913 d43c 62e8 2e3d 1f86 9f3c e0ed 403d
00000200: 0824 52bc 9c53 e63c b145 73be 1151 1bbd
00000210: e26b 443d 4c5b f33c 36b6 a83c 87e0 0b3d
00000220: c3ca febf 4478 a43e 4476 253d 8a5a 04bc
00000230: 2e3e 6e3a 5482 00bd 52a8 bfbf 4935 1e3d
00000240: 5985 4bba 77f5 f1bc 0c5e 753d 6d0f d73c
00000250: f35e e3c0 2b2b 603a b8fc 79c0 3612 7b3d
00000260: b00c fd3b cb37 b0bd 6b2b b4bf bccb fcbc
00000270: ca21 80bc be78 71c0 6e1b a93c 5e86 1abe
00000280: d878 103f c6e0 dd3c a86a 24bd d04b 053d
00000290: 5fae 97be 2541 83bd fb70 313d 35ec 19bd
000002a0: 3b6f a73c 872e c63c b477 e73c 3ada dec0
000002b0: f8ec 293c 6c0d 0cbf 87f0 8fbd 6aad 3abd
000002c0: e3c3 3e3d e5c6 77bd 49e7 9bbd 40e2 803a
000002d0: d27e ebc0 cdc5 f1bc 0da2 223c f311 01bb
000002e0: a6b8 1e3d 9e2a 263d ddfb 9b3d 026d 953f
000002f0: a884 263d 7627 303d 42a5 72bd 4adf 50bd
00000300: 53e7 ba3e 0fe7 1fbd d0a0 b43c 0350 ee3b
00000310: 31cb e9bc b450 c5bc 6cc8 bfbc 3ce2 673d
00000320: 0ec1 c03a c355 91c0 c014 be3c 4c22 25bd
00000330: 5062 113d b3f4 433d f471 52bc 6ab8 9d3c
00000340: a709 e3bc b02b 7fbd de14 91bc d789 acbf
00000350: 54e4 21c0 8e33 aebe 8a86 06bf 2ef1 9dbb
00000360: 51a0 633c 498e a73c a04b 41ba ae5c 1c3d
00000370: dcf5 f03c 5687 16bf 3080 acbb 6c83 2f3d
00000380: 68df e2bc e2c3 68bd d705 9bc0 d7ab 63bd
00000390: 7333 9f3c 0208 38bd 9f8a 38bd 5e56 873a
000003a0: 28f8 42bd e51a 4c3d ad88 99bf 85a4 d6bc
000003b0: e59a d7be 8fe7 b3bc 55ab c7bc c970 1bbd
000003c0: ae78 4a3d 5f6d 463f 9ce4 69bc 0068 2c38
000003d0: aaf8 cebc 6533 7dbc fcbc 993c e1b7 2dbd
000003e0: 831e 4dbf 5c54 313d 7c25 2ec0 86c2 5c3f
000003f0: ac28 e6bc c492 04bd c02b 31bc 7396 32bd
0.0220524 0.011424496 -0.054233372 -0.07263677 -0.011818204 -0.07186408 -0.2966105 0.29100165
-0.0461533 0.6412115 -0.03610879 -7.1895423 -0.029699191 0.011930439 -0.021329056 -0.05700396
0.692628 -0.05024049 1.3638967 -0.046311878 0.50461286 -0.08720194 -0.50649667 -0.048355043
-0.053797252 -0.02884736 0.008694081 0.046192925 -0.06710957 -2.2769628 0.008075133 -0.061115094
-0.016931003 -0.026988372 -0.015507797 -0.05300514 0.3808897 -0.230252 -0.021804249 -0.018911615
0.9524398 -0.03936559 -1.9112275 0.0143793 -2.2110958 -0.027102858 0.05232911 0.011278143
-0.0017230925 -0.06752402 0.011262551 -0.7468568 0.44539008 0.049041174 -0.041063163 0.016678987
-0.0069300756 0.03704322 -0.05665058 0.02498617 0.046642043 -0.021564834 -0.02081942 -0.018991409
-0.07482117 -0.005052448 -0.04300236 0.034795135 -0.066151425 0.014851478 0.014589079 0.0065963664
-0.061887555 0.045771196 -0.044029996 -1.1375853 -0.053654246 -1.2830564 -0.02528385 -0.017217495
-1.0487933 -0.023336641 0.016570363 -0.044845287 -0.028803088 0.0072513297 0.7621236 0.018489558
0.0025739064 -0.013663494 -0.04779663 -0.04508923 0.004577476 0.048299413 -0.090915576 -0.016636832
-0.02307195 0.03837451 0.022175252 -4.540427 -0.0071599917 -6.3336163 -1.1500136 -0.059694342
0.014605116 0.034720354 -0.019275073 0.024892792 -2.1324723 -0.5860265 0.018812768 -0.049076594
0.034182645 0.83137035 -0.05863885 0.057663545 0.15186258 0.04347664 0.02999941 -0.1787943
-0.052262325 -0.0052884608 0.04831127 0.008616865 0.025888281 0.042702086 0.019473134 0.047101855
-0.012825973 0.02811604 -0.23757054 -0.037919108 0.047954448 0.02970662 0.020594697 0.034149673
-1.9905628 0.32123005 0.04039599 -0.008078227 0.0009088245 -0.03137429 -1.4973242 0.038625035
-0.0007763706 -0.029535992 0.059904143 0.026252473 -7.1053405 0.00085513544 -3.9060497 0.061296664
0.0077224597 -0.08604392 -1.407575 -0.030858867 -0.015641112 -3.7729945 0.020642962 -0.1509032
0.5643439 0.02708472 -0.040140778 0.032543004 -0.29625222 -0.0640891 0.043320637 -0.03757878
0.020438781 0.024192108 0.028255321 -6.964139 0.010371439 -0.5470798 -0.07028299 -0.045575537
0.04657353 -0.060492415 -0.076124735 0.0009833053 -7.359231 -0.029513264 0.009926331 -0.0019694536
0.038750313 0.040567987 0.076163985 1.1673892 0.040653855 0.043006383 -0.059239633 -0.050994195
0.3650461 -0.039038714 0.022049338 0.0072727217 -0.028539272 -0.024086334 -0.023410998 0.05661224
0.0014705972 -4.541719 0.023203254 -0.04031591 0.03549415 0.047840785 -0.012844551 0.019252975
-0.027714564 -0.062297523 -0.017710146 -1.3479565 -2.529561 -0.34023708 -0.5254904 -0.0048200106
0.013893203 0.020453589 -0.0007373635 0.038174324 0.02941411 -0.58800256 -0.0052643046 0.042849943
-0.027694419 -0.056827433 -4.844463 -0.0555838 0.019433713 -0.04492951 -0.045054074 0.0010325422
-0.04759994 0.049830336 -1.1994835 -0.026201496 -0.42110363 -0.021961002 -0.02437369 -0.037949357
0.049431495 0.7751064 -0.014275696 4.1104853e-05 -0.025265057 -0.015454148 0.018766873 -0.04241169
-0.8012468 0.043293342 -2.7210379 0.8623432 -0.028095566 -0.03236653 -0.0108136535 -0.04360051

layers.4.bias f4 [256]
00000000: b41c 2b3e 566f df3f 644b 93bf 1d0b 1cc0
00000010: cf62 2bc0 0d85 0cbe 269f e5bf 4b5c 2bbe
00000020: 1754 d0be 5bbf eebd a609 04bf 7c2d 07be
00000030: bb3c f8bd 1e83 f43e b2f9 81bd ba31 78bd
00000040: 53d8 f8bd c862 dabd 7822 ebc0 15e1 b6bf
00000050: 5578 84bf ff3a b3c0 e346 15be 4ab0 2fc1
00000060: 804c dcbd 577d 94bd a17d 92bf 43c0 0fbe
00000070: 55fe d4c0 7242 76be f5d0 2dbf 6b87 50c0
00000080: 274d 3bbe 4274 24c0 e796 72bf 5433 0abe
00000090: ff21 9dbd b5f0 f2be 850b a03e 8f20 b0bf
000000a0: 9d89 053e 5ba7 59bf 746d 8fc0 7e7d ddbf
000000b0: 0533 aebf f66d 86bf 1556 7ec0 eb33 d8bc
000000c0: 40cc ecbf c964 ecbe 9b20 6c3d 330d 65bd
000000d0: 4735 2bbe f4a9 1cbe dcf4 ccbd aa4a e6bd
000000e0: 39b9 63bf 6a15 f3bd 3d95 f7bf d147 29be
000000f0: 7367 b0bd fcce c6bd 9b85 fabd 3b06 0abe
00000100: 5bab 15be c710 cbc0 49dc f9bd 9149 15be
00000110: 607d 1ac0 dd44 dbbd 0f05 28be 2c6f c9bf
00000120: 7762 5abc 1232 04be dfc4 cbbd bcf6 ffbd
00000130: 710f cec0 a15e 3dbe 326c 5ac0 909b 47c0
00000140: 5e13 41be 68a5 9ec0 ffe0 5bc0 bb1a ebbf
00000150: 288a e3bf 851d 5abf c58b d83f 95b8 02be
00000160: d648 f3bf 02c6 acbf e623 92c0 edf1 ddbd
00000170: 3fd5 02c0 829f c53f 04b7 86c0 749e fcbd
00000180: 988e 19be d2b6 bec0 23b3 23be 5c5b c8c0
00000190: 0cd0 39c1 8f76 d3bd 3e55 963e 8ed3 3cbe
000001a0: cb87 58c0 88ca cbbd ded6 a1c0 83f2 40c0
000001b0: 8d30 d5bd 6d1f 90bf 754c 40be a9b9 18be
000001c0: 4927 24be 3cab a3bf 6f20 0dc1 6121 36c0
000001d0: 82c5 6fbf 16be b1bd e852 c8bf e178 dcbd
000001e0: 7b8e f0bd c9c5 46bf 0e4c 9fbd bcdd 00bb
000001f0: 3183 06be 6c16 debe 5fe0 c2bd 5ba2 0cbf
00000200: b7e6 8f3e 0f1e 20be 7863 c03f eb07 d3bf
00000210: 9d02 41c0 54fc a5c0 911e c5c0 3035 54be
00000220: a48e 17be f261 32c0 0821 92be dd35 2abf
00000230: 8d09 753f 35f3 e63f 5b1d fcbd d467 cfbd
00000240: 902c dbc0 d820 f4bd 00c5 02be 0cdb d0c0
00000250: 5a47 253f e5a3 52c0 f775 e83f 6008 a13f
00000260: 6465 7ebe 5a75 44bf d04e 0bbe e204 193f
00000270: e4a7 08be c0d9 d8bd 6e8c 02be c066 0dbe
00000280: 4935 2ac0 d6e3 c9bf 67ed 623e f275 0ebe
00000290: 43e6 96c0 03af eb3e 404f dd3e 671d 19be
000002a0: b335 1b3f 2c31 2fc0 8440 5e3f 5318 a7bd
000002b0: 0df9 11be b049 c1c0 5b15 37be 7520 1bbe
000002c0: 52c2 10be ce13 ed3e 9f73 ffbd 3012 e9be
000002d0: ab65 31be 3e8a ea3e 606b 4ec0 2095 b3be
000002e0: 99c3 02bf 0190 29be 7d25 31be 967d e03e
000002f0: 21fc 2abe c80d 30bf 9243 72c0 19fe 12be
00000300: f2bd 71bd 874e 70bb e36d 743f 21ad d2bd
00000310: cf8c 75c0 1c40 82bd 7325 d3bd ba21 afc0
00000320: d409 56be f5b8 6ec0 0c95 d1bf e8ae f9bf
00000330: 053b cbbf fcb2 c7bd 1a96 5ebe 4b67 30bf
00000340: 42a6 bec0 8eb2 dac0 c3f0 94bd d2ab afbf
00000350: 1d03 00be 9c62 dbbd 29b7 a0c0 24ff 61c0
00000360: 9173 e63e 02b9 d6be 9b65 92c0 f48c 98bf
00000370: 8fae acbe 5d91 0740 b1b1 02c0 4af2 92c0
00000380: b5a0 cbbf 67b8 e8bf db32 11be 52ec 0cbe
00000390: eafe bc3f 4a78 b8bd 3089 4dbf 8075 9ac0
000003a0: 0575 75be a35f 893f e152 bd3f 3fb9 3abe
000003b0: 43c9 c33f 6be3 00c0 db52 02c0 fb24 803e
000003c0: 7cf1 b4bf 9ff0 563f 9b87 b1be 194f ebc0
000003d0: 9154 c8c0 6261 05bf b5b3 05c0 bd95 c3bf
000003e0: ad14 03c1 b3e9 cbbf 94e5 71be 0de4 46be
000003f0: 5e9a 4ec0 6dd9 7ebd cd3b 0dbe 334d a8bd
0.16710168 1.7455852 -1.1507382 -2.4381783 -2.6779058 -0.1372263 -1.7939193 -0.16734426
-0.40689155 -0.11657592 -0.5157722 -0.13200945 -0.121209584 0.47756284 -0.06346454 -0.060594298
-0.121506356 -0.10663372 -7.3479576 -1.428744 -1.0349222 -5.6009517 -0.14577822 -10.980539
-0.10756779 -0.07250469 -1.1444589 -0.14038186 -6.6560464 -0.24048784 -0.6789697 -3.2582653
-0.1829115 -2.5695958 -0.9476151 -0.13496143 -0.076725 -0.4744927 0.3125879 -1.3759936
0.13040777 -0.8502099 -4.482111 -1.7303922 -1.360932 -1.0502307 -3.974004 -0.026391944
-1.8499832 -0.46170643 0.057648282 -0.05592079 -0.16719542 -0.15299207 -0.10007641 -0.1124471
-0.889545 -0.11869319 -1.9342419 -0.16531302 -0.086134814 -0.09707448 -0.122325145 -0.13478939
-0.14616148 -6.345798 -0.12200219 -0.14578845 -2.4139023 -0.10706494 -0.1640818 -1.5737052
-0.01332914 -0.12909725 -0.099496596 -0.12498233 -6.439385 -0.1849313 -3.4128537 -3.1188698
-0.18855044 -4.957691 -3.4356077 -1.8367532 -1.7776537 -0.85201293 1.6917654 -0.12765725
-1.9006603 -1.3497927 -4.566882 -0.10837159 -2.0442655 1.5439303 -4.209841 -0.1233491
-0.14995801 -5.959817 -0.15986304 -6.2611523 -11.613293 -0.10325348 0.2936191 -0.18440077
-3.3832881 -0.09950739 -5.057479 -3.0148017 -0.10409651 -1.125959 -0.18779166 -0.14914574
-0.16030611 -1.2786632 -8.820418 -2.8457873 -0.9366075 -0.08678834 -1.5650301 -0.10765243
-0.11745926 -0.77645546 -0.07778178 -0.0019663414 -0.13135983 -0.43376482 -0.09515452 -0.54935235
0.2810571 -0.15636466 1.5030355 -1.6486791 -3.0157845 -5.187052 -6.1599813 -0.20723414
-0.14800507 -2.787228 -0.28540826 -0.6648844 0.957177 1.8042971 -0.123102866 -0.101272255
-6.8491898 -0.11920327 -0.12770462 -6.526739 0.64562 -3.2912533 1.8161 1.2580681
-0.24843365 -0.76741564 -0.13604283 0.59773076 -0.13345295 -0.105884075 -0.12748882 -0.13808727
-2.6595023 -1.5772655 0.22160874 -0.1391218 -4.715608 0.4603196 0.43224525 -0.14952622
0.60628814 -2.7373762 0.86817193 -0.08158936 -0.14255162 -6.040245 -0.1787924 -0.151491
-0.14136627 0.46304172 -0.12473225 -0.45521688 -0.1732394 0.45808595 -3.2253036 -0.3507471
-0.5107971 -0.1655884 -0.17299457 0.43845814 -0.16697742 -0.6877103 -3.7853742 -0.14354743
-0.059019037 -0.00366679 0.95480174 -0.10286928 -3.8367193 -0.06359884 -0.10309877 -5.472867
-0.20902187 -3.730039 -1.637361 -1.9506502 -1.5877386 -0.097509354 -0.21736947 -0.6890761
-5.957795 -6.834296 -0.07272484 -1.372431 -0.12501188 -0.107121676 -5.0223584 -3.5311975
0.45010045 -0.41938025 -4.574903 -1.1918015 -0.33726928 2.1182473 -2.0420954 -4.5920763
-1.5908419 -1.8181275 -0.14179556 -0.13762024 1.4765294 -0.09007318 -0.80287457 -4.8268433
-0.2397042 1.0732311 1.4790918 -0.18234728 1.5295795 -2.0138805 -2.036307 0.25028214
-1.4136195 0.8396091 -0.3467377 -7.3534055 -6.260323 -0.5210172 -2.0890934 -1.5280071
-8.192548 -1.5930694 -0.23622733 -0.19422932 -3.2281718 -0.062219072 -0.13792343 -0.082178496

layers.6.weight f4 [128, 256]
00000000: a05c 49bb 0914 98bd ddda 02bd 49cb 14bd
00000010: c300 f2ba 3c55 3cbd 3cc4 79bb 621e 62bd
00000020: 2850 9b3c 25e8 3b3d b4f2 fc3b c356 4d3d
00000030: cfe5 23bb 510a 46bc f908 4b3d 7445 c0bc
00000040: 6067 783c cbeb 2fbd aa8f 5fbc 78aa 48bd
00000050: 4283 433d eb38 67bd 9590 003d b7f8 80bd
00000060: 96a1 863c b522 2c3d 9d81 383c aa18 8dbd
00000070: 4519 853b 32cf 613c 142b baba 5dd7 b4bb
00000080: b5ab 1b3d 222d 153d b2ca e03c 1b60 fb3c
00000090: 592a 4d3d 6946 63bd 2793 32bd 35fc 70bd
000000a0: 4518 c2bd 72d9 0cbd 3236 4c3d 6649 873b
000000b0: 0eb5 bfbc 0e9f aabd 61b9 eebc e119 0abd
000000c0: fda7 d3bc 9089 4f3c 0bc9 0fbd 6bdd 3d3d
000000d0: 5493 07bd 7597 0fbd db51 eabc d8eb 843c
000000e0: 4034 06bd 603d 133c 13fe fd3c 40c5 a5bb
000000f0: a09c 24bd e4a9 393d a830 f83c 705d 90bc
00000100: a799 2cbc f890 7ebd 8fd8 1e3d e6c2 5b3d
00000110: 4e8d 513c 6a05 34bd e8e0 3a3c 770d cabc
00000120: 8ee9 403d 4882 a3bb 76b0 803c 3459 04bd
00000130: f2b8 a73c f0ea 10bd 41cf 8cbc c7bf b43b
00000140: 1f8f 973c 3245 70bd 1d2a 55bd 0c9a 493d
00000150: d14d 223d 972e f03b 8033 acbd 7a4a 373d
00000160: 2698 f63c c292 3dbd 840c 8dbd d16e 89bd
00000170: 881b 41bd f548 2abd b612 b23c ecf5 353d
00000180: cdd7 3b3d a400 5fbd 2002 c6bc 5e1a 5bbd
00000190: 5225 ee3c f40d 9f3c 65d5 373d 8699 7ebd
000001a0: 1f2f 42bd 5ff9 113d b865 95bc 7397 003d
000001b0: 3a46 50bd c764 f7bc 4412 96bc 362e 67bd
000001c0: dcde 083d e3a0 3f3d 4c59 2d3d 8667 2f3d
000001d0: b855 4fbd d7e6 85bd bb8a 95bd 65b4 45bd
000001e0: e878 6bbd 12c7 63bd d262 e9bc 05cc 36bd
000001f0: 449b 79bc 2291 903c 5040 e235 4c36 e03b
00000200: 8002 8a3c 8514 c23c dfd2 a2bd e152 04bd
00000210: e474 e3bc 50c4 30bd 2615 013d a8d3 2abc
00000220: b694 0c3d ee3d 67bc dec4 87bd 5584 c03c
00000230: 8b7e 81bd b4dc e73b 1620 8f3c 2014 44bb
00000240: aa43 82bd 3e18 293d 70aa 293d 2cf2 e03a
00000250: b381 67bd de70 97bd 72ef 45bc f010 25bd
00000260: b819 ab3c 8891 933c 0160 b33c 94ea 2ebd
00000270: def0 9c3c 1ca3 8ebc 3da4 5e3d 34f5 403c
00000280: b523 86bd c81b 85bd 1742 b6bb 7f33 7b3b
00000290: 2833 4c3d bbf8 153d 327a 27bb 90a0 303c
000002a0: 2d91 d2bc 6bf7 033d 72c3 1abd aba3 423d
000002b0: 4ef9 39bd a204 e63b 2db5 97bc 5f7f 20bc
000002c0: 8c21 133d c166 80bd 4834 1cbd f0d8 9bbc
000002d0: 1db6 eabc be35 873b 6ad7 08bd 8a38 c13c
000002e0: 1693 69bd e93a bdbc 80dd ad3c 11f2 fbbd
000002f0: b80a 69bc a8fd 53bd c34d bfbc 2cff 64bd
00000300: 987c 983b eb15 91bd 5dc7 a5bc b27f 3fbd
00000310: b020 623c 6683 193d 5938 863c 4c89 27bd
00000320: 5b44 3abd f057 e6bb f3c4 053d f3f5 82bd
00000330: e1b1 25bd 902e 00bc ce3e 1dbd f80b ef3c
00000340: 8e92 223d 6a4e 3e3d 6685 7dbd f2a7 69bd
00000350: 22da da3b 2c3f 70bd eecb 743b 7643 9c3a
00000360: 4420 bebd f27f 0e3d a028 f73c dffd 793c
00000370: 384b 0d3d 458e 04bd 8fe9 03bd d686 9a3b
00000380: 526b 80bd ce22 4cbd bf65 39bc 2d82 473b
00000390: 97fb 61bd 0143 14bd 14d8 983c 62d9 ef3c
000003a0: 9b02 253d c043 923b ec5e 003d 2be9 37bc
000003b0: ba3c 01bd 79a1 19bc 0324 213d 018d 783c
000003c0: ad6e 0f3d 07e6 07bd 82b8 42bd afa7 14bd
000003d0: 9969 453c 13d9 8dbc 70a6 973c f10d 79bd
000003e0: 5447 6cbd 2799 1a3c c07e 053d 9d2c 6fbd
000003f0: 0193 ab3a bcaf 143d 0513 163d ca59 3c3d
-0.0030725375 -0.074256964 -0.031947006 -0.03632668 -0.0018463362 -0.045979723 -0.003811135 -0.055204757
0.01895912 0.045875687 0.007719362 0.05013157 -0.0025008803 -0.012087421 0.049569104 -0.023470618
0.015161365 -0.04294948 -0.013645092 -0.048990697 0.0477326 -0.056450766 0.031387884 -0.062974386
0.016434472 0.042025287 0.011261371 -0.0688947 0.0040618503 0.013782309 -0.0014203512 -0.0055188374
0.03800555 0.036419995 0.027440403 0.030685475 0.050089214 -0.05548707 -0.043597367 -0.058834273
-0.09477285 -0.03438706 0.049856372 0.004128623 -0.023401763 -0.083311185 -0.02914113 -0.033716086
-0.025836939 0.012667075 -0.03510384 0.04635374 -0.033099487 -0.03505655 -0.028603485 0.01622574
-0.032764673 0.008986801 0.031004941 -0.0050589144 -0.04018843 0.045328036 0.030296639 -0.01762268
-0.01053468 -0.06214997 0.038780745 0.053652667 0.012790037 -0.043950476 0.011406161 -0.024664624
0.047097735 -0.004989896 0.015709143 -0.032311633 0.020473931 -0.035380304 -0.01718867 0.0055160257
0.018500863 -0.05865974 -0.052042115 0.049219176 0.039624993 0.0073297727 -0.0840826 0.04474876
0.030101847 -0.046282537 -0.06887153 -0.0671059 -0.047145396 -0.041573483 0.021737438 0.044423983
0.0458601 -0.05444397 -0.024170935 -0.053491943 0.02907053 0.019415833 0.044881243 -0.06215813
-0.04740822 0.03563821 -0.01823698 0.031394433 -0.050848223 -0.030199422 -0.018319257 -0.056440555
0.03341566 0.046784293 0.04232149 0.042823337 -0.050618857 -0.0653817 -0.07301851 -0.04826774
-0.057488352 -0.05560977 -0.028489504 -0.044628162 -0.015234772 0.01764733 1.685703e-06 0.00684241
0.016846895 0.023691425 -0.07950377 -0.032305602 -0.027765699 -0.04315597 0.03151431 -0.010426439
0.03432151 -0.014113886 -0.06629346 0.0235006 -0.06322964 0.0070758704 0.017471354 -0.0029919222
-0.06360562 0.041282885 0.041422307 0.0017162017 -0.056520175 -0.073945746 -0.012081014 -0.040299356
0.020886287 0.01801373 0.021896364 -0.04270418 0.019157823 -0.017411761 0.05435585 0.011777211
-0.06549779 -0.064994395 -0.0055620777 0.0038330255 0.049853474 0.03661416 -0.0025555012 0.010780469
-0.02570399 0.032218378 -0.037784047 0.047519367 -0.04540377 0.0070195952 -0.018519009 -0.009795993
0.035920665 -0.06269599 -0.038135797 -0.019024342 -0.028651292 0.0041262796 -0.03340856 0.02358653
-0.057025038 -0.02309938 0.021223783 -0.1230203 -0.014223747 -0.051755577 -0.02335251 -0.055907413
0.0046535246 -0.07084259 -0.020236665 -0.04675264 0.013801739 0.037478827 0.01638429 -0.04090242
-0.045475345 -0.007029526 0.03265853 -0.06394567 -0.04045284 -0.007823601 -0.038389973 0.029180512
0.039690547 0.0464615 -0.061894797 -0.05704493 0.0066788355 -0.058653995 0.0037352997 0.001192196
-0.09283498 0.034789987 0.030170739 0.0152582815 0.034495562 -0.03236224 -0.03220516 0.0047157807
-0.0627047 -0.04983788 -0.011315762 0.003044258 -0.055171575 -0.036196712 0.018657722 0.02927846
0.040285688 0.004463643 0.031340525 -0.011225025 -0.031552054 -0.009376877 0.039340984 0.015170337
0.035017658 -0.033178356 -0.04753924 -0.036292728 0.012049102 -0.017315423 0.01851198 -0.06080431
-0.05768521 0.009435928 0.03259158 -0.058392156 0.0013090075 0.036300406 0.036639232 0.045984067

layers.6.bias f4 [128]
00000000: e127 10be 6149 643d 0eeb 3ebe 76b7 ddbc
00000010: 4c6a 0cbe c0e7 4c3d 480b debe af8b db3d
00000020: 40f3 87be 3b0f 4abf 19f5 8d3f 1148 eebe
00000030: ddba 43be 74fe fbbe 297a 95be 0e6c 45c0
00000040: 4456 29bf 9521 86be 7961 1cbe 8142 babd
00000050: 4c4e 2abe f3ff bbbc b5e2 9c3d 97aa f5bf
00000060: 1786 23be 6081 49be e364 d3bd 9535 6cbe
00000070: 9302 14be 0acb a5be 0d1f 46be 9676 a7be
00000080: 1f83 e2bf 2d86 8b3e 4cb6 42be 93b5 90bf
00000090: e4f7 48be 9c40 05be 77af 63be 443e 28be
000000a0: c65f 5ac0 e5a6 bfbd 424a a83c d09d 63bd
000000b0: 1d82 d6bc f0bc 97bf d6b4 273e 6edb 61bc
000000c0: 51d7 a43f 4046 29be df56 0fbf 81b5 fbbe
000000d0: 6251 1bbf 15fd 4bc0 3ae5 5ec0 a0e9 0b3e
000000e0: 954c 02be 603a 91be 5c26 d2be 4252 48bc
000000f0: 488b 9abf d951 c9bd 59ff 723e 5a9b 6abe
00000100: ef76 4d3e 99d7 283e e1e6 45be a2f2 0bbf
00000110: 17ed fdbe b56f b73e bb1e 2f3d 28aa 1dbe
00000120: e3c3 013e a8b1 06bf b188 bbbd d7c7 6abe
00000130: 3e36 f3bf fd67 b13c 33bb e13e 42bd 1dbe
00000140: 6c59 4dbe d276 233e fd32 853d 74e9 a6bf
00000150: 3caa fcbe d901 debd fdc6 abbf 035a e63e
00000160: 6c24 17be 9905 af3e 6acf 1cbf 29e8 4ebe
00000170: c683 e1bd b416 913f a9c0 16be 9665 07bf
00000180: fc05 ecbf b26a 25bf ad07 82be 48cb 15be
00000190: 3086 c0be 35db a1be 85cc 6d3e 7ed3 4bbe
000001a0: 7858 2b3f 9b2e 7cbe 284b 70be bee3 54bf
000001b0: 4722 cebf 47d1 5ebe 6ea7 803f 7b68 403e
000001c0: 452d 01bf 5710 9bbe d510 72bf 913d d13e
000001d0: c0b1 46bf eb92 52be 117f 96be 38c2 64be
000001e0: 5963 0dbe 6607 5ebe 4c54 c93e 9f7b 87bc
000001f0: e85e 8dbe b915 dbbc eefc 24bf 93b8 1bbe
-0.14077713 0.055734042 -0.18644354 -0.02706502 -0.13712424 0.0500257 -0.43367982 0.10720002
-0.26552773 -0.7892949 1.1090423 -0.46539357 -0.19114251 -0.4921757 -0.29194763 -3.0847201
-0.66147256 -0.26197496 -0.15271558 -0.09094716 -0.1663143 -0.022949195 0.076604284 -1.9192685
-0.1596912 -0.19678259 -0.10321977 -0.23067315 -0.14454107 -0.3238147 -0.19347782 -0.3270766
-1.7696265 0.27250805 -0.19014853 -1.1305412 -0.19625813 -0.13012928 -0.22234903 -0.16430002
-3.4120955 -0.093580045 0.020543221 -0.055570424 -0.02618509 -1.1854534 0.16377577 -0.013785226
1.2878209 -0.16530704 -0.5599193 -0.49161914 -0.60671055 -3.187322 -3.4827409 0.1366334
-0.12724526 -0.2836485 -0.4104489 -0.012226643 -1.2073755 -0.09830064 0.2373022 -0.22910824
0.20064901 0.16488494 -0.19326355 -0.54667103 -0.49594948 0.35827413 0.042753916 -0.1539694
0.12672381 -0.5261483 -0.09156931 -0.22927795 -1.9000928 0.02165603 0.44088134 -0.15404227
-0.20053643 0.15963295 0.06503866 -1.3039994 -0.4934863 -0.10840196 -1.3420101 0.44990548
-0.14759988 0.34183958 -0.6125399 -0.2020575 -0.11011462 1.1335053 -0.14721932 -0.5288938
-1.8439326 -0.6461593 -0.2539648 -0.14628327 -0.37602377 -0.31612554 0.2322255 -0.19904897
0.6693187 -0.24627154 -0.2346617 -0.83160007 -1.6104211 -0.2175952 1.0051095 0.18789856
-0.504597 -0.30285904 -0.94556934 0.40867284 -0.77614975 -0.20563857 -0.2939382 -0.22339714
-0.1380743 -0.2168251 0.39322126 -0.01653844 -0.2761147 -0.026743757 -0.6444844 -0.15207128

layers.8.weight f4 [11, 128]
00000000: 897f b739 ec24 b03a 54ba e3bb 65c4 443c
00000010: 9c72 faba 9947 ba3a 9058 a63b 24b8 543b
00000020: 158e 7f3c dd5d b23b 2b5a 19bb f487 363d
00000030: 982f 843d 9c18 b73d 0f78 273b 21fd f6bb
00000040: 661e 3d3d 5e37 093d f7b9 bb3a d929 463a
00000050: e67a aebc bdef 92bb becb 90b9 82d1 fb3d
00000060: 7eea ae3c 16fd a83d 41c8 213d 0099 25bc
00000070: 9da8 27bb e9e8 773a c536 073d a49f 0a3d
00000080: dbb4 973b 1723 063c 2434 1a3c 0b27 b2bc
00000090: fce8 35bc 56cb 0b3b 1cc2 bebc c4b2 fcbc
000000a0: ee0d 503d 4652 16bd cdcc 53ba d261 98bd
000000b0: ce5c 31bd 2785 903b e155 a5ba 2b6e 783b
000000c0: a491 1ab9 60d3 223b 145f 09bd 1819 8a3d
000000d0: cd45 91ba 5337 ec3c 9493 153d ec19 1aba
000000e0: a2a5 61bd cefc 1b3c 2788 2d3d 614f e63d
000000f0: 301d 4abb 1024 47bc 5fd6 6bb8 dfdf 6d3b
00000100: 301e 953b 63a9 543a 1949 1a3d f2b2 38bd
00000110: 80b0 a0ba bd76 65bb 9cfc 13bc 8f9d 6d39
00000120: 1a02 cfba 8e31 883b 5d9d 6cbc 8fe8 253c
00000130: 3c40 a13c 4678 ce3b 3184 b63d 607f 2fbd
00000140: 0486 2e3d 2d72 e4ba b9ad dd3a f76b 0b3b
00000150: 3cea 71bd 5e68 cf3d 5821 913a 672a 04bb
00000160: 72e1 68bc 81f7 06ba fb88 2b3b 2aba 6eba
00000170: 517e ac3c 7576 7b3b 7a86 adbd 3506 9739
00000180: cb46 6c3d acfb 0c3b c828 d0bc 4a29 6dbd
00000190: ae66 743a 75fa 80bc 7eb8 03bb 1342 76bd
000001a0: 899d dfba 86ec 4c3d 8a06 2c3b 4013 1b3c
000001b0: 68c6 423d c14f a93b 6180 6c3d 8c70 90bb
000001c0: 94fa c3ba bb4d 80bb d218 80bc f2b3 c1bc
000001d0: a319 5639 8846 d9bc 3ac0 2bbd 456b 403c
000001e0: e76c 6bbd 928a c6b9 397e 01bc ae64 c33b
000001f0: f437 6fbd b26b c13d e3dc 8f3b 6a39 cdba
00000200: 1909 7fbd e367 563a c560 6c3c fb13 343d
00000210: fe8c 2a3a ef94 743b 3b86 4cba f853 373b
00000220: abb9 853c 9048 5fb9 2050 193b aab9 193d
00000230: b725 263d f051 483d 5a78 133c 485e 42bd
00000240: 2111 f7ba 9bd4 edba 0cfe 4f3d c260 35bb
00000250: c4cc dcbb 6b51 a53b af63 ed39 4c5b 8a3c
00000260: f6d5 a63c 4041 45bc c3d8 c9bb 06e6 d7ba
00000270: 720b e8bc 6790 1b39 cb39 1ebd 3991 cb3d
00000280: 90e4 dabb e618 cdbd 72b9 d9bd 2717 1dbd
00000290: 2dff f2ba 8656 0c3d 77e0 47bd cd43 5cba
000002a0: dc15 7cbc 1468 78bd 7ac7 58bd 4a29 a4bb
000002b0: c8bb 2abd 229b 933a 60b8 c23a e675 093a
000002c0: 5921 ecb9 b308 683b 431a 28bd 433c e3ba
000002d0: 7d4b 80bc 1e7c c2bc 9144 833c e225 1c3b
000002e0: 9664 91ba fad0 853d 644f 413d 1903 223e
000002f0: affc dcba 721b a13c bd76 6ebb 2748 54bd
00000300: 247a 873d 4a38 363a b80f c6bc fc15 9a3b
00000310: 3529 263a 3bd3 c93a 03da 26bd 5cb1 ac3a
00000320: b967 133b 25e1 0a3b 416a 02bc e3c5 a8bc
00000330: 30bd b6bc 85ab 87bb b39f 173b 0353 bebb
00000340: a625 9cbd 034f fbbb 6fa4 673d ae52 52b9
00000350: 6b25 d2bb 6c4f c2bd af01 0d3c f283 5eb9
00000360: fb29 a6bc fcc9 7dbc 3384 833e e612 06bd
00000370: 990a 0dbd 9f75 a139 a756 4cbd 150b 8bba
00000380: adc2 943b 66eb 633b 98d7 d13c bc73 113b
00000390: cc3a 00bd daf0 1d3f f7fd a43b 83ca c53d
000003a0: 5911 0ebc cf3e 0fbc 3ea8 3dbb 3453 c53a
000003b0: 41b3 023d 46f7 853b 381f 193d 3982 adba
000003c0: ec43 493a 0273 fbba d502 1fbc 7ef1 903b
000003d0: 8fa6 933a dfb5 493c 2170 cdbb 61f7 5fbc
000003e0: 0da4 bfbd b29c abb8 f255 783d aad6 23bd
000003f0: e56d 77bc 7acb 8b3d 87a2 c5b8 d52a e83c
0.000349995 0.0013438738 -0.0069497023 0.012009715 -0.0019107643 0.0014212012 0.0050764754 0.003245839
0.01559784 0.0054433183 -0.0023399692 0.04456325 0.0645439 0.08940241 0.0025553738 -0.0075374995
0.04617157 0.033500068 0.001432239 0.00075593364 -0.021298837 -0.0044841454 -0.0002761762 0.1229582
0.021352049 0.08251397 0.039497618 -0.010107279 -0.002558268 0.00094570086 0.033011217 0.03384365
0.004629714 0.008187077 0.009411845 -0.021747133 -0.011102911 0.0021330914 -0.023285918 -0.03084696
0.050794534 -0.036699556 -0.0008079529 -0.07440533 -0.043301396 0.0044104042 -0.0012614095 0.0037907462
-0.0001474084 0.0024845228 -0.03353794 0.067430675 -0.0011083424 0.028834974 0.036517695 -0.00058784964
-0.0550896 0.009520723 0.042366173 0.11245609 -0.003084015 -0.012154594 -5.6228015e-05 0.0036296768
0.004550718 0.0008112399 0.037667368 -0.04509253 -0.0012259632 -0.00350134 -0.009032395 0.00022660776
-0.0015793473 0.004156298 -0.014441815 0.010126247 0.01968395 0.006300959 0.08911932 -0.042846084
0.042608276 -0.0017429047 0.0016912735 0.002127407 -0.059061274 0.10127328 0.0011072559 -0.0020166875
-0.014213907 -0.00051485753 0.0026174176 -0.000910672 0.021056326 0.0038370166 -0.08472915 0.0002880559
0.0576847 0.0021512313 -0.025410071 -0.057900704 0.0009323162 -0.015744427 -0.002009898 -0.060121607
-0.0017060499 0.050030254 0.0026249015 0.009465039 0.047552496 0.005166978 0.05773962 -0.004407948
-0.0014951997 -0.003915516 -0.015636835 -0.023645375 0.00020418181 -0.02652289 -0.04193137 0.011744325
-0.057476904 -0.00037868746 -0.007903629 0.0059629297 -0.05840297 0.094443694 0.0043903454 -0.001565737
-0.062264536 0.00081789325 0.0144273685 0.043964367 0.0006505995 0.0037320217 -0.00078019843 0.0027973633
0.016323885 -0.00021293969 0.0023393705 0.03753058 0.04056331 0.048906267 0.009000862 -0.047453195
-0.0018849709 -0.0018145026 0.050779387 -0.002767608 -0.006738277 0.005045106 0.00045278433 0.016889237
0.020365696 -0.012039483 -0.006159873 -0.001647175 -0.02832577 0.00014835746 -0.038629334 0.099398084
-0.006680079 -0.100145146 -0.10631074 -0.038352158 -0.0018539183 0.034262203 -0.04879805 -0.0008402437
-0.015386071 -0.06064613 -0.05292461 -0.005009805 -0.04168299 0.0011261443 0.0014855973 0.00052437035
-0.00045038274 0.0035405576 -0.04104067 -0.0017336685 -0.015660996 -0.023740824 0.016023906 0.002382629
-0.0011092599 0.06534 0.047194853 0.15821494 -0.0016859974 0.019666407 -0.0036386691 -0.051826622
0.06615093 0.0006951137 -0.024177417 0.004702328 0.0006338538 0.0015398035 -0.040735256 0.0013175416
0.0022492243 0.0021191326 -0.007959903 -0.020602172 -0.022307009 -0.00414032 0.002313596 -0.0058082356
-0.07624368 -0.007669331 0.0565533 -0.00020057961 -0.006413152 -0.09487805 0.008606358 -0.00021220723
-0.02028369 -0.015490051 0.25686797 -0.032732867 -0.034433935 0.00030795948 -0.049887326 -0.0010608161
0.0045398087 0.003477776 0.025615498 0.0022194227 -0.031306073 0.61695635 0.005035158 0.09657767
-0.008671128 -0.008743002 -0.0028939391 0.0015054704 0.03190923 0.004088315 0.03738329 -0.0013237662
0.00076776627 -0.0019184055 -0.009705265 0.0044233194 0.0011264848 0.012311428 -0.0062694703 -0.01366982
-0.09357462 -8.183102e-05 0.06062884 -0.03999964 -0.0151018845 0.068259194 -9.423965e-05 0.028340736
