Simulation/saved_data/models/model_otherNormWay.pth (torch, 540178 bytes, 10 tensors)

layers.0.weight f4 [128, 6]
-0.10564052 0.17574574 -0.042388305 -0.108585276 -0.06900641 -0.060183045 -0.22297844 0.051667623
-1.5577106 -3.6514645 -1.3856938 -0.3809813 -0.02233669 -0.023141993 0.14860764 -0.93251395
-0.031013545 -0.111135066 0.22577423 -1.1627548 -0.14930362 -0.17612672 -0.32141066 -0.6338798
-1.4387621 1.4404471 0.0062393364 -0.0067623574 -0.0015469347 -0.00238772 -0.33700112 -0.3244765
-0.40210348 -0.27272978 0.12219925 -0.38121405 -1.4048321 0.5023474 -0.3713863 0.5989829
-11.856946 -23.780258 -0.2184541 -0.042541888 -0.17918736 0.087690294 0.03196049 -0.03164959
-0.9946554 -0.8501786 -1.0147512 -0.30286682 -0.2066724 -0.35308033 0.00085302064 0.02641332
-0.4251983 0.12469322 -0.016829142 -0.041542444 -0.8634103 -0.71435916 -1.6620471 -1.4688314
-0.100789875 0.252497 -0.29430836 -0.0366126 0.049820393 -0.17441714 -0.2501983 -0.18832462
-0.17990127 -0.083740406 -0.12651902 -0.21621987 -0.10023605 -0.2957427 -1.7299125 3.2819407
0.0036267338 0.0035310544 0.0027503415 0.0017750226 0.31078687 -0.031682085 -10.611179 -0.5392405
-0.14561976 -0.4325264 -0.11105547 -0.094311796 -0.36044586 0.110386685 -0.056056175 -0.08625158
0.22369261 0.18769392 -0.19408347 0.022279045 -0.115398705 -0.052658375 -1.4811593 -4.962086
0.0035250636 -0.0008708009 -0.0067950133 0.0031568261 -1.8998183 -1.9667861 -1.4195359 -0.30041054
0.11456794 0.0858379 0.28606233 -2.8714747 -0.1546066 -0.5659377 -0.33678892 -0.5529075
-0.07265146 -0.10311699 0.25384724 -0.4283849 -0.016731832 -0.036090195 0.012431953 0.011569577
0.008043017 0.020753257 -1.1458174 1.1382328 -0.26692805 0.16914701 0.011719534 -0.112124845
-0.04304624 -0.010631012 -0.7367766 -0.21401481 -0.16090384 0.028594604 -0.14149407 -0.04601173
-0.10696902 -1.1244395 0.116092026 -0.81627446 0.017428575 -0.10801527 0.44209877 -0.19124247
-1.44941 -2.2224946 0.018260045 -2.124025 0.49427637 -1.4445858 -0.0022368946 -0.009082154
-0.0042092074 -0.0017310551 -0.8841299 -1.2251157 -0.6227427 0.14898543 -0.097117215 -0.8126351
-0.12150434 -0.2567981 -0.2945044 -0.013897091 -0.11426327 -0.3904699 0.012376608 -0.27676868
-0.094273135 0.019783074 -0.107259795 0.013864367 -0.0013427223 0.10059966 -1.1917669 -0.5848167
-0.14947625 -0.24262163 -0.14732784 0.38197747 -0.04900199 -0.08419821 -0.020560317 -0.038496733
0.033128984 0.03767273 0.30256322 -1.6930529 -0.288431 -0.059971996 -1.6353503 0.52466047
-0.73443455 -0.32217667 -0.8941599 -0.21670699 -9.878902 -10.80032 0.036676444 0.038319167
-0.0107352985 -0.001573177 -0.014679371 -0.006831218 -0.010839393 0.016486127 1.4430126 -1.4540105
-0.15529259 -0.090411685 0.018735157 -0.42086774 -0.036993705 -0.05739252 -0.00508433 -0.005026153
0.0118945455 0.009126145 -3.229167 3.1936133 0.0033883636 0.006946083 1.1793735 -1.1817937
-0.0007802458 -0.0014069028 -0.7276845 -0.381899 -0.40425256 -0.3207827 -0.0579656 -0.16880989
3.4744167 -1.4918725 -0.0039741728 -0.0006444428 -0.0048148436 -0.0002153215 -0.3176748 -0.23495075
-0.42651427 -0.15978174 -0.18146847 -0.21618696 -0.045308094 -0.3568491 0.0074809897 -0.006342979
00000000: 0f5a d8bd b1f6 333e 5c9f 2dbd f561 debd
00000010: 3c53 8dbd 7f82 76bd 7654 64be 6ea1 533d
00000020: 1063 c7bf 98b1 69c0 6a5e b1bf fb0f c3be
00000030: 6ffb b6bc 4794 bdbc 9a2c 183e 3cb9 6ebf
00000040: 1e10 febc c89a e3bd 5c31 673e 26d5 94bf
00000050: 0ce3 18be 905a 34be f08f a4be f245 22bf
00000060: 5b29 b8bf 9260 b83f 5973 cc3b c496 ddbb
00000070: 84c2 caba 4b7b 1cbb 698b acbe c921 a6be
00000080: 82e0 cdbe 3da3 8bbe 9a43 fa3d 7d2e c3be
00000090: 8ad1 b3bf d799 003f 5826 bebe f156 193f
000000a0: 0db6 3dc1 f83d bec1 6eb2 5fbe 6740 2ebd
000000b0: e47c 37be f896 b33d 01e9 023d 00a3 01bd
000000c0: bca1 7ebf 4ea5 59bf 5ee3 81bf 5c11 9bbe
000000d0: eea1 53be f2c6 b4be 3f9d 5f3a bf60 d83c
000000e0: 97b3 d9be 295f ff3d 45dd 89bc 6928 2abd
000000f0: 7508 5dbf 3ee0 36bf f6bd d4bf ab02 bcbf
00000100: ec6a cebd 4947 813e 96af 96be 18f7 15bd
00000110: 7810 4c3d 689a 32be fe19 80be 2bd8 40be
00000120: 0a38 38be 1780 abbd 348e 01be be68 5dbe
00000130: 8f48 cdbd 966b 97be c66d ddbf 510b 5240
00000140: 7fae 6d3b 4369 673b 133f 343b e0a7 e83a
00000150: 751f 9f3e 13c5 01bd 64c7 29c1 aa0b 0abf
00000160: 591d 15be 1a74 ddbe 0d71 e3bd 8b26 c1bd
00000170: 5c8c b8be 6a12 e23d 299b 65bd aba4 b0bd
00000180: ad0f 653e d632 403e d1bd 46be 8b82 b63c
00000190: 2856 ecbd 4fb0 57bd a196 bdbf 69c9 9ec0
000001a0: c104 673b 7646 64ba b4a8 debb c1e2 4e3b
000001b0: 3f2d f3bf a6bf fbbf 5ab3 b5bf 69cf 99be
000001c0: 99a2 ea3d c8cb af3d c376 923e 3ec6 37c0
000001d0: 3151 1ebe 4be1 10bf 996f acbe 598b 0dbf
000001e0: 4aca 94bd 002f d3bd 44f8 813e 4455 dbbe
000001f0: 3211 89bc 50d3 13bd 64af 4b3c 538e 3d3c
00000200: dcc6 033c bc02 aa3c 25aa 92bf 9db1 913f
00000210: cbaa 88be e034 2d3e 4a03 403c b6a1 e5bd
00000220: 4151 30bd b22d 2ebc 649d 3cbf b326 5bbe
00000230: fac3 24be 3b3f ea3c d2e3 10be cc76 3cbd
00000240: 9312 dbbd a2ed 8fbf a8c1 ed3d 5df7 50bf
00000250: 5fc6 8e3c 1c37 ddbd c55a e23e 11d5 43be
00000260: 4486 b9bf 5a3d 0ec0 1796 953c 07f0 07c0
00000270: cb11 fd3e 30e8 b8bf dd98 12bb 51cd 14bc
00000280: 64ed 89bb 92e4 e2ba 5656 62bf 97d0 9cbf
00000290: 116c 1fbf a38f 183e 64e5 c6bd db08 50bf
000002a0: 44d7 f8bd 0a7b 83be 48c9 96be a0b0 63bc
000002b0: dc02 eabd aceb c7be 42c7 4a3c a0b4 8dbe
000002c0: 4612 c1bd 1d10 a23c 06ab dbbd 5f27 633c
000002d0: 49fe afba 3207 ce3d d18b 98bf 8cb6 15bf
000002e0: 4d10 19be ce71 78be 1cdd 16be 8d92 c33e
000002f0: 50b6 48bd 1c70 acbd 1c6e a8bc c0ae 1dbd
00000300: 42b2 073d b84e 1a3d 91e9 9a3e f5b5 d8bf
00000310: 3aad 93be 32a5 75bd 2953 d1bf 2650 063f
00000320: e703 3cbf 57f4 a4be aae7 64bf 70e8 5dbe
00000330: fc0f 1ec1 1cce 2cc1 0a3a 163d 8ff4 1c3d
00000340: 1be3 2fbc 1033 ceba bf81 70bc 69d8 dfbb
00000350: b697 31bc ea0d 873c a3b4 b83f 041d babf
00000360: 0505 1fbe c329 b9bd 797a 993c fa7b d7be
00000370: b686 17bd 6b14 6bbd 749a a6bb 6db2 a4bb
00000380: 57e1 423c d485 153c acaa 4ec0 2964 4c40
00000390: 4f0f 5e3b f89b e33b b6f5 963f 0445 97bf
000003a0: 6989 4cba d367 b8ba 8849 3abf 4488 c3be
000003b0: 31fa cebe a13d a4be 566d 6dbd 80dc 2cbe
000003c0: d85c 5e40 aef5 bebf c739 82bb d3ef 28ba
000003d0: d6c5 9dbb edc7 61b9 45a6 a2be ee96 70be
000003e0: 1460 dabe d39d 23be dfd2 39be 1d60 5dbe
000003f0: fb94 39bd edb4 b6be 1723 f53b c4d8 cfbb

layers.0.bias f4 [128]
-0.7397183 2.0559297 -0.73381644 -0.1501148 -0.03587889 -0.3600393 0.24561821 -0.8625582
1.1002784 -0.85015047 -0.7039203 -0.18273059 0.42906228 -12.197486 -0.54174757 -0.359664
-1.9859178 2.1178634 0.073484406 0.49488074 -1.5232937 0.008853017 -0.83142036 0.23729518
-0.49591416 -1.6303265 0.5244833 0.2969642 -0.19326256 -0.12949194 -0.188351 -1.7341422
-1.8245338 -0.8643213 3.741918 -0.028224565 0.047408722 -12.799949 -0.03408109 0.73898935
-12.937363 0.5224866 -0.44748574 -0.8937546 -7.4003887 0.7530302 -1.7556256 -0.1977726
-11.55482 -0.61821437 -0.048488926 -1.1524227 -0.86640704 -0.022407796 -0.8770629 2.9046526
-0.19792163 -1.1783577 -3.367544 -0.49053657 0.39113268 -1.0876293 0.3000531 6.0580363
0.22555397 -0.3799195 -0.40802985 0.56267154 -0.66505903 0.08857432 -1.2890971 -0.54122436
2.3382921 -0.2661165 -0.54185706 1.0251539 0.58984035 2.7461069 -0.26507425 -0.07968249
-0.0382376 0.15459827 -0.31827092 0.44385388 -0.0063004177 -0.45233047 0.4651418 -0.9786135
0.90646994 0.741179 1.0922104 -0.73339057 -0.46183223 -0.023092858 -5.066685 -2.7192714
-0.79621154 0.033806395 2.3711271 -1.3464658 -0.07466039 -0.24667233 -0.22254032 -0.7323782
-0.5487772 -0.26776645 -0.2692448 -0.16133319 -3.0643733 1.9181796 -0.5205862 -0.12009236
-0.5971638 -0.2466223 0.42938763 -0.9299982 0.62272537 2.3387742 -0.034694742 -0.35495576
-0.005137583 0.3388212 -0.25819275 0.09208881 0.39821154 -0.34819722 -1.1568607 0.04197703
00000000: 2e5e 3dbf 5a94 0340 65db 3bbf b2b7 19be
00000010: bef5 12bd 1257 b8be 5783 7b3e 9dd0 5cbf
00000020: ecd5 8c3f 76a3 59bf 1f34 34bf ba1d 3bbe
00000030: 0dae db3e e728 43c1 f8af 0abf e125 b8be
00000040: 8e32 febf 138b 0740 fe7e 963d 0261 fd3e
00000050: 4afb c2bf 3f0c 113c f7d7 54bf 82fd 723e
00000060: 76e8 fdbe 8aae d0bf 8a44 063f b10b 983e
00000070: 9fe6 45be 8999 04be 16df 40be 5ff8 ddbf
00000080: 538a e9bf 2944 5dbf 967b 6f40 3437 e7bc
00000090: a62f 423d 97cc 4cc1 9d98 0bbd 682e 3d3f
000000a0: 70ff 4ec1 afc1 053f da1c e5be 1acd 64bf
000000b0: fccf ecc0 96c6 403f 57b8 e0bf e784 4abe
000000c0: 8be0 38c1 4c43 1ebf 539c 46bd 9682 93bf
000000d0: dacc 5dbf 8e90 b7bc 3287 60bf d4e5 3940
000000e0: f8ab 4abe 6dd4 96bf d785 57c0 9c27 fbbe
000000f0: 8b42 c83e 7037 8bbf 8fa0 993e 6fdb c140
00000100: 9ff7 663e cf84 c2be 4ae9 d0be 3e0b 103f
00000110: 4f41 2abf 7466 b53d 2201 a5bf ae8d 0abf
00000120: 94a6 1540 6c40 88be 25b7 0abf 3e38 833f
00000130: c7ff 163f 37c0 2f40 d0b7 87be 9330 a3bd
00000140: 089f 1cbd 024f 1e3e 68f4 a2be d140 e33e
00000150: bc73 cebb dc97 e7be 1127 ee3e 6a86 7abf
00000160: 6a0e 683f e8bd 3d3f 8dcd 8b3f 7cbf 3bbf
00000170: 4675 ecbe 3c2d bdbc 4922 a2c0 8b08 2ec0
00000180: 85d4 4bbf 9378 0a3d 8cc0 1740 fe58 acbf
00000190: 8ce7 98bd ac97 7cbe 9ce1 63be 237d 3bbf
000001a0: aa7c 0cbf af18 89be 74da 89be 8734 25be
000001b0: b11e 44c0 e986 f53f 2345 05bf fcf2 f5bd
000001c0: badf 18bf 8e8a 7cbe b2d8 db3e 5d14 6ebf
000001d0: ee6a 1f3f 7aae 1540 131c 0ebd c3bc b5be
000001e0: 2b59 a8bb f979 ad3e d731 84be 0f99 bc3d
000001f0: 62e2 cb3e e846 b2be 0314 94bf 1bf0 2b3d

layers.2.weight f4 [256, 128]
-0.031089308 -0.110816285 -0.052231934 -0.009790294 -0.018437615 0.04995101 -0.022155974 0.07782885
-0.0033317653 -0.009954949 0.011205315 0.03757014 -0.090061024 -0.07856406 -0.094320804 -0.06550404
0.048912276 -0.036756657 -0.081177615 -0.06308624 -0.059450917 -0.09684947 -0.04750291 0.02667502
0.060582656 -0.040230792 -0.099561706 0.015755525 0.052169733 0.027575186 -0.07762142 -0.022094915
0.027256439 -0.09802846 -0.012741783 -0.05279006 -0.014984528 0.012638931 -0.052850176 0.05966384
-0.06719591 -0.08014304 0.00322944 -0.09509716 0.0027405627 0.046045016 -0.09627833 0.011919984
0.054829203 0.04677488 0.005707878 -0.030371178 0.0077975383 0.071315005 0.04360179 -0.0912478
0.050732203 -0.08675066 -0.021613028 -0.0008600644 0.025690485 -0.03067739 -0.021759842 -0.07783726
-0.07356961 -0.08242026 -0.032080907 -0.077838466 -0.07486464 0.05639743 -0.0714807 0.010340693
-0.06385242 -0.06788751 -0.03619622 0.06831593 -0.03570803 0.03466515 -0.07636096 -0.040434495
0.07608334 -0.06813894 0.08381691 -0.10360901 0.014613264 0.017156158 -0.034483746 0.02419955
0.056117576 -0.048993662 0.04196291 -0.03160413 -0.038000096 -0.0023579295 -0.09860363 -0.024397619
0.036091235 -0.061692342 0.0008070643 0.057110984 -0.039200958 -0.06896226 -0.036142327 0.04049539
0.043282256 -0.06970271 0.055337645 -0.052728888 -0.043362185 0.042805433 -0.0023743878 -0.08125834
0.060508136 0.0240222 0.006539837 -0.061619345 -0.054734834 0.055923015 -0.018946223 0.006293483
0.031091258 -0.092534915 0.031491943 0.08538809 0.033525176 -0.008168194 -0.10297029 -0.030935302
0.13932857 -0.22396559 -0.042580217 0.09612164 0.02081654 0.051013947 -2.5726464 0.22346021
-0.0012656801 0.04064418 -0.19999483 -0.075398885 0.17097527 -0.059585832 0.24570099 -0.21776436
-0.18333735 0.18050703 -0.2573207 0.2619954 -0.19809876 -82.376 -0.042316746 0.08418957
0.27419323 -0.34353492 0.014132789 -0.0390853 -0.041001875 0.030739103 0.032593153 -0.05475403
-0.27724835 -0.11546486 -2.1123338 -0.5913044 -0.0655918 0.077678315 -41.00807 -2.0700645
0.0065824115 -0.3775742 -0.13459724 -0.24958561 0.5025303 0.3257658 -1.2848821 0.069146976
-0.11021265 0.007959641 -0.0014926102 -0.041156292 -0.20365374 -0.2307829 -0.20239045 -0.09674431
-0.13583392 0.11272089 0.043845 0.18206519 0.1262108 -0.14831978 -0.04533315 0.010650667
-0.08647425 -0.03532418 -0.026184412 0.009458373 -0.18554485 -0.011336416 0.24128625 -1.3262982
-0.006712228 -0.08378988 0.040204115 -0.15236035 -1.0687578 -0.05371318 0.33455566 -0.020141043
-0.080881625 0.10556462 -0.1592501 -0.6117489 0.00023236372 0.2010428 -0.50171745 -0.16650932
-0.029538063 -0.23014824 -3.1124597 0.02580728 -0.048344366 -0.015745576 0.101674095 0.11955472
-0.1146199 -0.039408967 -0.03595448 -0.014115931 -0.010640632 -0.11092297 -0.0015198932 -0.034747213
-0.47639278 -0.01587535 0.029480841 -0.086380064 -0.75470144 0.019879498 -0.2083694 -0.07615617
-0.013145976 0.0055893417 0.00017649047 -0.09569676 -0.24194625 0.046321828 0.010332658 -0.06638004
0.12462086 0.20091718 -0.30011445 0.03940199 -0.06435259 -0.09068309 -0.13993578 -0.12539878
00000000: 01af febc a6f3 e2bd 27f1 55bd 7867 20bc
00000010: 7b0a 97bc 6e99 4c3d 7280 b5bc bb64 9f3d
00000020: bf59 5abb 151a 23bc 7f96 373c 26e3 193d
00000030: ea71 b8bd 32e6 a0bd 442b c1bd fb26 86bd
00000040: 3d58 483d 268e 16bd 7340 a6bd 5c33 81bd
00000050: ce82 73bd 0459 c6bd 6992 42bd 9285 da3c
00000060: 8525 783d 0bc9 24bd 02e7 cbbd bb11 813c
00000070: eeaf 553d 5be5 e13c fbf7 9ebd 6500 b5bc
00000080: e548 df3c 25c3 c8bd e9c2 50bc 643a 58bd
00000090: aa81 75bc 8513 4f3c 6d79 58bd 1262 743d
000000a0: 029e 89bd 0922 a4bd 03a5 533b 4dc2 c2bd
000000b0: 039b 333b b399 3c3d 932d c5bd 094c 433c
000000c0: 9694 603d 0497 3f3d 2709 bb3b facc f8bc
000000d0: 7e82 ff3b 9a0d 923d ca97 323d 20e0 babd
000000e0: 92cc 4f3d 54aa b1bd ce0d b1bc f275 61ba
000000f0: da74 d23c 264f fbbc b241 b2bc 2469 9fbd
00000100: aaab 96bd f4cb a8bd 4567 03bd c669 9fbd
00000110: a252 99bd fe00 673d 7964 92bd 036c 293c
00000120: 0fc5 82bd 9b08 8bbd 7d42 14bd 39e9 8b3d
00000130: 9542 12bd 0bfd 0d3d 2363 9cbd a49e 25bd
00000140: 95d1 9b3d 6e8c 8bbd 33a8 ab3d f630 d4bd
00000150: 796c 6f3c 128b 8c3c d43e 0dbd 223e c63c
00000160: 8bdb 653d 94ad 48bd 4de1 2b3d 5573 01bd
00000170: fda5 1bbd 7e87 1abb b3f0 c9bd 84dd c7bc
00000180: 67d4 133d 1cb1 7cbd 2b91 533a 35ed 693d
00000190: 2f91 20bd 163c 8dbd fa09 14bd 7ede 253d
000001a0: bc48 313d 4bc0 8ebd baa9 623d 3ffa 57bd
000001b0: 8c9c 31bd c054 2f3d 9e9b 1bbb c66a a6bd
000001c0: 61d7 773d 34ca c43c 214c d63b 9164 7cbd
000001d0: a231 60bd 880f 653d 1c35 9bbc 9039 ce3b
000001e0: 18b3 fe3c f282 bdbd b2fd 003d f3df ae3d
000001f0: b251 093d e4d3 05bc 16e2 d2bd 086c fdbc
00000200: 26ac 0e3e 3c57 65be 9868 2ebd 6cdb c43d
00000210: 7387 aa3c 00f4 503d 3da6 24c0 c1d2 643e
00000220: 2de5 a5ba 837a 263d 72cb 4cbe bb6a 9abd
00000230: 2414 2f3e 4610 74bd 0a99 7b3e 9ffd 5ebe
00000240: c9bc 3bbe d6d6 383e 8abf 83be 4324 863e
00000250: 67da 4abe 83c0 a4c2 5354 2dbd 956b ac3d
00000260: 0e63 8c3e cfe3 afbe 378d 673c e817 20bd
00000270: 95f1 27bd 92d0 fb3c 6680 053d c345 60bd
00000280: 7ff3 8dbe d778 ecbd 7a30 07c0 ba5f 17bf
00000290: fe54 86bd cf15 9f3d 4408 24c2 f07b 04c0
000002a0: 45b1 d73b 6851 c1be dcd3 09be 5f93 7fbe
000002b0: d3a5 003f c6ca a63e 0477 a4bf ee9c 8d3d
000002c0: 2bb7 e1bd 2769 023c b0a3 c3ba 8093 28bd
000002d0: 9b8a 50be 5a52 6cbe 713f 4fbe e121 c6bd
000002e0: 0c18 0bbe 36da e63d d196 333d 4c6f 3a3e
000002f0: 673d 013e 24e1 17be 41af 39bd 2380 2e3c
00000300: 6919 b1bd 16b0 10bd b180 d6bc 4bf7 1a3c
00000310: 78ff 3dbe 60bc 39bc be13 773e 24c4 a9bf
00000320: 40f2 dbbb 079a abbd 12ad 243d 5a04 1cbe
00000330: 0ecd 88bf 5a02 5cbd e14a ab3e d4fe a4bc
00000340: 44a5 a5bd 4332 d83d 7512 23be 939b 1cbf
00000350: a9a6 7339 2ade 4d3e 8e70 00bf 6b81 2abe
00000360: cff9 f1bc fbab 6bbe 8a32 47c0 ca69 d33c
00000370: be04 46bd defc 80bc 823a d03d 1bd9 f43d
00000380: d7bd eabd 4c6b 21bd 0145 13bd 8146 67bc
00000390: 0c56 2ebc 952b e3bd 2737 c7ba 1853 0ebd
000003a0: c1e9 f3be 060d 82bc ce81 f13c 08e8 b0bd
000003b0: 1d34 41bf 54da a23c ca5e 55be c4f7 9bbd
000003c0: 3862 57bc cc26 b73b 4d10 3939 aafc c3bd
000003d0: c2c0 77be f5bb 3d3d 4f4a 293c 42f2 87bd
000003e0: 3939 ff3d 3cbd 4d3e 9aa8 99be fb63 213d
000003f0: 4acb 83bd 0eb8 b9bd 534b 0fbe 8a68 00be

layers.2.bias f4 [256]
0.03796863 1.6828201 -1.288373 0.02324042 -0.06029298 -0.008632925 -0.075909935 -0.05066071
-0.16546032 -0.38822266 0.53688693 -0.11149528 -0.17054597 -0.06609231 -0.060371492 -0.041709945
-0.17262056 -0.07266734 -0.15989338 -0.53975695 0.009927307 0.06532938 0.7282677 0.03684166
-0.19310005 0.014462563 -0.1340657 1.6100115 -2.0946822 -0.056742504 -6.4566445 -0.061739065
-0.02497631 -0.07944926 -1.9723619 1.5716653 -0.03739967 -0.10192147 -0.132073 -3.822813
-11.403877 -0.10135105 0.015548207 -0.12904896 -0.070881546 -0.16697565 1.8947796 -0.13294959
-0.14556156 -0.07702299 -0.09989323 -0.022277294 -0.13075498 -0.14404325 -0.042651355 -0.04661748
-0.04134515 -0.117363565 -0.18432976 -0.012023669 -0.0065524266 -1.241926 -0.18611969 -0.062394604
0.02611602 -0.00190868 -0.09166643 -0.13891761 -0.11241843 -0.14686364 0.0376122 -0.14257343
-0.21743181 -0.13049953 -0.64124227 -0.07846093 -0.11345142 -0.09496968 0.011537402 -0.09943186
-0.22969723 -0.041953903 -0.26083723 -0.028527698 -0.1267075 -0.07439917 -0.105155185 -0.077321805
-0.15012686 -4.287518 -2.0820613 -0.11767562 0.6179283 -0.065274246 -0.0702861 -0.013140115
-0.12239145 0.22104844 -0.053181406 -0.19447246 -0.24245535 -0.036991213 0.013263971 -0.08424762
-0.27592525 -0.104990475 -0.33223262 1.094116 -0.011130713 -3.745836 -0.18387322 -0.0728406
-0.08298276 -0.1247448 -0.10553705 -0.027007394 -0.07904075 -4.4010086 0.0602145 0.0331748
1.3200707 -0.0074410313 -0.07100282 -0.30242252 -0.23832278 -0.07788476 0.03600837 0.29165465
-0.13363487 0.023027735 -0.1219976 -0.03425153 -0.100934185 -0.010512375 -0.13716567 -0.039932337
-0.03255884 -8.911466 -0.09270905 -0.06843132 -0.102764115 -0.16531478 -0.10516711 0.47312516
-0.0055011897 -0.109507486 -0.026435336 -0.048859827 -0.24274501 -0.043419786 -0.18915349 -4.2699385
-0.13220575 -0.30224025 -0.20308289 -0.10104602 -0.034013662 -0.0586812 -0.05888381 -0.110623114
-0.13139853 -0.04405298 -0.040943746 -0.10827074 -0.06759369 -0.1943663 -0.1850163 -0.08165825
-0.0924829 -1.983694 -2.4152014 -0.09586932 -0.09586435 -0.036940526 0.937468 -0.008178068
-4.9449024 0.045756847 0.049781628 2.0361538 -0.17420155 -0.04299237 -2.4393997 -0.115495004
-0.0083933845 0.020389153 -0.05781457 -3.3370752 -0.23873909 -0.17352077 -2.3841772 -0.1364417
-0.14008752 -2.5743392 -0.26898924 -0.003375 -0.24161822 -0.14494358 -0.024842154 -0.06730047
-0.3948544 3.5464609 -0.18461977 -0.12610264 -0.16465722 -0.22357543 -0.046317607 -0.065377265
-0.27770463 -9.382746 -0.042679567 -0.101965986 -0.10851169 -0.04269763 -0.15038486 -0.048045326
-0.15153374 -0.067931004 -0.14688654 -0.15825878 -0.06788652 -0.00637828 0.002481577 -0.12798636
-0.13700068 -0.069342785 0.001038074 -0.099788986 -0.09959551 -0.068502046 -0.014932762 -2.6420069
4.216835 -0.2302285 -0.0024558112 0.009634796 -0.111465536 -0.058972515 -0.016823493 -0.17432606
-0.091998555 -0.019376474 -0.08139234 -1.7403793 -0.043581787 -0.11026642 0.018410377 -0.02446099
-0.12540974 0.004687313 -0.12476419 -0.03384696 -0.10763892 -0.20429967 -0.06027114 -0.16250673
00000000: ff84 1b3d a666 d73f 68e9 a4bf b162 be3c
00000010: c6f5 76bd 1d71 0dbc ab76 9bbd 9b81 4fbd
00000020: 6e6e 29be 1fc5 c6be 6c71 093f a357 e4bd
00000030: 9aa3 2ebe 685b 87bd 1948 77bd 0cd8 2abd
00000040: 72c3 30be 9dd2 94bd 17bb 23be 832d 0abf
00000050: 25a6 223c 69cb 853d c16f 3a3f 48e7 163d
00000060: 05bc 45be 63f4 6c3c 8548 09be db14 ce3f
00000070: 460f 06c0 d46a 68bd d59c cec0 1ae2 7cbd
00000080: 1e9b ccbc 4bb6 a2bd 5b76 fcbf 542c c93f
00000090: 6530 19bd 34bc d0bd 253e 07be f8a8 74c0
000000a0: 4876 36c1 2491 cfbd e8bd 7e3c 6925 04be
000000b0: 582a 91bd aafb 2abe 2388 f23f f023 08be
000000c0: 170e 15be 3bbe 9dbd d294 ccbd df7e b6bc
000000d0: a2e4 05be 1380 13be 30b3 2ebd f9f1 3ebd
000000e0: 8859 29bd 4f5c f0bd f1c0 3cbe ecfe 44bc
000000f0: bdb5 d6bb 6ef7 9ebf 2996 3ebe 7c91 7fbd
00000100: 43f1 d53c ac2c faba 9cbb bbbd 6b40 0ebe
00000110: a23b e6bd 6c63 16be 400f 1a3d c5fe 11be
00000120: 72a6 5ebe aba1 05be 7428 24bf 20b0 a0bd
00000130: 3859 e8bd 777f c2bd 5f07 3d3c eea2 cbbd
00000140: c035 6bbe dbd7 2bbd 758c 85be ebb2 e9bc
00000150: 9cbf 01be 985e 98bd 9a5b d7bd e55a 9ebd
00000160: dbba 19be 5933 89c0 7e40 05c0 eaff f0bd
00000170: 8d30 1e3f 81ae 85bd 29f2 8fbd a349 57bc
00000180: 5ea8 fabd 865a 623e bfd4 59bd ca23 47be
00000190: 3746 78be 1984 17bd 2051 593c 048a acbd
000001a0: 1346 8dbe 3f05 d7bd 651a aabe fe0b 8c3f
000001b0: 985d 36bc c7bb 6fc0 4349 3cbe 742d 95bd
000001c0: def2 a9bd 347a ffbd cf23 d8bd 9c3e ddbc
000001d0: 1ee0 a1bd 10d5 8cc0 7ba3 763d 4de2 073d
000001e0: 14f8 a83f e5d3 f3bb ed69 91bd 20d7 9abe
000001f0: e30a 74be 0c82 9fbd 837d 133d c253 953e
00000200: 94d7 08be a9a4 bc3c e1d9 f9bd 554b 0cbd
00000210: 95b6 cebd 193c 2cbc 2875 0cbe 1790 23bd
00000220: 6b5c 05bd 5d95 0ec1 3ede bdbd b825 8cbd
00000230: fe75 d2bd 4748 29be db61 d7bd 763d f23e
00000240: 5343 b4bb 7645 e0bd eb8e d8bc 3e21 48bd
00000250: 2692 78be f2d8 31bd 74b1 41be 56a3 88c0
00000260: f260 07be 3cbf 9abe f6f4 4fbe 37f1 cebd
00000270: e951 0bbd b35b 70bd 2630 71bd 5f8e e2bd
00000280: 568d 06be e670 34bd a1b4 27bd 0dbd ddbd
00000290: 8f6e 8abd f607 47be ea74 3dbe 713c a7bd
000002a0: ad67 bdbd afe9 fdbf a992 1ac0 2257 c4bd
000002b0: 8754 c4bd f34e 17bd e7fd 6f3f 4efd 05bc
000002c0: a43c 9ec0 886b 3b3d d2e7 4b3d 5850 0240
000002d0: e461 32be c418 30bd 201f 1cc0 a588 ecbd
000002e0: 6884 09bc 2707 a73c f8ce 6cbd a492 55c0
000002f0: 0578 74be 6eaf 31be 5c96 18c0 5fb7 0bbe
00000300: 1a73 0fbe f9c1 24c0 f5b8 89be 1b2f 5dbb
00000310: c46a 77be 176c 14be c681 cbbc d4d4 89bd
00000320: 5b2a cabe 37f9 6240 f70c 3dbe 0d21 01be
00000330: e79b 28be f5f0 64be 88b7 3dbd 84e4 85bd
00000340: 4d2f 8ebe ba1f 16c1 c5d0 2ebd 8bd3 d0bd
00000350: 603b debd b6e3 2ebd 7dfe 19be 2dcb 44bd
00000360: a92b 1bbe 691f 8bbd 6d69 16be 970e 22be
00000370: 1608 8bbd e400 d1bb f4a1 223b db0e 03be
00000380: e849 0cbe 9703 8ebd fc0f 883a 2b5e ccbd
00000390: bbf8 cbbd cd4a 8cbd 8ba8 74bc a416 29c0
000003a0: 50f0 8640 05c1 6bbe adf1 20bb 43db 1d3c
000003b0: 0b48 e4bd 2a8d 71bd 6cd1 89bc 8882 32be
000003c0: bd69 bcbd 69bb 9ebc 07b1 a6bd c0c4 debf
000003d0: d182 32bd 5cd3 e1bd 5cd1 963c 6a62 c8bc
000003e0: 696b 00be 0898 993b 5e84 ffbd 1ca3 0abd
000003f0: cb71 dcbd ef33 51be dfde 76bd 2a68 26be

layers.4.weight f4 [256, 256]
0.04500553 -0.075221255 -0.046473406 -0.047073893 0.023592167 0.0066556055 -0.05663073 -0.03719876
-0.03102497 -0.043946635 0.040967144 -0.053273194 0.011081666 -0.04629445 0.053406686 -0.04821112
-0.014678262 0.027686968 0.018452004 -0.016784428 -0.042920455 -0.06572408 0.0077339574 -0.033407584
-0.001723621 0.038018413 0.019913197 -0.041499034 0.0216171 -0.05205959 -0.0074442434 0.044417076
-0.012727916 0.05399683 0.012023967 -0.052804813 0.014098547 -0.030268036 -0.0050517768 -0.009308627
-0.0346389 -0.061838496 0.047604397 -0.061606206 0.059887543 -0.041737847 -0.017131502 -0.059978656
-0.061785012 0.0060431957 0.038015902 -0.06795916 -0.015205048 -0.015364908 0.01846309 -0.061069243
-0.01687625 0.0361828 0.030975996 -0.008073846 0.011920668 -0.048481464 0.015967734 -0.041758087
-0.046390753 -0.059864573 -0.0075022057 0.008543961 0.040901437 -0.034563236 -0.048701882 0.022075363
-0.062548205 -0.039108746 -0.052521087 0.01822582 0.0074346373 0.054062717 -0.007302083 -0.024121702
0.01847697 0.059243128 0.028908297 0.049150564 -0.05953125 -0.026186869 -0.032290123 -0.06769168
0.011449397 -0.0069619245 0.031605646 0.016551875 -0.0596959 0.018327529 0.041268654 -0.047576375
0.05938293 0.00064420793 -0.008146279 0.056968026 0.010933585 -0.022050198 -0.017523846 -0.00067320466
0.021173261 0.054229617 0.024260601 -0.056444097 -0.009181991 -0.021978406 0.05039127 -0.048198387
-0.021428213 0.02622389 -0.023916733 0.025647469 -0.039505195 -0.020790765 -0.030997673 0.014575064
-0.05173155 -0.004684816 -0.042793095 -0.028695203 -0.031890243 0.01831127 -0.038055353 0.013846948
0.029529452 0.054227535 -0.07343073 -0.061699413 -0.040842958 0.04919736 0.05914879 -0.026802018
-0.050916523 -0.06874348 0.05781036 -0.03289464 0.0064013153 -0.027865566 -0.028036326 0.048483197
-0.03159675 -0.03680764 -0.010682321 -0.02354879 -0.032133646 0.03223326 0.04213271 -0.045720223
0.019926548 0.05105008 -0.0021462317 -0.020619519 0.02090086 0.020002455 0.0027349219 -0.0401612
-0.03670236 -0.044192728 0.02574189 0.01808498 -0.035866074 -0.052444115 0.027364291 -0.055033006
-0.008684717 -0.052419465 -0.05082637 -0.04134057 0.05889848 0.008582138 -0.01714049 -0.011827161
-0.060169473 -0.015595086 -0.030190136 -0.02509725 -0.05522661 0.0013074279 -0.011562102 -0.058126435
-0.029728487 -0.052062336 -0.037520364 -0.00555795 -0.02799759 -0.02922871 -0.055663645 -0.054379486
-0.0635797 -0.054150887 -0.044122882 -0.035263583 -0.018827878 -0.010895178 -0.044627797 0.029446334
-0.011963561 -0.01688368 -0.02947119 0.011151299 0.027010627 -0.054032713 -0.02422293 0.029911548
0.014589681 0.026746377 -0.051733118 -0.020531066 -0.057057954 0.007264503 0.01879323 0.04564724
0.059966445 0.0048578153 -0.041264854 0.0009687245 -0.0074103028 -0.037924178 -0.00909517 -0.057042956
0.040040717 0.0016881004 0.033578 0.0014514389 0.053562023 -0.02134338 -0.06325728 -0.013263929
-0.014759502 -0.042633176 -0.045786608 0.02175745 0.04791265 -0.033922277 -0.042235732 -0.018034607
0.038091198 -0.008965442 0.010425575 -0.008202882 0.0111672655 -0.05740031 -0.025600659 -0.044091146
-0.041863374 0.01751071 0.013287298 0.044552818 0.00955006 -0.049274392 0.008506339 0.014963172
00000000: b857 383d 9a0d 9abd e65a 3ebd 8ed0 40bd
00000010: 5c44 c13c 4417 da3b a0f5 67bd ba5d 18bd
00000020: 1428 febc 6301 34bd 2acd 273d fe34 5abd
00000030: e08f 353c 409f 3dbd f8c0 5a3d 0679 45bd
00000040: 187d 70bc c8cf e23c a828 973c 7f7f 89bc
00000050: 5ccd 2fbd 599a 86bd 236d fd3b 64d6 08bd
00000060: 20eb e1ba 32b9 1b3d 0021 a33c e4fa 29bd
00000070: 5816 b13c 703c 55bd d7ee f3bb aeee 353d
00000080: c088 50bc c82b 5d3d 2c00 453c dc49 58bd
00000090: 98fd 663c acf4 f7bc 6089 a5bb 3683 18bc
000000a0: 85e1 0dbd 5d4a 7dbd d4fc 423d ca56 7cbd
000000b0: a44c 753d 4ef5 2abd 5d57 8cbc 2eac 75bd
000000c0: 4812 7dbd 0006 c63b 90b6 1b3d 2c2e 8bbd
000000d0: 981e 79bc 18bd 7bbc e83f 973c be23 7abd
000000e0: 1040 8abc 6a34 143d 5fc1 fd3c 2a48 04bc
000000f0: e84e 433c 8094 46bd c4ce 823c 870a 2bbd
00000100: 3b04 3ebd 8e34 75bd 10d5 f5bb f8fb 0b3c
00000110: 4488 273d 2e92 0dbd a07b 47bd 64d7 b43c
00000120: 4619 80bd 7e30 20bd 5a20 57bd 514e 953c
00000130: 429e f33b de70 5d3d 5046 efbb e09a c5bc
00000140: 045d 973c eca8 723d 18d1 ec3c 1a52 493d
00000150: 0ad7 73bd d885 d6bc a642 04bd efa1 8abd
00000160: 4096 3b3c db20 e4bb ec74 013d cc97 873c
00000170: b083 74bd 9d23 963c 5209 293d 72df 42bd
00000180: 843b 733d 10e0 283a f877 05bc 4e57 693d
00000190: c822 333c 9ea2 b4bc 2b8e 8fbc 007a 30ba
000001a0: 8c73 ad3c e01f 5e3d 2bbe c63c ed31 67bd
000001b0: 1070 16bc 0f0c b4bc 1467 4e3d ac6b 45bd
000001c0: 388a afbc 7cd3 d63c 06ed c3bc a41a d23c
000001d0: 33d0 21bd 6551 aabc d5ee fdbc 40cc 6e3c
000001e0: 76e4 53bd 1683 99bb d047 2fbd 3412 ebbc
000001f0: 589f 02bd 8401 963c eedf 1bbd 4fde 623c
00000200: c0e7 f13c b11d 5e3d da62 96bd 86b8 7cbd
00000210: f24a 27bd 2c83 493d 0046 723d e88f dbbc
00000220: d88d 50bd 62c9 8cbd 8eca 6c3d 88bc 06bd
00000230: 20c2 d13b 5446 e4bc 70ac e5bc 5196 463d
00000240: 986b 01bd 9cc3 16bd e704 2fbc 64e9 c0bc
00000250: 929e 03bd 0607 043d 5993 2c3d 2145 3bbd
00000260: 003d a33c e419 513d cba7 0cbb 44ea a8bc
00000270: 4838 ab3c 30dc a33c 603c 333b 1280 24bd
00000280: 3755 16bd 6f03 35bd a8e0 d23c f426 943c
00000290: 4ee8 12bd a4cf 56bd 142b e03c 4a6a 61bd
000002a0: 584a 0ebc cbb5 56bd 502f 50bd bb54 29bd
000002b0: 883f 713d 199c 0c3c 366a 8cbc b5c6 41bc
000002c0: 4474 76bd 8882 7fbc 4e51 f7bc bf98 cdbc
000002d0: 4c35 62bd 005e ab3a f86e 3dbc fc15 6ebd
000002e0: 2889 f3bc 513f 55bd f4ae 19bd 771f b6bb
000002f0: 345b e5bc 0c71 efbc 90ff 63bd 06bd 5ebd
00000300: 1336 82bd 52cd 5dbd 32ba 34bd 8c70 10bd
00000310: ec3c 9abc b081 32bc a3cb 36bd 7039 f13c
00000320: d002 44bc a54f 8abc 916d f1bc f0b3 363c
00000330: 6445 dd3c 6851 5dbd 2b6f c6bc 1009 f53c
00000340: 8f09 6f3c 381b db3c 1be6 53bd c430 a8bc
00000350: 9ab5 69bd 110b ee3b 43f4 993c 9af8 3a3d
00000360: 609f 753d 4f2e 9f3b 5605 29bd 00f2 7d3a
00000370: 20d2 f2bb 6256 1bbd e803 15bc e0a5 69bd
00000380: bc01 243d 4043 dd3a 1689 093d 353e be3a
00000390: da63 5b3d 50d8 aebc 088d 81bd f350 59bc
000003a0: d7d1 71bc 20a0 2ebd bd8a 3bbd ae3c b23c
000003b0: 0e40 443d 16f2 0abd 60ff 2cbd 50bd 93bc
000003c0: 8405 1c3d cae3 12bc 08d0 2a3c 6165 06bc
000003d0: e8f6 363c 961c 6bbd 79b8 d1bc eb98 34bd
000003e0: ee78 2bbd 9f72 8f3c f8b2 593c 047d 363d
000003f0: db77 1c3c f2d3 49bd 2c5e 0b3c 1828 753c

layers.4.bias f4 [256]
-0.027203985 -0.058502965 -0.13055292 -0.10367827 0.033271223 -0.042044654 2.2237048 -0.14457415
-0.11443383 -1.1805699 -0.106222495 -0.032838114 -0.010635617 -8.195071 0.026532764 -7.018262
-0.028598916 -1.18646 -0.12436688 -0.15131055 -0.14020596 0.018553106 -0.110656545 -1.774357
0.008212708 -0.13988192 -0.0039033566 -0.086736724 0.57117677 -0.08595948 -0.038832035 -1.8691431
0.1124723 -0.41236272 -0.07441899 -0.07995537 -0.079313405 -0.102260344 -0.053979367 -0.10216647
0.085866205 0.49392697 -0.060748942 -0.10565966 -0.07625084 -0.12898539 -0.09020066 -1.5151924
-0.10917077 -1.0922782 -0.01069254 0.016612448 0.020158134 -0.07910602 -0.11163163 -5.299173
-1.7456775 -0.098299354 -3.6737988 0.09517328 -4.577138 -0.17318338 -0.88539946 0.5192561
-4.8406057 -0.5451312 -0.035941422 -0.06262712 0.008407649 -0.16172783 -0.5827591 -4.7050533
-0.08018021 1.5957855 -8.764409 -2.5045917 -0.1185154 0.35427585 0.8126085 -0.11240187
-0.027165066 -0.03324905 -0.109065615 -0.805105 -0.22428155 -0.07686238 0.012075294 -0.13180785
-0.14232436 -0.116408825 -0.0679171 -0.12369302 0.02531667 -0.024327474 -0.12390271 1.5153731
-0.03994684 -2.7028282 -0.064006574 -2.6227012 -0.032643914 0.029100928 -0.08964448 -0.059668418
-0.044787306 -1.2544559 0.020456966 -0.07629207 -4.2755666 -0.14434338 -0.013478306 -0.09254691
-0.12633571 -2.4949043 -0.08443913 -1.9424276 -0.04820857 -1.2331319 -2.6724353 -2.837373
-1.4288138 -0.4773511 0.2185118 -3.1320407 -0.109098494 1.4944429 -0.24248381 -0.077687934
-5.0345626 0.019605532 -2.6810234 -0.03719919 -0.15091564 0.8835105 -0.12329848 -0.07162732
0.061579216 -3.8358605 0.5317413 -0.026605764 0.73232 -0.109374076 -0.769919 -0.052658286
0.045361236 -0.1209767 -0.0676305 -0.07670945 -0.09297917 0.42210406 -0.081566624 0.2077156
-0.0837288 -0.0978267 -0.9094146 -0.012831616 -0.10665799 -0.00633328 -0.15407443 -6.745333
-0.06842804 -0.19179404 -0.8392917 -0.99087864 -0.03970027 -0.05502673 -0.09415638 -4.097554
0.048650697 -1.4756451 0.17589138 -0.10496256 -0.081682004 0.050137665 -0.04178414 -0.14086147
-0.0681257 -0.08632968 1.1688982 0.0056329607 -5.4101815 -0.11386858 0.30083212 -0.11069307
-0.06742042 -0.10759469 -0.043330904 -1.4599204 -0.122587584 0.026628349 -0.12156807 -0.078059666
-0.17943197 -1.5779485 1.7432361 -1.9878134 -0.017389774 0.01827577 -0.15129209 2.3843763
-0.024030434 2.6308968 -0.08549958 -8.841509 -0.07735008 -0.054504238 -0.09486228 0.18117514
-0.123756826 -0.059751872 -0.11134381 0.0114824185 -0.03834053 -0.029533627 -0.05418591 0.06929155
-0.4099346 -2.9101639 2.179808 -0.16196421 -0.0992464 -0.09183607 -0.16520411 -0.061431006
-0.006144738 0.10414374 1.7612543 -0.045080576 -0.0966767 0.037541304 -0.07190325 -0.10427485
-0.0880922 -1.5282573 -1.0166514 0.055254094 -5.530912 -0.11859368 -0.08029567 -0.046765532
-0.10419857 -0.09952537 3.9666731 -0.10518807 -0.09179008 -4.8256106 -0.6836284 0.07050282
0.04645192 -0.05081682 0.30383062 -0.02753234 -6.812414 -0.08699926 -0.3806208 -0.80600584
00000000: e4da debc cea0 6fbd aaaf 05be 4655 d4bd
00000010: 6847 083d 0437 2cbd 2e51 0e40 3f0b 14be
00000020: 495c eabd ea1c 97bf 2e8b d9bd 4281 06bd
00000030: 0341 2ebc 031f 03c1 3d5b d93c 9a95 e0c0
00000040: 4648 eabc ecdd 97bf 10b4 febd 27f1 1abe
00000050: 2792 0fbe affc 973c e69f e2bd 211e e3bf
00000060: 988e 063c 353d 0fbe 75cf 7fbb 06a3 b1bd
00000070: a438 123f 860b b0bd 570e 1fbd 1540 efbf
00000080: e157 e63d 3521 d3be fc68 98bd a4bf a3bd
00000090: 116f a2bd df6d d1bd 7819 5dbd a73c d1bd
000000a0: 9fda af3d ffe3 fc3e e2d3 78bd 1864 d8bd
000000b0: 6729 9cbd bf14 04be 20bb b8bd d3f1 c1bf
000000c0: ed94 dfbd c6cf 8bbf c32f 2fbc d416 883c
000000d0: ac22 a53c 5602 a2bd 209f e4bd d392 a9c0
000000e0: 5c72 dfbf 2c51 c9bd 851f 6bc0 35ea c23d
000000f0: ea77 92c0 fc56 31be 8aa9 62bf f8ed 043f
00000100: 3ee6 9ac0 b88d 0bbf 5037 13bd a642 80bd
00000110: 3cc0 093c fb9b 25be b32f 15bf cc8f 96c0
00000120: 8635 a4bd b342 cc3f 053b 0cc1 3b4b 20c0
00000130: 34b8 f2bd a563 b53e 1c07 503f f432 e6bd
00000140: 4689 debc 2830 08bd cb5d dfbd 5c1b 4ebf
00000150: 10aa 65be 066a 9dbd 74d7 453c a3f8 06be
00000160: 7abd 11be c067 eebd 1f18 8bbd c452 fdbd
00000170: e864 cf3c 694a c7bc b4c0 fdbd bff7 c13f
00000180: 4c9f 23bd 23fb 2cc0 e115 83bd 56da 27c0
00000190: a0b5 05bd 1265 ee3c 8697 b7bd df66 74bd
000001a0: e572 37bd 0392 a0bf 5e95 a73c 043f 9cbd
000001b0: 71d1 88c0 c0ce 13be 1dd4 5cbc 3c89 bdbd
000001c0: 265e 01be 83ac 1fc0 6cee acbd 78a1 f8bf
000001d0: 5976 45bd 44d7 9dbf 2e09 2bc0 8597 35c0
000001e0: 5fe3 b6bf 5d67 f4be 8fc1 5f3e 5b73 48c0
000001f0: 086f dfbd e849 bf3f ad4d 78be da1a 9fbd
00000200: 231b a1c0 c89b a03c e395 2bc0 2e5e 18bd
00000210: a189 1abe be2d 623f ea83 fcbd 58b1 92bd
00000220: 7d3a 7c3d bd7e 75c0 3320 083f 55f4 d9bc
00000230: 5379 3b3f 84ff dfbd 6919 45bf 37b0 57bd
00000240: b4cc 393d a2c2 f7bd dc81 8abd d819 9dbd
00000250: dd6b bebd 061e d83e 670c a7bd 66b3 543e
00000260: 017a abbd 5d59 c8bd 65cf 68bf b33b 52bc
00000270: 816f dabd 6787 cfbb b0c5 1dbe c5d9 d7c0
00000280: 0024 8cbd a865 44be d2db 56bf 39aa 7dbf
00000290: c09c 22bd b563 61bd 0fd5 c0bd 2a1f 83c0
000002a0: f445 473d f0e1 bcbf df1c 343e 9cf6 d6bd
000002b0: e548 a7bd 275d 4d3d d925 2bbd fd3d 10be
000002c0: 7d85 8bbd 9ecd b0bd 759e 953f b394 b83b
000002d0: 3520 adc0 ee33 e9bd ab06 9a3e 0cb3 e2bd
000002e0: b813 8abd 9b5a dcbd bf7b 31bd acde babf
000002f0: 330f fbbd b223 da3c aef8 f8bd bfdd 9fbd
00000300: 04bd 37be 37fa c9bf 5c22 df3f ab70 febf
00000310: 0075 8ebc 11b7 953c 50ec 1abe 9f99 1840
00000320: 79db c4bc 9d60 2840 671a afbd d276 0dc1
00000330: b869 9ebd d63f 5fbd 2847 c2bd fa85 393e
00000340: 3874 fdbd 61be 74bd 3908 e4bd c120 3c3c
00000350: f60a 1dbd 81f0 f1bc 0bf2 5dbd bae8 8d3d
00000360: f3e2 d1be 2040 3ac0 f981 0b40 f2d9 25be
00000370: b241 cbbd 8d14 bcbd 442b 29be 149f 7bbd
00000380: cc59 c9bb 5049 d53d c870 e13f 69a6 38bd
00000390: 6ffe c5bd e9c4 193d 0342 93bd 0d8e d5bd
000003a0: af69 b4bd ef9d c3bf a221 82bf 1e52 623d
000003b0: 3bfd b0c0 3ee1 f2bd 0e72 a4bd 378d 3fbd
000003c0: 0f66 d5bd f5d3 cbbd f9dd 7d40 d86c d7bd
000003d0: 70fc bbbd 676b 9ac0 4502 2fbf c863 903d
000003e0: 5e44 3e3d 4c25 50bd b08f 9b3e 808b e1bc
000003f0: 4cff d9c0 ab2c b2bd bbe0 c2be 6656 4ebf

layers.6.weight f4 [128, 256]
-0.026768677 0.0069054887 -0.06207418 0.04963213 -0.008976201 -0.016454332 -0.057233386 0.04896672
-0.03567858 0.022757716 0.0014526173 -0.034010835 -0.018839255 0.02484096 0.007747447 -0.010557916
-0.036109254 -0.08120012 0.003457266 0.011095867 -0.002393798 -0.04093304 0.060632225 -0.029028557
0.026345404 0.0017468738 -0.006576769 0.057739433 -0.17790268 0.042904392 0.05367122 -0.004278202
0.010434516 0.006657951 -0.0523585 0.03219782 0.06016143 0.028960107 -0.052779593 -0.052388884
-0.07904854 0.03290059 0.014071479 -0.0038517562 -0.042330865 0.059555277 -0.023093581 -0.023820082
-0.02327247 0.0016814852 -0.02770293 0.0061234804 0.01743346 0.02028612 0.0050540725 -0.030136378
-0.17648019 0.05158156 0.031047156 -0.098136105 0.032533742 0.01371034 0.056246605 0.00078531867
-0.061995406 -0.08308609 -0.018712793 0.0035978376 0.04244414 -0.03616272 0.019617537 -0.041671485
-0.006309363 0.06468902 0.040779512 0.018546516 -0.02165469 -0.042448375 -0.026456214 0.014284172
0.016052494 0.039847314 -0.030357182 -0.008819757 -0.016767576 -0.0034580356 -0.051821537 0.03707225
-0.03704971 0.03572765 -0.031987853 -0.020688338 0.024914443 -0.022866253 0.029065076 -0.057143807
0.018016407 0.005079561 -0.007937238 -0.03497748 0.038972445 -0.041584894 0.021429442 -0.023466527
-0.04256125 0.04585797 -0.040515713 0.0005973364 0.034643993 -0.035787806 0.01668187 -0.060024977
0.026962755 -0.057826884 -0.0073186513 -0.06334835 0.050070766 -0.024988284 -0.07751368 0.0014113106
-0.061118193 0.0028037846 -0.05136816 -0.0026890659 0.004211331 0.035553876 -0.0009609028 0.05066847
0.017485201 0.01517916 0.062161744 0.0100009525 -0.010818349 -0.020233246 -0.0035139918 -0.022628792
-0.01970256 -0.074836284 0.019776527 -0.03150567 -0.012747825 -0.00030447816 -0.035236716 0.03411243
0.07421521 0.05418694 0.017660378 0.003076443 -0.051612344 -0.012855353 0.020476663 -0.03501043
-0.026390625 0.03393908 -0.15944473 0.035899274 -0.04518631 -0.0348556 0.021319572 0.036723074
-0.049477994 -0.0538046 -0.03795378 0.018162945 -0.025130358 -0.0012772334 -0.051880907 -0.042675305
-0.052041423 0.00063901726 -0.052735467 0.014094072 -0.05712118 0.061441645 -0.14764866 -0.016003987
-0.009709799 0.02320408 -0.019605355 -0.024204588 -0.095865615 0.005049653 -0.070299536 -0.043746546
-0.046159565 -0.060837466 0.049537316 0.04485275 -0.04133743 -0.038405333 -0.035351098 0.056934733
0.03066711 -0.027446514 -0.10071944 0.0039038209 6.984936e-05 -0.01055738 0.055212192 -0.09977302
-0.00409048 0.04117112 0.03177657 0.06619276 -0.058642752 -0.045841478 0.05998971 0.017962977
0.04961307 0.02575183 0.023527727 -0.03612558 -0.028450435 -0.058536224 0.038165815 -0.09105332
-0.033536486 0.019603033 -0.01692852 -0.0030164025 0.030962618 -0.039052904 0.059780832 -0.006180233
0.05957257 -0.00824511 0.013570399 0.026697792 0.025935328 0.052797344 0.0129249105 -0.029462941
-0.048251722 -0.042926203 0.057539593 -0.10321282 -0.031747438 -0.038503937 0.045129478 0.00994262
0.03977737 -0.0024471614 -0.04495374 0.014278695 -0.03355729 -0.04403462 -0.07117762 -0.0840541
0.025490578 0.040694214 -0.010132944 0.011146346 -0.056211796 -0.010735387 0.0095365355 -0.009734035
00000000: fc49 dbbc 7047 e23b 7f41 7ebd 0f4b 4b3d
00000010: ea10 13bc 3ccb 86bc 8e6d 6abd 5491 483d
00000020: b423 12bd 646e ba3c c065 be3a f24e 0bbd
00000030: c854 9abc 457f cb3c 4cde fd3b 1cfb 2cbc
00000040: 4ce7 13bd 404c a6bd 4c93 623b 70cb 353c
00000050: 44e1 1cbb 67a9 27bd 7f59 783d 4ccd edbc
00000060: 51d2 d73c 5cf7 e43a f081 d7bb 2f80 6c3d
00000070: 1f2c 36be 84bc 2f3d 5ad6 5b3d 2930 8cbb
00000080: 88f5 2a3c f12a da3b de75 56bd dce1 033d
00000090: d56b 763d bf3d ed3c 6a2f 58bd ba95 56bd
000000a0: 33e4 a1bd c5c2 063d 108c 663c bf6d 7cbb
000000b0: 2163 2dbd 3cf0 733d c02e bdbc 5522 c3bc
000000c0: e8a5 bebc 4865 dc3a 41f1 e2bc 7aa7 c83b
000000d0: 9ed0 8e3c 142f a63c a29c a53b 91e0 f6bc
000000e0: 39b7 34be 3047 533d 9b56 fe3c 95fb c8bd
000000f0: 1a42 053d 55a1 603c d762 663d d8dd 4d3a
00000100: e5ee 7dbd 0a29 aabd 924b 99bc b3c9 6b3b
00000110: e8d9 2d3d 5c1f 14bd f5b4 a03c b8af 2abd
00000120: c6be cebb ad7b 843d 6b08 273d ddee 973c
00000130: 2d65 b1bc 59de 2dbd b4ba d8bc 2908 6a3c
00000140: 8580 833c f036 233d a0af f8bc be80 10bc
00000150: 285c 89bc 36a0 62bb d242 54bd 12d9 173d
00000160: 70c1 17bd 2857 123d b205 03bd 977a a9bc
00000170: 6019 cc3c 0252 bbbc e219 ee3c a00f 6abd
00000180: 2597 933c 7272 a63b 300b 02bc 8c44 0fbd
00000190: 92a1 1f3d ec54 2abd cc8c af3c e03c c0bc
000001a0: b554 2ebd 91d5 3b3d cef3 25bd 9196 1c3a
000001b0: dce6 0d3d 3c96 12bd 6ba8 883c c0dc 75bd
000001c0: ffe0 dc3c e2db 6cbd 4cd1 efbb c8bc 81bd
000001d0: 0117 4d3d 3bb4 ccbc 7ebf 9ebd bafb b83a
000001e0: 1257 7abd b3bf 373b 6b67 52bd 0a3b 30bb
000001f0: 34ff 893b f1a0 113d 18e5 7bba be89 4f3d
00000200: 203d 8f3c 03b2 783c 509d 7e3d 09db 233c
00000210: 723f 31bc 31c0 a5bc 004b 66bb 0460 b9bc
00000220: 4367 a1bc c443 99bd 6202 a23c 170c 01bd
00000230: 41dc 50bc 5ea2 9fb9 6054 10bd 7ab9 0b3d
00000240: 25fe 973d 20f3 5d3d 7fac 903c 269e 493b
00000250: 7767 53bd 429f 52bc adbe a73c 1967 0fbd
00000260: 2731 d8bc b403 0b3d 7b45 23be 1e0b 133d
00000270: 4815 39bd bfc4 0ebd 62a6 ae3c ef6a 163d
00000280: 70a9 4abd 3662 5cbd 6c75 1bbd 75ca 943c
00000290: 2ede cdbc d768 a7ba 1381 54bd 4dcc 2ebd
000002a0: 6329 55bd b983 273a 2501 58bd d3ea 663c
000002b0: e6f7 69bd 3caa 7b3d 3631 17be cb1a 83bc
000002c0: d915 1fbc 7c16 be3c 699b a0bc b348 c6bc
000002d0: 3155 c4bd 8f77 a53b 34f9 8fbd 942f 33bd
000002e0: d011 3dbd b530 79bd a4e7 4a3d 84b7 373d
000002f0: 7051 29bd e94e 1dbd 50cc 10bd 6534 693d
00000300: 9739 fb3c 83d7 e0bc fe45 cebd 3fd7 7f3b
00000310: 177c 9238 dcf8 2cbc 2e26 623d cc55 ccbd
00000320: 6f09 86bb 0ca3 283d 2628 023d 1290 873d
00000330: 6233 70bd 46c4 3bbd c5b7 753d 1827 933c
00000340: 1337 4b3d 80f5 d23c 38bd c03c 6bf8 13bd
00000350: e310 e9bc aec3 6fbd c253 1c3d 2a7a babd
00000360: 8e5d 09bd 8a96 a03c aead 8abc d6ae 45bb
00000370: 51a5 fd3c f0f5 1fbd bfdc 743d 8d83 cabb
00000380: 5e02 743d 7f16 07bc 6156 5e3c 54b5 da3c
00000390: 5376 d43c 0742 583d 01c3 533c 445c f1bc
000003a0: 99a3 45bd 63d3 2fbd a3ae 6b3d 3e61 d3bd
000003b0: 9a09 02bd 4eb6 1dbd b0d9 383d 5fe6 223c
000003c0: 98ed 223d 8e60 20bb 6a21 38bd 30f1 693c
000003d0: 5e73 09bd a55d 34bd 92c5 91bd 8e24 acbd
000003e0: 9ed1 d03c faae 263d a604 26bc 2a9f 363c
000003f0: 573e 66bd 7ae3 2fbc 213f 1c3c 807b 1fbc

layers.6.bias f4 [128]
-0.21129474 -0.13109943 -0.102472804 -0.071193144 -0.10171088 -0.054692954 0.39528704 0.14543729
-1.9651338 -0.5587228 -0.18013033 0.0865845 -0.18459928 -0.3089783 -0.11283117 -0.12762828
-0.080611214 -0.17084284 -0.06764067 -0.13961744 -0.10554189 -0.18709543 -0.025191685 -0.1214587
-0.058215693 -0.10806214 -0.19111162 -0.14707442 -0.14119779 -0.05328515 -0.10402184 0.07143836
-0.5188923 -0.12348639 -0.14588319 -0.17240828 -1.2890066 -0.14338495 -0.083004236 -0.43489304
-0.2513001 -0.17057 -0.15980424 -0.18172482 -0.13026887 -0.101168044 -0.11477999 -3.841779
-0.13034756 -0.14248888 -0.14831766 -0.15680574 -0.16766989 1.220145 -0.5802415 -0.10798322
-1.0278752 -0.15856233 0.046045266 0.24066895 -0.10224142 -0.058907066 -0.41983876 -0.52283365
-0.8140236 -0.10468598 -0.06325342 0.027027069 0.24696477 -1.2757301 -0.12574767 -0.03260555
0.1115444 0.11678423 -0.050146554 -0.105773285 -0.31339422 -0.5518885 -0.10293424 -0.56856906
-0.11985561 -0.1464458 -0.11926557 -0.13180552 -0.103351995 0.32392237 1.3416005 0.06402612
-1.5328723 0.4304497 -0.17354749 -0.15048254 0.14432599 -0.25768286 -0.16539557 -0.08700185
-1.2107337 -0.09007251 -0.14367907 0.37715763 -0.08667235 -0.1238082 -0.16649166 0.07128457
-0.7912026 -0.07531894 -0.73995084 -0.07092696 -0.13642222 -0.12984282 -0.14700542 0.08894326
-1.5994449 -0.31073195 -0.09318647 -0.12923995 -0.12206397 -0.32609344 0.35739216 -0.04267828
-0.111614846 -0.09960794 -0.1612555 -0.09940801 -0.7764064 -0.044204675 -0.14794499 -0.069474176
00000000: a65d 58be ee3e 06be 43dd d1bd b6cd 91bd
00000010: cb4d d0bd b805 60bd 1063 ca3e 83ed 143e
00000020: 8189 fbbf 7508 0fbf 1674 38be 3753 b13d
00000030: 9807 3dbe 6732 9ebe 0714 e7bd fdb0 02be
00000040: 7e17 a5bd 6df1 2ebe 3187 8abd e0f7 0ebe
00000050: 5926 d8bd f295 3fbe cb5e cebc 57bf f8bd
00000060: 9473 6ebd af4f ddbd c4b2 43be ad9a 16be
00000070: 2796 10be 8841 5abd 6709 d5bd 464e 923d
00000080: 20d6 04bf 6fe6 fcbd 6762 15be cc8b 30be
00000090: 2bfe a4bf 81d3 12be 20fe a9bd 4daa debe
000000a0: 68aa 80be e7a9 2ebe b9a3 23be 1216 3abe
000000b0: 3465 05be 3131 cfbd c511 ebbd b5df 75c0
000000c0: d579 05be 9be8 11be 96e0 17be af91 20be
000000d0: a8b1 2bbe b62d 9c3f b58a 14bf 4e26 ddbd
000000e0: 6a91 83bf 2a5e 22be f699 3c3d ec71 763e
000000f0: f363 d1bd 8948 71bd 1bf5 d6be 6dd8 05bf
00000100: da63 50bf 9a65 d6bd 028b 81bd df67 dd3c
00000110: 55e4 7c3e 204b a3bf ffc3 00be 668d 05bd
00000120: 6471 e43d 922c ef3d 7966 4dbd aa9f d8bd
00000130: 3575 a0be 9148 0dbf 30cf d2bd be8d 11bf
00000140: dc76 f5bd e3f5 15be 8241 f4bd 07f8 06be
00000150: 36aa d3bd 27d9 a53e 91b9 ab3f 2020 833d
00000160: 2935 c4bf e763 dc3e 6fb6 31be 1818 1abe
00000170: 31ca 133e 02ef 83be 755d 29be 072e b2bd
00000180: 52f9 9abf f077 b8bd 9b20 13be ce1a c13e
00000190: 4681 b1bd 278f fdbd ca7c 2abe a5fd 913d
000001a0: 418c 4abf d140 9abd 6b6d 3dbf 2742 91bd
000001b0: 44b2 0bbe 84f5 04be 9788 16be e227 b63d
000001c0: 9cba ccbf 4218 9fbe 8cd8 bebd 7a57 04be
000001d0: adfc f9bd b8f5 a6be 1bfc b63e 6ccf 2ebd
000001e0: 5396 e4bd 3fff cbbd 2920 25be 6d96 cbbd
000001f0: 92c2 46bf f60f 35bd e47e 17be 7a48 8ebd
