Simulation/saved_data/models/model_mzm_mzm_pm_attempt_100k_ddmzm_zeromean8x128_256_256_128_11_ZeroMean.pth (torch, 541844 bytes, 10 tensors)

layers.0.weight f4 [128, 6]
000000 ed 5a 82 bb 8a f4 f2 3a 25 df 4d 3f d7 23 4b bf
       -0.0039781244 0.0018536013 0.80418617 -0.7935156
000010 c2 1f 96 3e a8 a6 9e be 4e c8 fb bc 97 ab 82 3b
       0.29321104 -0.30986524 -0.030735161 0.0039877403
000020 05 39 52 3d a5 5f 21 be 91 9b 88 bd 9d df 92 3b
       0.05132391 -0.15759142 -0.06670297 0.004482223
000030 38 65 30 3d 30 e0 13 bd 44 0c bb be 32 ad 8c be
       0.04306528 -0.036102474 -0.36532795 -0.27475888
000040 9d a5 50 be 5c 77 e7 bd 5b bf 03 be 6f 45 0c 3e
       -0.20375676 -0.11302063 -0.12865965 0.13698362
000050 52 2e 2e 3c f0 de 8b bd c2 18 b3 bd 80 c7 81 3c
       0.010631161 -0.06829631 -0.087449566 0.0158422
000060 05 d8 d6 3e 15 fd 03 c0 74 1a 12 bd b1 16 80 bf
       0.41961685 -2.062322 -0.03566976 -1.0006925
000070 8b 7d 59 c0 b7 a0 ba 3e 0a a0 31 3f a9 74 31 bf
       -3.3982875 0.3645074 0.69384825 -0.69318634
000080 1b 96 ba 3e 80 77 96 3c 43 a2 0b c0 de a2 56 c0
       0.36442646 0.018367529 -2.1817787 -3.3536906
000090 27 f7 a2 bd 2b da 0c be a7 51 d6 be 66 66 92 bd
       -0.07957297 -0.137551 -0.4185917 -0.07148437
0000a0 34 65 39 3d 93 32 41 3d 68 30 fe 3f 59 bc fe bf
       0.04526253 0.047167372 1.9858522 -1.9901229
0000b0 69 04 27 bc 69 18 cc 3b d3 52 ea b9 bc cf e4 bb
       -0.010193923 0.006228496 -0.00044693667 -0.0069827717
0000c0 04 c8 72 be 6f 37 ac be b2 7d cc bd 60 09 22 be
       -0.23709112 -0.33636042 -0.09984912 -0.15823889
0000d0 ac 58 ae be dc e0 87 bd 73 e1 b9 b9 93 d9 22 bb
       -0.34052026 -0.066346854 -0.00035453922 -0.0024848923
0000e0 76 8d 8d 3f 5a cb 8d bf b6 9f 97 bb c8 ce bc 3b
       1.1058795 -1.1077683 -0.0046271933 0.005761955
0000f0 34 ec a8 3f 1c 35 b1 c0 e7 37 89 3a f2 e7 1f 3d
       1.3197083 -5.537733 0.0010468931 0.03903956
000100 c7 45 e2 3b 6b ed 1b bc da a2 ee 39 43 77 5d ba
       0.0069052908 -0.009517054 0.0004551623 -0.00084482523
000110 0d 04 9e 3b 8d c5 22 bb 43 dc 9a bf bf d9 9a 3f
       0.0048222602 -0.0024836988 -1.2098469 1.2097701
000120 e2 f1 3b be c1 06 6d be 97 e3 11 be 65 49 14 bf
       -0.1835399 -0.23147108 -0.14246975 -0.5792449
000130 e0 28 d4 bd 3f a2 10 3f 73 bf b2 be df ac 03 3e
       -0.10359359 0.5649757 -0.3491169 0.12858914
000140 56 6a b2 be e0 62 86 be 04 b5 73 bd 1c ad f3 bd
       -0.34846753 -0.2624731 -0.0594988 -0.11898252
000150 58 32 86 3a fb 37 f6 ba de 99 33 3c fd 52 d6 bb
       0.0010238392 -0.0018784994 0.010961978 -0.0065406547
000160 12 24 36 3f 32 fc 35 bf 90 d8 d3 be 2d 17 93 be
       0.7114879 -0.71087945 -0.41376162 -0.2872862
000170 44 ff 22 3d e7 aa e0 bc 9d db 51 be ce b5 36 bf
       0.03979422 -0.027425243 -0.20493932 -0.7137116
000180 a7 f4 32 3b ba 12 20 be 83 2a 54 bd 9a 25 6d bd
       0.0027306469 -0.15632144 -0.051798355 -0.057897188
000190 27 32 22 bd ba 00 08 bd 1b 3e 7c be be 62 1b 3d
       -0.03959861 -0.033203818 -0.24633066 0.037935965
0001a0 4a b5 ef bd 7b bc cc bc 27 54 4c be c5 28 30 bc
       -0.117045 -0.024992218 -0.19953977 -0.010751908
0001b0 f6 b9 0a bf 95 86 f8 be 08 93 ca bc f6 74 08 be
       -0.54190004 -0.48540178 -0.024728313 -0.13325867
0001c0 1a 5a 38 bf 60 19 49 3e 6f 49 40 3e ef d6 dd bd
       -0.72012484 0.19638586 0.18778013 -0.10832011
0001d0 a7 1b b1 be 8a 0e ba be 92 80 23 bd f3 0f c3 bd
       -0.3459141 -0.36339217 -0.039917536 -0.095245264
0001e0 36 ba 01 c0 08 65 04 40 58 3f 7d bb d3 5a 9c 3c
       -2.0269904 2.0686665 -0.0038642492 0.019086277
0001f0 0e b6 04 3b 9c dc 24 3c fb a0 6c be 4f 7f 09 3b
       0.0020250115 0.010062363 -0.23108284 0.0020980423
000200 88 d3 1d bd a7 f2 a3 bd 73 77 c3 bd 37 a2 c6 bd
       -0.03853181 -0.08005267 -0.095442675 -0.09698909
000210 52 92 39 bf a3 74 b7 bf 93 6b 4b be 9c f1 34 3e
       -0.7248889 -1.433247 -0.19865255 0.17670292
000220 53 c7 81 c0 ce 96 d6 3e c9 d1 b8 bf d2 10 9c bf
       -4.0555816 0.4191193 -1.4439021 -1.2192633
000230 2b b5 9c be 0a 54 bc 3d b5 f5 37 be 4f 7a 58 3c
       -0.3060697 0.09195717 -0.17964824 0.013212754
000240 96 bc 03 3f 20 1e 0b 3f 7a 7b 93 ba 24 01 00 b9
       0.51459634 0.5434284 -0.0011252009 -0.00012207456
000250 35 69 87 3b 07 4c 88 ba 70 29 84 bb 46 9e 28 3b
       0.0041324147 -0.0010398634 -0.00403326 0.0025729104
000260 ca c4 83 3f 6e 39 81 bf c7 ea 18 3a 52 6f 7e bb
       1.029443 -1.0095651 0.00058333244 -0.0038823676
000270 64 2c 74 be ba 0f 61 be 37 6d 9c 3d fb ce a3 bd
       -0.23845059 -0.21978655 0.076380186 -0.07998463
000280 4a d6 0f be 8a 77 7b bc 21 2d 64 3c af 8e 9d bb
       -0.14046589 -0.015348325 0.013926775 -0.004808269
000290 f2 6f 88 bf f6 27 87 3f 64 b5 94 39 55 6c 9e 3a
       -1.0659163 1.055907 0.00028363906 0.0012086729
0002a0 02 4f 47 3d 27 b8 68 3a c0 f1 c7 bc b6 56 92 bb
       0.048659332 0.00088775385 -0.024407268 -0.004465903
0002b0 9d da 7f 3c 79 e4 49 bd 03 c4 41 bc 72 a5 b4 36
       0.015616086 -0.049290154 -0.011826518 5.3836784e-06
0002c0 2e bf 05 3f 0c ca 01 bf 4d d1 59 bf f9 81 4b 3f
       0.5224484 -0.50698924 -0.8508499 0.794952
0002d0 a7 93 4a c0 0d 48 6a c0 b2 bf 4d 3e be 22 4c 3f
       -3.165262 -3.6606476 0.20092657 0.7974051
0002e0 37 f3 c4 bf 65 a0 93 be 77 55 3a bb 3f f5 c9 bb
       -1.5386723 -0.2883331 -0.0028432289 -0.006163269
0002f0 bf a2 11 3f 76 60 10 bf 30 24 69 3e 2e 39 6b be
       0.56888956 -0.5639719 0.2276771 -0.22971031
000300 23 40 9c bc 91 58 ec 3d 3a a9 f0 3c 5d 8d ae bd
       -0.019073552 0.1154033 0.029377569 -0.08523057
000310 c3 e4 48 bc 96 4c fb ba c2 25 1c 3f d2 15 4e 3e
       -0.012261572 -0.0019172605 0.60995114 0.20125511
000320 9f da 77 be b5 0a 88 bf 13 20 d8 c0 71 8e 1e be
       -0.24204491 -1.0628268 -6.7539153 -0.15484025
000330 f0 f5 10 3f aa d2 3b be 61 fb a1 bf 2c 4f a0 c0
       0.5662527 -0.1834208 -1.265484 -5.0096645
000340 b9 72 ab 3e 3e 88 9a be ca 20 57 bb bd 32 62 3a
       0.33485964 -0.3018207 -0.003282594 0.00086287764
000350 83 d1 c5 be 97 d4 c4 3e 6d 0b 1a 3f 98 cf 19 bf
       -0.38636407 0.38443443 0.60173684 -0.6008239
000360 db e9 31 bd b7 e5 35 3d 62 7f f6 be bc a2 2f 3d
       -0.043435913 0.044408526 -0.4814406 0.042879805
000370 10 d1 0c 3c 5c 24 03 bf 79 1a d5 be bc 58 bb be
       0.008594766 -0.51227355 -0.4162176 -0.36591136
000380 e6 b6 f6 3d e4 92 5b 3c 85 73 32 bd f9 9e fe be
       0.12046604 0.013401721 -0.0435672 -0.49730662
000390 af 26 16 3f ac aa d2 bf e7 a9 88 bb d4 ce 94 ba
       0.58652776 -1.6458335 -0.0041706446 -0.0011353143
0003a0 e4 cc 0a bc 67 80 ac 3b e4 cf 22 ba fb 2e 69 bb
       -0.008471701 0.00526433 -0.00062107877 -0.003558098
0003b0 4d 23 c3 3f 62 df c2 bf 76 2b 2e 3a 5b 90 04 ba
       1.5245148 -1.5224421 0.00066440494 -0.0005056911
0003c0 65 d9 20 bb c6 b5 3f bb c4 f7 ce be 49 0b cf 3e
       -0.002454364 -0.0029252633 -0.40423405 0.40438297
0003d0 9f 63 17 bf ca 03 19 3f 1d f2 af bc 83 35 ee bc
       -0.59136385 0.59771407 -0.021477753 -0.02907825
0003e0 de dc 1a be a2 1a 79 3d 90 06 1a 3c 6b ca ec bd
       -0.15123317 0.060816415 0.009400979 -0.11562046
0003f0 b8 56 6c be fb 37 41 be 73 1f d2 be 17 76 31 be
       -0.23079956 -0.18869011 -0.4103962 -0.17330204

layers.0.bias f4 [128]
000000 07 30 5b c0 09 38 b4 be 1f 8d a6 be 77 a8 67 bf
       -3.4248064 -0.35199 -0.32529542 -0.9049143
000010 78 d1 b6 be f1 8f 04 c0 62 71 05 bf 27 c2 01 3d
       -0.35706687 -2.0712855 -0.52126133 0.0316793
000020 4f 25 dc 3f 5c 65 61 3d b2 1a 84 c0 f5 90 e7 c0
       1.7198886 0.055028304 -4.1282587 -7.236445
000030 91 ea 3d c0 72 8a 83 be 59 6a d2 3c 64 b7 fb 3f
       -2.9674418 -0.25691563 0.025685476 1.9665341
000040 8a d7 a2 3d 2c 9b a1 bd 97 d9 2d bf b9 6c 0e bf
       0.07951267 -0.07890925 -0.6791014 -0.5563465
000050 e4 e9 85 3c fa e9 bd 3d b0 f7 50 3f 7a 76 9e 3f
       0.01634688 0.09273143 0.8162794 1.2379906
000060 54 5a 12 c0 be ff 5e c0 fb 24 d8 be af 73 69 c0
       -2.2867632 -3.4843593 -0.42215714 -3.6476858
000070 c6 bb b5 be eb 79 d1 c0 e7 37 71 be e4 52 76 3b
       -0.35494822 -6.5461326 -0.23556481 0.0037586028
000080 c1 af 33 bf 1d b0 cf bf 7d 8c 30 c0 d2 7d a2 b9
       -0.70190054 -1.622562 -2.7585747 -0.0003099279
000090 a6 04 ee be 38 91 d9 be 56 6c 94 3f 7e 1d 8f c0
       -0.4648792 -0.42493606 1.1595562 -4.47235
0000a0 c9 d3 14 c0 4e 94 b9 be 39 c8 ed 3f 05 96 66 40
       -2.3254263 -0.3624596 1.8576728 3.6029065
0000b0 36 84 c7 bf 63 a7 03 c0 69 77 a1 3f 9f 76 ad bf
       -1.5587223 -2.0570915 1.2614566 -1.3551825
0000c0 ca 3e 1f be a9 61 b7 3f 2c 84 a5 c0 27 a4 9b bf
       -0.15551296 1.4326679 -5.1723843 -1.215947
0000d0 9c 14 31 40 2d 5b d4 bd b5 80 90 40 36 a2 4b c0
       2.766883 -0.10368953 4.5157113 -3.1817756
0000e0 02 1e 9b 3d 06 e3 2f c0 a9 d8 43 bf 5d 69 6e c0
       0.07574083 -2.7482314 -0.7650247 -3.7251809
0000f0 78 a5 99 c0 f7 a1 04 40 50 2d 12 bf 69 60 a4 be
       -4.801449 2.0723855 -0.5710039 -0.32104805
000100 d0 98 33 40 7a 8f 9f c0 bf d6 62 c0 34 d9 04 c0
       2.806202 -4.986264 -3.544357 -2.075757
000110 ff bb 44 3d 93 a3 97 3f 49 bd cb bf 1a b0 06 be
       0.04803085 1.1846794 -1.591714 -0.13153115
000120 67 12 dc 3f 9e d0 f5 bf 2f 45 83 bd 40 22 55 c0
       1.7193116 -1.920429 -0.0640968 -3.3302155
000130 a3 65 cb be 04 27 99 c0 90 03 02 40 ba 25 12 c0
       -0.3972598 -4.7860126 2.0314674 -2.2835526
000140 c8 2d 89 c0 3b 64 ef be e6 05 71 c0 d4 df ba c0
       -4.2868385 -0.46756157 -3.765985 -5.839823
000150 0f 6c 7b c0 9d b2 c7 3f e3 72 f7 be d0 c0 85 c0
       -3.9284704 1.5601383 -0.4832984 -4.1797867
000160 5d ac 95 3d 3e 1c ce 3f 05 6c 51 40 c5 07 45 40
       0.07308266 1.6102369 3.272218 3.0785992
000170 a8 b9 c4 be f1 bd fc be 82 6c 9a c0 58 f1 15 be
       -0.38422894 -0.49363664 -4.8257456 -0.14642847
000180 8a 66 eb 3d 38 a2 32 c0 a9 d5 6a c0 48 04 e1 3f
       0.11494167 -2.791151 -3.6692908 1.7579432
000190 59 f5 e2 3c 56 a4 a0 bf 17 e4 cd be 03 ad 86 c0
       0.027704882 -1.2550151 -0.4021308 -4.2086196
0001a0 f0 a1 e9 3f 95 e1 d8 be 03 f5 ff 3f 58 59 88 40
       1.8252544 -0.42359605 1.9996647 4.260906
0001b0 45 ca 66 40 0e e2 e6 bf b8 de bb bf 2e e6 58 c0
       3.6060956 -1.8037736 -1.4677343 -3.389049
0001c0 97 e8 2b c0 de a9 4d 3f 67 3b 10 bf 5b be b7 3e
       -2.6860712 0.8033732 -0.5634064 0.35887417
0001d0 9f 08 28 bd 33 45 0f c0 66 3f 79 c0 14 1d 35 bf
       -0.041023847 -2.2385986 -3.8944945 -0.70747495
0001e0 70 27 ec 3f 4a ed 68 bf 58 84 8a be 19 33 28 40
       1.8449535 -0.90987074 -0.27054095 2.6281188
0001f0 51 45 95 bf e3 ac 35 bf 0f eb 9b bf 9e e4 4b c0
       -1.1661779 -0.7096693 -1.2181109 -3.1858287

layers.2.weight f4 [256, 128]
000000 1a 1b 8a 3c b1 e3 1a bb d4 f3 c3 bc a4 bf de bd
       0.016858626 -0.002363425 -0.023919977 -0.10876396
000010 f7 fb ce bd 1b 8f 26 3d de 01 8f bd 3b 51 1d be
       -0.10106652 0.04066382 -0.06982778 -0.15363018
000020 ab e4 a6 bc f8 45 8d bd f3 11 b4 bd 58 86 d1 3c
       -0.02037271 -0.06898111 -0.08792486 0.025576755
000030 83 a5 a3 3d 3e 8d 1a 3d 09 c7 37 bc f0 10 b2 3c
       0.07990553 0.037732355 -0.011216887 0.021736592
000040 49 9b 0d be 37 e8 a0 bd 14 5e 03 3e b9 37 8c 3d
       -0.13828768 -0.078567915 0.12828857 0.06846566
000050 b4 c2 ba bd 66 e7 e5 bd e5 5c ef bc fb d4 73 bd
       -0.09119168 -0.112257764 -0.0292191 -0.059529286
000060 e0 33 09 bd 33 54 36 bd ff 23 34 bd d8 da 4a be
       -0.033496737 -0.044513892 -0.04397964 -0.19810045
000070 69 9a 2c 3d 15 6d 53 bd f3 06 3f bd 80 b8 4c 3d
       0.042139445 -0.0516177 -0.046637487 0.04998064
000080 71 51 e4 bc bf 41 6c 3d 5d 39 d5 bd 72 d1 56 bc
       -0.027870866 0.057679888 -0.10411332 -0.013111459
000090 a6 10 08 be 37 b4 ee bb eb b0 56 bd c3 0e 93 3c
       -0.13287601 -0.007284667 -0.052414816 0.017951375
0000a0 ec ea 6e bd b9 ab 4a bb d1 80 75 bc 4e d0 22 bb
       -0.058329508 -0.0030925109 -0.0149843255 -0.0024843398
0000b0 91 10 d7 bd 5d b4 da bd 66 cf 01 bd d1 87 72 bd
       -0.10501207 -0.10678933 -0.03169193 -0.059211556
0000c0 90 cc 19 3e e5 3a 97 3a 1a 0b ac bd 37 85 4a bd
       0.1501944 0.0011537938 -0.08400555 -0.04944345
0000d0 bf 58 bb bd 34 73 3d bd 94 ac 36 bc 7f 0d 91 bd
       -0.09147786 -0.046252444 -0.011149544 -0.07082652
0000e0 b3 0c a0 bc 92 3e ef bd 9f a8 bf bd 6b 54 38 bd
       -0.019537305 -0.11681856 -0.09358334 -0.045002382
0000f0 e0 de 7f 3b 7d 9f cc bd c8 f6 1f 3d 1f d3 02 be
       0.0039042756 -0.099913575 0.03905371 -0.12775849
000100 21 a4 a7 bd 58 79 96 3c 6d 57 e7 3c 47 16 99 bd
       -0.08185602 0.018368408 0.02823993 -0.07474952
000110 08 34 54 3c a9 13 dc bd b6 0b bf 3a 3e 23 7d bd
       0.012951858 -0.107459374 0.0014575634 -0.061801188
000120 09 1c a6 3c 80 26 54 bd 4c 3e 37 3d 0c b4 27 be
       0.02027704 -0.05179453 0.044737145 -0.16377276
000130 00 5d dd 3c a8 87 ee bc 08 7a 5e 3d 3f 98 23 3d
       0.027021885 -0.02911742 0.054315597 0.039940115
000140 6c 25 46 bd 77 42 1f 3d da 07 a6 3c ac 4a 86 3d
       -0.048375532 0.038881745 0.020267416 0.06557211
000150 e9 5f e5 bd 8e 59 97 bc 8d f6 c8 bd 86 33 17 be
       -0.11199934 -0.01847532 -0.09812651 -0.14765748
000160 47 7e 9c bd 94 b7 81 bb fe 12 a6 bb 7e 11 1b 3c
       -0.07641273 -0.003958652 -0.005068182 0.00946462
000170 d7 95 0c bc 7f 3e 0c 3d 5d 87 a1 3c c4 0f 26 bd
       -0.0085806465 0.03423929 0.019717867 -0.04054238
000180 60 54 48 3d 14 1b 3b bc c5 eb c8 3a f4 bb 6c 3d
       0.04890859 -0.01142003 0.0015329054 0.057796434
000190 5d 10 12 bd 54 02 40 bd ea ce b0 bd 85 38 ac 3c
       -0.035660136 -0.04687722 -0.08633216 0.021023044
0001a0 bd 9b aa bc 51 7a d9 3d 05 76 62 bd cb 5d 7f 3c
       -0.020826215 0.10619033 -0.055288333 0.015586327
0001b0 27 e4 1a bd 1d e3 bc bd 1e fb 00 be 6c cf 09 3d
       -0.03781524 -0.09223006 -0.12595794 0.03364508
0001c0 2f f5 bb bd be 7f 7d bb 65 c2 47 3b 50 28 a5 bc
       -0.091776244 -0.0038680877 0.0030480858 -0.020160824
0001d0 f1 db bf bd d9 f7 f1 bd e8 2a 0b bc 1f e5 ba 3b
       -0.09368122 -0.11814851 -0.008494116 0.005703583
0001e0 80 28 cc bd bc af f4 bc f1 f2 47 bd 30 20 f9 bd
       -0.09968662 -0.029868953 -0.04881567 -0.121643424
0001f0 77 22 c9 bd bb 98 d2 bc 5e 20 82 bb 2c e0 b2 3c
       -0.09821027 -0.025707593 -0.0039711436 0.02183541
000200 ee 6e 35 3e 70 dc ce be bc 93 9e 3c 35 37 f9 3d
       0.17718098 -0.40402555 0.019357555 0.12168733
000210 05 12 ca 3d 79 78 fb bd 48 8b 23 3b 73 d2 ae 3d
       0.09866718 -0.12278838 0.0024954844 0.08536234
000220 5c 2c 88 3d 23 d5 17 bd ce 12 5b 3d 8f be ec bc
       0.06649086 -0.037068497 0.05348473 -0.02889946
000230 cc fc 7f bd ed 8d bb bd d5 03 1a 3f 2c 3b 87 bc
       -0.062496945 -0.091579296 0.601621 -0.016507708
000240 a6 dd e6 bd 35 98 8c 3d 56 5f 3f 3d d5 ce 93 be
       -0.11272745 0.06864969 0.04672178 -0.28868738
000250 e2 96 0b be 1c 06 82 bd c2 9f 4f be 4d 0e 0c bf
       -0.13631776 -0.063488215 -0.20275787 -0.5470932
000260 a1 b6 62 be ef 80 5b bf 66 95 bd bd ce 0e d0 3e
       -0.2213998 -0.8574361 -0.09257011 0.40636295
000270 fd 55 57 3c df a7 08 3d 4c d7 c6 3d 90 26 75 bc
       0.01314306 0.03336322 0.09709033 -0.014962807
000280 c1 6e c4 3d cf af 5d bd b3 f3 3b 3e 70 1d 2c bd
       0.09591437 -0.054122742 0.18354683 -0.04202026
000290 52 cd a7 3c ab 5e 44 3e 32 b7 58 bc 0e 25 e6 3e
       0.020483647 0.19176738 -0.013227271 0.44950145
0002a0 a1 0d cf bc 38 46 45 3c ae f2 96 3d 2e 76 d5 bd
       -0.025275053 0.012040667 0.07370506 -0.104229316
0002b0 58 2d c4 3d 92 2a f4 bc a1 31 18 3d 38 4b 52 be
       0.09578961 -0.029805455 0.037156705 -0.20536506
0002c0 37 29 14 3e 9e 0e 01 be 4e 24 5f bc af 1a a5 3f
       0.14468847 -0.12603232 -0.013619496 1.2898768
0002d0 de 5c fc bc 11 60 64 be 4d e4 16 bc b3 fd ab bf
       -0.030806001 -0.22302271 -0.009209705 -1.3436798
0002e0 50 de cd bd 70 26 3f be ce 84 b2 3d 8b b4 bc be
       -0.10052168 -0.18667006 0.08716737 -0.36856493
0002f0 db 4b d2 3d 20 b6 7e be 4d cd f2 bd 01 ed df be
       0.102683745 -0.24874163 -0.11855564 -0.43735507
000300 3d 95 32 bb 94 09 b3 3d 7d bb 97 3c 00 42 2d 3e
       -0.0027249597 0.08742061 0.018522019 0.16919708
000310 92 66 9f 3d 73 2c 91 be e4 55 dc 3c ca 64 7f 3d
       0.077832356 -0.28354225 0.026896425 0.06235198
000320 d6 4c 20 3d 4f 84 13 3d c6 97 95 be 23 97 11 be
       0.039135776 0.03601485 -0.29217356 -0.1421781
000330 32 cc 71 bd 8a d8 a4 38 40 4e 44 3e a3 ed 3e be
       -0.059032626 7.860463e-05 0.19170475 -0.18645339
000340 b2 c4 3d 3d 8d 12 9d bc 84 e3 dd bd a7 d9 47 bc
       0.04633016 -0.019173885 -0.10834411 -0.012197888
000350 6c f8 d5 3f 99 af 02 be b9 4f 07 bf 40 35 bb bd
       1.6716437 -0.12762298 -0.5285602 -0.09141016
000360 a1 35 c4 bd ac 79 4e bd a1 4b d8 be c8 e5 92 bf
       -0.095805414 -0.050409004 -0.422452 -1.1476374
000370 8d a3 75 3e f2 2d 5f 3e 1e fd 8a bd 40 e6 db ba
       0.23988171 0.2179487 -0.067865595 -0.0016776994
000380 9c ee 46 3c 1b 7b 14 3d b8 45 26 3c db c0 81 3f
       0.01214185 0.036250215 0.010148458 1.013698
000390 61 b9 82 be a1 b8 95 3d d6 9b 27 bb 13 6d 2e 3e
       -0.25532058 0.07310606 -0.0025575063 0.17033796
0003a0 f0 5e 9e 3b 15 9f f4 bb c5 0b ca 3d cb c5 e8 bf
       0.004833095 -0.007465253 0.09865526 -1.8185362
0003b0 16 73 4f 3e cf 34 c9 3d 9e 58 4c 3e f3 c5 d5 bc
       0.20258746 0.098245256 0.1995568 -0.026095366
0003c0 cd d0 ae 3e 3d 61 1a bd f8 72 e9 bd 66 cc a0 bc
       0.34143677 -0.03769039 -0.11398882 -0.019628715
0003d0 a8 17 f4 3d 0d 19 0d 3e ea 92 00 bf 04 20 01 3d
       0.119185746 0.13779087 -0.50224173 0.031524673
0003e0 72 46 aa 3a 2b df da bf 23 37 1a 3d 26 b0 3f bc
       0.0012990965 -1.7099355 0.03765024 -0.011699712
0003f0 00 6a 79 3c 11 8d 17 be 74 5d 10 3e 21 c8 b1 bd
       0.015223026 -0.14799906 0.1409815 -0.0868075

layers.2.bias f4 [256]
000000 fb 7f 90 bc 24 2d a8 c0 f1 18 1b 3d bc 28 bc b9
       -0.01763915 -5.2555103 0.037865583 -0.00035888504
000010 62 04 4e bd 5d 9a c6 3e 7e 43 d9 bc c3 3f ef 3d
       -0.05029715 0.38789645 -0.02652144 0.116820835
000020 bd 77 70 bd 90 b9 b3 bd 68 f5 ea 3f e1 63 21 3d
       -0.05870794 -0.087756276 1.8356142 0.039401893
000030 83 1b 73 bf e4 2c f4 bf 48 2e 8d 3c 17 b4 10 bf
       -0.94963855 -1.90762 0.017233983 -0.56524795
000040 25 f6 d3 bf 5c ec 07 3e d2 f5 1d be f7 31 24 be
       -1.6559492 0.13273758 -0.15425804 -0.16034685
000050 90 4b 08 c0 fd 11 9c bf cd 55 90 bd 35 85 e1 bd
       -2.129612 -1.219299 -0.07047615 -0.11011735
000060 22 12 a7 bd df 2e 14 c0 1d 8c 48 bc 0d 00 ce bd
       -0.081577554 -2.3153608 -0.012240437 -0.100586034
000070 aa 88 f1 bf ba df d3 bc 95 4f 82 3e 8e f9 41 bc
       -1.8869832 -0.025863517 0.2545134 -0.011839284
000080 e1 45 95 bd 3b fc 95 3f 29 f3 a8 bd a5 b3 3d 3f
       -0.07288719 1.17176 -0.08249504 0.7410224
000090 36 47 57 3d 58 ea a0 bd 68 2c cb bc 8c 23 cc bd
       0.052558146 -0.078571975 -0.024801448 -0.099677175
0000a0 48 11 37 bf 25 57 69 be b6 25 fe bd 0a 1e d8 bd
       -0.71510744 -0.22787149 -0.124095365 -0.105526045
0000b0 ed 63 0e c0 ff 49 a1 bf 28 fb 08 be 3a 76 4c be
       -2.224849 -1.2600707 -0.13377059 -0.19966975
0000c0 83 3a 09 3d 57 29 8c 40 8e 62 cd 3b 8d 95 22 be
       0.033503067 4.3800464 0.006267852 -0.15877362
0000d0 6e 26 cc bd dd 10 d3 bf 71 eb 1b bd 9a b8 92 bd
       -0.099682674 -1.6489521 -0.03806633 -0.07164116
0000e0 a3 92 1e be 20 68 16 bd 9e 83 b8 bd 70 4f 3c bd
       -0.15485625 -0.036720395 -0.09009479 -0.045974195
0000f0 47 c3 7a bd cb fa fd bd 05 fa 1c 40 d7 d4 7f bd
       -0.061221387 -0.124013506 2.45276 -0.06245884
000100 b4 b5 8b bd 64 74 88 c0 10 cb 10 be 7c ef ce bd
       -0.068217665 -4.264208 -0.14139962 -0.10104272
000110 b8 0f d7 bd aa 9d ce bd cd 60 1c bd 45 3e 97 bf
       -0.10501045 -0.10088666 -0.038178254 -1.1815878
000120 86 78 57 be 6a 50 3f 3e 5c ac 81 bb 4a 52 9b bd
       -0.2104207 0.1868302 -0.0039573144 -0.07584055
000130 0f b8 e2 bd e5 0e 1c be 2c 09 9c bf ea 73 c2 3e
       -0.11070263 -0.15240057 -1.2190299 0.3797906
000140 9c 76 8f 3c cd c2 00 be f5 95 14 be 36 57 9c bd
       0.017512612 -0.1257431 -0.14510329 -0.07633822
000150 c1 60 e8 bc fa 73 12 be 91 cc 0e bf 78 57 3d bd
       -0.028366448 -0.14302054 -0.55780894 -0.046225995
000160 73 29 66 bf 96 66 de bd 57 76 dc bc 72 34 87 3c
       -0.89906996 -0.108594105 -0.026911898 0.0165045
000170 aa a4 d3 c0 a3 b6 b5 bd e0 f7 04 3d c9 1d c0 bf
       -6.6138506 -0.08872726 0.032462955 -1.500909
000180 98 ed e8 bd a6 65 c8 bd 78 bb 9f bd cd 49 09 be
       -0.113734424 -0.09785013 -0.07799429 -0.13407059
000190 bb ad 8f be 4f ea 97 bd e9 6f fe bd b7 39 33 bd
       -0.28062233 -0.07417738 -0.12423689 -0.043756213
0001a0 73 97 88 bd 9f 7f e5 bc 07 f7 11 be 44 2b f5 3d
       -0.06669512 -0.028014956 -0.1425439 0.11971143
0001b0 79 c4 86 bd fa f1 99 3c 90 ce 11 bf 0d d6 54 c0
       -0.06580443 0.018792141 -0.56955814 -3.3255646
0001c0 d1 4c 49 3f 0a 29 3f 3f f5 22 c2 bd ef 18 dc bd
       0.7863284 0.74671996 -0.09479324 -0.10746943
0001d0 52 1e 07 bd 06 3a 6a bd 5c 04 a3 bd c6 4d 6c bd
       -0.0329879 -0.05718424 -0.07959816 -0.057691358
0001e0 88 aa cb bb 57 07 5d bd 5f 79 b0 3b 01 e1 14 bd
       -0.0062153973 -0.053962078 0.0053855623 -0.036347393
0001f0 a3 3b f4 3d 86 41 fd bd ce 7b 56 3c e1 cc 1e be
       0.11925437 -0.12366013 0.013091041 -0.15507843
000200 a8 ce 57 be 5a 11 90 be ae 77 b8 3f 07 be 9e c0
       -0.21074927 -0.28138238 1.4411523 -4.9606967
000210 94 84 01 be d9 58 09 be 01 02 8b 3c a6 7a c3 bb
       -0.12648231 -0.13412799 0.016968729 -0.0059655486
000220 1c b7 fb bd e8 c0 c6 3f 19 88 d9 bd e0 d2 4e 3c
       -0.12290785 1.552762 -0.10621662 0.012623519
000230 8b ea 9a bd 10 e1 b8 be 11 4c 01 be 67 6f 56 be
       -0.07564267 -0.3610921 -0.12626673 -0.20940934
000240 f0 69 ea bd df 88 c3 bd f4 4c 9b bd a7 0f d8 bf
       -0.11445987 -0.095475905 -0.07583037 -1.6879777
000250 24 c5 88 c0 e0 1e 11 bd 88 e0 33 bd 73 d3 f4 bc
       -4.274065 -0.035429835 -0.0439153 -0.029885983
000260 64 b6 a3 c0 b4 8c 1a bf 38 1f 8b 3b 33 65 97 bc
       -5.1160145 -0.60370946 0.004245665 -0.018480873
000270 cc b6 6d be bc 59 06 c0 c2 6d 2f be 56 27 07 be
       -0.23214263 -2.099227 -0.17131713 -0.13198599
000280 04 b0 1a bf 70 f3 07 be c9 38 ec 3b ec ea 6f bf
       -0.6042483 -0.13276458 0.0072089178 -0.9371784
000290 74 c5 21 be e0 37 76 be 8f 56 e1 c0 19 0c 25 bf
       -0.15797979 -0.24044752 -7.041816 -0.64471585
0002a0 c2 95 8d bd 91 d2 10 be 23 e6 fb bd 2c 33 99 3d
       -0.0691333 -0.14142825 -0.122997545 0.074804634
0002b0 3c 1f 42 be d9 08 06 be 84 23 03 bd 00 43 a8 bb
       -0.18957227 -0.13089313 -0.032016292 -0.00513494
0002c0 42 3e 42 bf 81 81 34 be c6 5a 96 bd 38 6f a8 bd
       -0.7587625 -0.17627527 -0.073415324 -0.08224338
0002d0 be 57 5e bd da e6 e1 bd 83 f5 83 bd 0f 57 1e bd
       -0.054282896 -0.110303596 -0.06443312 -0.038657244
0002e0 39 50 85 bd 1c 9b 16 bd 6d f7 a9 be f6 0a 03 be
       -0.06509442 -0.036769018 -0.33196583 -0.1279715
0002f0 74 a2 96 3c 0e a9 01 be 05 fd 08 be 0d 7f 2e 3d
       0.01838801 -0.12662145 -0.1337777 0.042601634
000300 c7 4e e1 bd 0f a6 f6 bd b2 73 c1 bd 95 1a 3f 3c
       -0.11001354 -0.12043392 -0.09445895 0.0116640525
000310 7e 3e 73 be 6f f0 44 bd 10 ea 99 3c 44 10 16 be
       -0.23754308 -0.048080858 0.018788368 -0.14654642
000320 e2 42 96 be 10 e2 93 bd fd 36 d3 bd 83 93 89 3c
       -0.29347903 -0.072208524 -0.103132226 0.016793972
000330 e1 cd e3 bd fe 23 d5 be e2 95 05 be ec 43 5e bd
       -0.11123253 -0.41629022 -0.13045457 -0.054263994
000340 d8 da 89 bd 45 e3 89 bd 46 40 86 bf 76 88 b9 bd
       -0.06731194 -0.06732801 -1.0488365 -0.09059231
000350 03 2d 24 bd 2c d6 43 c0 7d 24 c9 bd 41 73 c9 bd
       -0.04008199 -3.059947 -0.09821413 -0.09836436
000360 92 03 e1 bd 2d 11 92 bd 58 f4 56 bd 03 da a5 bd
       -0.10987009 -0.07132182 -0.052479118 -0.08098223
000370 2e 0c 1d be 0a 95 26 be 99 98 98 3b 59 fd e9 3e
       -0.15336677 -0.16267791 0.004656863 0.457011
000380 ed a4 fa bd 0b d0 ca bd 24 e0 b8 bd b9 b0 16 c0
       -0.12238488 -0.09902962 -0.090271264 -2.3545363
000390 8c d6 97 bd 6b 2c 8c bf 24 cb 10 be 38 37 8f bd
       -0.074139684 -1.0951055 -0.14139992 -0.06992954
0003a0 90 e1 0f 40 2a da 0c be 95 80 8e ba f6 53 2b bd
       2.2481422 -0.13755098 -0.0010872061 -0.04182812
0003b0 9b 27 ca bd 96 ff 44 3d 75 e7 04 be e9 e5 88 3f
       -0.098708354 0.04809531 -0.12978919 1.0695163
0003c0 7b 8c 3a bd 3b 51 26 be e8 dc 57 bc 89 e4 50 be
       -0.04554413 -0.16241924 -0.013175227 -0.20399679
0003d0 eb 7f 59 bd c4 2f 55 be 3e fc 5c 3c 47 46 65 be
       -0.053100508 -0.20819002 0.013487874 -0.2239009
0003e0 25 e3 b2 3f ac cf 1f bd a4 39 f6 3d 82 0f f4 3d
       1.3975569 -0.03901641 0.12022713 0.119170204
0003f0 ae e6 31 bc a6 c1 d0 bf 67 78 f8 bd 7f f7 14 be
       -0.010858221 -1.6309097 -0.1213234 -0.14547537

layers.4.weight f4 [256, 256]
000000 7f c6 20 3d 61 c1 79 bc 28 21 35 3d 76 bf bc 3b
       0.0392518 -0.015243859 0.044221073 0.0057601286
000010 3f 79 1b 3d 87 b9 83 bf 87 f7 9a bd ef d3 26 3e
       0.037957426 -1.0290993 -0.07566743 0.16291784
000020 70 ef 8a 3c 99 7e bd 3d 1d b3 e8 bb 4b 32 10 bd
       0.016959876 0.09252662 -0.00710143 -0.035204213
000030 37 12 47 3d 67 fb 5e 3f f6 e6 0f bc c7 9d 81 3d
       0.048601355 0.8710236 -0.008783093 0.06328922
000040 8b 4b 70 bd 9a 1a 0d 3d 9d c6 81 bd 80 0e ca 3b
       -0.058665793 0.034449197 -0.063367106 0.0061662793
000050 39 4f d3 c0 99 57 dd 3d 7b 87 c3 bc f4 d5 50 bc
       -6.6034207 0.108077236 -0.023868313 -0.012746323
000060 9e 61 50 bd 1e a8 a8 bf b8 33 30 3d 4f 20 1e 3d
       -0.050874345 -1.3176305 0.043018073 0.03860503
000070 07 70 03 3d 1c 92 8d 3d b0 2d 5b bc f9 38 4d 3d
       0.03208926 0.06912634 -0.013377592 0.05010316
000080 62 67 65 3d 60 5d e2 3b 66 ad 6c 3d da 70 96 bc
       0.056006797 0.006908104 0.057782553 -0.018364359
000090 f4 ca 85 bd 20 93 9f bc 28 d4 b3 3c 03 8b ee bc
       -0.06532851 -0.019479334 0.02195175 -0.02911902
0000a0 cc 3d 08 bf 2d 51 0a 3c 0e 2c 98 be 0d b1 ee bc
       -0.53219295 0.008442205 -0.2972111 -0.029137159
0000b0 32 29 86 3c c9 f6 60 bf af 5c e5 bc 18 64 87 3b
       0.016377065 -0.87876564 -0.027998297 0.004131805
0000c0 6d 24 22 3d d1 25 24 bd 7f 39 29 3d a1 1e 78 3b
       0.03958552 -0.040075127 0.0413146 0.0037860053
0000d0 91 6e e8 bc 4f 07 05 bf 57 b8 99 bc f5 67 24 bd
       -0.028373035 -0.5196428 -0.018764658 -0.040138204
0000e0 32 85 c1 bc 53 ec 24 3d cb 11 5c 3d 43 0d 8e 3d
       -0.023623083 0.04026444 0.053727906 0.06936123
0000f0 13 01 0d 3c 35 7b b2 bc 1c a2 02 3d b6 43 2f bd
       0.008606213 -0.021787265 0.03189288 -0.042789184
000100 fa fc 72 bd 1f 74 1d 3f bf 57 8b 3a 37 09 a6 bc
       -0.05932329 0.6150531 0.0010631009 -0.020268066
000110 7b 15 27 3d 6b 23 3e 3d bd 2b 95 3c 1d e3 95 bd
       0.04079197 0.046420496 0.018209333 -0.07318709
000120 f2 e3 1b 3d b9 fc dd bc 68 0c 1f bd 40 c8 44 bd
       0.038059182 -0.027098047 -0.03883019 -0.048042536
000130 c1 bb c6 bc 73 23 f7 bc 70 7b b4 3f fe e5 b4 bc
       -0.02425945 -0.03016827 1.410017 -0.022082325
000140 72 0f 1f 3d fc 92 0f 3d b4 34 97 bd d9 3e 5e bd
       0.03883309 0.035052285 -0.07383099 -0.054259155
000150 de 21 8d bc 4e 2b 8a 3b a5 cb 87 3e 63 dd 59 bd
       -0.017228063 0.004216588 0.26522556 -0.053189646
000160 7e 18 03 bd 68 57 b1 bb a4 e5 9d bd 27 bd 67 3d
       -0.03200578 -0.005412031 -0.07709816 0.056576874
000170 fe 99 c8 3e 88 cb ed 3d 3d 9f 2a bc 33 4b 0c bf
       0.39179987 0.11611086 -0.010413942 -0.54802245
000180 6c 4c c1 bd 8e a3 44 bc 5a c0 5d 3d bc 2b de bd
       -0.094384044 -0.012001885 0.05413852 -0.108481854
000190 7c 27 5e bd 68 1c 0e bd 0c 50 4f 3c 3b 97 d9 bc
       -0.054236874 -0.03469506 0.012653362 -0.02656137
0001a0 d6 a3 b6 bc 78 ad 76 bd b6 18 cb bd 8a 70 92 bd
       -0.02229492 -0.060224026 -0.099168226 -0.071503714
0001b0 60 46 ba 3b a0 db d2 3b 54 1a 83 bf 45 bb 6b 3b
       0.005684659 0.0064348727 -1.024241 0.0035969776
0001c0 03 a9 14 3c f9 1a cd 3e d6 8d 9e bc ab 3b 70 3d
       0.009073499 0.4005964 -0.019354742 0.058650654
0001d0 34 31 02 3d e0 82 78 bd a5 17 ed 3c c7 f8 5f 3d
       0.031785205 -0.060671687 0.028941939 0.054680612
0001e0 ac 65 66 bc 34 9e 36 3d 77 43 12 bd bd 70 99 3c
       -0.014062326 0.044584468 -0.03570887 0.018730516
0001f0 dc 8d 21 bc f2 25 71 3d 45 0f a0 bd 60 9c 07 3d
       -0.009860482 0.058874078 -0.078154124 0.033108115
000200 d2 0d ce 3d 96 81 2d 3c 39 4b b1 bc e5 56 1f bd
       0.1006123 0.010589978 -0.021642314 -0.03890123
000210 13 64 62 bd 3c 26 3b 3d cb 1d 50 bd 75 af 25 bd
       -0.05527122 0.04569076 -0.050809663 -0.040450532
000220 1f 04 45 3c 04 94 0b bd 98 ed 1f 3c a8 b0 e6 bc
       0.012024908 -0.034076706 0.009761237 -0.028160408
000230 2a 34 4e bd 5c af ea bd 55 25 d1 bc e0 e1 1b bc
       -0.050342716 -0.114592284 -0.025530497 -0.009514302
000240 6a 33 d9 bb 54 7d c4 3c 0a 3e 2d bc 16 08 dd be
       -0.0066284435 0.023985542 -0.010573873 -0.43170232
000250 5d d7 d5 ba 07 77 7b 3d 17 da 2e bc ed d3 ac 3d
       -0.0016314794 0.06139281 -0.010672114 0.08438859
000260 1a 0e 43 bf 35 67 87 3f a6 54 57 bd ea 4d 7c bc
       -0.7619339 1.0578371 -0.05257096 -0.015399436
000270 de 98 31 3d cc 8b c0 bf 07 0d fa 3c 20 b4 41 3d
       0.043358676 -1.5042663 0.03052379 0.04729092
000280 b4 72 5f 3d 25 69 16 3d 57 b8 53 3b 61 18 d2 bf
       0.05455275 0.036721367 0.003230592 -1.641369
000290 e4 d2 fa bc 72 8f 0e 3d 7d c1 06 3e fc 86 81 be
       -0.030618139 0.03480477 0.13159747 -0.25298297
0002a0 7e aa ab bd 08 3c 2d bd b6 39 15 3d 16 7d 6f 39
       -0.08382128 -0.04229358 0.03643199 0.00022839414
0002b0 d7 15 9b 3b 2f 68 12 bd bd 8e 19 bd 2f bb dd bc
       0.004732828 -0.03574389 -0.03748964 -0.027066795
0002c0 17 65 99 3f f7 09 49 bd 39 bd 74 3c 80 e1 83 bd
       1.1983975 -0.04908177 0.014937692 -0.06439495
0002d0 03 fb 0b 3d 2d 0a a2 3c 56 ce e9 bc 59 ee af 3c
       0.03417493 0.019780243 -0.028540771 0.021475958
0002e0 3d ef 73 3d 1b c6 41 bc 0c a3 1d bd 42 48 8b bc
       0.059554327 -0.011827017 -0.03848557 -0.017002229
0002f0 e1 2d 9d 3a 31 31 06 3a 37 e0 06 bd 83 78 0f bb
       0.0011991822 0.00051190244 -0.03292867 -0.00218919
000300 36 32 3d bd 02 5a 67 3b 62 ec 20 3c 71 20 37 bd
       -0.046190463 0.0035301452 0.009821983 -0.044708673
000310 bf 8f 8a bb df 50 35 bd 78 39 d6 3c 15 8f b3 bd
       -0.0042285617 -0.044266578 0.02615045 -0.08767525
000320 16 77 b5 bd f8 dc b5 bc 14 f2 2d 3d 1e 9b 54 3c
       -0.088606045 -0.022200093 0.04246719 0.012976436
000330 fd d8 35 bd 3a 00 10 3f bf b7 13 bb 6f f2 fc bc
       -0.04439639 0.56250346 -0.002253994 -0.03087732
000340 62 5c 35 3e ae 29 3b bc 50 2d 0d bd 24 42 98 3c
       0.17711022 -0.011423511 -0.03446704 0.018586226
000350 de a0 9c 3c 0c c8 50 bd 38 5b 3e 3d 91 50 71 3d
       0.019119676 -0.05097203 0.04647371 0.058914725
000360 c7 19 b6 3d b2 c3 37 bd db dc ff 3c 4a 5a 29 3b
       0.088916354 -0.044864364 0.031233242 0.002584117
000370 8f 0d 3d bd d5 54 12 bd 90 d6 c5 bd b3 5c 93 be
       -0.04615551 -0.035725433 -0.09660065 -0.2878166
000380 0a 8f 57 bb 04 99 a1 bb 32 6d 68 bd 02 97 5e be
       -0.0032891654 -0.004931571 -0.05674476 -0.21737292
000390 48 a1 8e 3c 17 fe 47 bd a8 2c 27 bd 71 3a a5 bc
       0.01741089 -0.048826303 -0.040814072 -0.020169469
0003a0 f2 f4 1b bb 74 a5 5a bd 23 de 36 3c 6e 5f 61 bc
       -0.0023797122 -0.053380445 0.01116136 -0.013755662
0003b0 4f 04 f5 bc 79 ca 5b bd 8c 66 a9 ba 85 5c e9 c0
       -0.029909281 -0.05365989 -0.0012924238 -7.292544
0003c0 e6 eb e1 3c 9a 1b 0f 3f d1 2f 6e 3c 52 eb c9 bd
       0.027578305 0.5590149 0.0145377675 -0.09859337
0003d0 58 f1 13 bd 94 6e 2b bd 94 ca 7e bc c1 57 d1 3c
       -0.036118835 -0.041853502 -0.015551228 0.02555454
0003e0 36 68 85 3d 45 46 ff bc 9d 72 51 3e e9 c5 1d bd
       0.06514017 -0.031161437 0.20453878 -0.03851882
0003f0 fe 2f 44 3d e9 0f 38 ba 85 8e af bc 05 20 8e 3b
       0.04789733 -0.0007021414 -0.021430263 0.004337313

layers.4.bias f4 [256]
000000 a9 0f ae bf 28 a3 3d bd 00 d6 f4 bd e8 89 98 3f
       -1.3598529 -0.046298176 -0.1195488 1.1917086
000010 58 d4 0d c0 fa 66 c1 bd c4 08 ae bc fa 21 3a bd
       -2.2160854 -0.09443469 -0.021244414 -0.04544256
000020 94 97 b4 bd 11 2e 82 3e cf f0 3a c0 dc 49 b2 bd
       -0.08817974 0.2542577 -2.9209478 -0.08705494
000030 2e 63 32 3d a7 a4 36 bd 7b d6 d4 3f 3a 87 03 bd
       0.043551616 -0.04459062 1.6627954 -0.032111384
000040 69 ec d5 bd 48 e3 3a bb 26 20 c1 bd ca 51 21 3d
       -0.10445482 -0.0028516818 -0.0942996 0.03938464
000050 4e 96 9f bd 13 83 08 bf 1c fc 14 bf 26 e7 81 c0
       -0.0779234 -0.53325003 -0.5819719 -4.0594664
000060 b5 f2 73 bd 06 9d 40 be d1 7d b1 bf 1e 76 43 bd
       -0.059557635 -0.188099 -1.3866521 -0.047720067
000070 ec e5 78 bb 84 a9 e9 bd 2d 8a 66 be b1 93 95 bc
       -0.003797884 -0.11409286 -0.22513647 -0.018258901
000080 80 0c c2 bd 09 d5 a1 3c 2f a0 ce bd 61 77 2e bd
       -0.094750404 0.019754903 -0.10089146 -0.042594317
000090 b2 b1 3f bf fa 89 81 bc d3 07 86 bd a8 ca 03 be
       -0.74880517 -0.015812863 -0.06544461 -0.12870276
0000a0 5c 38 0c 3d 44 68 1e bf d5 7c 01 3f 70 f7 c4 bd
       0.034233436 -0.61877847 0.50581104 -0.096175075
0000b0 2f ac e1 bd 29 bd 74 be a1 57 c4 bd 76 6b f6 bd
       -0.110191695 -0.23900284 -0.095870264 -0.12032215
0000c0 0d 8e 26 bf 9f b8 f8 bd 89 a3 67 3d e9 2a 18 c0
       -0.650605 -0.12144589 0.056552444 -2.377619
0000d0 5a 39 49 bd 81 fe 1f c0 04 59 01 be fb a6 9f bd
       -0.04912696 -2.4999087 -0.12631613 -0.07795521
0000e0 fd 5b 04 be 48 df 05 be ef 50 eb bc 65 dd a8 bd
       -0.12925716 -0.13073456 -0.028725116 -0.08245353
0000f0 79 38 c7 3c c1 82 a5 bd f9 7f 8b bd 9c 11 0e be
       0.02431892 -0.0808158 -0.06811518 -0.13873905
000100 1b c8 99 bd b3 5b 88 bf 92 21 35 be 69 93 5b bf
       -0.0750887 -1.0652984 -0.17688587 -0.85771805
000110 48 90 80 3f 38 96 c1 bd 8f 7b 06 3d a7 23 99 bf
       1.0044031 -0.0945248 0.03283268 -1.1964005
000120 57 f0 6a be 21 b1 be 3f 5e 2c e0 bd e0 fc a4 c0
       -0.22943245 1.4897805 -0.10945962 -5.1558685
000130 58 5f 89 3d 8e c7 88 bd 65 f5 a3 bd 65 df 91 bd
       0.067076385 -0.06678687 -0.0800579 -0.07122687
000140 d4 db 64 bb 8a bf 35 3e 03 39 42 be 8e a0 7b c0
       -0.0034921067 0.17748848 -0.1896706 -3.9316745
000150 14 bb 47 3f 97 0e 4c bd 0d 60 7f 3f 23 db 94 bd
       0.78019834 -0.0498186 0.99755937 -0.072683595
000160 cd c5 d4 bc 65 1a 51 c0 4d 83 00 bf d8 5b 7d 3d
       -0.025973225 -3.267236 -0.5020035 0.061855167
000170 a2 2d b8 bd fb 05 c5 bd f1 d4 b5 3f 21 28 00 c0
       -0.08993079 -0.09620281 1.420561 -2.0024493
000180 50 b9 a5 3f 0a 01 a6 bd 8e a2 f1 bd e9 11 a7 bd
       1.2947178 -0.08105667 -0.11798583 -0.08157713
000190 ce c9 0a be db 7d 62 bf 1c b9 09 bd 34 31 1f bf
       -0.13553545 -0.8847329 -0.0336238 -0.62184453
0001a0 7a 85 85 bd d6 29 4a 3d 18 d3 2c bd 29 1f 50 c0
       -0.06519599 0.049356304 -0.042193502 -3.2519019
0001b0 81 19 33 c0 55 50 a7 bb aa 42 89 bd 2c 71 d3 3c
       -2.7984316 -0.005106012 -0.06702168 0.0258108
0001c0 fb e1 56 bf e3 10 9d bf 04 31 99 3f 5a c8 62 bb
       -0.8393857 -1.2270778 1.1968083 -0.0034604282
0001d0 b9 71 b3 3d 5c 75 54 bd 93 c4 1d bd 4e ce 18 bf
       0.08761925 -0.051869735 -0.038517546 -0.59689796
0001e0 49 4d 9c 3e 13 dd 6b bd 4b 57 17 be 97 2e f7 bf
       0.30527714 -0.05758388 -0.14779393 -1.9311093
0001f0 30 fd a6 bd 9c 98 95 c0 1d ed 3a bf 0d 29 dd bf
       -0.081537604 -4.674879 -0.73018056 -1.7278153
000200 ce a8 be 3f 39 d1 e5 be 34 e9 22 bc 8d 4a f6 bd
       1.4895265 -0.44886187 -0.009943295 -0.12025938
000210 b5 8a 79 3f 79 ac da bc c8 4d 8e bc 8a db 24 3f
       0.97477275 -0.02669357 -0.017371073 0.6439749
000220 ae 1d ec 3f ed 6a 2f bf eb 12 30 3f ec 4f 5c c0
       1.8446558 -0.6852253 0.68778867 -3.442378
000230 16 74 99 bd 98 7d 38 c0 45 3e 03 c0 76 16 35 3d
       -0.07492845 -2.8826656 -2.0506756 0.044210874
000240 3c 3e fe be 99 f7 ae bc 72 e9 bf bd 10 63 f0 bc
       -0.49656856 -0.021358298 -0.09370698 -0.029344112
000250 37 8e 44 bd 90 86 bc bd 06 a5 77 c0 15 47 a6 bf
       -0.04798719 -0.09205353 -3.8694472 -1.2990443
000260 66 0f ae bd 92 d6 e6 3f 6d d7 83 bc 08 03 78 bd
       -0.08499031 1.8034232 -0.016093934 -0.060549766
000270 66 29 11 bd b0 3a 8b bd 5e 95 4e c0 0a 86 a4 bd
       -0.03543987 -0.06798303 -3.2278666 -0.080333784
000280 1b e8 af c0 ad f5 a5 bc 93 e5 75 c0 61 08 00 bd
       -5.497083 -0.020258749 -3.842137 -0.03125799
000290 0f 41 bc 3d c3 83 14 bf f2 85 a5 3c 5c 6c 49 c0
       0.091920964 -0.5801355 0.020205472 -3.1472387
0002a0 a4 a2 3c c0 f2 21 55 bd 84 99 fd bd ea f9 58 bd
       -2.9474268 -0.052034326 -0.123827964 -0.05297271
0002b0 fe 36 25 bf 2f b9 28 c0 0d a1 11 c0 80 5f 2d 3a
       -0.64537036 -2.6363027 -2.2754548 0.0006613657
0002c0 d3 d6 87 3d b4 34 5d c0 ea 86 98 bd 1b 71 c2 c0
       0.06632771 -3.4563417 -0.07447608 -6.076307
0002d0 ff d4 af bc 91 ba 2a c0 69 a3 8f bd 92 a8 1e c0
       -0.02146387 -2.667637 -0.0701359 -2.4790387
0002e0 ea 13 d7 3e 3b 5c b2 bd b0 5d ce bd 6c 53 02 be
       0.4200738 -0.08708998 -0.10076463 -0.12727135
0002f0 f6 65 15 be 7d b6 70 bd 03 cc 9a be d0 f0 c1 bc
       -0.14589676 -0.058767784 -0.30233774 -0.023674399
000300 a1 27 7b c0 98 0d 61 bf 6f d9 09 be 4c 66 97 bc
       -3.9242938 -0.8791137 -0.1346185 -0.018481396
000310 e3 17 9b bd e0 6a 8d c0 bf c4 b1 ba 38 22 94 c0
       -0.075729154 -4.4192963 -0.0013562663 -4.629177
000320 da f1 ab bf 72 6e dd bd 87 0a 13 c0 68 73 59 bd
       -1.3433182 -0.108120814 -2.2975175 -0.053088576
000330 9f 1b e2 bd ce 4b 6e bd e3 65 0d be 6e ca 94 bd
       -0.110404246 -0.05817776 -0.13808398 -0.07265173
000340 1a 26 b9 bd 7f d5 66 3c 44 ef 14 3f 47 20 6b bd
       -0.090404704 0.014088987 0.5817759 -0.05740383
000350 c2 be 33 bb 59 ee f4 3e 35 be 26 3c 3d 99 b9 3c
       -0.0027426933 0.47838095 0.010177185 0.022656078
000360 9d cd 2f be f3 c9 5b bd 91 47 55 bd 7f 80 bd be
       -0.17168279 -0.05365939 -0.052070204 -0.37012097
000370 23 b7 c8 3e 6a 28 3d c0 8d 50 e2 bd b3 e6 e6 bd
       0.39202222 -2.9555917 -0.1105052 -0.11274471
000380 8f d3 08 c0 b7 1a c6 bd 68 24 83 3e c5 79 66 c0
       -2.1379125 -0.09673064 0.25613713 -3.6011822
000390 51 d9 13 3b 22 eb 5b 3d 68 5e d9 bd 4d 0d 88 bd
       0.002255995 0.053691037 -0.1061371 -0.06643162
0003a0 03 16 d2 be 03 dc 13 be 16 03 c9 bd ba 09 0c bd
       -0.4103242 -0.14439397 -0.09815042 -0.034188963
0003b0 1f 55 ce bd b8 25 b5 3f e0 42 eb bd ac 59 71 c0
       -0.10074829 1.4152136 -0.11487365 -3.7710981
0003c0 e2 dd aa bd 89 7e 25 bc 17 0e 57 bf f2 9a fe bf
       -0.08343102 -0.010100969 -0.84005874 -1.9891036
0003d0 54 b7 e1 3c 40 d5 40 c0 f9 4b 7a 3e 96 07 18 c0
       0.027553238 -3.0130157 0.24443044 -2.375463
0003e0 cc e3 02 c0 ac c1 f8 bd 0d d6 09 c0 c1 a9 04 c0
       -2.0451536 -0.12146315 -2.1536896 -2.072861
0003f0 9c 2b 93 bd f9 2a 92 bd 98 f4 d2 bd d3 e7 07 c0
       -0.07186052 -0.07137103 -0.10300559 -2.1235244

layers.6.weight f4 [128, 256]
000000 da c2 2d bf e5 db ba bb 9d 32 32 bd 07 b4 1d 3e
       -0.67875445 -0.005702483 -0.0435053 0.15400706
000010 5a 01 a6 be 14 58 78 bc 76 59 2c 3d 21 e8 99 3c
       -0.32422906 -0.015157718 0.042077504 0.018787446
000020 cc 9b 02 3d 2e 13 bd be e3 38 ee bd 50 a3 7c 3d
       0.03188686 -0.36928695 -0.11631944 0.061679184
000030 42 57 5e 3c 64 38 1d bd 94 dc 8b bd 8e d6 ae 3b
       0.013570609 -0.038383856 -0.06829181 0.0053356355
000040 24 9b 1c 3c 69 e5 16 bd a9 cd 8b 3d 67 e4 15 bd
       0.009558473 -0.036839876 0.06826336 -0.036594775
000050 80 5e d6 bc e5 df 69 3d 93 dd 76 3e b9 83 69 be
       -0.026168108 0.057098288 0.24107961 -0.22804154
000060 3c a3 31 bd 24 f6 43 3d e0 1d b1 3e 30 f8 cf 3c
       -0.043368563 0.04784216 0.34593105 0.0253869
000070 90 be 82 3d ce 8b 48 bc 17 ba 36 be 13 57 09 3d
       0.06384003 -0.012240363 -0.17844425 0.033530306
000080 ed 6a 98 3c be 2f 6a 3e fb f4 f0 3c a9 d8 74 bc
       0.018605674 0.22869775 0.02941369 -0.014944234
000090 5f 8d 8d 3e 5d 45 61 bd b1 42 9c 3d 97 d6 31 3d
       0.2764692 -0.05499779 0.07629908 0.04341754
0000a0 4b 36 b5 3c 98 52 2a 3f 2f 11 9b ba 12 5c c6 3c
       0.022120615 0.6653228 -0.0011830683 0.024213824
0000b0 9c e3 2b 3c f5 96 c5 3d 74 01 46 bc 01 54 85 3d
       0.010491278 0.096479334 -0.012085307 0.06510163
0000c0 5e ac 1a 3d 84 36 e6 3c 39 63 7a bd 25 ca 13 3e
       0.03776204 0.028102167 -0.061129782 0.14432581
0000d0 ec db 22 3e 67 2a 31 3e fb 71 91 bc d7 ef 72 3d
       0.15904206 0.17301331 -0.017754545 0.05931076
0000e0 5f 11 0b 3c c9 1c af bc 5b 08 f4 bc c1 68 19 3d
       0.008488028 -0.02137603 -0.02978914 0.037453417
0000f0 86 50 77 3b 64 b6 fd 3c 96 8c 85 3b 78 56 aa 3d
       0.0037737205 0.03097076 0.004075597 0.08317274
000100 50 8d 53 bd d1 6c 5a bc 69 25 8b 3c 65 1c c1 bf
       -0.051648438 -0.013331608 0.016985612 -1.508679
000110 8a 2c a1 bd a2 74 0b 3d 5d cf 19 bd 37 81 a2 be
       -0.07869823 0.034046777 -0.037551273 -0.31739208
000120 f8 a7 a2 be 30 9d bc bd ac ee 9a bc 8b f1 d4 3c
       -0.31768775 -0.09209669 -0.018912636 0.025994083
000130 8e 03 c3 3c 7b 8a de bc 89 7f 30 3d 77 c2 a2 3c
       0.023805406 -0.027165642 0.043090377 0.019868119
000140 bd 65 55 bd 40 19 d9 bd 8d 3e c0 bd 75 d0 a8 be
       -0.05209898 -0.10600519 -0.093869306 -0.3297154
000150 76 3d d1 3f 51 dd 36 bd 3b 78 be 3e 0d e2 98 3c
       1.6346881 -0.044644658 0.37201104 0.018662477
000160 52 5d 39 bc 85 ff 41 bd 16 49 d5 bd 7c 69 44 3d
       -0.011313753 -0.047362823 -0.10414331 0.04795216
000170 98 e9 a7 bc 81 4e 42 bd 5e b6 25 3c 70 c9 cf 3c
       -0.020497128 -0.04743815 0.0101142805 0.025364608
000180 87 e7 90 bd e4 b2 c6 3c 14 c0 c1 bc 52 ce 2f bd
       -0.0707541 0.024255224 -0.02365116 -0.04292137
000190 68 c7 8e 3d 67 9f 6f bf 37 2f 98 3c 81 8b 56 3e
       0.069716275 -0.93602604 0.018577201 0.20951654
0001a0 2f eb 87 ba 0f 4f 81 bd 11 e6 05 3d 1c 0e 60 3c
       -0.0010369773 -0.06313907 0.03269011 0.013675239
0001b0 8a 22 25 3f be 31 31 3c 3d c3 6b 3a 1f d8 d3 3d
       0.6450583 0.010815082 0.00089936313 0.10343956
0001c0 b2 84 2d 3e 53 40 44 3f 1d 1b f3 3e 8a e1 81 3c
       0.1694515 0.7666065 0.47481623 0.015854616
0001d0 ac e2 68 3e c5 03 a4 3b 01 02 99 bd a5 92 b2 bc
       0.22742718 0.005005332 -0.07471085 -0.021798441
0001e0 0d f9 18 3e a2 95 cb bc 81 ea b4 ba 21 4e 4f 3e
       0.14938755 -0.024851624 -0.0013802798 0.20244648
0001f0 e8 b5 3b 3e 4e ba 6f c0 b5 ad 2e 3c 7f ab 54 bf
       0.1833111 -3.7457461 0.010661532 -0.8307418
000200 a1 d0 7f be fc e4 16 3e 39 a1 58 3d 66 04 86 3c
       -0.2498193 0.14735788 0.05288813 0.01635952
000210 91 96 f5 bd 1b 9b a3 3d a6 58 d5 bc e2 65 8c bf
       -0.11991609 0.079885684 -0.026043247 -1.0968592
000220 49 0d 6e bb 48 2e 9a bf ca f3 2f 3d fc a9 68 be
       -0.0036323837 -1.2045374 0.042957105 -0.22721094
000230 ed 00 8c 3d 77 2b f7 bd 38 4c 01 3f ee 5c 36 3e
       0.06836114 -0.12068837 0.50506926 0.17808887
000240 84 52 2d bc 2d 33 3c bc 29 e2 c8 bc f8 f4 45 bc
       -0.010578755 -0.011486811 -0.024521904 -0.012082331
000250 09 15 d0 bc 16 15 60 bc f0 99 63 bf b3 b3 93 be
       -0.025400655 -0.013676902 -0.88906765 -0.28848037
000260 cf f5 9e 3c b3 73 c2 bc 63 5d 5c 3c 20 65 49 bd
       0.01940432 -0.02373681 0.0134499995 -0.049168706
000270 ae ff 53 3b 83 17 85 3d e2 8a d4 bd ca fd ee bc
       0.0032348442 0.06498625 -0.10378052 -0.02917375
000280 ea 0e 4f bc c7 79 02 3b 2e 24 5d bd 5a 0e b4 3b
       -0.012637833 0.001990901 -0.05398958 0.005494875
000290 a3 26 02 bd 82 0e 00 3e bd 87 b3 bd ff 98 b0 3d
       -0.031775128 0.12505534 -0.087661244 0.08622932
0002a0 7b 4c 69 bf 11 0c af bc 49 ec c0 3a 98 cf 4d 3d
       -0.91132325 -0.021368058 0.0014718856 0.050246805
0002b0 5b d8 a6 bd 9e 61 52 3e a5 dc ad bf 27 0e 82 3c
       -0.08146735 0.2054505 -1.358296 0.015875889
0002c0 c7 46 3f bd 10 25 16 bc 88 1f 1b bc 3e 14 9a bc
       -0.046698358 -0.00916411 -0.009467967 -0.01880848
0002d0 13 f0 98 bc 25 e6 76 3e e1 9b 52 bd 5a 6f 84 3e
       -0.018669164 0.2411123 -0.05141819 0.25866205
0002e0 c3 53 a8 3d cb fe 58 3c 75 dd 5d 3c 60 a9 8d 3d
       0.08219101 0.013244341 0.013541569 0.06917071
0002f0 54 2f a3 bd d5 89 cc bb 64 71 1c bf 95 0b ea 3c
       -0.079680115 -0.006242017 -0.6111052 0.028569976
000300 2a 78 e9 be 5b e6 47 be 88 bd 8c bf 77 db 7b bc
       -0.4559949 -0.19521467 -1.099534 -0.015372149
000310 58 20 95 3c 7b aa bb bc ff 00 94 bc d1 ec 15 be
       0.0182039 -0.02290844 -0.018066881 -0.1464112
000320 14 ac 18 3d 16 8b 2f 3d 80 67 d6 bd c4 83 66 bd
       0.03727348 0.042857252 -0.1046896 -0.056278005
000330 37 de 2a 3d c2 23 ec bb 33 8e 55 bd 3b 28 b6 3b
       0.041715827 -0.007206411 -0.052137565 0.005558995
000340 1e 9b ab 3d db 5e a0 bc 43 4c 51 bf a2 63 ce bc
       0.08379196 -0.01957648 -0.8175699 -0.025193993
000350 a3 c4 43 bd f7 47 9f 3a 96 fa 50 bd 42 00 21 bd
       -0.04779495 0.0012152184 -0.051020227 -0.039306886
000360 2f af d5 3c c1 7d b5 bc 29 5f d8 3c c8 46 8d 3e
       0.02608451 -0.02215469 0.026412563 0.27593064
000370 37 d5 2c 3e 77 57 13 3c 78 e5 79 3d ad 3e 20 bd
       0.1687821 0.008993021 0.061009854 -0.039122272
000380 1d 35 a3 3d bc 81 27 bd cf 23 21 3c bc 2d 15 c0
       0.07969115 -0.04089521 0.009835198 -2.3309164
000390 8a 3f cf bb 11 ce d1 3d ee 0b 65 3d 21 44 d8 bc
       -0.006324713 0.10244382 0.05591958 -0.026399674
0003a0 e6 09 18 c0 6d 05 24 bd 1b a7 5c bc 23 99 9c 3d
       -2.3756042 -0.040044237 -0.013467575 0.07646396
0003b0 b1 9e 50 3d bd ff bd 3e 39 f5 9e bd 20 a4 ed 3d
       0.05093259 0.37109175 -0.07761616 0.1160357
0003c0 b6 c0 40 bd 51 3d 4b 3c a0 1b 3b be ca 6f 01 3f
       -0.047058783 0.012404756 -0.18272257 0.505612
0003d0 53 17 b0 bd 23 40 e4 3c e8 6c 39 bd f0 1c aa be
       -0.08598199 0.027862614 -0.045269877 -0.33225203
0003e0 80 b3 a3 3e b0 72 51 bd d3 3c 3a be 1a d8 25 c0
       0.31972885 -0.051134765 -0.18187265 -2.5913148
0003f0 e3 ab ab 3c 2f 52 3d 3d 87 4c ec bc 99 a9 de bd
       0.020955985 0.046220955 -0.028845085 -0.10872192

layers.6.bias f4 [128]
000000 2e 08 28 bf 66 4b 09 be ed d1 be bc b0 a6 69 bd
       -0.6563748 -0.13407668 -0.02329346 -0.05704373
000010 2b be 88 bd 0d 5a d2 be 39 ab 12 be f6 1b ad bf
       -0.06676897 -0.41084328 -0.14323129 -1.3524158
000020 b4 77 0c be 9d bb 11 3f 18 28 1f c0 c5 16 b4 bd
       -0.13717538 0.569269 -2.4868221 -0.087934054
000030 8c 55 87 bf 2b b7 cc bd 2a 7c 9d bd 44 38 d5 bd
       -1.0572982 -0.09995874 -0.07689698 -0.104111224
000040 fb ec 1c be c4 16 39 be ae f8 1d be 27 6e a3 bd
       -0.15324776 -0.1807509 -0.15426895 -0.07979994
000050 eb 66 ac bd cb 8c e0 bf 8f 6b 79 bd 10 35 5e 3d
       -0.084180675 -1.7542967 -0.06089359 0.054249823
000060 32 ce 42 be 08 4c ef bd ea 71 c9 bd 82 5b 88 bd
       -0.1902397 -0.11684424 -0.098361805 -0.06658079
000070 a3 f4 ca bd 2b cd df bd 37 d7 4f 3f a8 d1 8e bd
       -0.09909942 -0.109278046 0.81187767 -0.069735825
000080 d0 5d 9a bd 48 be ef be 0c a3 22 3e ca 08 11 c0
       -0.075374246 -0.4682486 0.1588251 -2.2661614
000090 20 a5 7e 3e 01 8b ac bd 8f 26 04 bd 60 f6 87 bd
       0.24867678 -0.084249504 -0.032263335 -0.06638789
0000a0 61 2e 56 bd b4 77 51 bf d8 45 6f bf 7a 20 88 3e
       -0.052290324 -0.8182328 -0.9346595 0.26587278
0000b0 79 60 ca 3e 61 61 a3 3e b5 11 59 be bf 28 e0 3e
       0.39526728 0.31910232 -0.21198161 0.43781087
0000c0 27 11 3c 3f fe 56 1d bd 5f fe 28 be d5 48 9a bf
       0.7346367 -0.03841304 -0.16503285 -1.2053477
0000d0 97 81 16 be 98 d3 7e bd c7 46 1f bd d0 60 91 3f
       -0.14697872 -0.06221351 -0.038885858 1.135767
0000e0 8f 25 07 be bd 94 9c bf d6 17 10 be 0e 81 03 bf
       -0.13197921 -1.2232891 -0.14071593 -0.51368797
0000f0 f9 7b ae bd 91 de 7f 3f 9d 5e 06 be 9c d3 ec bd
       -0.0851974 0.99948984 -0.1312203 -0.11563799
000100 dd d9 91 bd 7a 6f 4c bf 3d 4c c0 be b9 24 13 bd
       -0.07121632 -0.798576 -0.37558165 -0.035923693
000110 a1 a3 f7 bd 11 a9 26 3f 2c ea 73 bd c4 4b 03 be
       -0.120917566 0.65101725 -0.059549496 -0.12821871
000120 96 b2 00 3f f3 3b 86 bf 7f b5 15 be 11 67 19 be
       0.502725 -1.0487045 -0.14620017 -0.14980723
000130 6d 73 ad 3e 76 b1 1f c0 c3 9a 5f bd 4c 50 32 be
       0.33877125 -2.4952064 -0.05459095 -0.17413443
000140 51 2a 7d be 23 ce 36 bd 90 41 64 bf 4e 16 fc bd
       -0.24723174 -0.04463018 -0.8916254 -0.12308942
000150 57 09 5a bd c8 50 e2 bd ea f2 38 bf 62 27 d6 bf
       -0.053231563 -0.11050564 -0.7224566 -1.6730769
000160 25 88 60 3e 52 0d 49 be a6 09 19 bf ab 39 b5 bd
       0.21926935 -0.19633988 -0.5978035 -0.0884889
000170 cd e6 cb bd ec ff 62 bd 87 74 07 be 44 ab 23 be
       -0.09956131 -0.055419847 -0.13228045 -0.15983301
000180 63 e9 e6 bd 2f d6 ed bf a3 a2 a0 be 8e b8 81 bd
       -0.11274984 -1.8580989 -0.31374082 -0.06334029
000190 4d 71 07 be 61 3f 03 bd b1 88 ff bd 12 ed 9e bf
       -0.13226815 -0.032042865 -0.12477244 -1.2416098
0001a0 de a1 a2 bf dc 4d f9 bf 2f 63 13 be f4 53 06 40
       -1.2705648 -1.9476886 -0.14393304 2.098874
0001b0 69 4f e9 bd 43 a3 a2 3d c5 5b 15 be 3f ff 8f 3e
       -0.113920994 0.07941296 -0.14585789 0.28124425
0001c0 28 04 49 bf 68 ff ff bd d3 ce 7b bd d3 b4 0e be
       -0.78521967 -0.12499887 -0.06147654 -0.13936166
0001d0 e8 d7 ba bf fe 91 a8 bd e6 14 c0 be 32 b4 ea bd
       -1.4597139 -0.08230971 -0.37515944 -0.11460151
0001e0 48 9a 10 be e3 b9 a3 bf 3c 21 8f bf c6 cc 02 be
       -0.14121354 -1.2791103 -1.1182017 -0.12773427
0001f0 87 c0 d3 bd d4 a3 20 3f 60 b6 12 be c1 fa 1f bf
       -0.10339456 0.6274998 -0.14327383 -0.62491995
