Simulation/saved_data/models/model_mzm_mzm_pm_attempt_100k8x128_256_128_11.pth (torch, 541484 bytes, 10 tensors)

layers.0.weight f4 [128, 8]
000000 c5 89 b9 bc d6 ea 86 3f 4b 20 c4 3e 39 71 cf bb
       -0.022648701 1.0540416 0.38305888 -0.006330636
000010 62 78 5c 3c 4e 07 db bb c9 27 17 bd 42 7d 8a 3c
       0.013456436 -0.0066842204 -0.036903176 0.01690543
000020 ac e5 d2 3e c8 14 8f bf 17 76 25 3e de 0d 85 bc
       0.4119085 -1.1178217 0.16158329 -0.016241964
000030 0b ac ad 3c e2 df 76 bb bf c8 17 3c 3f a3 af bc
       0.0212002 -0.0037670066 0.00926417 -0.021440146
000040 f1 f0 b4 bd 98 41 31 bf 12 f2 fd 3e c5 6f c9 3e
       -0.088350184 -0.69240713 0.49598747 0.39343086
000050 20 77 0b be 89 e5 d2 be b1 d8 69 bf ff 86 01 bd
       -0.13619661 -0.41190746 -0.9134627 -0.031622883
000060 b9 28 39 3f 3c d4 02 bf d4 a2 b1 bf b2 ed 97 bf
       0.7232776 -0.51105094 -1.3877816 -1.1869414
000070 f4 8d 29 3f 7f a7 93 be 2a 13 4f be ef a0 09 bf
       0.6623223 -0.28838727 -0.20222154 -0.5376119
000080 d0 2a 90 bd 2e b5 bb 3d e1 b4 94 be b2 47 13 be
       -0.07039416 0.09165417 -0.2904425 -0.14382818
000090 fc 9a e9 bd 2d ea 64 be 3f f8 a7 be 96 eb 54 be
       -0.11406514 -0.22354956 -0.32806584 -0.20792994
0000a0 c0 e0 7f 3e 45 dc fa bf 89 a2 11 3f 89 d6 57 c0
       0.24988079 -1.9598471 0.56888634 -3.3724692
0000b0 b2 de 17 bf f7 b9 2d 3f a3 e3 91 3d f9 80 04 bf
       -0.5932418 0.67861885 0.071234964 -0.51759297
0000c0 59 57 7d bf 7d 10 1c bf ad 3e ec c0 16 78 6a 3e
       -0.98961407 -0.6096266 -7.382651 0.22897372
0000d0 4e 38 41 be 0a 9d 53 be c8 62 5c 3c 20 52 27 3f
       -0.18869135 -0.20665374 0.013451286 0.6535969
0000e0 d1 12 7c 3e 7e 09 9a 3e 47 62 15 c0 63 ce b1 3e
       0.24616553 0.30085367 -2.3341234 0.34727773
0000f0 43 8f d2 bf 66 6d 37 be 1e 03 97 be a3 d1 24 bf
       -1.644997 -0.17912826 -0.29494566 -0.6438238
000100 99 a5 b2 3e 65 06 bb 3e 3c 4b 7b 3f 42 66 5c be
       0.34891966 0.36528316 0.98161674 -0.21523383
000110 2d 3b aa 3d 20 cd a3 3c 1c 84 53 bd 97 11 06 be
       0.08312068 0.019995272 -0.05163966 -0.13092647
000120 2f e9 7e 3d 0a c7 b3 39 c0 0e e4 bb 96 ba 6d 3f
       0.0622341 0.00034289836 -0.006959766 0.9286283
000130 02 7a 76 bb da 5c 6e bf ac e9 2c bb 27 43 8a 3a
       -0.0037609343 -0.9311043 -0.0026384396 0.0010548577
000140 b7 af b7 be e7 d6 f8 bd 96 55 94 3f 1b ec ab 3a
       -0.35876247 -0.12150364 1.1588619 0.001311663
000150 4b 4d 33 bc bc 4a 44 bc 10 e4 45 bd 44 50 23 39
       -0.010943721 -0.011980709 -0.0483132 0.00015574793
000160 f9 19 3b 3d 99 b4 04 bd 55 35 2c 3d 71 0b 78 bf
       0.045679066 -0.032398794 0.04204305 -0.9689246
000170 20 7b f1 bb 45 4e 76 3f 7b ed 4d 3a bd 2f 82 bb
       -0.007369414 0.9621318 0.0007855517 -0.003972976
000180 f0 d1 b7 bf e7 0d 33 3e 0a 59 a8 be a1 44 88 be
       -1.4360943 0.17485772 -0.3288043 -0.2661486
000190 cd cd 8a be 14 4a 7c bf 0b 22 20 bf 9c 02 84 3e
       -0.2711014 -0.98550534 -0.62551945 0.2578324
0001a0 2d f5 35 be b5 dd 2f 3f d3 ff 5c be bb 86 f1 bc
       -0.17769308 0.68697673 -0.21581964 -0.02948319
0001b0 19 85 6f bd 38 32 8a 3c ef 6d 3e 3a ad d2 d6 3e
       -0.05847654 0.01686965 0.0007264306 0.41957608
0001c0 c1 cb 59 be d7 52 27 3f ad 4a ce 3e 73 de c8 be
       -0.21269132 0.6536078 0.40291348 -0.39232215
0001d0 96 c3 44 bf 7d 70 11 c0 c6 88 f3 3d 61 81 17 3d
       -0.7686094 -2.2724907 0.11891322 0.03698862
0001e0 0b a2 2e 3f 0a 24 32 bf b4 99 bd bf 4a ca 8b 3c
       0.6821601 -0.6958624 -1.4812531 0.017064232
0001f0 3c eb 70 3d b6 0f f4 3c 9c 4f 99 bd d1 99 92 3c
       0.058818087 0.029792648 -0.074858874 0.017895611
000200 f1 fc 1c 3f 70 93 7e be 26 f1 86 be e7 63 b3 bc
       0.6132346 -0.2486093 -0.26355857 -0.021898223
000210 02 3e ed bc 36 a5 ce 3d d0 74 45 bf 02 25 88 3c
       -0.028960232 0.10090105 -0.77131367 0.01661921
000220 c0 b1 e4 bc d3 1f 88 3f 14 e8 e4 be 60 9b 03 bc
       -0.027916789 1.0634712 -0.44708312 -0.00803265
000230 e4 f0 16 be b2 c8 14 3e 28 93 b4 bc 27 91 fb be
       -0.1474033 0.14529684 -0.022042826 -0.4913418
000240 ca ba a7 3c e7 f8 0e 3e 24 67 be bf 97 96 d2 bf
       0.02047481 0.13962136 -1.4875226 -1.6452206
000250 ef 34 c7 3f 78 38 e4 3c 25 a0 06 bd 99 7e 87 bc
       1.5563029 0.027858958 -0.03286757 -0.016539859
000260 45 f3 b9 bc 0a 6d 84 be 23 1b 90 3c 76 3d 87 bc
       -0.022699008 -0.2586444 0.017591065 -0.016508799
000270 3f c0 21 bf e4 27 26 3f 2d 58 db 3b a8 e7 01 3c
       -0.6318397 0.6490462 0.006693861 0.007928766
000280 fa 60 08 bf e0 56 47 3f c0 36 93 c0 14 1f 12 3f
       -0.53272974 0.77866936 -4.6004333 0.5707867
000290 6d 33 4b bd df b0 55 bf d9 2d 91 3e 61 0a a9 bf
       -0.04960959 -0.8347301 0.2835529 -1.3206292
0002a0 29 f2 06 3f f6 97 18 3e 83 1a db bf 4d f8 33 3d
       0.5271326 0.14901718 -1.7117466 0.04393797
0002b0 77 a4 17 3d 2b e5 29 be 8a c4 02 c0 f2 b5 d0 3d
       0.03702208 -0.16591327 -2.0432458 0.10190953
0002c0 f7 06 51 bc 9b b0 0e bc 0b eb f2 3b 40 2d 18 bb
       -0.012758008 -0.008709098 0.007413273 -0.002322033
0002d0 2a b7 95 3b 68 07 a7 bb cd 59 03 3b cd 62 e4 bf
       0.004568954 -0.0050973184 0.002004254 -1.7842652
0002e0 55 a8 48 bd f8 28 d1 be 64 e2 9a be 8b 9c 86 3c
       -0.04898866 -0.4085157 -0.30250847 0.016432067
0002f0 09 6b ac bc ae cc a4 ba 62 08 e6 3b 60 59 1c 3d
       -0.021047132 -0.0012573206 0.0070200423 0.038171172
000300 45 4e 81 bf 51 20 1a 3f 59 6a 44 bf a8 f4 66 bf
       -1.0102011 0.6020556 -0.76724774 -0.90217066
000310 ef f4 34 3f a5 fd 04 c0 55 58 8d be aa 60 6c be
       0.7068624 -2.0779812 -0.27606454 -0.2308375
000320 46 94 1f bf 19 e7 84 bd 13 7b 6d 3d 09 09 93 3e
       -0.6233562 -0.06489391 0.0579787 0.2871783
000330 ff 05 2e bc 88 61 97 be 8c 6e 92 3d fd a1 59 3c
       -0.010621547 -0.29566598 0.071499914 0.01328325
000340 73 3c 80 bf d4 76 19 3f eb 14 8b bf 45 d2 96 bd
       -1.0018448 0.5994694 -1.0865759 -0.073643245
000350 19 bf e7 3e d3 f8 13 bd ec 34 18 bf 99 4c e6 bd
       0.45262983 -0.03612597 -0.5945575 -0.112450786
000360 4a 2a b6 bc 2d ab f5 bf 43 72 4c bf ab 3c b2 bf
       -0.022236962 -1.9192864 -0.7986185 -1.3924764
000370 df da 41 be c7 70 f4 bd 3e ba 0d 3f 1d b3 40 be
       -0.18931149 -0.11935573 0.5536231 -0.18818326
000380 a6 f9 79 3f 24 68 f5 bc 36 c9 42 3d c3 43 a0 bb
       0.9764656 -0.029956885 0.04755517 -0.0048908903
000390 ff ce 06 bc 1a 62 1d 3b 20 61 55 3c 1e d7 4a bb
       -0.008228063 0.0024014772 0.013023645 -0.0030950974
0003a0 40 94 c5 bf 6b b8 f0 3e 06 72 9b c0 5f a8 1e bf
       -1.5435867 0.470157 -4.857669 -0.61975664
0003b0 e8 7a f3 be 3a 43 04 bf f4 2f 30 3f c2 b7 29 bd
       -0.47554708 -0.5166508 0.6882317 -0.04143501
0003c0 5e b4 dd bb ca 2f 44 bb c8 01 4f bb dd 0d 3b bb
       -0.006765886 -0.002993571 -0.0031586755 -0.0028542199
0003d0 a6 7d 05 bf d0 6f 07 3f e3 6e 35 3b d4 fc 65 bf
       -0.5214485 0.5290499 0.0027684502 -0.8983891
0003e0 31 60 1d bf 02 d1 1e bf a4 c0 83 c0 34 6d a0 3f
       -0.614749 -0.6203767 -4.1172657 1.2533326
0003f0 4c 99 a6 bf 03 e4 e6 3d 7e 81 d8 be 23 42 01 be
       -1.3015532 0.112739585 -0.42286295 -0.12622885

layers.0.bias f4 [128]
000000 55 40 8e c0 52 22 0c 3d 86 bb 03 be 7f 93 fa be
       -4.445353 0.034212418 -0.12864503 -0.48940656
000010 df 72 91 3d b3 33 c0 bf 50 6e c7 3f 3a 6b 1c 40
       0.07101988 -1.5015777 1.558054 2.4440446
000020 de 80 bc c0 b2 a2 e2 be b4 de 5e c0 bc f9 de bf
       -5.890731 -0.44264752 -3.4823427 -1.7419963
000030 a6 eb 38 40 13 a5 77 c0 26 03 d4 bf 0c a4 f0 3e
       2.8893828 -3.8694503 -1.6563461 0.47000158
000040 c8 b5 8b 3e 58 8c 0f c0 18 7f a4 c0 38 8a a8 bf
       0.27287126 -2.242941 -5.1405144 -1.3167181
000050 b0 8f 43 bf eb 63 8c 3f 28 3c 61 40 5e 08 2b 40
       -0.76391125 1.0967993 3.5192966 2.6723857
000060 b1 9b a0 3e 29 08 e1 3e b8 5a b4 3e 17 9d 8f 3f
       0.31368783 0.43951538 0.35225463 1.1219815
000070 31 6b 2c c0 88 42 25 3f 54 e6 da 3f 18 18 2f 3f
       -2.6940424 0.64554644 1.710154 0.6839614
000080 ed f1 46 40 2d ba 3c c0 56 56 03 40 f2 f9 3d 3f
       3.108516 -2.9488633 2.0521445 0.7420951
000090 00 46 ed be 2d 53 bd be 46 6a f7 c0 0f 38 4c 40
       -0.46342468 -0.3697752 -7.731723 3.1909215
0000a0 ac 8b 79 c0 dd 69 fe bf 10 2e cd 3f 7f da 33 be
       -3.89915 -1.9876057 1.6029682 -0.17563818
0000b0 45 e9 84 3e 05 51 63 40 55 85 60 c0 75 77 35 3f
       0.2595922 3.55182 -3.508138 0.708854
0000c0 27 80 aa c0 b6 20 1c 40 43 85 13 40 71 b8 8d 3f
       -5.3281436 2.4394965 2.3050086 1.1071912
0000d0 5c ef 01 c0 5c fe 69 c0 70 ed 8a 3f 70 42 e2 c0
       -2.0302343 -3.6561499 1.085371 -7.07061
0000e0 c0 98 28 3f 19 28 73 bf bd 09 5c 40 a8 15 15 40
       0.6585808 -0.9498306 3.4380944 2.3294468
0000f0 71 4f 36 be 67 41 0a bf ab b5 08 3f 0e 0b 43 40
       -0.17803742 -0.54006046 0.53402203 3.0475497
000100 e0 06 fb c0 58 7a 9c bf 08 88 aa bf 2a ab 5f 3f
       -7.844589 -1.2224836 -1.3322763 0.8737055
000110 b3 ad 70 c0 40 69 6d 3e 1b 11 ad 3f f1 79 82 3f
       -3.7606018 0.23184681 1.3520845 1.0193464
000120 7f 83 2e 40 fa 79 5c 40 fd ae 62 40 e0 9c a3 3f
       2.726776 3.4449449 3.5419304 1.278225
000130 c3 ec 83 3f 2a 3d 4b c0 a6 36 75 40 81 54 fd c0
       1.0306629 -3.1756082 3.8314605 -7.9165654
000140 ff 5b 03 40 88 96 b6 3f ea 43 8b be f1 ed 11 40
       2.05249 1.4264688 -0.27200252 2.2801478
000150 07 dc 34 c0 a9 cf d8 3f ac 2e b0 c0 e3 24 f2 3f
       -2.8259294 1.6938373 -5.5056973 1.8917507
000160 6c b6 05 40 7f 3f f1 c0 c0 75 86 be dc 6e 99 be
       2.0892591 -7.539001 -0.2626171 -0.29967391
000170 98 a4 de be db 92 97 be f2 e5 47 c0 11 eb 81 be
       -0.4348495 -0.2960423 -3.1234097 -0.25374654
000180 1b 6b c1 3f 34 7d eb 3f 15 4f af c0 9f e8 bc be
       1.5110811 1.8397584 -5.4784036 -0.36896226
000190 0c 30 15 40 f3 9a f3 be e1 72 03 c0 4e ae a1 3f
       2.3310575 -0.47579154 -2.0538867 1.2631319
0001a0 c4 fe b0 3f b9 16 97 3f c1 7e cd c0 5a 86 90 3f
       1.3827748 1.180381 -6.421723 1.1291001
0001b0 00 da 6e 40 18 5e 1f 3e 4d 1e ad 3f 1e 2f 85 bf
       3.7320557 0.15563238 1.3524872 -1.0405004
0001c0 38 20 3d c0 e7 c1 cb 3f 8f 61 a1 bf 5e 87 7a c0
       -2.9550915 1.5918549 -1.2607898 -3.9145122
0001d0 36 95 65 bf b8 32 a7 3f 15 e1 1b c0 a3 27 10 3f
       -0.896808 1.3062353 -2.435613 0.5631048
0001e0 8e a1 69 40 7d 9c 89 c0 4d 7b 6f bf cc 68 43 bf
       3.6504855 -4.3003526 -0.9354752 -0.7633178
0001f0 8a 59 88 c0 9d 9f 80 c0 8f 5d 86 bf 0f eb ac c0
       -4.26093 -4.019484 -1.0497302 -5.4036937

layers.2.weight f4 [256, 128]
000000 ab ce 17 be e0 8a 5b 3b c4 97 8d 3c db 37 cd 3b
       -0.14824931 0.0033499524 0.017284282 0.006262762
000010 be e8 61 3d a1 02 8e bb db 57 60 3d 36 8e 0b bd
       0.0551536 -0.0043338095 0.054771286 -0.03407117
000020 88 90 c3 bd 0a 50 1c bc 72 ad 9b 3d 79 f5 d9 bb
       -0.095490515 -0.009540567 0.076014414 -0.006651577
000030 ee 17 50 3d 10 bd 35 bb 8e c3 80 bd 55 b6 8b bd
       0.05080407 -0.0027731098 -0.06287299 -0.068218865
000040 cf f7 23 3d c4 bb 83 bd ab ce 6a 3c 95 b2 ce bd
       0.04003125 -0.06432298 0.0143315 -0.100926556
000050 76 c2 91 bd 4e 5d 30 bc fe 1c b6 3d 6e fa d1 bd
       -0.071171686 -0.010764433 0.088922486 -0.10252844
000060 79 1a 47 3d 90 94 fc 3c a4 59 48 bd fc 8e c8 3d
       0.04860923 0.030832559 -0.048913613 0.09792897
000070 b0 14 5a 3c 26 ac 34 bd b4 bd a9 3c d6 40 c0 b9
       0.013310596 -0.044109486 0.02072034 -0.000366694
000080 aa 26 b4 bd c4 1d 6e bd 26 0e 2e be 50 b5 0a bd
       -0.08796437 -0.058133855 -0.16997585 -0.03386432
000090 3f 16 78 bd a7 1f e2 bc 3c 5d 8c bd 90 7b 24 3e
       -0.06056809 -0.027602984 -0.068537205 0.1606276
0000a0 7c a9 cf bd 06 ce fb bc ee 7d 96 3c 65 a4 4a bd
       -0.101397485 -0.030737888 0.018370595 -0.049473185
0000b0 fa 41 d6 be 11 38 5a bc e8 9c 25 bd c3 6f 5f 3d
       -0.4184721 -0.013319031 -0.04043284 0.054549944
0000c0 35 e8 17 be 92 d8 51 bd b1 b5 2a bd 15 0b a7 3d
       -0.14834674 -0.05123193 -0.04167718 0.081564106
0000d0 19 62 31 bd 4b c0 c3 bd 10 18 ca bd 6d c7 66 bd
       -0.043306444 -0.09558161 -0.09867871 -0.05634253
0000e0 a2 2c 0f 3d e5 ee 10 bc d6 b1 0e be a6 2e dc bd
       0.034954675 -0.008846019 -0.13935027 -0.10751085
0000f0 41 f5 f2 3c 47 af 1f 3e b0 d0 d8 bd cc 61 ab bd
       0.029657962 0.15594207 -0.10586679 -0.08368263
000100 e4 f9 c5 bd 34 72 a9 bb da 05 25 bb ad bc 92 bd
       -0.096668035 -0.005171085 -0.002518049 -0.07164893
000110 47 84 e5 bd 4a d2 85 bd 72 06 48 3d f7 23 8c bd
       -0.112068705 -0.0653425 0.04883427 -0.06842797
000120 d3 87 93 bd 88 12 b9 bc 97 7a 4b bd cd 1f 00 be
       -0.07203641 -0.022591844 -0.049677458 -0.12512131
000130 27 cd 94 3c 78 f4 7e 3d f4 d0 a3 3d ea 65 f8 bd
       0.01816423 0.062244862 0.07998839 -0.121288136
000140 ee 08 0d 3d fb dc 3b 3d 83 0e de bd d5 78 1d 3e
       0.034432344 0.04586504 -0.10842612 0.15378125
000150 6f a3 a0 bc f7 28 1b bd e2 15 14 be a2 a1 28 3d
       -0.019609181 -0.037880864 -0.14461473 0.04116977
000160 3f 70 d5 bd f4 98 96 3c ff 81 d4 bc 83 ac 39 bd
       -0.104218 0.01838348 -0.025940893 -0.045330536
000170 4e 72 07 3d bb ae e0 3b 14 b5 3c bd 7a 0c 86 3d
       0.033067994 0.006856767 -0.046071127 0.065453485
000180 2e e5 16 3d fd 1b 06 bd 07 25 a6 bd 2a 55 15 be
       0.036839657 -0.032741535 -0.08112531 -0.14583269
000190 77 00 03 bd 91 a7 8c 3c db ce 84 bd dc df 2a 3d
       -0.031982865 0.017169746 -0.06484767 0.041717395
0001a0 64 1b 85 3d 99 d4 37 be 78 43 19 3d e0 a7 82 3b
       0.06499365 -0.17952193 0.03741786 0.0039872974
0001b0 a2 36 4c 3c 2d 12 bb bd c1 c9 7b 3d 7e 10 2e bd
       0.012464197 -0.09134326 0.061471704 -0.042496197
0001c0 a2 a4 55 bd df b9 fc bc 62 a3 a2 bd 1d 3a ca bc
       -0.05215896 -0.030850349 -0.07941319 -0.024685914
0001d0 1d 28 b1 bd fc 84 a5 ba c9 da d5 bd b9 8f d1 bd
       -0.08650229 -0.0012628133 -0.104421206 -0.10232491
0001e0 c7 5c ed bd 04 8e f7 bd 6e 20 b7 bd e6 0e 40 3d
       -0.115899615 -0.12087634 -0.08941732 0.04688921
0001f0 5e 0e 6e be 90 41 8c bc 57 23 f3 bd 2e 1c fd 3b
       -0.23247668 -0.017121106 -0.11871975 0.0077243065
000200 7c f8 fb bd 21 7f 1f be a8 8f 2a bd f4 5f 23 bd
       -0.12303254 -0.1557584 -0.041640908 -0.03988643
000210 3f 03 86 bc a0 de bc 3d 06 6a 2d be 52 83 ac bc
       -0.01635897 0.0922215 -0.16934976 -0.021058712
000220 41 bc 4d 3d 10 c9 82 bc 4e 13 8d 3c b7 ae 0e bd
       0.05022836 -0.015965015 0.01722112 -0.03483459
000230 65 f1 2c 3c 6e d7 d6 bd 22 81 4e bd a2 77 d1 bc
       0.0105556 -0.10490309 -0.05041612 -0.02556974
000240 ba 58 5d bc ac 7c 0a be 80 10 79 3c ba 69 ad bd
       -0.013509924 -0.13524121 0.015201688 -0.08467431
000250 bc 80 99 3c 6d 03 8a bc 83 0b a5 be fe ac d7 bd
       0.018738143 -0.016847337 -0.32235345 -0.105310425
000260 0a 82 1f 3e 51 d2 3a bd f2 8b 35 be d7 36 68 3c
       0.1557695 -0.04561073 -0.17729166 0.014173231
000270 7c d1 20 bd f6 7f b2 bd 82 a5 0c be b6 91 06 be
       -0.03926228 -0.08715813 -0.13735011 -0.13141522
000280 98 9c 05 be ec c3 ba bd 49 8a d1 bd 83 11 15 3c
       -0.13048017 -0.091194004 -0.10231454 0.009098413
000290 a5 3c d9 bd e0 1b bf 3c 94 e2 25 3d 33 b1 fc bd
       -0.1060727 0.023328722 0.040499285 -0.123384856
0002a0 b5 47 c6 bd 59 ed 9a bc 08 e4 4e bd b7 77 0e be
       -0.09681646 -0.018912004 -0.050510436 -0.13912855
0002b0 4b 4c 93 3d ed 47 ce bd 86 5f d1 bc 9e 5f 24 3d
       0.07192286 -0.100723125 -0.025558244 0.04013025
0002c0 61 22 5b bd bd ba 56 be 21 77 49 3b 20 33 4c bd
       -0.053499583 -0.20969673 0.0030741172 -0.049853444
0002d0 95 77 2e be 72 f6 aa bd 7d 11 05 3c c3 e1 0e bc
       -0.17037804 -0.08347787 0.008121845 -0.008720818
0002e0 79 a9 ad 3c 50 98 b4 3d a2 ce 50 3d ed e5 48 be
       0.021198975 0.08818114 0.05097831 -0.1961896
0002f0 94 8b 3d 3d 85 a4 76 3d aa bb 86 b8 62 e7 17 be
       0.04627569 0.06021549 -6.424573e-05 -0.1483436
000300 a5 4d 00 3d 94 e3 ea bd e8 17 9e bc 0a ab 1b bc
       0.031324048 -0.11469188 -0.019298509 -0.009501228
000310 f6 c4 03 3d 7c 7e 4b bd ea f2 6c bd 0d 5a fe bd
       0.03217026 -0.04968117 -0.05784885 -0.124195196
000320 ec 76 7f bc 91 72 03 be 69 75 bf bc ad 5a ac bd
       -0.015592318 -0.12836672 -0.023371415 -0.084157325
000330 b8 a8 2e 3c b7 16 ed bd 57 74 86 bd a6 c2 4c 3d
       0.010660343 -0.11576598 -0.06565159 0.04999032
000340 c3 87 58 bd 39 fa 3f 3d 2b d1 0f bd 16 fc 16 3e
       -0.052863847 0.04686949 -0.035111587 0.147446
000350 42 8b 16 be 7d 58 be 3c ae 34 88 bd 17 a5 f6 3c
       -0.1470156 0.023235554 -0.06650673 0.030108018
000360 6e bf 01 bd 84 e5 1b 3d 12 91 0a bd e4 87 56 bd
       -0.031676702 0.03806068 -0.033829756 -0.05237569
000370 0d b3 02 be ce 68 8a bd 6a e5 1c be 2a d1 4c bc
       -0.12763615 -0.06758271 -0.1532189 -0.0125010405
000380 dc 76 16 3d 8d c7 9d bd 04 ff 94 bd cd f0 3c be
       0.036734447 -0.07704077 -0.07275203 -0.18451233
000390 ce 87 51 3d b8 5e 80 bd 4f 2c 01 3d c8 99 82 bd
       0.051154904 -0.06268066 0.031536397 -0.06376988
0003a0 a4 14 b5 bd 0c 6f 63 3c 8b d2 b7 bd d2 ca 49 bd
       -0.088418275 0.013881456 -0.08975705 -0.04926569
0003b0 9b 23 39 bd 83 08 41 bd e3 d5 4c 3d 81 dc cd bd
       -0.04519997 -0.047127258 0.050008666 -0.100518234
0003c0 bc df ef bc f1 ec ff bd 5b 6c 83 bd 71 a1 11 be
       -0.02928149 -0.12496365 -0.064171515 -0.14221741
0003d0 9c 58 30 3d 4d 7c 72 3c ea a9 9b bd 18 a9 7d 3b
       0.043053254 0.014800143 -0.07600768 0.0038705524
0003e0 16 cd 40 bd 65 72 88 bd 37 20 43 3c 1f 9d aa 3d
       -0.047070585 -0.06662444 0.011909536 0.0833075
0003f0 25 01 6f 3d 58 e2 8f bd b6 7d 0a be bc f2 6c bd
       0.0583507 -0.070255935 -0.13524517 -0.057848677

layers.2.bias f4 [256]
000000 53 0f e2 bd 1a 61 ea bd a1 34 6a bf af 3f aa 3f
       -0.11038079 -0.11444302 -0.91486555 1.3300685
000010 b0 ff 10 be 5f f7 0c be 73 9c 06 c0 82 45 e5 bd
       -0.14160037 -0.1376624 -2.103299 -0.11194898
000020 e0 e3 23 bd 6c 4e d9 bb 11 e9 3b c0 f7 b4 be 3c
       -0.04001224 -0.006631663 -2.9361002 0.02327965
000030 30 2f 81 bf 33 7e 5e bd b5 38 0b bd 27 e4 fc bf
       -1.0092525 -0.05431957 -0.033989627 -1.9757127
000040 b0 ec e1 bd 31 19 c5 bf 11 48 54 bf d7 bf 06 be
       -0.11031473 -1.5398313 -0.82922465 -0.13159119
000050 3a 3a 0d be ae 8e 97 c0 11 40 d2 bb 4b f5 03 c0
       -0.13791743 -4.736167 -0.0064163287 -2.0618465
000060 a2 8e 05 c0 21 8f 09 be 61 2d c8 3d 57 f2 6e bd
       -2.0868306 -0.13433506 0.0977428 -0.058336582
000070 ed 16 e4 bc 71 7e c8 bf 06 84 26 be d9 32 22 c0
       -0.027842963 -1.5663587 -0.162613 -2.5343535
000080 57 03 d1 bd fd b3 9f bf b5 ec f1 bd 4e d3 a2 bf
       -0.10205715 -1.2476803 -0.118127264 -1.2720735
000090 0a 07 b4 bd ae a9 dc bf 29 32 24 3d 54 36 3c 40
       -0.08790405 -1.7239282 0.0400869 2.940816
0000a0 b8 7c 23 bd cc 45 ae bb c9 a0 46 bb d5 f4 15 be
       -0.039913863 -0.005318379 -0.0030308238 -0.14644177
0000b0 e5 6a 24 bd 89 93 41 3b e3 4e 30 c0 02 dd 7d be
       -0.040141005 0.00295374 -2.7548149 -0.24791339
0000c0 aa bf 42 ba a8 32 69 be 92 4f 14 bd 31 01 54 bd
       -0.0007429073 -0.2277323 -0.036208697 -0.05175895
0000d0 f1 b3 dc bd f6 a9 6f bf 8f bd 97 3d 2c b2 42 be
       -0.107765086 -0.93618715 0.07409202 -0.1901328
0000e0 60 34 a3 bf c7 24 64 be 66 01 9d c0 70 e9 d6 bf
       -1.2750359 -0.22279654 -4.9064207 -1.678999
0000f0 37 ef cb bc a7 ea 55 3c 0a 24 b4 bd 56 79 1a be
       -0.02489434 0.013056434 -0.087959364 -0.15085348
000100 11 af 90 be 06 62 c5 bd 64 2c 96 3e 84 60 d6 3d
       -0.28258565 -0.09637837 0.29330742 0.10467628
000110 4e 88 0f be fe 37 93 3f ac b3 e1 bf 5d 90 9c bc
       -0.1401684 1.1501462 -1.7632957 -0.019111807
000120 2f d6 e9 bf 29 96 ec bd d8 5c 02 bd f7 e3 cd bd
       -1.8268489 -0.11552078 -0.031826824 -0.100532465
000130 9d ef 93 3c d2 2d c1 bd cd 73 3c be 45 75 13 40
       0.018058592 -0.09432568 -0.1840355 2.3040326
000140 29 48 04 3c e3 37 4b be e5 5a 07 40 28 58 e6 bd
       0.008073845 -0.19845538 2.1149228 -0.11247283
000150 e0 de 2d 40 b5 53 17 c0 58 1c db 3f 8b ff 07 be
       2.7167282 -2.364484 1.7118025 -0.13281076
000160 96 f5 05 be df c5 8c bf 11 71 fb bf 10 f3 bd 3f
       -0.13081965 -1.0997885 -1.964388 1.4839802
000170 a9 36 c4 bc 74 3a e8 bd f5 4e 35 bf 68 b7 c7 bd
       -0.023951845 -0.11339274 -0.70823604 -0.09751779
000180 2e dd 43 c0 96 45 42 bc b1 12 14 bd 79 ef d3 bd
       -3.0603747 -0.011857411 -0.036150638 -0.1034841
000190 69 88 d7 bd e4 7c 0c 40 51 fd cf bd f5 9b 38 bd
       -0.10524065 2.1951227 -0.10155738 -0.045070607
0001a0 c3 f6 e3 bd e3 8f 3a c0 6a 80 9f bf c8 c8 89 bf
       -0.111310504 -2.9150321 -1.2461064 -1.0764399
0001b0 36 fa d3 bd 9e 5f f8 bb c5 0a 4d bf 51 69 97 bc
       -0.10350458 -0.007579758 -0.8009456 -0.018482836
0001c0 6f a3 3f be 04 7e 6d bc 6c b6 1c bf 8d 89 62 bd
       -0.18714689 -0.0144953765 -0.61215854 -0.05530696
0001d0 e5 be 8f 3d 20 83 8a bf c8 2d 2e bc dc 55 05 c0
       0.07018832 -1.0821266 -0.010631032 -2.0833654
0001e0 30 8e 30 bd 66 5b 75 c0 8f a0 ab c0 d6 99 26 be
       -0.04310435 -3.8337035 -5.3633494 -0.16269621
0001f0 4e d9 20 40 fe 01 f1 be b2 d1 06 c0 16 12 28 be
       2.5132632 -0.47071832 -2.1065488 -0.16413149
000200 de 94 1f bd 95 40 7f 3f bb b6 fa 3d cc a0 11 be
       -0.03896033 0.9970792 0.12241884 -0.14221495
000210 33 2a df bd 5b 11 ca bd b4 89 cc bd aa 94 e2 bd
       -0.10896721 -0.098665915 -0.09987202 -0.11063512
000220 98 9f 81 bf 54 53 04 3d 66 cf d7 be dd 5a 36 bf
       -1.0126829 0.03230603 -0.4215042 -0.71232396
000230 08 7b eb bd 1b af 45 bc 93 4d 0d c0 ad 3c 7c bf
       -0.11498076 -0.012065674 -2.2078598 -0.98530084
000240 bd c7 2e 3c c6 f5 9e bd f3 fb e1 3d da df 52 c0
       0.0106677385 -0.07761721 0.110343836 -3.2949128
000250 e2 ac 02 c0 5b 95 94 40 65 32 63 bd e9 6d 91 bf
       -2.041802 4.643232 -0.05546798 -1.1361667
000260 8c 21 46 bf 5d 12 a5 bd d6 c6 60 c0 0a 3a 0c be
       -0.7739494 -0.08060143 -3.512136 -0.13694015
000270 bf 63 71 be 3d 8d 2e bc 49 13 56 3d 02 9e 59 40
       -0.23573206 -0.010653791 0.052264486 3.400269
000280 70 89 0b bd d2 b7 36 bd 51 45 c6 39 38 7c ef bf
       -0.034066617 -0.0446089 0.00037817148 -1.8709784
000290 2c 61 67 bf af 79 2a 40 66 2e 49 be ed c7 0d c0
       -0.9038265 2.663677 -0.19646606 -2.2153275
0002a0 29 11 b7 be 74 c6 05 be cc d5 e2 bf 5f a8 ee bf
       -0.3575528 -0.13063985 -1.7721496 -1.8645133
0002b0 ec 3e 78 c0 d3 9a 9f 3c 43 bc 32 be 2f dc 37 3f
       -3.8788404 0.019483006 -0.17454629 0.7182035
0002c0 97 09 e7 3e 8b 9a 22 3f a5 5c c9 bf e7 9d da bc
       0.45124504 0.63517064 -1.5731398 -0.026686622
0002d0 d9 48 e2 bf 5f fb a3 bf 39 f5 48 3b 5c 6e ad bd
       -1.7678481 -1.2811087 0.0030663742 -0.08468315
0002e0 7f e5 90 3f 80 2e 82 c0 72 53 ef bc ee 87 1f c0
       1.1320037 -4.0681763 -0.029214595 -2.4926715
0002f0 94 53 10 bd ac 41 89 bd a3 c8 81 bc 31 91 56 3b
       -0.035235956 -0.06701979 -0.015842741 0.003274035
000300 ea 12 c9 3c 47 b9 c2 bf 40 ff fb bd 45 84 81 40
       0.024545152 -1.5212792 -0.123045444 4.047396
000310 b9 43 b2 bf f3 c5 17 be 2d 62 70 bf ea 28 fc bd
       -1.3926917 -0.14821605 -0.93899804 -0.12312491
000320 e1 56 20 be 50 67 0f c0 eb 3d 10 be 66 04 e0 bd
       -0.15658142 -2.2406807 -0.1408612 -0.10938339
000330 d3 70 d5 bd ec 73 9d bf 9d 35 74 bd fd f5 52 3d
       -0.1042191 -1.2301002 -0.059621442 0.051504124
000340 94 30 60 bd 18 4c 26 bb f3 6d 0e 3a a7 b8 00 be
       -0.054733828 -0.0025374945 0.0005433254 -0.1257044
000350 19 2c 58 be fe f9 19 bd b1 89 91 bf 83 b1 ae bc
       -0.21110572 -0.037591927 -1.1370145 -0.021324879
000360 68 59 b6 3e fb 58 2e be 08 f6 90 be a7 17 3e bd
       0.35615087 -0.17026131 -0.28312707 -0.046409275
000370 6a 74 49 bf 84 7f 57 bf 18 53 6e 3e fa f7 38 bc
       -0.7869326 -0.8417895 0.23273885 -0.011289591
000380 bb 4d bf bc de 51 34 bd 55 f2 3a be 7e dc ad bf
       -0.023352494 -0.044023387 -0.18256505 -1.3582914
000390 07 41 1f be 0d 1c 0b be 19 07 39 be 1a a1 33 bd
       -0.1555215 -0.1358492 -0.18069114 -0.04385481
0003a0 2a 84 ba bf 2a b4 18 3c f5 77 6a c0 fb 59 85 bf
       -1.4571583 0.009320298 -3.6635716 -1.0418085
0003b0 fa 3e c7 bf 0a b5 62 c0 7e 79 a1 bc d2 a5 d4 bd
       -1.5566094 -3.5422997 -0.019711252 -0.1038319
0003c0 23 2c 12 bb 25 73 3c bf f1 b1 37 bf bf 87 ce bf
       -0.002230414 -0.73613197 -0.7175589 -1.6135176
0003d0 83 76 ea bd 31 cf aa bf a8 8c ee bd da 35 53 3e
       -0.114483856 -1.334448 -0.11647922 0.20626011
0003e0 c2 88 0d bf 82 a8 8a c0 2e ab 02 c0 34 41 82 c0
       -0.552868 -4.33307 -2.041698 -4.0704594
0003f0 71 b5 f8 bf 3c c9 9e bd e7 b6 b2 3e 0c f9 15 c0
       -1.9430372 -0.07753226 0.34905168 -2.3433256

layers.4.weight f4 [256, 256]
000000 6f 24 93 bb 7d fe 0e 3d 86 25 50 be 65 15 93 3e
       -0.004490427 0.034910668 -0.20326814 0.2872726
000010 74 81 59 bc 9a a4 b8 bc 7d 25 4d 3e 60 cf 48 3c
       -0.013275493 -0.022539426 0.20033832 0.012256473
000020 f0 1c e0 3b e0 e3 89 bb 71 06 47 3e 8b f3 2b bd
       0.006839387 -0.004208073 0.19436051 -0.041980308
000030 9f e1 97 bf 7c 59 7c 3d c3 ea 7c bd b0 bf 66 bf
       -1.1865729 0.061608776 -0.061747324 -0.9013624
000040 6d 62 6e bc b8 89 b7 3e 83 8f a3 be 5b 2d fc bc
       -0.014549834 0.3584726 -0.31945428 -0.030783346
000050 54 cc e2 bc 4c dd b3 3e e7 b6 83 3d 9a 5a 81 bf
       -0.027685322 0.35129774 0.0643137 -1.0105774
000060 8d a7 f2 bf e3 b7 2d bd fc 22 24 bd 24 b4 34 bd
       -1.8957382 -0.042411696 -0.040072426 -0.044117108
000070 08 b1 ce bc 37 be 96 3e 9c 17 a7 3c 10 e0 f4 be
       -0.0252309 0.29441997 0.020397 -0.47827196
000080 7e 75 2e 3d 3d 0e a5 ba c1 6f 14 3a 9f d9 8a 3e
       0.042592518 -0.0012592744 0.00056624046 0.27119157
000090 3c ce 2d bd 73 18 a4 3d 24 e0 49 3d c8 f6 42 bf
       -0.04243301 0.08012476 0.049286023 -0.7615781
0000a0 d8 74 6b bd 48 4a dc 3c 78 dc 86 3d 2c e3 d4 3c
       -0.057484478 0.026890889 0.0658502 0.02598723
0000b0 a1 df 25 bb 13 f3 b9 bf 2d 42 6d bd 35 66 73 be
       -0.0025310295 -1.4527305 -0.05792444 -0.23769458
0000c0 b6 2e 2f bd 54 52 31 3d 02 30 c2 bb be a4 08 bd
       -0.042769156 0.043291405 -0.005926133 -0.033360235
0000d0 91 85 3d 3d 34 c5 c5 3c fe c3 58 bd 6a 57 4d 3d
       0.046269957 0.024141885 -0.052921288 0.050132193
0000e0 05 0f ab 3d 0e 4c 4f bc 97 63 f4 3d 6e 3e 4c bf
       0.08352474 -0.01265241 0.11933058 -0.7978276
0000f0 2e 16 3d bc cc b6 21 bc 5f 6f 0a 3a fb 76 32 bd
       -0.011540933 -0.009870242 0.0005280878 -0.0435705
000100 b8 e0 34 bf b1 31 79 be bc 80 38 bf 1c af 0a bd
       -0.70655394 -0.24335362 -0.72071433 -0.033858404
000110 28 ae 4b bc 5d 21 8c 3d aa 79 4f 3e 72 e1 07 bd
       -0.012431659 0.06842301 0.20261255 -0.033173986
000120 bb 72 31 be d1 5d 20 3d a4 0a 88 bc 37 4b 1e bd
       -0.17328922 0.03915197 -0.016606636 -0.03864595
000130 49 5b 62 bd 62 22 37 bd 95 fd 19 bb 51 de 09 bc
       -0.055262838 -0.044710524 -0.0023497094 -0.008414821
000140 fd 2c 43 bb 9c 55 13 3d 35 37 f3 3e f3 33 85 3d
       -0.0029781454 0.035970315 0.47503057 0.06504049
000150 86 1a 86 3d 81 e4 25 bf 16 bc 1e 3e bf 0c 45 bd
       0.06548028 -0.64801794 0.15501437 -0.04810786
000160 7b d5 cf 3c e9 3b df bd 5f 43 65 bf 81 e3 a9 3d
       0.02537035 -0.10900099 -0.89555925 0.08295346
000170 e0 6d 71 3c 2c 5e a4 bc d8 38 a5 be b5 75 93 bb
       0.014735669 -0.020064436 -0.3226993 -0.0045001158
000180 70 2d f5 be e0 c5 35 3c 65 b4 5c bc cc f3 f3 bc
       -0.4788623 0.01109454 -0.013470744 -0.029779337
000190 d9 48 29 3d 50 fb f0 be 12 ea 57 bc 34 9b 95 3c
       0.04132924 -0.47066736 -0.013178365 0.018262483
0001a0 d6 46 66 bd 53 6a d1 bd 84 49 29 3e 22 51 69 bc
       -0.0562199 -0.10225358 0.1653195 -0.014240535
0001b0 70 39 37 3d 5e fd 7f bd dd 50 83 3e 72 eb 89 3c
       0.04473251 -0.06249749 0.2564763 0.016835902
0001c0 35 7d a2 3c 0c b0 d7 bb a8 51 a9 3d f5 9b 80 3c
       0.019835094 -0.0065822657 0.08267528 0.015699366
0001d0 c9 83 d6 3b 37 a8 36 3e 41 45 56 3d 7a 6c 3e be
       0.0065464717 0.17837606 0.05231214 -0.18596068
0001e0 b9 09 bf 3c e6 1c e2 bd 63 f1 91 3d 4e 50 93 bd
       0.023320066 -0.11040668 0.07126119 -0.07193051
0001f0 80 fe c9 be c5 15 91 3c 35 48 8b be 18 8b 88 3c
       -0.3945198 0.017710576 -0.27203527 0.016667888
000200 90 32 ac bb 73 99 7c bf c1 0a 7b bd 90 69 61 3d
       -0.005255051 -0.98671645 -0.061289553 0.055032313
000210 43 c6 4a 3d ca 22 4c bd 79 7d 8b 3d 65 0b 13 3b
       0.049505483 -0.049837865 0.068110414 0.0022437212
000220 86 7e 26 bf c7 48 8f 3c 94 c8 67 be 83 7c 70 3e
       -0.6503681 0.017490758 -0.22635108 0.23484997
000230 91 aa 0f 3d ce 85 1f bd 51 78 db be ef 7e c8 bd
       0.035074774 -0.038945965 -0.42865232 -0.09789836
000240 c0 27 59 3b a6 77 e1 3c d5 9b d2 be 36 2b c1 3e
       0.0033135265 0.027522873 -0.41134515 0.3772828
000250 38 cc 74 bc 87 df 53 bf 69 94 64 3d 19 97 f2 bb
       -0.014941268 -0.8276295 0.055805597 -0.007403266
000260 44 25 d2 3d 2a 1a e3 bc b8 a1 3a 3e 59 b7 70 3c
       0.10261014 -0.027722437 0.18225753 0.014692151
000270 03 da 3a 3e c8 0a 1a bd 0c 1a 8b bd 73 59 3d bf
       0.18247227 -0.037607938 -0.067920774 -0.73964614
000280 ce e8 41 3d 28 43 8b 3c 54 8d 9d bc 6d 4e 7e bd
       0.04734116 0.016999796 -0.01923243 -0.06208651
000290 fa 53 9d bd 0f 9a 9d 3e e4 f4 85 bd e2 37 d0 be
       -0.07682033 0.307816 -0.0654085 -0.40667635
0002a0 8d bf 46 bf e4 96 31 3d 19 0f b9 3d ae 08 81 bc
       -0.77636033 0.04335679 0.09036083 -0.01575121
0002b0 8a 10 99 3e 36 58 0e be 61 7b 39 bd e5 db 69 be
       0.2989543 -0.13900837 -0.04528368 -0.2283779
0002c0 c4 e9 b0 bf b9 3b 83 3e 99 48 30 3e c8 ee 4e 3d
       -1.382134 0.25631502 0.17215194 0.05052069
0002d0 df b7 ba be 89 69 7c be a9 6d 40 bd f1 c7 7d bd
       -0.36468408 -0.24649633 -0.04697958 -0.061958257
0002e0 2f 37 2a bf 08 7d 25 3c 3f f1 1e bd c8 1c 01 bf
       -0.66490453 0.010100611 -0.03880429 -0.5043454
0002f0 52 be 2c bd d4 4b 1c 3a 55 da 13 3d bb b0 cb 3c
       -0.04217369 0.0005962227 0.03609689 0.024864545
000300 56 11 f6 bc 2b 6e 70 bf 51 f1 11 3d 48 ee d9 bd
       -0.030037563 -0.939181 0.035630528 -0.10641152
000310 3a 22 76 bd 46 67 22 3d 95 7f 02 be cc b2 a1 3c
       -0.060091235 0.03964927 -0.12743981 0.019738577
000320 da 16 45 bd 18 97 64 3e 71 e1 7e bc 35 f8 11 3d
       -0.048117496 0.22323263 -0.015556679 0.0356371
000330 1c 8c 3e 3d 82 3f bd 3d be d1 0e 3d e6 81 4e 3d
       0.046520337 0.09240629 0.034867994 0.05041685
000340 c8 f5 1b 3d a4 ff 46 3c e0 91 95 3c e0 db 23 bd
       0.038076192 0.01214591 0.018258035 -0.04000461
000350 10 28 37 be 6a e4 8b 3d 71 82 95 bd e6 bc 14 3d
       -0.17886376 0.06830676 -0.0730027 0.03631296
000360 7f 39 fd 3b c2 fb 5f 3d fe 91 86 3d ef 78 44 3d
       0.0077278013 0.054683454 0.065708145 0.047966894
000370 68 02 4c bf 5b 74 bb be 51 23 d8 bf 4e 4b e1 bc
       -0.7969117 -0.3661221 -1.6885778 -0.027501728
000380 b6 85 52 bd 66 e3 0a bd 35 df 82 3d 25 b3 20 bf
       -0.051397048 -0.03390827 0.063902296 -0.6277335
000390 fc f0 b4 b9 0a bf 43 bc 5b ea 0b bd 1e 63 49 bd
       -0.00034511823 -0.011947403 -0.034159046 -0.04916679
0003a0 30 91 a7 3e c7 2e 0d 3d 5d 1c aa be da 6f 5f 3e
       0.32727957 0.03446844 -0.33224764 0.21820012
0003b0 d9 12 e0 3e fd c9 3a bf 97 b2 20 bd 72 24 11 bf
       0.4376438 -0.7296446 -0.039232817 -0.56696236
0003c0 8a 8f 28 3d c9 aa 75 bd 99 4b ae 3e 0b c7 a3 bd
       0.041152515 -0.059977327 0.3404205 -0.07996949
0003d0 a7 ee 39 3d c7 be 86 be a4 32 1b 3c 7e a2 c4 3d
       0.045393612 -0.26317427 0.009472523 0.096013054
0003e0 4e a7 97 be 57 2d 22 bf 88 9f 31 3e aa a1 a7 bd
       -0.2961983 -0.63350433 0.17346013 -0.08185132
0003f0 c6 0f 3f bf cd eb c3 bc 9e 88 ed bd e4 13 b7 be
       -0.74633443 -0.02391615 -0.11598323 -0.35757363

layers.4.bias f4 [256]
000000 06 23 b8 be e6 8f cb be 1e e3 5e 3f 4e 00 b5 3e
       -0.3596422 -0.39758223 0.87065303 0.35351795
000010 d3 e9 35 3f 41 2b 18 be f8 68 b8 be 24 b7 10 be
       0.7105991 -0.1486025 -0.36017585 -0.14132363
000020 c1 0c 0e be 6d ce 5f 3e 3d d2 f3 3f 30 3c 46 bd
       -0.13872053 0.21856089 1.9048535 -0.048397243
000030 ea 4b 82 3e af b5 96 3d 98 6e 88 bd 4f 0e 49 bf
       0.25448543 0.07358872 -0.06661719 -0.7853746
000040 cc 44 dd bd 63 36 0c be 3d 51 82 bf 62 70 74 bf
       -0.108041376 -0.13692622 -1.0181042 -0.9548398
000050 11 de 21 c0 aa 29 35 bf 0f 02 08 3e 84 81 70 3e
       -2.5291789 -0.707667 0.13282035 0.23486906
000060 69 ae 75 3e 20 88 b0 bd 44 87 b7 bf 30 bd 9f bf
       0.23992313 -0.08619714 -1.4338155 -1.247961
000070 43 68 f9 bd f4 8d 1e be 38 fa 51 bd 8f 4a 4c bd
       -0.121780895 -0.15483838 -0.051264018 -0.049875792
000080 fe 6c 3f be e4 0b 27 be 1f 59 ff be 36 c7 a6 3f
       -0.18693921 -0.1631313 -0.49872681 1.3029544
000090 64 48 27 be f1 3c f4 be c3 d8 30 3f d0 04 08 c0
       -0.16336209 -0.47702745 0.6908075 -2.1252937
0000a0 3b ef 83 bf 44 82 0f be 22 6f 43 3f be e8 1c bf
       -1.0307382 -0.14014536 0.7634145 -0.61292636
0000b0 38 ca 02 be 7d 39 a5 be fb 30 e5 bf 12 d0 11 be
       -0.12772453 -0.32270423 -1.7905573 -0.14239529
0000c0 d0 60 64 c0 6d 64 82 c0 3c 73 4c bd 7b ca 42 c0
       -3.568409 -4.074759 -0.049914584 -3.0436084
0000d0 83 44 f7 bd 5a 83 76 bf 72 7e 2c c0 2b f5 a0 bf
       -0.120736144 -0.96294177 -2.6952176 -1.2574819
0000e0 eb 86 b3 bf 3d 2d b5 bd 43 0a d1 bd 59 18 04 3e
       -1.4025549 -0.08846519 -0.102070354 0.12899913
0000f0 9e 44 ec bf 03 07 97 be ea a2 2c c0 5d 44 cf bd
       -1.845844 -0.29497537 -2.6974435 -0.10120461
000100 02 b6 d8 bd 96 66 e2 3f 72 48 29 c0 cd a3 cd bd
       -0.1058159 1.7687557 -2.6450467 -0.10041008
000110 0c aa f4 bf 65 08 b7 3d 5b 05 bf bf 34 0b 22 bd
       -1.9114394 0.08937148 -1.4923509 -0.039561465
000120 e5 92 b1 bf cc 48 42 3f aa 8c 12 be cd 4d 3c be
       -1.3872954 0.7589233 -0.14311472 -0.18389054
000130 50 b7 b8 be 50 eb 02 be ac 8a b2 3e f1 f3 86 bd
       -0.36077356 -0.12785077 0.34871423 -0.06589497
000140 8e 20 89 3f 67 95 1c bf 5e e3 13 bf c5 14 8e 3f
       1.071306 -0.6116547 -0.5776881 1.1100088
000150 c6 56 1a bf 09 16 34 bf 92 3e 50 3f 48 a4 39 c0
       -0.60288656 -0.7034612 0.81345475 -2.900652
000160 85 9b 72 bd e4 86 10 c0 32 a8 f8 bd 4b 1d 20 bf
       -0.059230346 -2.258233 -0.12141456 -0.625447
000170 f9 e1 17 c0 3c 2a 97 3f 31 6c 1a 3e ba 70 cd bf
       -2.3731673 1.1809764 0.15080334 -1.6050026
000180 5b 5c b5 3e e3 93 80 bf f7 a1 8d bf ef 15 3f bf
       0.35422024 -1.0045131 -1.1065053 -0.74642843
000190 0c 3c a7 bd 77 66 1f bd c7 f1 7d bf c9 f1 b3 3f
       -0.0816575 -0.038916077 -0.9919705 1.4058162
0001a0 10 a4 89 3f d2 45 4b bf 94 44 09 bd d1 5f 02 c0
       1.0753193 -0.7940341 -0.033512667 -2.0370982
0001b0 c8 82 ee bd 2c a2 ea bd 7b 08 73 c0 56 94 8d be
       -0.11646038 -0.11456713 -3.7973926 -0.27652234
0001c0 06 30 6a bf a9 c3 5e bf 05 b5 17 bf b7 67 32 bf
       -0.9147953 -0.87017304 -0.5926059 -0.69689506
0001d0 8d e5 47 bd e7 76 d7 bd 17 05 6f be 2e 9c bb bf
       -0.0488029 -0.10520726 -0.23341785 -1.4657037
0001e0 30 c9 ba bd 05 97 b7 c0 8e f5 ac 3d 49 f1 a9 bf
       -0.09120405 -5.737185 0.08445273 -1.3276759
0001f0 f3 57 cc bd 0a 4b 6a bf d7 20 50 3e 1d ac bb bd
       -0.099777125 -0.9152075 0.20325027 -0.091636874
000200 61 c4 7e bc 1b e1 96 be f4 90 68 bd 97 ea 23 c0
       -0.01554975 -0.29468617 -0.056778863 -2.5611932
000210 51 16 8f bd be df a5 bd c2 10 97 3d 44 2a e4 be
       -0.069866784 -0.08099316 0.07376243 -0.44563496
000220 1f 42 06 be 26 9e 7d bd e2 9b 8c bf 23 db 5a bd
       -0.1311116 -0.0619184 -1.0985072 -0.05343164
000230 10 d3 d0 3e 7d 67 58 bf cc 57 1b bf cf a3 a3 bf
       0.40786028 -0.8453291 -0.6068084 -1.2784365
000240 d6 9d 3c c0 d1 fc 1c bd c5 de 83 bf 33 c9 3e c0
       -2.9471335 -0.038327042 -1.0302359 -2.9810302
000250 04 90 8d bf db e5 90 bd c0 79 ca bd 87 8a 64 bf
       -1.1059575 -0.070750915 -0.09886503 -0.89273876
000260 7b 36 43 bd 01 8c f3 3e 55 0a 05 be 31 5f b2 3f
       -0.04765938 0.47567752 -0.12992223 1.39353
000270 78 b1 01 c0 7c 61 72 be 5f be b8 3d 12 23 0b be
       -2.0264568 -0.2367 0.090206854 -0.13587597
000280 92 3f b5 bf 64 00 de bf 03 b2 a8 c0 87 8f d8 3e
       -1.4160025 -1.7343869 -5.27173 0.42297003
000290 2f 79 0d 3f e9 07 ad bf 11 e3 52 be 03 b2 66 bf
       0.55263036 -1.3518039 -0.20594431 -0.90115374
0002a0 f3 57 21 be fe e9 84 be 33 a5 10 c0 3d 9e 3e bf
       -0.15756206 -0.25959772 -2.260083 -0.744602
0002b0 54 ff d3 bd b4 ee f2 bd 21 c7 b7 be e7 f2 3a be
       -0.10351434 -0.11861935 -0.3589411 -0.18256722
0002c0 2d ed ad bf a9 2e 7c bd cf 87 46 c0 95 6d e9 3e
       -1.3588005 -0.061567936 -3.102039 0.45591417
0002d0 e7 7c 3b be e7 b2 76 bd 02 25 53 bf c9 51 7c 3f
       -0.18309365 -0.06022921 -0.82478344 0.98562294
0002e0 6b 98 d9 bd f0 c4 3c bf a4 c8 f1 3e 95 7c d9 3e
       -0.106247745 -0.73738 0.4722339 0.4247786
0002f0 e9 51 48 bf b1 2b e1 bf a4 7b 0b be 2d 8e 76 bf
       -0.78249985 -1.7591459 -0.13621384 -0.96310693
000300 0c 30 1d 3f c4 01 b5 bd d2 cd 48 c0 da 06 76 bd
       0.6140144 -0.088382274 -3.1375623 -0.060065128
000310 8c f3 59 bf de eb 08 be 51 f3 0e bd 4a f7 21 bf
       -0.8513725 -0.13371226 -0.034900013 -0.6326796
000320 be 9a 40 be 7e 12 a3 be e0 47 89 bf 05 c1 6e bf
       -0.1880903 -0.31850046 -1.072506 -0.93263274
000330 c0 4f bf bf b8 b2 36 c0 56 98 8f bf fc fd ac bf
       -1.4946213 -2.8546581 -1.1218364 -1.351501
000340 c8 b6 56 bd f0 af 25 bf 94 6a 87 bd 41 66 b0 bf
       -0.052420408 -0.64721584 -0.06612125 -1.3781205
000350 54 b1 db bf 00 26 cc bf 23 a2 13 be a3 cf 06 3f
       -1.7163491 -1.5949097 -0.14417319 0.5266058
000360 f9 17 85 bf 1b 14 bc bf 5a 57 87 3f f5 46 0c c0
       -1.0397941 -1.4693636 1.0573533 -2.1918309
000370 f0 33 c8 be d4 e3 a4 be eb 6c 85 3f 0f 25 8c bf
       -0.39102125 -0.3220507 1.0423864 -1.0948809
000380 2d 7a 81 3d 89 a7 fd bf 38 c3 ac 3f e3 94 15 c0
       0.06322131 -1.9816753 1.3497076 -2.3372123
000390 a0 45 61 bd 18 21 ce 3e 53 2a 03 be 85 fe bf bd
       -0.05499804 0.40259624 -0.12809114 -0.093747176
0003a0 de 16 3e bd 27 c8 7f bd 93 89 df 3d 55 04 04 be
       -0.046408527 -0.06244674 0.10914912 -0.12892278
0003b0 c7 bc ee bf 57 dd e2 bd 6c 95 e4 bd 1f c8 39 bd
       -1.865136 -0.110773735 -0.111613125 -0.045356866
0003c0 bd 99 03 be 02 76 69 bf d6 92 60 bd 75 b3 e1 bf
       -0.12851615 -0.9119569 -0.054827534 -1.7632891
0003d0 2e 7a 41 c0 da 99 11 3f ca 64 99 be 2d f1 4b bd
       -3.0230823 0.56875384 -0.29959708 -0.04979055
0003e0 dd d2 8d bd 6a 24 2c bd 77 65 6f 3f f2 95 0e c0
       -0.069249846 -0.042026915 0.935142 -2.227902
0003f0 b9 c3 01 3f f8 d0 0d be 11 ff a1 bd 24 fd 9e bf
       0.50689274 -0.13849247 -0.07909978 -1.2421002

layers.6.weight f4 [128, 256]
000000 f4 71 c9 3c 12 0b 48 be 8e 97 6c be 6c ad 45 bf
       0.02459047 -0.19535473 -0.23104689 -0.77217746
000010 e4 a3 aa bf b3 fd 19 3d 85 94 e4 be 24 70 13 3d
       -1.3331265 0.037595462 -0.4464456 0.035995618
000020 ad b3 73 bc 53 9b a1 be 1a e5 c8 bb c0 a3 84 bd
       -0.014874381 -0.31563815 -0.0061308267 -0.06476545
000030 1b b8 9b 3b 8a 0b 78 bd e1 1f ac bc c4 7a b5 bc
       0.0047521717 -0.06055788 -0.021011295 -0.022153266
000040 b2 af d3 3b 99 65 7f bd de b8 6c bf b2 d1 b4 be
       0.0064601535 -0.06235275 -0.92469585 -0.35316235
000050 67 2e 94 be 89 47 c9 bd 53 a3 b7 bd d1 14 e3 3e
       -0.28941652 -0.098280974 -0.089666985 0.4435182
000060 05 f3 ed bd 8f 0c ca 3c 75 51 06 bf e1 ae e3 be
       -0.11618618 0.024664192 -0.52468044 -0.4446936
000070 3c 41 99 3c b0 18 17 bc 20 5f 39 3c cd 31 43 bd
       0.018707864 -0.009222195 0.0113141835 -0.047654916
000080 f0 5a 73 bd 26 a2 9f 3e 4e af 92 be e7 5b 1c 3c
       -0.059412897 0.31178397 -0.28649372 0.009543396
000090 9a 3e 60 3c 35 9c c3 be 62 19 eb 3d 9b 1e 0d 3d
       0.0136868 -0.38205114 0.11479451 0.034453016
0000a0 c7 34 8c bf ea f7 19 bd 72 2c ca bc c0 80 8a c0
       -1.0953606 -0.037589945 -0.024679396 -4.3282166
0000b0 84 06 56 3d 66 e6 4d be 15 38 4e bf 1f 56 a6 bb
       0.052252308 -0.20107421 -0.80554324 -0.0050761844
0000c0 91 0e 74 bd 16 22 44 bf 4e 83 0b 3a 21 c1 2b 3e
       -0.059584204 -0.7661451 0.0005321995 0.16772892
0000d0 a4 67 f7 bc 90 ba 30 bd 04 5e f6 bd fd 6f 1a be
       -0.030200787 -0.04314667 -0.12029651 -0.15081783
0000e0 cb 2f b5 bc c4 76 4f 3d c9 de c3 bb 4c 41 9c be
       -0.022117516 0.050650373 -0.005977486 -0.30518568
0000f0 d2 94 93 bf 51 a1 8e bf 5d f4 4a be dc dd 6c 3d
       -1.1529791 -1.114298 -0.1981978 0.05782877
000100 cb 6f d3 3a 7e 28 e0 3c 65 79 59 bf 52 32 74 bd
       0.0016131339 0.027363058 -0.8495086 -0.0596183
000110 71 7c ce bd d6 64 5f bf 5a 7e 59 bd a4 81 0f 3d
       -0.10082329 -0.8726324 -0.053099014 0.035035744
000120 d2 43 5e 3f e4 cc c1 bd de 24 2c 3d b6 49 4e bd
       0.86822236 -0.09462908 0.042027347 -0.050363265
000130 c1 64 ea 3e 0f f7 b6 bc e5 16 4c 3f de 7f f1 3b
       0.45779994 -0.022334604 0.79722434 0.0073699793
000140 36 c3 a7 bd aa 3c 8f bf 98 04 39 3d 2d 9d 28 bf
       -0.081915304 -1.1190388 0.045170397 -0.6586483
000150 b0 86 1a bf f6 73 6c bd ee c5 2b be 1d 3c 80 be
       -0.60361767 -0.057727776 -0.16774723 -0.25045863
000160 f7 60 fc 3c 8c ba 6b 3e d2 2b d5 3c 89 b0 a2 be
       0.030807955 0.2302038 0.026021872 -0.3177531
000170 22 7a a2 3d 7a b0 e1 bd 63 20 31 bd be 61 7d bd
       0.07933451 -0.11019988 -0.043243777 -0.061860792
000180 6f a2 57 c0 90 5c e1 3c 54 00 84 be 9d f5 ca bc
       -3.3692892 0.027509958 -0.257815 -0.02477532
000190 cb c2 92 3c 3e 87 95 bc 96 1d 22 bf 97 bb 4e be
       0.01791515 -0.018252965 -0.63326395 -0.20188747
0001a0 b1 92 b1 be 5a 66 88 bf bb 6a ef bc 13 da b2 bf
       -0.3468223 -1.0656235 -0.029225698 -1.3972801
0001b0 ce cf 6f bd 66 7b 5c bc 45 72 35 bf d7 97 fd bb
       -0.058547787 -0.013457155 -0.70877486 -0.007739048
0001c0 db 4d 82 3c 3e 1d 07 bd ac 8c d8 bd 2b 3e 53 be
       0.015906265 -0.032986872 -0.10573706 -0.20629184
0001d0 4a b9 69 3e 58 1e 41 3a cb 84 cf bb c9 56 ad be
       0.22824588 0.00073668873 -0.006332969 -0.33855274
0001e0 07 7f 1a bd 4b 4a 8f be e8 c9 97 bf 6e e3 88 be
       -0.0377188 -0.2798637 -1.1858492 -0.26736015
0001f0 aa ab 26 bd f0 98 b6 3b df 81 05 3d 73 b7 88 bd
       -0.040691055 0.005572431 0.032594558 -0.06675615
000200 b2 6d 31 bf dc 16 a9 bf ed 9d dc bb 85 68 c2 bf
       -0.69308007 -1.3210101 -0.0067326934 -1.5188147
000210 f5 15 81 bd 99 10 3c bd 1d d5 17 3f 02 03 e7 bd
       -0.06303016 -0.045914266 0.5930956 -0.112798706
000220 1a 0d 53 bd d8 ac 15 bd ce 7c 84 bd 74 a9 09 3d
       -0.051526166 -0.03654179 -0.06469117 0.03360887
000230 47 3f 54 3e 9f d5 b5 bf 28 e7 88 bc 1a 59 3e 3d
       0.20727263 -1.4205817 -0.016711786 0.046471693
000240 07 3a b8 bc 63 e8 14 3d 9f c9 a5 bd df d2 a1 be
       -0.022488607 0.036354434 -0.08095097 -0.31606194
000250 c9 c4 9f bb ed c1 92 bc 97 11 2d 3d ab 4f f2 be
       -0.0048757535 -0.017914737 0.042253103 -0.47326407
000260 c1 f4 f5 3c a2 98 5e bf e0 b7 d7 bc 16 f4 bf bd
       0.030023934 -0.8695165 -0.026332796 -0.093727276
000270 02 18 86 bf 1b cc 48 bf 38 c5 dd bd d4 2e 1a bd
       -1.0476077 -0.7843644 -0.10828632 -0.037642315
000280 65 a3 27 bf 28 79 cc bd b0 70 8d be 68 3b 94 be
       -0.65483695 -0.09984046 -0.27625036 -0.28951573
000290 6c 9f ac be 83 38 c6 be cc 29 01 3d f7 c7 a7 be
       -0.3371538 -0.3871499 0.031534 -0.3276975
0002a0 07 e3 67 bd 9d 30 fb be 06 66 90 be 15 f6 c3 bd
       -0.056612995 -0.49060526 -0.28202838 -0.09568421
0002b0 d4 43 4f 3d d3 7a b8 3c b2 36 19 bf b6 d7 ba 3c
       0.050601795 0.022519505 -0.59849083 0.022807937
0002c0 77 ce fd 3e c5 0b 33 bd d9 6b 61 3f 41 64 16 be
       0.49571583 -0.043712396 0.8805519 -0.14686681
0002d0 20 61 a5 3c 63 26 1d 3f a6 03 35 bd 0e 15 21 bf
       0.020187914 0.613867 -0.044192933 -0.6292275
0002e0 de d7 12 bc 8a 9f a9 3e c5 12 39 3d 2e ec 78 be
       -0.0089626 0.3312953 0.045183916 -0.24308845
0002f0 50 6f 40 bd d6 05 92 be 05 85 25 3b b6 d1 6e bb
       -0.046981156 -0.28520077 0.0025256288 -0.0036440915
000300 24 44 e3 bc 9c 82 ba 3a 40 9c 15 bc d1 f9 34 bc
       -0.027742453 0.0014229598 -0.009131491 -0.011045889
000310 59 bd fb 3e 4d de 63 bd ce 90 43 be b4 eb ef bf
       0.49167898 -0.055631924 -0.19098207 -1.8743806
000320 6e ce ed 3c d0 1e 8e 3f 19 87 a6 bd 74 5f cf be
       0.029029097 1.1103153 -0.081312366 -0.40502512
000330 71 f7 d4 bf df 77 3b c0 6f 08 ec bf 49 56 29 bd
       -1.6638013 -2.9291914 -1.8440074 -0.041342054
000340 63 8d c9 3b 45 1d c8 be 68 2a 3d bd ec 2c 8f bd
       0.006150888 -0.3908483 -0.04618302 -0.0699099
000350 ae 36 34 be fa 5c 35 bd 79 82 10 3d 9f 2f 23 bd
       -0.17598984 -0.044278122 0.03528068 -0.039840337
000360 8a 0f c6 be 82 58 45 be 96 37 b0 bd 81 4d aa bc
       -0.3868373 -0.19272044 -0.08604352 -0.02078891
000370 49 0e 54 be ff 9a 35 bf 02 11 be bd c3 a5 06 be
       -0.20708574 -0.7093963 -0.09280588 -0.1314917
000380 ff d6 c1 be 26 cf 71 be 76 fa 52 be 30 b6 00 be
       -0.37859342 -0.23614177 -0.20603356 -0.12569499
000390 53 ff cf bc 95 83 a8 be 34 39 50 3d 6d c5 ad bc
       -0.025390303 -0.3291289 0.050835803 -0.021212304
0003a0 3e 5b 6d be ac 52 43 be 79 bc 79 be 13 ae e4 3b
       -0.23179337 -0.19074506 -0.24388303 0.006978759
0003b0 d4 ec 60 be d0 fe fc bb 00 0a 93 3a 73 f5 18 3d
       -0.21965343 -0.0077208057 0.001121819 0.037343454
0003c0 4c 24 1d bd c8 3d ae bd 7e 8f 42 3d 16 1c a0 be
       -0.038364694 -0.085078776 0.047500126 -0.31271428
0003d0 49 54 94 bf be 20 4d 3d 12 69 83 bd a3 59 37 be
       -1.1588222 0.050080054 -0.06416525 -0.17905287
0003e0 ea 18 42 bd 9c 90 35 bd 77 5a 60 bf d3 69 89 bd
       -0.04738704 -0.044327363 -0.8763804 -0.067096375
0003f0 6d 73 cb bd f4 26 4d bd dc 69 81 3c 5c 44 8a 3d
       -0.09934125 -0.050085977 0.015797548 0.0675132

layers.6.bias f4 [128]
000000 f9 ec 1e c0 80 a2 57 3e 41 40 06 3d 4d 2b 93 be
       -2.4832137 0.21058083 0.03277612 -0.28743973
000010 40 85 e0 be 6b 78 e5 be 60 56 16 3d 66 56 0e 3e
       -0.43851662 -0.44818434 0.036703467 0.13900146
000020 51 03 1d be 3b c6 49 be 5d 0d 4f bf 54 6b 9b be
       -0.15333296 -0.19704525 -0.80879766 -0.30355322
000030 f8 3e 3a be cb 1a 7b bd e4 48 89 be 58 fc 02 bf
       -0.18188083 -0.06130485 -0.26813424 -0.51166296
000040 b7 7c 3e bf e1 96 70 be c6 e7 96 bf 73 e1 c4 be
       -0.7440905 -0.23495056 -1.1789482 -0.38453254
000050 45 ed aa be fe 67 82 3e cc b9 67 be a0 86 76 be
       -0.33384147 0.25469965 -0.2262947 -0.24074793
000060 11 ba ae be fa 14 56 be ea 36 90 be a9 f0 75 bd
       -0.34126332 -0.2090644 -0.28166896 -0.060043965
000070 f9 4d 78 be 26 81 05 bd ab 03 51 bd a1 69 d4 bd
       -0.24248494 -0.03259387 -0.05102889 -0.103717096
000080 49 1b aa be 79 be 57 bd 33 18 e5 3d dd 84 39 be
       -0.33223942 -0.052671883 0.11186256 -0.1811709
000090 14 d0 17 3d ba 71 96 be 89 ca ad 3d f4 40 b5 be
       0.037063673 -0.2938364 0.08485896 -0.35401118
0000a0 45 3c a1 be 0e c5 c5 be ad 8a 21 bf fa e1 55 be
       -0.31491295 -0.38626903 -0.6310223 -0.20886984
0000b0 38 15 fc be 35 4b 83 be 64 5c 09 be 3e 3f 74 bf
       -0.4923494 -0.25643316 -0.1341415 -0.95409
0000c0 2c db 86 3d 58 28 d9 bd cf 97 ca be d8 e2 bb 3d
       0.065847725 -0.10603398 -0.39568946 0.091741264
0000d0 ed 76 cb be 86 6f 44 be 64 1d 7f be 7a 6f a9 3a
       -0.3973917 -0.19183168 -0.24913555 0.0012926899
0000e0 4b 59 91 bd 0f 4c 0a c0 d8 98 92 be c5 7d 11 be
       -0.070971094 -2.1608922 -0.28632236 -0.14208134
0000f0 41 d5 93 be 7c 28 6c bf 10 f1 05 3e c9 11 f9 bd
       -0.28873637 -0.92249274 0.1308024 -0.121615954
000100 c8 5f 92 be 75 dd 83 be 39 d5 0c 3e 08 fc e4 bd
       -0.285887 -0.25754896 0.13753213 -0.11180884
000110 9a 19 83 bf ce 16 a0 bd 00 27 a0 be ac ce de be
       -1.0242188 -0.0781685 -0.31279755 -0.43517053
000120 3b 14 10 bf c9 8b 7c 3d b6 d9 35 bd b5 0b 16 be
       -0.5628087 0.061656747 -0.04439708 -0.14652903
000130 55 8a 6b be 52 61 46 be e7 48 c8 3d b5 06 b0 bd
       -0.23001988 -0.19373062 0.0977953 -0.08595029
000140 80 43 26 3e 09 c1 31 be 7c 04 8a bc 9e 4a e7 bd
       0.16236687 -0.17358793 -0.016847841 -0.11293529
000150 1e 47 ef 3e 23 67 ef be e7 4d b0 bd 9f 5c 71 be
       0.46733946 -0.46758375 -0.08608609 -0.23570488
000160 cb a6 8a be 34 f4 b3 bf d5 6b 2a 3d 35 a8 70 be
       -0.27080378 -1.40589 0.041606743 -0.23501666
000170 83 d6 a3 be be d0 d2 bf 58 31 43 be 8c 65 ed bc
       -0.31999597 -1.6469953 -0.19061792 -0.028979085
000180 70 07 7a be 89 aa 70 3d b7 f4 1c 3e 47 af 8c be
       -0.244169 0.058756385 0.15327726 -0.27477476
000190 b0 70 14 bd 9f 33 1a 3d 40 ba 2f bf b7 31 62 be
       -0.03624028 0.037646886 -0.6864357 -0.22089277
0001a0 05 ad d4 be 7c 1a f4 bd d0 fa 68 3c 74 51 0c bf
       -0.41538253 -0.11919114 0.014219955 -0.5481179
0001b0 d4 37 cf 3d 58 71 2d 3e a8 2b 3b be ac 18 12 be
       0.1011807 0.16937768 -0.18278372 -0.14267224
0001c0 57 32 e8 bc b1 f2 e8 bd 79 2e 87 3c 69 a0 e1 bd
       -0.028344316 -0.11374415 0.016501652 -0.11016924
0001d0 55 4a 88 be 3c 85 91 bd 16 0b 78 bd 61 7e 8d be
       -0.2661921 -0.071054906 -0.060557447 -0.27635482
0001e0 80 03 30 3d d2 8d c1 3d 16 37 11 bf c7 ae 7e bf
       0.042972088 0.09450878 -0.5672468 -0.9948544
0001f0 0a bb 88 3e 70 1a c5 bc 93 3b 8f be a8 ec 08 be
       0.267052 -0.024060458 -0.2797514 -0.13371527
