Simulation/saved_data/models/model_mzm_mzm_pm_attempt_100k_lets_try_again8x128_256_256_128_11_ZeroMean.pth (torch, 542868 bytes, 10 tensors)

layers.0.weight f4 [128, 8]
000000 66 e0 26 bf 68 96 2f c0 da 6a b3 bd 4c d5 59 be
       -0.65186155 -2.743555 -0.08760615 -0.21272773
000010 99 a4 42 3f 21 52 62 bf 3c 4a db be 23 37 b5 3e
       0.76032406 -0.8840657 -0.42830074 0.35393628
000020 4a d9 c4 3e f5 ff e7 3b ae 76 51 bd f0 24 d3 3b
       0.38447028 0.007080073 -0.051138572 0.0064436123
000030 71 c1 2a bb 8f e4 b4 3b 5b 80 1b bf 18 f2 76 ba
       -0.0026055241 0.0055204104 -0.6074273 -0.000942023
000040 e4 29 32 bf 6a 12 02 c0 a0 6e 1f 3e ca e7 39 bf
       -0.6959517 -2.032374 0.15569544 -0.7261931
000050 21 f6 be 3e a1 42 1d bf 4e a0 90 3e 4e 35 33 be
       0.37297156 -0.6142979 0.28247303 -0.17500803
000060 c0 a1 59 3c ea a2 a9 3b ee c9 84 3d 11 31 16 3b
       0.013283193 0.0051768916 0.064838275 0.002291743
000070 a7 c5 26 bd eb 7f db bc af c1 1a 3c 7e 21 5e 3d
       -0.04071584 -0.026794394 0.009445592 0.05423116
000080 40 a4 ec 3b 01 bd 26 bc 8f 34 e7 3b 23 4c e0 ba
       0.0072217286 -0.010176898 0.007055826 -0.0017112534
000090 f2 20 c6 3f 10 87 c8 bf 1a 78 d3 ba 53 5d d4 bb
       1.5478804 -1.5666218 -0.0016133816 -0.0064808517
0000a0 a6 26 59 bf 2e 98 22 bf 31 40 c1 bc 62 ec 18 3b
       -0.848246 -0.6351346 -0.02359018 0.0023334255
0000b0 bb 07 16 bd ed 80 85 bd 71 65 83 bd 32 b8 d5 bd
       -0.036628466 -0.06518731 -0.06415833 -0.10435523
0000c0 13 ca c2 bc 81 70 82 3e cf fe bb 3c 3e 6e 1e 3a
       -0.023777997 0.2547646 0.02294865 0.0006043649
0000d0 21 38 06 bc 62 83 1c 3b 2b 72 91 bb 80 e0 50 bf
       -0.008192093 0.0023882021 -0.0044386587 -0.8159256
0000e0 76 7f e6 bd 37 a2 15 be cd 6e a8 be 80 de 08 bd
       -0.1125478 -0.14612661 -0.32897034 -0.033415318
0000f0 32 e4 2b be b0 99 8b 3c 90 ed 0c 3d 54 f9 95 be
       -0.16786268 0.017041057 0.034406245 -0.29291785
000100 59 27 54 be 66 19 78 3e 64 b9 64 be 13 e4 6e be
       -0.20718135 0.24228439 -0.22336346 -0.23329191
000110 10 97 f9 3c 74 ea 97 be f7 e2 29 be d8 d2 b0 be
       0.03046754 -0.2967106 -0.16590486 -0.3453586
000120 7e bc 6d 3f db d7 34 bd 23 4d 84 be 5f fb 2b 3c
       0.9286574 -0.04415117 -0.258401 0.010496943
000130 e9 37 88 3c 9e 5d d1 bb 96 98 fd 3c 77 c8 f5 3a
       0.016628223 -0.006389334 0.030956548 0.001875176
000140 6c 99 2d 3d 8d 8e 0c bf 68 c9 02 bd b8 b6 29 3c
       0.042382643 -0.54905015 -0.031930357 0.010358505
000150 0c 10 80 bc 12 a6 86 3b 89 53 9b bb fe 89 86 3f
       -0.015632652 0.0041091526 -0.004740183 1.0510862
000160 59 28 a4 c0 24 a5 84 bf 35 c6 bf 3e d8 f1 30 3e
       -5.1299253 -1.0362897 0.37455907 0.17279756
000170 15 4c 34 be 8f 03 84 bf 3f 48 86 be 01 25 5a 3f
       -0.17607148 -1.0313586 -0.26226994 0.85212713
000180 0f 22 a6 3b 62 46 29 bc 24 9f 47 bc d8 29 72 3b
       0.005069978 -0.010331722 -0.012183938 0.003695121
000190 29 c7 b4 3f ad 14 b5 bf a7 45 45 3a d0 7a 26 bc
       1.4123279 -1.4146935 0.00075253326 -0.010161117
0001a0 35 96 f0 3b 08 75 23 3d 05 1e f9 3d 94 e7 64 bd
       0.007342125 0.03990653 0.12163929 -0.055884913
0001b0 92 82 f4 3c 26 6c b9 bd e5 ec 4d bc 25 5f 89 bc
       0.029847417 -0.09053831 -0.012568687 -0.016769001
0001c0 b4 e6 3f 3b c2 a7 97 bc 97 12 77 bc c6 98 37 3c
       0.0029281797 -0.01851261 -0.015080116 0.011205858
0001d0 32 2b ba be 1c aa b7 3e 0c 81 6a 3b 39 8b a3 3b
       -0.3636108 0.3587197 0.0035782484 0.004990962
0001e0 e3 30 03 3f 3f c2 54 3f 99 42 db bd 82 ef 49 bf
       0.5124647 0.83108896 -0.10706062 -0.78881085
0001f0 80 5a 95 bf 20 7c e2 bf 14 e8 9a 3d ac c0 6a 3d
       -1.1668243 -1.769413 0.07563797 0.057312652
000200 7b ba 1b bf 4e a3 ca be 56 d6 cd 3d d2 44 fe be
       -0.6083142 -0.39577717 0.10050647 -0.4966188
000210 ce 1e 6f 3e 1c 2c 9f be e4 74 4d be 73 4a 7e be
       0.23351595 -0.3108834 -0.20064121 -0.24833088
000220 e8 07 83 bf 8b 90 ad c0 2d 1b b4 bf a9 10 36 3f
       -1.0236788 -5.4238944 -1.4070793 0.7111917
000230 81 0f 16 3e 62 75 14 3f f5 27 ba bd 3b 97 67 be
       0.14654352 0.5799161 -0.090896524 -0.22616284
000240 80 80 14 3f 0c 2a 5d 3f 8e b7 eb 3e cf 3d 29 c0
       0.58008575 0.86392283 0.4603848 -2.6443975
000250 e0 1e 9c be 48 ab 31 3e 32 ed 87 be d0 79 a2 bf
       -0.30492306 0.17350495 -0.26548153 -1.2693424
000260 cf 8b c0 3d 9e 45 b7 3b b2 09 3b bb f7 ae 6d 3f
       0.094016664 0.005593016 -0.0028539714 0.928451
000270 81 53 ad 3a 42 79 6c bf 29 4b aa b9 01 31 5c bb
       0.0013223739 -0.92372525 -0.00032480925 -0.0033598545
000280 f9 2c 52 3d d7 94 95 3b 54 9f 79 3c ba 69 b1 3c
       0.05131242 0.004564862 0.015235741 0.02165686
000290 bd 4b 0a 3f 46 96 0e bf 37 e8 98 bb 30 c7 26 bf
       0.5402182 -0.5569805 -0.004666354 -0.65147686
0002a0 2a bd 15 3f df e6 fa be 41 6c 3a bf 4b 13 bc 3e
       0.58491766 -0.49004266 -0.7282143 0.3673347
0002b0 f4 96 7e 3e 7b ad a3 bf 8d 4b 81 3e 42 f7 a4 3c
       0.24862272 -1.2787317 0.25252953 0.020137433
0002c0 02 17 eb 3d 41 01 60 3f 8b 92 2d bf e1 47 2a 3f
       0.11478998 0.87501913 -0.6780173 0.6651593
0002d0 ed fc 46 be 1e 27 f8 3d 72 56 c8 be 14 c2 04 be
       -0.19432421 0.12116836 -0.39128453 -0.1296466
0002e0 20 d0 04 be 71 55 9c bd f6 7d 31 be be f4 49 bd
       -0.12970018 -0.07633484 -0.17333207 -0.04930567
0002f0 d5 b1 89 bc cd b6 3e bd 90 55 5a 3c a4 30 07 bd
       -0.01680843 -0.04656105 0.013326064 -0.03300537
000300 2c 8a ea 3c a6 48 8d c0 4f 6d 68 3d b7 4f 94 bc
       0.028630339 -4.415118 0.05674487 -0.018104417
000310 fc 93 94 3c ce 26 6a bb 76 96 e8 3a bd 6c 9d 3c
       0.01813697 -0.0035728696 0.0017745036 0.01921689
000320 9e 29 15 bd 41 31 da bc cd e7 d9 bc 2f 3c 16 bf
       -0.036416642 -0.026634814 -0.026599789 -0.5868558
000330 d2 6f 81 bc ab 78 1f 3f 4d 42 4f bf 70 a4 0c 3c
       -0.01580039 0.622935 -0.8096054 0.008584127
000340 34 f3 af 3d 87 a8 b0 be ce 3f 5c c0 e5 f6 e2 bd
       0.08591309 -0.34503576 -3.4413943 -0.11082248
000350 59 26 28 bd b0 d7 0e be 68 69 d1 bd 45 76 16 3e
       -0.041052196 -0.13949466 -0.10225183 0.14693554
000360 47 cc 6b c0 c5 ae 6f bf 54 37 88 bf 00 86 c0 be
       -3.684343 -0.9362605 -1.0641885 -0.37602234
000370 3b 68 bf bd 87 d2 b6 be 47 9a a0 3d 9c 0a f1 3d
       -0.09346052 -0.35707495 0.07841926 0.11769602
000380 ec 86 4c 3d d9 96 83 3c 4c f7 88 bb 0d 57 d8 3a
       0.04993336 0.01606314 -0.0041798707 0.0016505435
000390 67 ff 7a 39 d2 ff b8 3b b4 84 6e 3f 0a 18 bc ba
       0.00023937003 0.0056457305 0.9317124 -0.0014350426
0003a0 08 04 01 bd fc 1f 98 3d b9 55 da 3d 79 99 2e bc
       -0.031497985 0.074279755 0.106608815 -0.010656708
0003b0 3d d4 d0 3b 47 8b 44 bd b4 1d d8 bc 54 d3 91 bb
       0.006372957 -0.047984388 -0.026381351 -0.004450241
0003c0 f5 57 a0 bf 6e e0 36 3f 6b 50 95 bf e7 50 83 be
       -1.2526842 0.714362 -1.1665167 -0.2564766
0003d0 a2 ce cc 3e 7f e6 c1 be 40 84 bb 3e ad 17 c4 bf
       0.40001398 -0.37871167 0.36624336 -1.5319725
0003e0 e0 84 a7 3d 02 ac d0 bf 5a f7 be 3e 7f 1e 60 ba
       0.08179641 -1.6302493 0.3729809 -0.0008549466
0003f0 3a f4 6d 3b bc 5a 53 bb ce 29 80 3a 9f 50 93 3f
       0.00363089 -0.0032250127 0.0009778084 1.1508979

layers.0.bias f4 [128]
000000 7a a9 56 bf 9d 43 d7 3f 8c a0 46 3f da b8 31 bf
       -0.8385235 1.6817509 0.77588725 -0.69422686
000010 3e 5b e8 c0 8e 9d 06 40 a6 82 f1 3f c8 d7 3f bd
       -7.261138 2.1033664 1.8867996 -0.046836644
000020 1c 3d ea bd 46 9d 50 be 6e 1a c7 c0 b8 e6 16 c0
       -0.11437437 -0.20372495 -6.2219763 -2.357832
000030 1f f0 8a c0 4d a0 10 bf bb 66 ab 3f 65 4a 39 be
       -4.3418117 -0.564946 1.3390726 -0.18094786
000040 47 d3 fd 3f d9 fe ab bf de c4 58 bf 68 d1 d1 be
       1.9830102 -1.3437148 -0.84675395 -0.40980077
000050 d5 37 71 be 26 78 25 c0 70 0a 4e c0 a9 27 c9 3d
       -0.23556454 -2.5854583 -3.219387 0.09822018
000060 94 e3 eb 3f dc 4f 16 bf 1b d0 2e 40 73 8e 6d 40
       1.8428826 -0.58715606 2.7314517 3.7118194
000070 c9 15 71 c0 59 51 0a bf e5 db b6 be 9f 38 e2 c0
       -3.7669547 -0.54030377 -0.3571464 -7.0694118
000080 1c 03 a1 bf 18 11 bb 3e a0 08 82 3f 07 30 70 c0
       -1.2579074 0.3653648 1.0158882 -3.7529314
000090 b9 81 44 40 5a 62 29 40 d4 8e 86 3f 39 38 c2 bf
       3.0704176 2.646628 1.0512338 -1.5173408
0000a0 16 50 cf bf 4f 81 4d 3f 21 59 08 40 3e 8f 26 bf
       -1.6196315 0.80275434 2.13044 -0.6506232
0000b0 a4 76 19 c0 3f de 82 3f 54 a5 2d 40 8c f4 41 40
       -2.3978662 1.0224074 2.7132158 3.030551
0000c0 65 22 c8 3d f6 cf 30 bf ab 3f 1b 3f f7 53 9f be
       0.09772185 -0.69067323 0.60644025 -0.31118748
0000d0 2f 82 94 3f 11 d0 c6 bf 35 59 43 be 0e 1c ca 3f
       1.1602229 -1.5532247 -0.19076999 1.5789812
0000e0 1d 42 a2 3f f8 c3 6f c0 11 a3 ec bd 99 b7 6a 3e
       1.2676426 -3.746336 -0.1155454 0.229216
0000f0 ab 89 3f 40 e9 9c 09 40 77 c2 f4 be 57 ca 5e 3f
       2.9927776 2.150202 -0.47804615 0.87027496
000100 44 e6 d3 bf 1c 90 ad 3f 51 9e 13 bd 18 06 e3 3f
       -1.6554646 1.3559604 -0.036039654 1.7736235
000110 94 6a 91 3f 83 ad 60 bf d9 bf 13 3e 16 97 6b 3f
       1.136065 -0.8776476 0.14428653 0.92027414
000120 72 3e b4 3f e0 49 38 3e dd d8 81 3e 07 fb 13 40
       1.4081557 0.17996931 0.25360766 2.3121965
000130 ed 0e 65 3e 1d 20 a9 c0 a6 9a 4b 40 77 43 a5 bf
       0.22368975 -5.28517 3.181314 -1.2911214
000140 b3 7f 2a 3f db a1 95 3f b7 98 11 3e f0 13 58 c0
       0.66601104 1.1690019 0.14218412 -3.376217
000150 ba f1 13 3f 5f b4 37 c0 94 81 b1 3c 93 9b 20 be
       0.5779072 -2.870384 0.021668233 -0.15684347
000160 13 8e f7 be d5 73 05 c0 16 df c2 be 5c 86 a2 be
       -0.48350582 -2.0851948 -0.38060826 -0.31743133
000170 42 c2 9c 3f b4 84 82 3f fc 84 42 3e bd a1 0f 40
       1.2246783 1.0196748 0.18996042 2.2442467
000180 49 eb c9 3f 84 db 54 3d e8 2e 2d 40 1d 68 91 3f
       1.5774928 0.05196716 2.705988 1.1359898
000190 0d bd d8 c0 29 d0 8f c0 1a de 95 c0 91 f1 95 bf
       -6.7730775 -4.49416 -4.683362 -1.1714345
0001a0 92 83 e4 be ab ee 7f bf a0 38 28 40 27 9a c7 be
       -0.4463163 -0.99973553 2.628456 -0.38984796
0001b0 02 e8 bb c0 fc 37 5d 40 33 86 1d 40 c8 9b 2d 40
       -5.8720713 3.456542 2.4613159 2.7126331
0001c0 6a 9a 4c bf cd 53 1b bf 94 19 55 40 9d 9c 91 3c
       -0.7992312 -0.60674745 3.3296862 0.017774874
0001d0 11 35 29 bf c2 87 43 3f b7 66 04 40 c5 40 b4 3f
       -0.660966 0.76379025 2.0687692 1.4082266
0001e0 6a 83 16 3f 0e cc c3 be 57 b3 44 40 71 71 51 c0
       0.5879427 -0.3824162 3.073446 -3.272549
0001f0 69 b4 e1 be 03 65 13 3f 07 e8 5f c0 d6 99 9d bd
       -0.44082955 0.57576007 -3.4985368 -0.076953575

layers.2.weight f4 [256, 128]
000000 c5 aa 17 bd 6d b7 1f bf a9 12 53 3d 64 27 c0 bd
       -0.037028093 -0.6238926 0.051531468 -0.09382513
000010 05 07 a8 bd 6e 5c 20 bd 96 2f 31 3b a2 76 30 bd
       -0.08204464 -0.039150648 0.002703642 -0.043081887
000020 ce 48 5b 3d f6 54 39 3e fc e1 18 3e b9 a8 04 bf
       0.05353623 0.18098816 0.14929956 -0.5181995
000030 b4 ac b6 bc 44 80 b8 bd 8b 07 b1 bd b3 79 02 3d
       -0.022299148 -0.0900884 -0.08644017 0.031854343
000040 9d 08 96 3d 95 1f 6b 3d 92 bd fa bd 7c c5 0c c1
       0.073258616 0.057403166 -0.12243189 -8.798214
000050 e9 c5 04 be c9 e7 20 c0 6d 57 0c be b4 99 c6 bd
       -0.12966122 -2.514147 -0.13705225 -0.09697285
000060 7c a7 80 bd a4 0e b3 c0 33 e2 aa bc 01 42 d6 bd
       -0.06281945 -5.595537 -0.020859813 -0.10461808
000070 f9 6e d4 c0 63 ed 96 bd 9c c9 1c 3e ba ff a1 3b
       -6.6385465 -0.07369497 0.15311283 0.004943815
000080 aa 6e 93 be d3 21 ec 3c de ab 18 3e 08 6a 0b be
       -0.28795367 0.028824722 0.14909312 -0.13614666
000090 41 f9 ce 3e a6 14 3f bf 2e 27 47 3d e8 f1 11 be
       0.4042454 -0.7464088 0.04862135 -0.14252436
0000a0 f1 2e 2c 3e b3 ed 76 bd 08 33 4a 3e 0d 04 a1 be
       0.16814782 -0.06028528 0.1974603 -0.31448403
0000b0 63 15 41 3d bf 45 d5 3b f2 72 35 bd 36 dc 0b 3e
       0.047139537 0.0065085585 -0.044299074 0.13658223
0000c0 a9 73 4d 3c 50 67 80 be a7 9f ac 3d 02 54 7c 3e
       0.012539783 -0.2507882 0.08428889 0.24641421
0000d0 aa d3 d3 be b6 1e 8b 3d 03 ba 98 3d e9 30 0d bf
       -0.41372424 0.06792967 0.07457354 -0.55152756
0000e0 e1 a5 89 bd 61 d6 2f 3d 63 2e 98 bd 78 48 68 be
       -0.06721092 0.042929057 -0.074307226 -0.22683895
0000f0 7b b5 1e be 96 59 52 3d 6d 30 06 3c 70 97 d1 3d
       -0.15498917 0.051354967 0.008190257 0.102339625
000100 07 11 06 40 53 5a e9 c0 dd f8 3f 3d 02 b6 a6 3d
       2.0947893 -7.292276 0.046868194 0.08140184
000110 8d fe 02 be 08 59 85 3c 52 ca 81 3a 62 75 96 bd
       -0.12792416 0.016277805 0.0009902215 -0.07346608
000120 d5 2d 7d bd f6 c0 81 3e 19 88 9c bd 67 4a 28 3f
       -0.061811287 0.2534253 -0.07643146 0.6573853
000130 20 ff f4 3f 30 e0 4d 3b cb e1 f6 bd bf eb 82 3d
       1.9140358 0.0031414144 -0.12054785 0.06392621
000140 08 2c df 3f a7 af 58 3e fe 36 a9 bc 01 d3 cf 3d
       1.7435312 0.21160756 -0.020656105 0.10147668
000150 26 09 f9 3d 99 9c 81 bf ea 9a f1 bd 34 c7 c6 bc
       0.12159948 -1.0125915 -0.11797126 -0.02426491
000160 dd 66 e4 be 6a 0f 01 c0 ca eb 8f 3c 82 b2 00 be
       -0.44609728 -2.0165658 0.017568488 -0.12568095
000170 e8 33 11 be 38 4f 93 bd b3 e5 82 3e 18 71 c8 bd
       -0.14179957 -0.07192844 0.25565872 -0.09787196
000180 bc a5 b0 3c d9 77 1e bc 36 f5 3e 3c d6 4f 27 bd
       0.021563403 -0.009672129 0.0116551425 -0.04084762
000190 0a 6d 56 be 79 c8 f8 3d 86 e0 9a 3a d8 1e 0f 3e
       -0.20940033 0.12147612 0.0011816181 0.1397661
0001a0 d2 7a 09 3f 46 41 98 bb d1 cd ef bf fb 7e 30 bf
       0.53703034 -0.004646453 -1.8734685 -0.68943757
0001b0 9f 26 ae bf 8b df c7 c0 93 92 ca 3d 41 cc 1e bd
       -1.3605536 -6.246038 0.09891238 -0.03876901
0001c0 b1 cc 22 be 8e 52 9f 3c 88 a2 64 3d 0f 2c 9e 3e
       -0.15898396 0.019448545 0.055819064 0.3089299
0001d0 c9 02 7c 3d b2 06 92 3d 30 ff 39 be 07 76 13 be
       0.061526094 0.07130183 -0.18163753 -0.14400493
0001e0 a1 cb 6a 3c 3a e6 a7 3d 47 7f bb 3e 7d ec 15 3d
       0.0143307755 0.08198209 0.36620542 0.036602486
0001f0 63 29 74 3e 94 81 e1 3b fc 99 db bd b9 03 89 bd
       0.23843913 0.006881902 -0.107227296 -0.06690163
000200 ef ce 60 bf ad f9 ba bf 20 e9 f2 3e 24 0a 06 be
       -0.87815756 -1.4607445 0.47443485 -0.13089806
000210 00 2c 22 c1 ff 01 19 be 75 c8 30 3f 98 f0 87 bc
       -10.135742 -0.14942168 0.69055873 -0.016594216
000220 d8 6b 50 bc 25 c8 73 3b da db c8 3e 33 5b 9f 3e
       -0.012721024 0.0037198153 0.39230233 0.31124267
000230 6c e2 1d 3f 61 4e 73 be 57 45 0b 3d 15 89 8c 3f
       0.6167362 -0.23760368 0.034001675 1.0979334
000240 6e e4 df be b2 da d1 bf d2 f7 c4 c0 e8 b8 93 be
       -0.43728966 -1.6394866 -6.1552515 -0.2885201
000250 ab 7b 46 40 cf a2 08 bf 55 45 b3 be 40 02 df 3d
       3.101298 -0.53373426 -0.35013834 0.10889101
000260 aa 8f 7b bf 17 11 08 c0 96 21 24 3f 5e f7 b6 bf
       -0.9826609 -2.126043 0.6411375 -1.429424
000270 74 1e 7e be c7 a9 11 be 1c 1d 15 c0 f1 db 5c 3f
       -0.24816304 -0.14224921 -2.3299017 0.86273104
000280 14 4b 93 be 44 6a 0e 3f c0 92 c0 bf 01 bb 19 3f
       -0.28768218 0.556309 -1.5044785 0.6005097
000290 d1 f5 35 3f c8 56 de 3e ee 8b 1b 40 82 af 57 c0
       0.7107821 0.43425584 2.4304156 -3.3700871
0002a0 20 90 0a be bd d1 86 c0 ff 2e 1a 3e c0 c1 16 3f
       -0.13531542 -4.213103 0.1505699 0.5888939
0002b0 c4 87 00 c0 10 e6 f5 3f 0d d1 15 c0 db f0 ce bf
       -2.0082865 1.9210835 -2.3408844 -1.6167253
0002c0 a5 e7 9e 3d 4d 57 a1 3e 19 24 a2 3e 2b 5d 47 bf
       0.077590264 0.31511918 0.31668165 -0.7787654
0002d0 fa d3 37 3f 40 c0 1a bf 95 c8 28 bd 75 ba 18 3f
       0.71807826 -0.604496 -0.041206915 0.5965951
0002e0 7f d3 21 bf 88 4d 3b 3f f2 88 01 bf a6 3f 95 3e
       -0.6321334 0.7316518 -0.50599587 0.29150122
0002f0 e5 19 f9 3e 24 54 49 c0 54 42 92 3e 61 a7 bc 3f
       0.48652568 -3.1457605 0.2856623 1.473858
000300 87 4d b8 40 9c 23 9d 3e 08 b4 bb 3f 7f 44 a1 3d
       5.759464 0.3069123 1.4664316 0.07874393
000310 c5 97 0e bf 0f 8f 3a c0 e4 69 c3 bf 90 e3 09 3f
       -0.5570033 -2.9149816 -1.526669 0.5386286
000320 5f 29 85 3f a8 35 bf be 73 b9 53 3f e2 4d d1 3e
       1.040325 -0.37345624 0.8270485 0.40879732
000330 4c c1 0c 3f 34 11 87 bd 20 33 ea 3e 57 c9 bc 3e
       0.5498245 -0.06595078 0.4574213 0.3687236
000340 92 36 2f 3f 6d 7c 03 c0 0d 83 1c 3d 2c 78 5c 3f
       0.6844264 -2.0544693 0.038210917 0.8612087
000350 f2 e1 a6 3f 8e fa 3f 3e 24 dc ae bf 8c 73 d2 bc
       1.3037703 0.18747923 -1.3660932 -0.025689863
000360 3b 70 c3 be b9 e5 26 bf c6 a1 87 bd bd 85 aa 3e
       -0.38171563 -0.6519428 -0.06622653 0.3330516
000370 48 2f 9e 3f 96 9c ec bf 4e b3 dc bf 3b 53 88 3f
       1.2358179 -1.8485286 -1.724222 1.06504
000380 dc 90 7f 3e 78 67 21 3f ec 76 04 be ad d2 33 bf
       0.24957603 0.63048506 -0.1293599 -0.7024334
000390 ca 08 f8 3e 08 2b 93 3e 0f 32 a9 bc d7 65 5e 3f
       0.48444206 0.28743768 -0.020653753 0.86874145
0003a0 0b d3 42 3f 18 19 1e c1 42 0a 8c bf 53 f3 59 3e
       0.76103276 -9.881126 -1.094063 0.21284227
0003b0 8e 48 7a be 90 81 94 3f 07 81 a5 3e 61 7e 5d 3e
       -0.2444174 1.1602039 0.32325003 0.21630241
0003c0 f8 af 0e 3f 31 cc 58 3d 09 8e 67 3f 8f 8b e1 bf
       0.55737257 0.052929107 0.90451103 -1.7620715
0003d0 9f 66 1d c0 2b 8a 65 3e 8f c9 c2 3e 01 45 85 bd
       -2.4593885 0.22415988 0.38044402 -0.06507302
0003e0 ea 21 12 3f 51 0b e9 3d ae 12 41 3f 43 41 96 be
       0.57083 0.113791116 0.7541913 -0.29346666
0003f0 b1 ff b5 3f 22 35 b5 3f 73 47 bd be ca 64 b5 3f
       1.4218656 1.415684 -0.36968574 1.4171383

layers.2.bias f4 [256]
000000 3f ba 30 3d fc 3e 60 bf d7 8f 89 bd 5c af 18 c0
       0.043146368 -0.87596107 -0.067168884 -2.385703
000010 b2 ed 1b be 9a c0 43 3f 0b 6b f5 bd 02 a6 10 be
       -0.15227392 0.7646576 -0.119833075 -0.14125827
000020 40 64 c1 c0 30 34 22 bf 76 51 b4 3f c2 72 c3 bd
       -6.0434875 -0.6336088 1.408736 -0.09543373
000030 4a 8b e4 bd 46 cc bc bd 3b db 9c c0 8f 4a 79 bb
       -0.1115938 -0.092186496 -4.9017615 -0.0038038825
000040 a9 67 99 bd 92 41 4a bd b6 c2 aa bf dd 83 7e be
       -0.07490475 -0.04937894 -1.3340671 -0.2485499
000050 d6 20 05 c0 d5 22 21 be 3e 10 27 bd e8 98 12 c0
       -2.0801291 -0.15735944 -0.040786974 -2.2905827
000060 2b e2 7a 3f 33 af 52 bd 3f fa 4a bd b4 b1 b2 bf
       0.98001355 -0.051436614 -0.04955506 -1.3960481
000070 55 9f 4d bf 8d fc e5 3c cf e4 09 40 c6 fe 1d be
       -0.80321246 0.028074527 2.1545904 -0.1542922
000080 24 0d b8 ba 86 9c 96 bf ff 1e 47 c0 42 ec a9 bc
       -0.0014042002 -1.1766517 -3.1112669 -0.02074254
000090 71 57 22 be e2 77 cd 3f 21 38 73 c0 a7 67 8a bd
       -0.15853669 1.605221 -3.8003008 -0.06758051
0000a0 d0 d7 35 c0 4a 51 ae bd 52 76 4e be 93 ac dc be
       -2.8412971 -0.085115984 -0.20162323 -0.43100414
0000b0 bd f4 45 bf b7 34 94 bc 68 81 f3 bd d0 41 77 c0
       -0.77326566 -0.018091543 -0.11889917 -3.8633919
0000c0 97 1e 35 c0 7c 23 96 bd 2d 73 ee bf b0 76 95 bf
       -2.829992 -0.07330987 -1.8628899 -1.1676846
0000d0 80 b8 0d bf 85 a5 fe bf 50 87 4c c0 64 e5 49 3d
       -0.5535965 -1.9894263 -3.1957588 0.04929103
0000e0 4d 61 77 3f 32 45 dd 3c da 3d bd bd 7d db 6d bd
       0.96632844 0.027010534 -0.09240313 -0.05807065
0000f0 4c 59 5a c0 8e b3 9a bd 08 56 ae 3d 34 06 87 bf
       -3.4117002 -0.075537786 0.08512503 -1.0548768
000100 28 cb cd 3f 02 d6 a4 bd 70 19 ff bd 5b e4 95 3f
       1.6077623 -0.08048631 -0.12456024 1.1710314
000110 c5 ab 8a bd 7b bc 4d bf dd 7c 49 be c8 55 d1 3e
       -0.06771044 -0.80365723 -0.19676538 0.40885758
000120 45 b9 3f bf ab fc c0 3e f3 85 bd 3f 58 f8 ea bd
       -0.74892074 0.3769277 1.4806503 -0.11473149
000130 c1 31 8c bf 25 4e ed bd df c6 9a bf 62 a9 46 c0
       -1.0952684 -0.115871705 -1.2091941 -3.1040883
000140 e8 11 32 bc 80 80 1a bd 69 6d e3 be ef 53 d3 3f
       -0.010868527 -0.037720203 -0.4441941 1.650999
000150 b6 4c 23 40 b6 fa 00 be 2f cf c1 bf 7c 2e a6 bd
       2.551557 -0.12595639 -1.5141352 -0.08114335
000160 0c ee 91 bf 49 3c c4 3e 2d e7 cc be bb a4 86 3f
       -1.1400771 0.38327244 -0.40020123 1.0519022
000170 bd 25 24 bf 5d bf f1 bd 43 40 7f c0 41 45 a3 bd
       -0.64120084 -0.11804078 -3.9882972 -0.079721935
000180 08 6d 61 40 f0 aa e6 be be df 95 bd 61 f4 d1 bf
       3.5222797 -0.4505229 -0.07318066 -1.6402704
000190 6f 0a 2b bf 27 03 cd be 35 ed 84 c0 91 ca 70 bc
       -0.66812795 -0.40041468 -4.153956 -0.014696733
0001a0 b2 4e be bf 03 bd 14 c0 86 03 23 bf 91 9d 48 be
       -1.4867766 -2.3240364 -0.6367725 -0.19591357
0001b0 98 39 cd bf e3 57 01 bf c3 51 bb bf 91 2c 98 bd
       -1.6033201 -0.5052473 -1.4634327 -0.07430375
0001c0 50 44 e8 bc 3c f8 41 be fe 8f af 3f 92 a2 26 bf
       -0.028352886 -0.1894235 1.3715818 -0.6509181
0001d0 13 26 14 40 eb e2 1d be 71 92 69 bc 2b 85 d6 bf
       2.3148239 -0.15418594 -0.014256106 -1.675939
0001e0 7c 1e c0 be a7 1a 0e c0 31 4c 3a bd 47 f5 18 3f
       -0.37523258 -2.2203767 -0.045482818 0.59749264
0001f0 09 77 ca bf 61 59 4c bf cd 65 0b c0 b7 09 47 c0
       -1.5817577 -0.7982388 -2.1780884 -3.109968
000200 84 2c d6 bf f7 6e 32 c0 40 d4 01 c0 db d9 9f 3f
       -1.6732335 -2.7880228 -2.0285797 1.2488359
000210 7f 4b d4 be ae 09 86 bf 64 52 d7 3f 08 10 2d be
       -0.4146385 -1.0471704 1.6822019 -0.16900647
000220 f8 de 45 40 2e 19 48 bf 39 53 8e be e1 53 71 3e
       3.091734 -0.7816342 -0.2779787 0.23567154
000230 42 2d 3f be 30 81 49 3c 41 44 b6 bf 19 ef 98 be
       -0.18669608 0.012298867 -1.423958 -0.29869917
000240 78 8d a4 3c 1b 43 61 c0 b1 e5 24 bf 72 7d 1b bd
       0.020086989 -3.5197208 -0.6441298 -0.03796143
000250 53 8a 97 bf 55 d6 67 3c 3e 8c c5 bd 33 d1 b6 bf
       -1.1839088 0.014150222 -0.0964589 -1.4282593
000260 66 b7 c1 bf 17 13 a1 bf 58 ca 32 3f 83 16 5e 3c
       -1.5134094 -1.2583951 0.6984 0.013555172
000270 7d 2c 60 c0 f7 f9 4b bf 98 a1 cc bd 9c 43 b4 bd
       -3.5027153 -0.7967829 -0.09991759 -0.08801958
000280 b4 26 43 be 66 e9 f4 be 4f 53 43 be 54 14 98 bc
       -0.19057733 -0.4783432 -0.19074748 -0.01856438
000290 6d 73 94 bd 0e f5 72 3e 0f eb 16 bc 77 4a bf bd
       -0.07248578 0.23726293 -0.009211316 -0.09340375
0002a0 13 5b 44 c0 bc 36 41 bf 65 d7 8c 3e 66 0d a3 bf
       -3.0680587 -0.75474143 0.27508083 -1.2738464
0002b0 27 61 d9 3f 32 9a 0a bf 11 06 5f 3f d5 7d aa bf
       1.6982774 -0.54141533 0.8711863 -1.3319651
0002c0 15 15 dc bf 84 22 7d bf 1a 84 db bf 90 d6 12 c0
       -1.7193934 -0.9888079 -1.7149689 -2.2943459
0002d0 1e 51 74 be da b0 ec bb 93 7f db bd f9 ae 3b c0
       -0.23859069 -0.007223231 -0.10717692 -2.9325545
0002e0 bf de 23 bf 49 58 cb 3e c6 55 1e c0 d7 d0 f4 bd
       -0.6401176 0.39715794 -2.4739852 -0.119538955
0002f0 bd a9 9f bc eb d6 11 c0 cf b4 28 c0 38 0e 0f c0
       -0.019490117 -2.2787426 -2.6360357 -2.2352428
000300 0c 91 b8 bd 31 f2 d9 be 35 f7 9c bf 34 70 c5 bd
       -0.090120405 -0.4256759 -1.2262942 -0.09640542
000310 43 6e 0f bf 00 d2 55 bf c5 e8 dc bf dc ee 03 c1
       -0.5602762 -0.8352356 -1.7258536 -8.245815
000320 ce ef 68 3f d9 32 60 bf 06 43 bd 3f ff 11 a3 3e
       0.9099091 -0.8757759 1.4786079 0.31849667
000330 7d 87 2c bc 5b a5 e7 bd 4c 1a dd bf 91 e4 53 c0
       -0.01053035 -0.11310836 -1.727365 -3.3108256
000340 21 a0 9d bf 42 e7 80 c0 c5 57 81 3e 07 a8 4f bd
       -1.2314492 -4.0282297 0.25262275 -0.050697353
000350 ec ee 68 be 07 f0 18 c0 8d 88 08 bf 85 b4 d5 bd
       -0.22747391 -2.38965 -0.5333336 -0.10434822
000360 4e 9e ca bd 1f 83 16 bd c2 12 89 bf 70 db 6a c0
       -0.098934755 -0.03674614 -1.070885 -3.6696434
000370 32 29 0f 40 06 8a 61 40 4f 18 c2 bf 52 1a 40 bf
       2.2368894 3.5240493 -1.5163668 -0.7504016
000380 44 a4 46 bd 6b 95 ae 3e e3 34 c5 bd 49 67 d1 bf
       -0.0484965 0.34098372 -0.09629228 -1.6359645
000390 9d bf f2 bf be 79 92 be be 28 dd bc 98 28 58 bd
       -1.8964726 -0.28608507 -0.026996966 -0.05277309
0003a0 84 14 f4 3c 06 fd f2 3e 69 2a e8 bd ab cf 77 bf
       0.029794939 0.47458667 -0.11336214 -0.9680125
0003b0 1a 33 1e be 91 ab 8a bf a6 2b f8 bd 50 2f e9 bf
       -0.15449181 -1.0833608 -0.121177 -1.8217564
0003c0 8b 57 8e 3f 4c a7 9f c0 62 72 30 bf 2a 39 9b 3e
       1.1120466 -4.989172 -0.68924534 0.3031705
0003d0 8f ae a5 3f 5e fb 92 c0 8a ec ee bd c0 d3 bc bd
       1.2943896 -4.5931845 -0.1166621 -0.092200756
0003e0 f4 eb 6c 3f b4 eb f1 3e b8 68 4d c0 f1 60 b5 3f
       0.92547536 0.4725014 -3.2095165 1.4170209
0003f0 8e 0e 6e 3f e5 b5 0a be 27 91 0d be 3e 7b 44 40
       0.9299096 -0.1354595 -0.13824902 3.070022

layers.4.weight f4 [256, 256]
000000 90 ee ce 3e a4 67 99 bf 40 96 87 bd d1 8a 76 bf
       0.40416384 -1.1984754 -0.06620455 -0.9630557
000010 f6 67 51 bd c6 2e f4 bf 7e ee 0f 3c 1e 27 53 3d
       -0.051124536 -1.9076774 0.008784888 0.051550977
000020 66 bc 54 c0 9f 6e ea bd eb dc 7e bf b8 f7 70 bd
       -3.323999 -0.114468805 -0.99555844 -0.058829993
000030 80 13 02 bb eb 3a 6a bc 95 b8 a8 bf 57 5c 5a 3d
       -0.0019848049 -0.014296274 -1.318133 0.05331072
000040 20 94 65 bd ad 47 5b bd 1e 29 d0 bf f4 7c d1 3e
       -0.056049466 -0.053535152 -1.6262548 0.40915644
000050 34 b1 be bf 28 4a 0e bc 80 a9 71 bd 9d 53 3c 3e
       -1.4897828 -0.008684672 -0.05899954 0.18391271
000060 a4 3f 3b be 0b 49 01 bd b4 f7 87 bd 33 85 42 be
       -0.18285996 -0.0315638 -0.066390425 -0.18996124
000070 f1 fd 13 be 14 47 33 bd a2 ca 3c be aa 3f 88 3b
       -0.1445234 -0.043768957 -0.18436673 0.00415798
000080 b0 8e 29 3c 2c b1 8f c0 d3 94 e0 3e 66 a5 a6 3c
       0.010348961 -4.4903774 0.43863544 0.02034254
000090 10 fd ae 3c 35 d4 99 bf d9 74 66 be f9 ec a8 bc
       0.021360904 -1.2017885 -0.22505511 -0.02062081
0000a0 70 e3 31 3e be 5d 49 bd da 86 48 3d 29 d8 8c c0
       0.17371917 -0.049161665 0.04895673 -4.4013867
0000b0 93 eb d3 be 11 fe d8 38 12 be 28 3d 88 0f 4f bf
       -0.41390666 0.00010347006 0.04119689 -0.80883074
0000c0 07 88 5e 3e b8 c6 33 3c e0 bd b4 3d bb 95 00 3f
       0.21731578 0.010972671 0.08825278 0.5022847
0000d0 26 c9 9d 3e 29 d8 a2 3d 02 83 2d 3d 3e 70 82 bd
       0.30817527 0.079513855 0.042361267 -0.06369065
0000e0 8b 61 85 c0 b6 45 1d bd 04 26 8a 3c 7c 01 c3 3c
       -4.168157 -0.03839656 0.01686383 0.023804419
0000f0 f7 f9 36 bf 6b 93 62 bd 50 f6 4c bd 02 a4 83 3d
       -0.71475166 -0.05531637 -0.05003959 0.064277664
000100 57 b4 55 3f a4 93 08 3d 8b 0f 06 3c 2e 8a 5c 3f
       0.834783 0.033343926 0.008182417 0.86148345
000110 a4 5d 3b 3d f9 8c ff be 55 70 b9 3c e0 16 37 bf
       0.0457436 -0.4991224 0.022636572 -0.7151928
000120 bf 49 a0 bf 97 fd 99 bf f6 82 fb be 4a 1e c8 3c
       -1.2522506 -1.2030514 -0.49123353 0.024428505
000130 a0 19 74 3d 68 12 32 3d 6a 31 48 3d df d8 4c c0
       0.05959475 0.043474585 0.04887525 -3.2007368
000140 65 2b ee bc c4 35 e7 bc 62 f6 08 c0 47 2d a7 c0
       -0.029073426 -0.02822388 -2.140038 -5.224277
000150 a0 ca 8d be f0 d4 61 bd e3 bb 22 3e 63 b0 11 3d
       -0.27693653 -0.055134714 0.15891986 0.035568606
000160 75 a1 ee bf 47 e9 20 bd cd 29 eb 3f ac 06 76 bd
       -1.8643023 -0.03928497 1.8372132 -0.060064957
000170 b2 3a 03 c0 a0 a4 89 3c c4 17 ae 3f a8 99 19 3c
       -2.0504575 0.016802132 1.3601003 0.009375013
000180 fe c0 b0 be e1 b3 80 3e de ef 69 bd 48 74 72 bf
       -0.3452224 0.25137237 -0.05711352 -0.9470868
000190 72 72 72 bd 81 e9 56 3f cc 8b 37 bf da 1c 01 ba
       -0.059191175 0.8395005 -0.7169769 -0.00049252587
0001a0 fd e9 d2 3e 69 ea 81 3f a6 d1 b0 bf 4f fa 85 3f
       0.41194144 1.0149661 -1.381398 1.0467013
0001b0 39 0d 5b be 07 79 a6 bf d3 4d 69 bf 0a 5f 0f 3c
       -0.21391763 -1.3005685 -0.91134375 0.008750686
0001c0 05 6e a1 bd ac af eb bb b8 6e cd bf 5e c6 58 bf
       -0.07882313 -0.0071925726 -1.6049414 -0.84677684
0001d0 2e 41 b7 3e 73 2c 2d bd 69 2e 53 bd 67 ca e4 bd
       0.35791916 -0.04227872 -0.051557932 -0.11171418
0001e0 c8 ad 38 bc 9f be da 3e 97 4f 33 bb c6 2d 64 3f
       -0.011271901 0.42723557 -0.0027360672 0.89132345
0001f0 f4 da c8 3e 6a 1e 5b 3e ae a2 3e bf ce d1 da be
       0.39229548 0.21398321 -0.7446698 -0.42738193
000200 28 77 cb 3e d1 18 29 be 24 c1 59 3f 48 59 ea 3e
       0.39739347 -0.16513373 0.85060334 0.4577124
000210 a8 41 92 be 87 8c fe bc a2 b3 c0 3d 29 15 af 3e
       -0.28565717 -0.031072868 0.09409262 0.3419583
000220 18 ee 59 be 4f c2 61 3f d1 c3 d7 bf 23 7f 53 3f
       -0.21282232 0.88187116 -1.6856633 0.8261587
000230 b3 31 82 bc 50 0a b9 bb e4 d4 20 c0 af d2 05 3f
       -0.015892839 -0.0056469813 -2.5129938 0.522746
000240 b1 a9 ef bc a6 54 70 be 6d 94 d6 3e 38 ab 56 bd
       -0.02925572 -0.23469791 0.41910115 -0.05240938
000250 02 4b f8 c0 49 01 7e bd c6 69 0c bd 87 bb 2e c0
       -7.759156 -0.062012944 -0.03428056 -2.7301958
000260 7d 02 17 3f 59 99 86 3f db 93 01 3f 94 c1 41 3c
       0.5898817 1.0515548 0.50616235 0.011825938
000270 0c 19 9e 3f f9 aa 60 c0 12 69 6e bd 23 64 fb bc
       1.2351394 -3.5104353 -0.05820567 -0.030687397
000280 0f de b4 3b c4 37 53 bf 52 0f 7a 3f 84 bd 3f bc
       0.0055196355 -0.82506967 0.97679627 -0.011702899
000290 7c 1c cc 3c ab 2e 4e c0 48 e7 8d bc e4 13 40 3d
       0.024915926 -3.2215984 -0.017322198 0.04689397
0002a0 13 86 fe be c4 f5 05 3e 6e 07 f5 3f 5d ad 74 c0
       -0.49711666 0.13082033 1.9142892 -3.8230813
0002b0 60 2d a9 3f fa 23 b4 3e d9 99 d1 be d9 62 15 3d
       1.3216972 0.35183698 -0.4093769 0.03647122
0002c0 49 79 83 3f e9 39 1a 3e f6 a4 b6 be ad bc 12 3f
       1.0271388 0.15061153 -0.3567273 0.57319146
0002d0 71 de 93 3e 68 65 29 bd 3c 23 59 3d 7d 06 1d 3b
       0.28880647 -0.041356474 0.053012118 0.0023960166
0002e0 a8 c7 e2 bf 95 de 2d 3f 1c 41 d8 3e c6 3e db 3c
       -1.771718 0.6791776 0.42237175 0.026763331
0002f0 30 94 86 3c 3c c2 c8 bf 29 e1 f0 3e 23 0e 5c bf
       0.016428083 -1.5684276 0.47046784 -0.8595907
000300 a7 34 ba bc 13 30 3e bd 7a dd 7d c0 69 63 4e bd
       -0.022730185 -0.046432566 -3.9666429 -0.050387774
000310 0d 0c 0b bf 83 9c 13 3e 2b 9d 87 bf 6c 88 bb 3a
       -0.54315263 0.14415173 -1.0594839 0.0014307625
000320 b7 de 1a 3f 6d 2d 09 c0 d1 84 37 c0 ef e0 14 3f
       0.60496086 -2.1433976 -2.8674815 0.5815572
000330 31 c5 7b bc a6 9f 31 bd 76 86 00 3d e1 9a 53 3f
       -0.015366838 -0.043365143 0.031378232 0.826582
000340 13 c0 a1 bf 45 e2 56 c0 55 e2 80 3e bb cd 55 bd
       -1.2636741 -3.3575604 0.25172678 -0.052198153
000350 23 4f dc bf 15 fa 6b 3f e1 71 cf bf 6f c3 35 bd
       -1.7211651 0.9217847 -1.6206628 -0.044375833
000360 d4 72 1b 3d 7d cc 56 3d 88 1f f1 bd cd 8c 79 3f
       0.037951306 0.05244111 -0.11773592 0.9748047
000370 2e 7b e0 3e 6c 02 56 c0 77 df 52 3f 0b d9 5f 3f
       0.4384398 -3.3438978 0.8237223 0.87440556
000380 bc 97 65 bd e5 e0 68 bf 44 f5 fa bc 9e 9f 64 3f
       -0.05605291 -0.9096816 -0.03063453 0.89306056
000390 f7 7f 27 bf c0 d9 0d bd 67 27 bd bc 7d d2 65 bd
       -0.65429634 -0.03463149 -0.023090078 -0.05610894
0003a0 a1 8b ee bd d7 89 fc bf b8 9a 3b bc 6e 52 c4 bf
       -0.11647726 -1.9729565 -0.011450462 -1.5337656
0003b0 e8 92 96 bc 9b 9b 9a bf 1f d7 3d bb a1 b3 59 bf
       -0.018380597 -1.2078737 -0.0028967333 -0.85039717
0003c0 a2 41 0f 40 9b b7 41 3e 51 48 66 3f 99 df 17 c0
       2.238381 0.18917696 0.89954096 -2.3730223
0003d0 c5 54 95 bf da 08 26 bf de 01 95 bb 0b 86 ad bc
       -1.1666495 -0.64857256 -0.0045473417 -0.02118208
0003e0 ec 82 11 c0 52 73 38 3e 41 3e 20 3f 27 62 50 c0
       -2.2736158 0.18012741 0.6259499 -3.2559907
0003f0 1a 18 16 c0 5f 05 0f bc 1d 5c 27 bd 57 22 52 bf
       -2.345221 -0.008729308 -0.04085933 -0.8208365

layers.4.bias f4 [256]
000000 82 e0 69 c0 df 08 63 c0 01 d5 0a c0 9f 0c ad bf
       -3.6543279 -3.5474164 -2.1692507 -1.3519477
000010 e0 7b 71 c0 4c 1c ce bd 63 f9 2f 3f 75 31 92 3f
       -3.7731857 -0.10063991 0.6873991 1.1421343
000020 4f e1 0b c0 c2 44 6b c0 47 8c 0a c0 60 bf 8a 3e
       -2.1856267 -3.6760716 -2.1648118 0.27099133
000030 b3 f4 ee bd f5 7a 96 bf c6 2f a0 bd 78 1c 38 be
       -0.116677664 -1.1756274 -0.07821612 -0.1797961
000040 7a 1a 40 3e 70 3a e1 bd b7 e2 39 bd 81 5e 06 c0
       0.187601 -0.10997474 -0.045382228 -2.099518
000050 ab 4e 92 be 1b 44 93 3f 64 07 dd 3e c5 7e 0d bd
       -0.28575644 1.1505159 0.431697 -0.034544725
000060 3d 1c 3a c0 b2 56 3e c0 68 d5 7f c0 d1 c2 ac 3e
       -2.9079735 -2.9740415 -3.9974003 0.33742383
000070 f4 bb 43 c0 3d a3 9d bd e5 26 c5 3d b8 d9 87 bd
       -3.0583467 -0.07697151 0.09626559 -0.066333234
000080 83 e5 9e be fe 8c 64 bc 10 c1 36 bf 01 11 18 be
       -0.3103448 -0.013949631 -0.7138834 -0.14850236
000090 97 7c 09 be 32 03 34 bf 17 93 19 be ba d1 97 bf
       -0.13426434 -0.70317376 -0.14997517 -1.1860878
0000a0 b8 18 dc bf a4 d1 56 bf e2 ea 2d 3f f0 4e 14 be
       -1.7195044 -0.83913636 0.6793653 -0.14483237
0000b0 76 26 33 bf 0a 04 4f c0 e3 b7 a8 3f 74 4f 88 bd
       -0.6998056 -3.2346215 1.3181118 -0.066557795
0000c0 3c a2 e3 bf 8a 3c 7e bf ac d7 1c bf 08 19 c2 bf
       -1.7783885 -0.99311125 -0.6126659 -1.5163889
0000d0 13 62 80 bd ad 07 9b bf b1 11 9d 3e b0 cb 37 bf
       -0.06268706 -1.2111717 0.3067756 -0.7179518
0000e0 ce 76 be bf 51 ff 0c c0 61 1c a5 bd b6 72 ba bf
       -1.4880006 -2.2030833 -0.080620535 -1.4566257
0000f0 29 56 06 c0 cf a1 70 3f 30 93 84 c0 e0 6e da bf
       -2.0990088 0.939969 -4.142967 -1.7065086
000100 fc ab e7 bf dc 78 93 be ed 3e 4d bf e7 3f c7 bd
       -1.809936 -0.28803146 -0.8017414 -0.09728985
000110 05 2d 6c bd 9e 16 a9 bf 10 8d 37 c0 ed be 2e c0
       -0.05766012 -1.3210027 -2.8679848 -2.7304032
000120 b8 77 20 c0 34 ed 01 be a7 3d ad bf 45 af 21 c0
       -2.507307 -0.12688142 -1.353444 -2.5263226
000130 e2 62 7d c0 4a 28 32 c0 5c 2e 9c bf b1 b5 b9 3f
       -3.9591603 -2.783709 -1.2201648 1.4508573
000140 a2 52 d5 bd ae 9a c1 bd 2c f8 c0 bf 64 23 08 bf
       -0.104161516 -0.09453331 -1.5075736 -0.53179
000150 7a 16 de bc 8b a1 a9 bd 22 77 8e bf b2 b6 1e c0
       -0.027110327 -0.08282765 -1.1130106 -2.4799008
000160 63 c0 90 3c ec 07 ba bf 9d e5 14 c0 4f dc 15 3f
       0.017669862 -1.4533668 -2.3265145 0.5853929
000170 30 51 3a 3f db 1c 0b be b8 8d cf bd a2 ad 84 3f
       0.7278013 -0.13585226 -0.101344526 1.0365489
000180 09 75 28 be 96 f6 2f 3f a4 7e b7 bf b1 d8 cb bd
       -0.16450895 0.68735635 -1.4335523 -0.0995344
000190 36 53 86 3f 9c 91 0c 3e 0f fc 08 c0 53 c0 39 3f
       1.0494144 0.1372742 -2.1403844 0.7255909
0001a0 ac c5 bf bd 11 07 3b 3f c4 1f 35 bd 00 ae d5 be
       -0.09363875 0.7305766 -0.044219747 -0.41734314
0001b0 89 86 e2 bf 10 eb 1c c0 50 00 13 bf 02 4b 75 c0
       -1.7697307 -2.451847 -0.5742235 -3.832703
0001c0 04 24 c2 bf 6e a9 cd bd 84 3b 34 c0 f2 c8 22 be
       -1.5167241 -0.10042082 -2.8161325 -0.15896967
0001d0 2a 73 5c bf ef d4 f1 bd ae 22 1e be 2d 2e be 3f
       -0.86113226 -0.11808192 -0.15442917 1.4857842
0001e0 7c 51 1a c0 2a 3c 12 3f 1d 2c 0b c0 f0 df 93 be
       -2.4112234 0.57123053 -2.1745675 -0.28881788
0001f0 d4 92 f3 bd 6c d6 f9 bf 99 e2 87 bd 56 4a 65 c0
       -0.118932396 -1.9518561 -0.06635017 -3.582662
000200 4e ce 80 c0 59 61 9b bd 9e d1 2d 3e c1 99 b9 bf
       -4.0251837 -0.07586927 0.16974494 -1.4500047
000210 ca 29 b8 bf 2a 85 2b c0 67 1c 00 be 87 84 e0 bf
       -1.4387753 -2.6800027 -0.12510835 -1.7540444
000220 49 d1 95 bd 42 de 04 be c7 12 e4 bd 35 3b a2 bf
       -0.073153086 -0.1297541 -0.11136394 -1.2674319
000230 df 0e 3f c0 99 76 8c bf 23 41 fc bd 4b 97 2e bf
       -2.9852827 -1.0973693 -0.12317111 -0.68199605
000240 2a 56 fd bd 4d a3 bf bf c6 f2 9d bd e9 be 4b bd
       -0.1236995 -1.497171 -0.07712321 -0.049742613
000250 fa 1a f4 bf 71 3e 0a 3e 6f 49 c0 bf 8f 3f 1c c0
       -1.9070733 0.13500382 -1.502241 -2.4413793
000260 82 3f 19 bf 88 90 4d be f2 40 1b be 54 fe 2e bf
       -0.5986253 -0.20074666 -0.15161493 -0.68356824
000270 5b 2a 39 3e 91 0e c9 bd 93 61 46 c0 4e 00 8f bf
       0.18082564 -0.098172314 -3.0997055 -1.1171968
000280 e1 46 2c 3f a1 b2 ef bd 3c 24 4f 3f 20 6a ce be
       0.6729565 -0.11703993 0.80914664 -0.40315342
000290 49 b5 6d c0 c9 ac 68 bf c7 18 e8 bc e9 0f f8 3e
       -3.7141898 -0.9088865 -0.028332127 0.48449638
0002a0 92 c2 f5 bd 68 aa 90 bb c5 3e e8 be 90 d0 c2 bd
       -0.12000002 -0.0044148453 -0.4536039 -0.095124364
0002b0 57 de 46 be 3f 25 31 3c 02 6b 51 c0 bc 05 9b c0
       -0.19420753 0.010812103 -3.2721562 -4.84445
0002c0 24 4e 4c 3e ff 38 0d c0 18 09 35 3d 62 dc d0 bf
       0.19951683 -2.2066038 0.044198126 -1.6317255
0002d0 87 c9 64 3e 11 f1 c9 3f 0d 7b d0 3e 8a b0 d0 bd
       0.22342502 1.5776693 0.4071888 -0.10189922
0002e0 8d 3a ee bf 2d 31 15 c0 19 09 30 bf 83 f9 9c bf
       -1.8611618 -2.3311265 -0.6876388 -1.2263645
0002f0 03 d6 a0 3f 12 7c 43 3c dd 4a 09 3f d5 64 a7 be
       1.2565311 0.011931436 0.5362986 -0.32694116
000300 3f 40 9c bf 52 6b 7d bd 85 95 77 3f 3f 9e 39 c0
       -1.2207106 -0.061869927 0.96712524 -2.9002836
000310 e3 db 8b c0 a2 a2 79 c0 9d c0 e0 bf 04 f3 7b c0
       -4.3705916 -3.9005513 -1.7558781 -3.9367075
000320 6a 1d 53 c0 20 3d ca bf 66 d3 35 c0 47 38 56 c0
       -3.2986703 -1.5799904 -2.8410277 -3.347185
000330 15 c8 58 3d 66 a7 b2 3f 20 5b 75 be 71 bd 1e c0
       0.052925188 1.3957336 -0.23960543 -2.4803126
000340 fa d0 cd bd ed 9e 78 c0 5b e9 1a be ef 06 1b c0
       -0.10049625 -3.8847 -0.1512808 -2.4222982
000350 51 ed db bd 73 d8 dc bd 4b 31 0d be 33 72 a2 bd
       -0.10738624 -0.10783472 -0.13788335 -0.07931938
000360 f4 3b c1 bf cf 06 f2 bf 8e 5c f0 bd ce 3c 34 c0
       -1.5096421 -1.8908328 -0.117364034 -2.8162112
000370 61 45 ec be 10 2b 80 bc 21 82 53 bf 3c 9b 3c bf
       -0.46146682 -0.015645534 -0.82620436 -0.7367437
000380 66 ad 3d 3f 38 2d 8d c0 c3 78 50 3f 8d 68 ca bd
       0.7409271 -4.41177 0.8143427 -0.09883223
000390 bf b3 df bf 14 c0 9a bd f7 95 57 bd fb a9 9e c0
       -1.7476729 -0.07556167 -0.052633252 -4.9582496
0003a0 ed d3 0f be ff ae 94 3f 38 cc c0 c0 52 99 72 c0
       -0.14045687 1.1615905 -6.024929 -3.790608
0003b0 14 a4 33 bd 87 f9 06 40 13 b7 f4 bc 39 5c 6e c0
       -0.04385765 2.10898 -0.029872453 -3.7243788
0003c0 16 b7 7b bd cf 2a 89 c0 c1 3a c3 bd d8 ff 98 3f
       -0.0614539 -4.2864757 -0.09532691 1.1953077
0003d0 8c ea ad 3f 64 4b 3e c0 14 c1 75 c0 a2 98 12 3e
       1.3587203 -2.9733515 -3.8399096 0.14316037
0003e0 03 11 3e c0 32 cd ed bf 55 35 db be 72 a0 b1 3d
       -2.9697883 -1.8578246 -0.42814127 0.08673181
0003f0 e5 32 8c bf 42 74 7a be cb c9 0a be 1d fa f9 be
       -1.0953032 -0.24458411 -0.1355354 -0.48823634

layers.6.weight f4 [128, 256]
000000 01 70 86 3d 50 50 2a 3e f4 f2 38 bf 53 8b 21 3e
       0.06564332 0.166322 -0.7224572 0.15775804
000010 ae 2c 8b 3e 4d 0a 0c 3c 45 62 e0 bd ad dc 27 3d
       0.27182525 0.008547378 -0.109562434 0.040981937
000020 21 a1 e3 3d 32 48 a1 bf 7c 40 3d bd ea 49 1a be
       0.11114717 -1.2600157 -0.046204075 -0.15067258
000030 ff 74 51 bd ad dc 01 be 8a 4f e8 bc f4 47 c9 bc
       -0.051136967 -0.12681837 -0.02835824 -0.024570443
000040 6b 4c bb 3b 04 a1 90 bc 26 a5 7d 3d 09 08 cb be
       0.005715897 -0.017654903 0.061925076 -0.39654568
000050 da 30 27 3e a2 4d da bc fa cf 96 3c 72 7f 21 bd
       0.16327229 -0.026648346 0.018409718 -0.039428182
000060 b7 d9 09 3e 7e dc 0c 3e 81 93 92 3e b7 77 aa bb
       0.13461958 0.13755986 0.28628162 -0.0052022594
000070 ad 43 a9 bf 71 96 6d 3c b3 9a 8f bd 7c c7 f7 3c
       -1.3223778 0.0145012 -0.070119284 0.030246489
000080 7c f2 2e bd 0d 4c 49 be 39 bd 50 bd 13 f3 11 3d
       -0.04271172 -0.19657917 -0.050961707 0.035632204
000090 60 7e 81 3c 41 e0 e3 3c 02 a4 75 3d f1 d1 15 bd
       0.01580733 0.027816894 0.059970863 -0.03657717
0000a0 e5 13 3d 3c c2 fd dd be b6 7a 3d 3d 1a 6c 40 3d
       0.011540388 -0.43357664 0.046259604 0.046978094
0000b0 29 33 9f 3d 62 e5 01 bd 89 b4 d4 3c e6 9a ca 3c
       0.0777343 -0.031712897 0.025964992 0.024732064
0000c0 39 84 05 3e 37 57 aa bd 41 1c 02 c0 c3 f9 89 be
       0.1303872 -0.08317416 -2.0329745 -0.26948366
0000d0 7c f4 7e bd 40 82 c7 be ae 0b 97 3d 5c 71 c5 3d
       -0.062244877 -0.3896656 0.073752746 0.09640762
0000e0 9d fc be be 1b f7 7f 3d 80 d9 c9 ba ba dc 6c 3d
       -0.37302104 0.062491518 -0.0015399903 0.05782769
0000f0 3c 8d 12 3d 9f 03 ee 3d 61 b3 f7 bd ef 36 a6 3d
       0.035779223 0.116217844 -0.12094761 0.081159465
000100 ab 93 3f be a2 fa d5 be a9 4d a1 3e 8e da 03 3d
       -0.18708675 -0.4179278 0.31504562 0.032190852
000110 df 88 21 bd ad 92 e0 bc 46 58 4e 3e 9b 88 ad bc
       -0.03943717 -0.02741369 0.20150861 -0.021183303
000120 62 6f d8 bf 61 b5 89 bc 41 7b 0e bd a0 e3 4e 3d
       -1.6908991 -0.016810121 -0.034785513 0.05051005
000130 44 16 2c bd 62 fc 45 3d e2 60 89 3d 91 96 98 be
       -0.04201342 0.048336394 0.06707932 -0.29802373
000140 fb 66 65 3c 48 91 6f bc 1f b0 dd bf 0f 0b 39 bf
       0.014001603 -0.01462204 -1.7319373 -0.722825
000150 05 dc 89 bd f6 e0 84 3c a8 d8 ca bd a0 0c 02 3f
       -0.067314185 0.016220551 -0.09904605 0.50800514
000160 ef 97 17 3e cd df 22 3d e4 94 ea 3d ff 44 94 3d
       0.14804052 0.039764214 0.1145418 0.072397225
000170 42 54 8b 3d ba fa 5d 3d 4a 39 fa 3c 40 ca 1b 3d
       0.0680318 0.05419419 0.030544896 0.038034678
000180 81 9b cc 3c 04 d3 55 be c7 2a c8 bd c1 17 10 bd
       0.024976494 -0.20881277 -0.09773784 -0.035178903
000190 96 a0 ef bd f5 44 83 c0 88 62 60 bf 57 ef b8 bd
       -0.11700551 -4.1021676 -0.87650347 -0.090300255
0001a0 f7 f5 21 bb d0 ad 94 bd de a2 ae 3d f9 0d 91 bd
       -0.0024713257 -0.072597146 0.08527158 -0.07082743
0001b0 98 21 82 3e 47 e4 bd 3d b1 81 66 3c 52 87 2a bf
       0.25416255 0.09272056 0.014069007 -0.6661273
0001c0 55 8f 25 3e a0 e3 d9 3b a2 58 51 be 8a b1 08 3d
       0.16167958 0.0066494495 -0.20443967 0.03337244
0001d0 2e 63 3a bc ec 9a 0d 3d 9f 8d e9 bc b1 ec 01 3e
       -0.011376185 0.034571573 -0.028509913 0.12687947
0001e0 d2 72 79 3d 6c b6 96 bd ab 85 0c c0 5e a0 04 bf
       0.060900517 -0.07359013 -2.1956584 -0.518072
0001f0 27 99 8e 3c 3a bf 67 be d2 80 35 3d b9 5d 3b be
       0.017407013 -0.22631541 0.044312306 -0.18297471
000200 b0 62 5f bc 69 b8 4b 3c b1 6a 57 be 22 97 05 be
       -0.013634369 0.0124341035 -0.21036793 -0.13045934
000210 84 7f 3d 3d 39 1f ba 3d 41 b3 4b be 82 0e 46 3c
       0.046264187 0.090879865 -0.19892599 0.01208842
000220 a5 53 95 bc b3 89 99 bc 09 f5 3d 3d aa c3 2b 3c
       -0.018228361 -0.018742418 0.04637626 0.010483662
000230 13 65 ef bf b0 90 e6 3d ca 27 1d 3d d3 56 c6 3d
       -1.870272 0.11258066 0.038368024 0.09684529
000240 89 73 bf bb 53 3a 73 be 00 ce 4b b9 40 4d a5 ba
       -0.0058426303 -0.23752718 -0.0001943633 -0.0012611523
000250 0d e4 b5 bd 55 78 29 be 56 e9 39 bd 5b b6 ae be
       -0.08881388 -0.1654981 -0.045388542 -0.341235
000260 7e 25 ca 3d ff b9 49 3d 84 b4 46 3d 19 96 a8 be
       0.09870432 0.049249645 0.048511997 -0.32927015
000270 d2 87 10 c0 b9 9b 88 bd 5e 28 42 3e c0 b6 bf 3d
       -2.2582898 -0.06670327 0.18960711 0.09361029
000280 76 23 82 bc 90 c8 a6 3c 77 1d dd 3d 13 3e 27 be
       -0.01588605 0.020359308 0.107966356 -0.16332273
000290 4a 05 d3 bd e6 c8 f2 bd c6 80 82 3c 10 b1 0d 3e
       -0.10303743 -0.118547246 0.015930545 0.13837075
0002a0 a8 92 0f bc 72 ac 59 3c b2 36 3b bd 18 ea da ba
       -0.008762993 0.013285743 -0.04570646 -0.0016701845
0002b0 de a3 b9 bd ec a9 e7 3b 64 a7 58 bd 14 18 09 3f
       -0.09064458 0.007069817 -0.05289401 0.53552365
0002c0 ee c8 98 bf ae 41 eb bd 02 7d 80 be a1 50 fd bf
       -1.1936319 -0.11487137 -0.25095373 -1.9790231
0002d0 cf 73 b2 3e 1c 76 e6 be 68 d5 ee bd 34 70 3e 3d
       0.3485398 -0.45011985 -0.11661798 0.046493724
0002e0 12 c9 d0 bd cf 19 45 bf 86 d4 9b 3d ad f3 54 bd
       -0.10194601 -0.76992506 0.07608895 -0.0519902
0002f0 cc 02 8a bc 5f 55 a6 bc 88 02 9c be 13 95 a0 be
       -0.016847037 -0.02030438 -0.3047068 -0.31363735
000300 cc 81 03 be 4a 48 72 bd c5 f3 65 3d 6b a4 19 3e
       -0.12842482 -0.05915097 0.05614068 0.15004127
000310 13 bb 03 be 76 43 55 be ec 20 13 be 00 74 75 bc
       -0.12864332 -0.20826516 -0.14368027 -0.01498127
000320 61 6b 53 be 14 23 b4 bf 0e 4e 1e bf 6d 29 a2 bd
       -0.2064643 -1.4073205 -0.6183785 -0.079180576
000330 1d 2d 9a 3d 23 37 fe bd c7 36 8a bd e1 bf ee 3d
       0.07528136 -0.1241286 -0.06748729 0.11657692
000340 81 d3 13 3d 69 48 d8 bd 13 82 85 bd 0f b2 86 bd
       0.036090378 -0.10560686 -0.0651895 -0.06576931
000350 92 07 1a 3d a8 d7 34 bc 50 56 0b 3d 6f 8d 0d 3d
       0.037604876 -0.011037745 0.03401786 0.03455871
000360 02 1b 15 3c db fc 2f bd ef 99 36 bd 36 98 ca bd
       0.009100677 -0.04296575 -0.044580396 -0.09892313
000370 5f e7 c1 3c 28 23 dd bc 97 f3 4b 3e 23 5b 7a bc
       0.023669897 -0.026994303 0.19917141 -0.015280518
000380 de 04 66 3d 2b e6 86 bd 75 dd fc bf 46 0e 0c 3d
       0.056156985 -0.0658687 -1.9755083 0.0341933
000390 c0 03 69 3c 23 b8 62 3c be 5c 7f bd 50 b8 d4 bd
       0.0142220855 0.013837847 -0.062344305 -0.10386717
0003a0 6d 78 6f 3c f3 bc 4e be d8 e4 3d bd 60 a1 33 bd
       0.014616114 -0.20189266 -0.04636082 -0.04385507
0003b0 10 3a 80 bd 83 9b 8e be ec 6c 04 bd df fa f1 bd
       -0.062610745 -0.2785302 -0.03233044 -0.11815428
0003c0 c0 27 04 3d b6 13 1b be 6f c7 68 3c 71 34 69 be
       0.03226447 -0.15144238 0.014207705 -0.22773911
0003d0 a8 2f 04 bf 4a d4 e5 be 72 ae ab bd fa 00 f8 3d
       -0.5163522 -0.44888526 -0.08382882 0.12109561
0003e0 5c 6c a4 bf c0 31 19 3f 74 c9 76 3d 52 20 37 c0
       -1.2845569 0.5984154 0.060250714 -2.8613477
0003f0 2c 94 89 bf f5 0d 9a be 8b 22 df bd 4e cb 16 be
       -1.0748343 -0.30088773 -0.108952604 -0.14725992

layers.6.bias f4 [128]
000000 05 48 85 be a7 8d 93 bd 70 62 7e be 87 65 31 bd
       -0.2603151 -0.072047524 -0.24842238 -0.043309715
000010 1e ec c2 bd 85 6e 36 be a9 8c eb be e4 4b 37 bc
       -0.09517692 -0.17815597 -0.46005753 -0.011187527
000020 56 6b aa be d4 b6 68 be 3a 88 e5 3e 7a c6 f8 b9
       -0.33285016 -0.22725993 0.44830495 -0.00047450123
000030 a9 03 58 3e a9 4a 1b c0 e6 7b 22 3e f7 c2 33 3d
       0.21095146 -2.426432 0.15867576 0.043887105
000040 fd e6 a6 bc 58 62 6d bf a0 d2 04 be 90 10 b4 bf
       -0.020373816 -0.92728186 -0.12970972 -1.4067554
000050 d0 2d 14 be 83 51 11 be ae c6 fd 3d b1 2f 9a 3d
       -0.14470601 -0.1419125 0.12391411 0.07528628
000060 63 7a c6 bd a7 05 46 3d c5 ed 3d be 13 e0 dd 3e
       -0.09691312 0.048345234 -0.18547733 0.43335018
000070 f9 7f 1f 3e 43 24 36 bd ef 8d 6b be 4f 54 19 be
       0.15576161 -0.044468176 -0.23003362 -0.14973567
000080 b0 69 c9 bd 73 ca 1d be 42 91 8c 3d fa 46 c8 bd
       -0.098346114 -0.1540926 0.06863643 -0.09779163
000090 cf 41 bf 3d 82 ae 19 be e7 4c fa bd f8 eb a5 be
       0.09338724 -0.15007976 -0.12221699 -0.32406592
0000a0 82 09 b2 be 57 ce 17 be f5 21 9f 3e 5a dd ad bf
       -0.3477288 -0.14824806 0.31080595 -1.3583176
0000b0 06 ee fc 3c 6d d4 4b be c6 09 d7 be f2 d3 e0 be
       0.030875217 -0.19905253 -0.41999644 -0.439117
0000c0 40 9c bc 3d 7c c4 48 be dc b5 8f 3e f6 8e 20 3e
       0.0920949 -0.19606203 0.28068435 0.15679535
0000d0 93 d3 02 3d 04 24 fa be 6b 4f aa 3d 3d bc b5 be
       0.031940054 -0.48855603 0.08315929 -0.35495177
0000e0 bd 32 43 bf f5 c5 62 bd 6b 4a ee 3c 03 58 1c be
       -0.76249295 -0.055364568 0.02908822 -0.15267949
0000f0 22 33 e7 bd ab c4 af bd 0e 75 0c be d5 53 a4 3c
       -0.1128905 -0.08582433 -0.13716528 0.020059505
000100 36 63 51 3e 13 ae 3a 3e 7a df 2a be 2f d7 83 3d
       0.20448002 0.18230467 -0.16686812 0.064375274
000110 ac e7 43 3e 90 1d ea 3d 62 61 dd bf 1f 78 94 3c
       0.19131345 0.1143142 -1.7295344 0.018123684
000120 92 45 5a 3e b8 9b 17 be 72 c3 0b c0 56 39 d0 be
       0.21315601 -0.14805496 -2.183804 -0.40668744
000130 c2 fb 8d bd 41 c1 05 be 7a bc 57 bd fa fb 5b c0
       -0.069327846 -0.13062002 -0.05266998 -3.4372544
000140 1c a5 46 be 05 2a 70 3e 7e a5 07 be 87 15 28 be
       -0.19398922 0.23453529 -0.13246724 -0.16414462
000150 0b 8b 3d be aa 41 83 3d a9 e8 40 bd d7 b3 7b be
       -0.18510072 0.06409009 -0.047096882 -0.24580322
000160 bd e0 3f be 79 fb 32 3e 4c d5 a2 bd e3 20 0a be
       -0.18738075 0.17478742 -0.079508394 -0.13489108
000170 c4 92 aa be f4 04 0f be ec 45 d3 bd 48 98 84 3d
       -0.33315098 -0.13966733 -0.10316071 0.06474358
000180 c3 89 1d bc 9e 85 e1 bd ef cb 1b 3e 6f d7 68 be
       -0.0096153645 -0.110118136 0.15214513 -0.22738431
000190 07 c5 12 be 91 46 4f 3e 54 c2 8d 3b 53 d1 96 3e
       -0.14332972 0.20241763 0.0043261442 0.29456577
0001a0 84 0d f6 bd 5e 3b 84 bf 4b ac 7f be f2 84 8d bd
       -0.12014297 -1.0330617 -0.24968068 -0.06910123
0001b0 19 7f 6e 3e 44 bb 10 be 8f 88 19 bd 94 23 24 3e
       0.23290671 -0.14133936 -0.037483748 0.16029197
0001c0 a2 70 df bd 43 f1 e5 3e 74 35 1c 3e 0c de 04 3f
       -0.10910155 0.4491063 0.15254766 0.51901317
0001d0 8c 78 aa bd 1f 76 e0 bd 28 b1 69 bf 87 45 aa bd
       -0.08323774 -0.1096003 -0.91285944 -0.083140425
0001e0 11 ca 70 be 05 ed 9a be 22 47 20 3e d3 d9 a5 bf
       -0.23514582 -0.30258957 0.15652135 -1.29571
0001f0 04 9d 85 3d 49 cf 01 3e 42 13 5d 3c 96 dd 87 bd
       0.06524089 0.1267673 0.013493361 -0.06634061
