Simulation/saved_data/models/model_mzm_mzm_pm_attempt_100k8x128_256_256_128_11.pth (torch, 277944 bytes, 8 tensors)

layers.0.weight f4 [128, 8]
0.846071 -1.3206596 -4.097489 -1.0066931 -0.017049456 0.6872419 -0.31366003 -0.9746034
-2.1429613 0.6187785 -1.0852808 0.50130105 0.3501955 -0.25333408 -0.31136972 -1.9741936
-0.42755535 0.011528814 0.11812266 -0.021630311 -0.018813813 -0.0050213854 -0.69006133 -0.0029506376
0.011674096 0.002318211 -0.0031673491 -0.4314182 0.0052767294 0.45002794 -0.65563416 -0.004277734
-0.31447518 0.66385055 -1.0646822 0.009986113 0.07743779 -0.074726954 -0.03632701 -0.89685786
-0.0088312235 0.00429116 0.0038372388 -0.5410113 -0.0066384375 0.5497634 0.84043133 -0.000104549996
-0.035299513 0.39120552 -0.6887051 0.76717633 -0.39495546 -1.9041615 -0.3323796 -0.38567203
0.064430624 -0.025643703 -0.004893899 -0.82312274 0.0048973765 0.7598856 -0.76639533 -0.020745365
-0.44542632 0.011731406 -0.06166668 -0.29771155 -0.0056651374 0.34897196 0.5361867 -0.008980904
-0.09404044 0.16015264 -0.16204603 -0.2566334 -0.11807061 -0.21547651 -0.25248924 -0.2006684
0.7312016 -0.3321692 -2.8070161 0.45470384 0.122871466 -0.583055 -1.1131427 -2.6707819
-0.35790497 -2.3994997 -0.15350667 -0.0033868877 0.0041820337 -0.05849655 -0.05341088 -0.026673105
-1.8669462 -1.5043426 -3.0679984 1.1363236 -0.7648696 0.08713869 -0.44183397 0.06133592
-1.1486949 0.09999691 0.09009759 -0.118369095 0.011084373 0.0049591064 -1.5510162 0.0052445447
1.5393336 0.54851294 -1.2415618 -1.3725988 -0.15849641 -0.9128899 -0.22046728 -1.5422063
-0.0095711015 0.12806194 -0.0045094886 -0.0023000904 -1.018177 1.0248952 -0.00079063326 -0.0014585241
0.8161966 -0.077749155 -0.30083132 0.61423403 -0.10839365 -0.62757313 -0.16857728 -1.9707743
-0.0007485915 -0.15436451 -0.0136420075 -0.0032971452 0.00237637 -0.0031338201 0.006800718 1.1958368
-0.020605367 -0.5630169 0.011472761 -0.0085580135 0.8178543 -0.78683865 -0.0031313775 0.55439377
0.0092782965 -0.009670611 0.01237107 -0.62132305 0.0070836395 0.6249889 0.88707536 0.00013988062
-0.01697759 -0.0044215904 -0.0069991862 -0.009513213 -0.002910853 0.0056375107 -1.9234873 -0.0021297508
-0.7429133 -0.44873294 -1.6584954 0.00556608 0.02552976 -0.0026081624 -0.0062828697 0.0007122136
-0.5590896 -0.00974271 -6.9331007 0.044275213 0.14380072 0.011837955 -0.6883079 0.3943742
-0.2910391 0.15225828 1.1387557 -0.068930276 0.0459118 0.044280604 -0.052353546 -1.1882358
-0.7376414 0.48641768 -0.09090009 0.26923057 -1.0154508 -3.4254322 -0.33309734 0.024997467
-0.12096758 0.22062269 -0.3910753 -1.4561058 -0.5157148 -0.95364416 0.5898039 -0.56802195
-0.30822045 0.12724668 -0.18492262 -0.2602675 -0.07029298 -0.029966712 -0.31883344 -0.008383304
0.4315771 0.16515177 -1.1568251 -0.45119786 -0.03965786 -0.96837467 -0.6577706 0.35894227
0.92954177 -0.59495836 -1.2480581 -0.027047804 -0.004310051 0.047556177 -0.0019534116 -0.020514194
-3.7225804 -0.01941857 -0.624685 -0.3347543 -0.2040374 0.33112934 0.37179697 -0.4368641
-0.014647896 0.022810863 0.018890677 0.000839853 -0.6060888 0.62025225 0.0027643882 -0.97492594
-1.0081054 -2.854385 0.193211 0.22671054 0.68086594 -0.5778056 0.025213981 -0.10654386
00000000: 1c98 583f 600b a9bf a11e 83c0 52db 80bf
00000010: 4dab 8bbc 16ef 2f3f 0c98 a0be 9c7f 79bf
00000020: 4726 09c0 4568 1e3f 7bea 8abf 4455 003f
00000030: d34c b33e 01b5 81be da6b 9fbe 60b2 fcbf
00000040: 89e8 dabe 5ae3 3c3c 4bea f13d 0d32 b1bc
00000050: 6d1f 9abc 6f8a a4bb dca7 30bf 7c5f 41bb
00000060: b544 3f3c 20ed 173b 4d93 4fbb d9e2 dcbe
00000070: 6ae8 ac3b 106a e63e a4d7 27bf 3c2c 8cbb
00000080: e402 a1be 1cf2 293f 8247 88bf cb9c 233c
00000090: b497 9e3d 720a 99bd a1cb 14bd 7a98 65bf
000000a0: d6b0 10bc dc9c 8c3b 2f7a 7b3b b77f 0abf
000000b0: 4087 d9bb 4bbd 0c3f 8226 573f da41 dbb8
000000c0: 3996 10bd 174c c83e fa4e 30bf ab65 443f
000000d0: 9a37 cabe 90bb f3bf a92d aabe ce76 c5be
000000e0: 34f4 833d be12 d2bc 005d a0bb 2cb8 52bf
000000f0: 2c7a a03b dd87 423f 7c32 44bf 2ff2 a9bc
00000100: eb0e e4be 1535 403c 3396 7cbd a66d 98be
00000110: 9ea2 b9bb 74ac b23e 8843 093f a424 13bc
00000120: 4698 c0bd 0eff 233e 65ef 25be 7465 83be
00000130: 01cf f1bd e0a5 5cbe 4546 81be 047c 4dbe
00000140: 0730 3b3f 1512 aabe 27a6 33c0 f1ce e83e
00000150: 09a4 fb3d 1843 15bf 767b 8ebf 17ee 2ac0
00000160: 523f b7be 6791 19c0 da30 1dbe 8cf6 5dbb
00000170: 7109 893b 149a 6fbd 5ec5 5abd 8e81 dabc
00000180: 18f8 eebf 4c8e c0bf 165a 44c0 0d73 913f
00000190: 7ece 43bf c575 b23d 1038 e2be 603b 7b3d
000001a0: 6f08 93bf 2ecb cc3d 1685 b83d 7f6b f2bd
000001b0: 3b9b 353c 0080 a23b b387 c6bf 6eda ab3b
000001c0: e208 c53f 586b 0c3f 7feb 9ebf 51b1 afbf
000001d0: e24c 22be 27b3 69bf 2dc2 61be 0467 c5bf
000001e0: 1cd0 1cbc ab22 033e 55c4 93bb 1dbd 16bb
000001f0: a053 82bf c42f 833f 8042 4fba f32b bfba
00000200: 43f2 503f f33a 9fbd 9006 9abe 713e 1d3f
00000210: 7dfd ddbd a2a8 20bf 869f 2cbe 5542 fcbf
00000220: 203d 44ba bb11 1ebe ba82 5fbc eb14 58bb
00000230: dfbc 1b3b c760 4dbb 8fd8 de3b 2e11 993f
00000240: 96cc a8bc e021 10bf 3ff8 3b3c e936 0cbc
00000250: e65e 513f 426e 49bf cc37 4dbb c0ec 0d3f
00000260: ff03 183c 7b71 1ebc 07b0 4a3c 070f 1fbf
00000270: e01d e83b 46ff 1f3f 5f17 633f ebac 1239
00000280: 9614 8bbc fde2 90bb 6e59 e5bb 4fdd 1bbc
00000290: 02c4 3ebb deba b83b d534 f6bf 4a93 0bbb
000002a0: 912f 3ebf 53c0 e5be 9449 d4bf aa63 b63b
000002b0: ca23 d13c b4ed 2abb 88e0 cdbb d8b3 3a3a
000002c0: 7f20 0fbf e39f 1fbc f6db ddc0 ed59 353d
000002d0: 7f40 133e fbf3 413c f234 30bf 6aeb c93e
000002e0: 1403 95be 98e9 1b3e bfc2 913f 512b 8dbd
000002f0: 030e 3c3d 945f 353d ac70 56bd 1c18 98bf
00000300: 11d6 3cbf bd0b f93e d429 babd 97d8 893e
00000310: 4bfa 81bf 483a 5bc0 bc8b aabe 7dc7 cc3c
00000320: dabd f7bd eaea 613e 063b c8be ad61 babf
00000330: e305 04bf 0622 74bf 63fd 163f e369 11bf
00000340: 12cf 9dbe f44c 023e 5b5c 3dbe c841 85be
00000350: c4f5 8fbd c07c f5bc 233e a3be 205a 09bc
00000360: acf7 dc3e 8c1d 293e d812 94bf 6803 e7be
00000370: 4870 22bd 67e7 77bf a763 28bf 48c7 b73e
00000380: 73f6 6d3f 314f 18bf 5ec0 9fbf 5b93 ddbc
00000390: 543b 8dbb 44ca 423d cf04 00bb 620d a8bc
000003a0: c23e 6ec0 b113 9fbc 5beb 1fbf ea64 abbe
000003b0: 2eef 50be c989 a93e 2c5c be3e a7ac dfbe
000003c0: bbfd 6fbc d9dd ba3c 9fc0 9a3c 9529 5c3a
000003d0: a328 1bbf dac8 1e3f bd2a 353b bf94 79bf
000003e0: 9909 81bf 3eae 36c0 1bd9 453e cf26 683e
000003f0: 3b4d 2e3f 11eb 13bf 8d8d ce3c ab33 dabd

layers.0.bias f4 [128]
1.6142408 1.091684 2.1145844 2.5553098 1.107727 -3.3785655 -0.16575706 -1.0814759
-2.9136527 -0.13196637 2.3881967 2.8934565 -0.6618858 2.804643 1.042839 -0.6688335
-1.4824911 -4.680668 -4.585801 -5.440202 3.8264852 3.7517042 1.4029299 -3.3317192
1.384192 1.3484027 -0.22802347 0.7506194 -0.15924558 0.6196597 1.6246244 -0.508854
-6.339494 -0.33316532 1.9570912 2.628174 -0.62373084 1.4827892 0.07632306 0.4244203
-5.1522083 2.073561 -0.19070758 3.7539935 0.28866607 0.56825495 3.4163454 2.393752
3.965319 0.25177997 -0.68303514 -0.57598186 1.6232911 3.2889538 0.5648258 1.0293262
1.0100279 -0.7992587 -6.6879387 -0.66749835 -4.765649 0.4629134 -5.6820583 0.22397347
0.26544914 1.1375226 -1.9344723 1.791695 1.1875566 -2.4073348 -5.3896008 -6.0186477
-7.9045305 1.9817015 0.22573295 -1.1486851 0.51254123 -5.2939744 -0.62579286 -0.3928956
-1.9646896 -0.47662514 0.9470886 4.3273597 2.2764719 1.4418133 4.789518 -7.816698
-3.0468721 1.1936455 -3.707639 1.3879634 -1.2628721 -5.2753086 -0.2525686 3.5208268
0.2135726 1.7960078 1.7817515 0.3917175 0.041611534 0.12023044 0.26000577 0.68093723
-3.4098885 0.31859505 3.4873242 -4.668162 -4.1083364 -1.1003482 -7.6419625 -1.4153265
1.3717384 1.0742798 -0.58782333 -0.45868057 2.0704148 -0.44144768 1.1477333 -2.4325156
0.029784195 2.9040785 -0.57327276 0.026483957 4.10349 -7.7279906 -1.6500217 -1.1947093
00000000: 719f ce3f 4dbc 8b3f 5a55 0740 328a 2340
00000010: 00ca 8d3f 6b3a 58c0 38bc 29be cd6d 8abf
00000020: 4979 3ac0 3122 07be 37d8 1840 642e 3940
00000030: 5971 29bf 457f 3340 c07b 853f ac38 2bbf
00000040: 45c2 bdbf 08c8 95c0 e2be 92c0 2316 aec0
00000050: 22e5 7440 ec1b 7040 3593 b33f e33a 55c0
00000060: 342d b13f 7698 ac3f fc7e 69be 9828 403f
00000070: 4611 23be 05a2 1e3f b1f3 cf3f 4144 02bf
00000080: 23dd cac0 a594 aabe f781 fa3f 0134 2840
00000090: d3ac 1fbf 09cc bd3f 444f 9c3d 9e4d d93e
000000a0: e4de a4c0 39b5 0440 d948 43be 6e41 7040
000000b0: 0acc 933e 2879 113f 67a5 5a40 3c33 1940
000000c0: c9c7 7d40 4ee9 803e 64db 2ebf 8c73 13bf
000000d0: 01c8 cf3f 387e 5240 6c98 103f f6c0 833f
000000e0: 9848 813f 389c 4cbf 9803 d6c0 2ce1 2abf
000000f0: 3280 98c0 fc02 ed3e 6cd3 b5c0 4d59 653e
00000100: f3e8 873e 579a 913f ca9c f7bf 4356 e53f
00000110: db01 983f c611 1ac0 9c77 acc0 c398 c0c0
00000120: eaf1 fcc0 65a8 fd3f 8a26 673e 1d08 93bf
00000130: e735 033f 3d68 a9c0 f633 20bf 9d29 c9be
00000140: f37a fbbf 3608 f4be 6674 723f bb79 8a40
00000150: b7b1 1140 578d b83f bb43 9940 6422 fac0
00000160: f4ff 42c0 60c9 983f f549 6dc0 c9a8 b13f
00000170: cba5 a1bf 54cf a8c0 ac50 81be 3a55 6140
00000180: c7b2 5a3e 95e3 e53f 6f10 e43f 328f c83e
00000190: db70 2a3d 603b f63d 7a1f 853e e751 2e3f
000001a0: 9d3b 5ac0 e41e a33e 5230 5f40 9561 95c0
000001b0: 7e77 83c0 36d8 8cbf f58a f4c0 6b29 b5bf
000001c0: 2095 af3f 0082 893f 977b 16bf 2ed8 eabe
000001d0: ad81 0440 6e05 e2be ede8 923f 56ae 1bc0
000001e0: fcfd f33c 6cdc 3940 01c2 12bf e2f4 d83c
000001f0: ca4f 8340 b34b f7c0 e933 d3bf 3cec 98bf

layers.2.weight f4 [256, 128]
-0.09482608 -0.042940374 0.27475315 0.014532572 0.08473951 -0.20978588 -0.13660774 0.06292154
-0.06744288 0.036442317 -0.09627316 -0.40181607 -0.07026811 -0.39483026 0.022544729 0.14739172
0.0789316 0.45277813 -0.027345832 -0.0009819124 0.28785226 0.05569088 -0.10658081 -5.4347525
0.043811563 -0.014357704 0.024067007 0.09530174 -0.24365512 0.0054634307 0.02668865 -0.14597835
-0.16060007 -0.29243112 -0.46616092 0.028899882 0.0020603468 0.0009958044 -0.089798555 -0.48346823
0.14237025 -0.12708984 0.002263531 0.48910087 0.25642538 0.091279544 -0.32677692 -0.10751883
0.3383828 -0.097888894 -0.04588599 -0.028808532 0.00676595 -0.40948355 -0.34008527 -0.33233324
0.67365664 0.08671102 -0.37743622 0.048023693 -0.08441583 0.046989206 -0.17902152 0.06479722
-0.03735496 -0.09701665 0.10826741 -0.005189481 -0.11392648 -0.039713558 0.15761851 -5.0308514
-0.34694585 0.03544234 0.1649734 -0.17059815 -0.010462142 -0.011797335 0.10811493 0.17431822
0.36975393 0.116739735 0.13470383 -0.19013125 0.07008154 -0.38724118 -0.37129813 -0.40636507
-0.16457897 -0.123696424 0.03642285 -0.05748543 -0.03976409 -0.08979911 -0.073042184 0.20496617
-0.07992196 0.15665577 0.33774903 -0.7242545 -0.50625914 0.012743 0.6020108 1.4921955
0.1281693 -0.17570288 0.02419971 -0.051698912 -0.070841245 0.033612765 0.5543825 -0.22044675
0.039406337 -0.061579414 -0.056314506 -0.036915995 -0.009131551 0.33792958 -0.001166542 -4.687188
-0.1982912 -0.22419986 -0.19126537 0.21469267 0.32706407 -0.064072706 -0.016288457 0.29303536
0.02586659 -0.12218542 -0.13193892 -0.074843585 0.045710042 0.03438756 -0.01296192 -0.11067307
-0.12959345 0.06620076 0.04950807 -0.24412192 -0.037521623 0.120458715 -0.13221529 -0.06255953
-0.033899345 -0.17661099 -0.0634409 -0.049407903 -0.107565954 -0.028464546 -0.04051517 -0.051079158
0.17140678 -0.020561174 -0.004923217 0.018482417 -0.0070142383 -0.01059538 0.010795202 0.06643575
-0.13876788 -0.17965685 -0.08034901 -0.029277729 0.010466604 -0.08566672 -0.24502383 -0.15696318
-0.002253412 -0.019666797 -0.018625654 -0.21324056 0.15520751 -0.12811431 -0.13786079 -0.06854444
-0.015132463 0.012624372 -0.10377037 -0.02159315 -0.069589816 -0.09494622 -0.17505214 -0.036443695
-0.091359004 -0.15637684 -0.15397619 -0.0033519692 0.001525591 -0.04847337 -0.20077422 -0.02833359
0.0058489814 -0.050298765 -0.1288354 -0.06380989 -0.025195139 0.024785107 0.18968058 -0.034335528
-0.09044701 -0.11810551 -0.12063496 -0.0018780604 0.010499249 -0.08748972 0.04273516 -0.09413689
-0.22256824 -0.08230561 -0.1444048 -0.15325308 0.05129347 -0.1449306 0.14573051 -0.04022227
-0.019125096 -0.034735553 -0.14411955 0.09002386 -0.03227156 -0.12371721 0.06911562 -0.06361406
-0.031949706 0.13589548 -0.13880575 -0.11718801 -0.08375432 0.12993178 -0.0059698205 -0.09634402
0.09622107 -0.056019727 0.07552014 -0.10099197 -0.045975335 -0.022228893 -0.06368099 -0.076267846
-0.105607435 -0.08835188 0.00044326443 -0.0072542927 0.18562557 -0.06501564 0.06347533 -0.105481565
-0.1318799 -0.032052834 -0.04637245 -0.20285776 0.0018450249 -0.047342844 -0.07645407 -0.16302584
00000000: 2d34 c2bd 3fe2 2fbd 72ac 8c3e 061a 6e3c
00000010: e98b ad3d 1cd2 56be e6e2 0bbe 02dd 803d
00000020: 7e1f 8abd 8a44 153d dd2a c5bd d6ba cdbe
00000030: bae8 8fbd 3127 cabe b9af b83c dbed 163e
00000040: e4a6 a13d 89d2 e73e 5e04 e0bc 83b3 80ba
00000050: 5f61 933e 1f1c 643d 0a47 dabd 7ee9 adc0
00000060: c173 333d 933c 6bbc 2c28 c53c 8f2d c33d
00000070: ba80 79be 9406 b33b 28a2 da3c 597b 15be
00000080: 5874 24be 88b9 95be a5ac eebe 72bf ec3c
00000090: e206 073b a785 823a 4ee8 b7bd 2689 f7be
000000a0: 82c9 113e d723 02be c057 143b 6e6b fa3e
000000b0: 304a 833e c5f0 ba3d 4e4f a7be d532 dcbd
000000c0: 8340 ad3e f979 c8bd f3f2 3bbd dfff ebbc
000000d0: e7b4 dd3b d4a7 d1be a81f aebe 9527 aabe
000000e0: c374 2c3f 8c95 b13d 523f c1be 7eb4 443d
000000f0: 35e2 acbd c177 403d 6b51 37be 68b4 843d
00000100: 8401 19bd aab0 c6bd 4ebb dd3d 860c aabb
00000110: 4952 e9bd afaa 22bd bf66 213e bcfc a0c0
00000120: e3a2 b1be fd2b 113d c9ee 283e 48b1 2ebe
00000130: 6769 2bbc 9c49 41bc 5c6b dd3d 7a80 323e
00000140: 6350 bd3e 3e15 ef3d cdef 093e c4b1 42be
00000150: e986 8f3d 7a44 c6be ca1a bebe 150f d0be
00000160: 6487 28be 8d54 fdbd 2030 153d d875 6bbd
00000170: acdf 22bd 99e8 b7bd 2497 95bd a7e2 513e
00000180: 20ae a3bd 5f6a 203e 71ed ac3e be68 39bf
00000190: 339a 01bf 04c8 503c 611d 1a3f 4300 bf3f
000001a0: d03e 033e 75eb 33be 783e c63c 3dc2 53bd
000001b0: 3715 91bd 8aad 093d 03ec 0d3f cbbc 61be
000001c0: 8a68 213d b23a 7cbd 0aaa 66bd 3a35 17bd
000001d0: 809c 15bc 1b05 ad3e a7e6 98ba 72fd 95c0
000001e0: d90c 4bbe a694 65be 12db 43be 65d8 5b3e
000001f0: f174 a73e 8d38 83bd 5f6f 85bc bb08 963e
00000200: 2ce6 d33c 593c fabd ff1a 07be 9847 99bd
00000210: 743a 3b3d f8d9 0c3d 3c5e 54bc 90a8 e2bd
00000220: 25b4 04be 4494 873d f9c8 4a3d 19fb 79be
00000230: 46b0 19bd 0fb3 f63d 7263 07be 361f 80bd
00000240: 0ada 0abd 83d9 34be 4ded 81bd f15f 4abd
00000250: 8a4b dcbd 7b2e e9bc 3cf3 25bd 6138 51bd
00000260: 4285 2f3e e86f a8bc f052 a1bb 7068 973c
00000270: b2d7 e5bb 3f98 2dbc 5cde 303c 770f 883d
00000280: 2b19 0ebe f7f7 37be 068e a4bd d9d7 efbc
00000290: 1e7c 2b3c 0972 afbd 87e7 7abe f5ba 20be
000002a0: fbad 13bb 431c a1bc d494 98bc bc5b 5abe
000002b0: b8ee 1e3e 6630 03be 612b 0dbe 0761 8cbd
000002c0: 26ee 77bc 74d6 4e3c 8f85 d4bd 1ee4 b0bc
000002d0: 1b85 8ebd 2a73 c2bd de40 33be fc45 15bd
000002e0: 6e1a bbbd 4021 20be efab 1dbe b6ac 5bbb
000002f0: 57f6 c73a 038c 46bd c297 4dbe d81b e8bc
00000300: d0a8 bf3b 1406 4ebd 6ded 03be c2ae 82bd
00000310: 0966 cebc 230a cb3c a03b 423e 69a3 0cbd
00000320: 483c b9bd 4de1 f1bd 760f f7bd 4029 f6ba
00000330: 0b05 2c3c cf2d b3bd 100b 2f3d d7ca c0bd
00000340: eee8 63be d88f a8bd dade 13be 60ee 1cbe
00000350: 1a19 523d b068 14be 613a 153e 1bc0 24bd
00000360: 3cac 9cbc de46 0ebd 1394 13be 6e5e b83d
00000370: 2f2f 04bd 735f fdbd 7d8c 8d3d 1748 82bd
00000380: b2dd 02bd 2f28 0b3e 1823 0ebe 4400 f0bd
00000390: 6387 abbd d60c 053e 7c9e c3bb 0350 c5bd
000003a0: 8d0f c53d f174 65bd 4eaa 9a3d e1d4 cebd
000003b0: a250 3cbd 5e19 b6bc 2e6b 82bd 5132 9cbd
000003c0: b648 d8bd d5f1 b4bd f265 e839 6bb5 edbb
000003d0: a114 3e3e eb26 85bd 5bff 813d b806 d8bd
000003e0: 860b 07be d549 03bd 0af1 3dbd f2b9 4fbe
000003f0: c3d4 f13a 92ea 41bd f493 9cbd 3ff0 26be

layers.2.bias f4 [256]
-0.4588657 -0.102633886 -0.1389246 -0.23160467 0.03528587 -0.21660283 -0.10218346 -0.08814602
-0.16891798 -0.14581902 -0.27927104 1.1009946 -0.08626372 -0.12083009 0.18668662 0.063177384
-0.043058377 -0.06698886 -0.080980316 0.025262773 -0.21880524 -0.10095895 -2.189767 -0.15304472
-0.119314894 0.02220258 -0.08946425 -2.5874767 -0.09526547 -0.020826198 -0.012107562 -0.09770391
-0.13415596 -0.17501476 -0.0862243 -0.1047234 -2.8418396 -1.6981021 0.7017847 -0.031728562
-0.06145439 -0.15973702 -0.10955525 -0.59248084 -0.016496299 -0.49092662 0.2651217 -0.3391656
-4.074397 -0.06333975 -0.12522958 -1.7882891 0.22591788 -0.036532197 -1.7795354 -0.042454705
-0.25053212 -4.062853 -0.020109637 -0.76865315 -1.1547247 1.1793096 -1.7205669 -1.3575853
-1.2103205 -1.3539665 -1.8008169 -0.14003621 -2.2047935 -0.018022994 -0.1672002 -0.48231003
-0.87443686 -0.91874385 -0.08012422 -2.52442 -2.7246609 -0.1287664 -2.4526956 -0.04115964
-1.7516366 -0.13813779 -2.9891846 -0.13486093 -0.01140631 0.993768 -0.0145212645 -0.022782614
-0.4968745 0.006339182 -0.1641758 -2.379452 -0.14455444 0.003819949 -0.018872116 -3.2744122
-0.12341652 -0.6474866 -0.22309919 -0.1383125 -0.11815661 -1.5003158 -0.15401463 -0.09416535
0.01210089 -0.23009382 -0.20717241 1.1822324 -1.4855936 -0.018950533 -0.08259265 -0.14794448
-0.12089373 -0.13372768 -0.015254239 -0.2566156 -0.04122661 -0.16766174 -1.7553463 -0.11252398
-0.13758837 -0.15610197 2.1191933 -0.12107285 -6.380662 -0.16549362 -0.033574216 0.0073399534
-1.1438838 -0.09072803 -3.5043678 0.0818645 -0.09124346 -0.1837668 -0.1529817 -0.18752927
-0.03792837 -0.16808502 -1.4192445 -0.12680224 -0.12295238 -3.3711138 -0.06977366 -5.271686
0.09621129 -0.14163949 -0.25948066 -0.022090781 -0.08429754 0.06393482 -0.05709284 -1.7111727
-0.04944858 -0.17888795 -0.13768482 -0.02109059 -1.5941135 -0.13953553 -0.1151949 -0.10184083
-2.9698358 -0.07259737 0.09594468 0.17793953 -0.050087918 -0.0551402 -0.17217942 -0.004017771
-0.18300883 -0.01521156 -2.593827 -0.049478643 -0.5848973 -1.5769377 -0.09797285 -0.12559909
-0.6669656 -0.08375009 -1.5541927 -0.14385442 -0.05435312 -1.0221212 0.011192239 -0.4381686
-0.044971365 -0.102445945 -0.1461663 -2.224142 2.7573392 -0.105334446 -0.6264887 -3.2890403
0.16583127 -0.081589915 -0.054037184 -0.055460628 2.0083194 -0.11591981 -0.17825639 -0.46572697
0.0044161435 -0.05383694 -1.8009505 -0.15470596 -0.29041052 -2.739247 0.97475487 -0.11725467
1.0646837 -0.041308846 1.7614975 0.006557234 -0.012016279 -3.4558005 -0.08510305 1.1012378
0.9360314 0.75016415 -1.6599944 -3.0456142 -0.09605104 -4.079994 0.022718731 -0.12954591
-3.5967104 -0.022569707 -0.14711387 0.4749609 -0.030176412 0.7469988 0.033567183 -0.03836536
-0.108733535 0.011873569 -0.098730564 -0.017411774 -0.01958286 -0.14863187 -0.106493555 0.07327866
-0.12764782 -0.084342584 0.7889756 1.113037 -0.3218107 -0.31112474 -2.5795307 0.65441793
-0.029316485 -0.101283565 -0.850851 -1.3715609 -0.091575384 -0.78119934 -0.096795745 -0.06257466
00000000: 72f0 eabe b731 d2bd 4042 0ebe c629 6dbe
00000010: eb87 103d 22cd 5dbe 9045 d1bd e785 b4bd
00000020: d6f8 2cbe 9551 15be 9dfc 8ebe 64ed 8c3f
00000030: 09ab b0bd c475 f7bd c72a 3f3e 2563 813d
00000040: fb5d 30bd 7531 89bd 02d9 a5bd e0f3 ce3c
00000050: 7b0e 60be 91c3 cebd 2425 0cc0 c1b7 1cbe
00000060: 5e5b f4bd 2fe2 b53c 0839 b7bd 3899 25c0
00000070: 8b1a c3bd b49b aabc cc5e 46bc fd18 c8bd
00000080: 2e60 09be 1237 33be 5e96 b0bd 3979 d6bd
00000090: b3e0 35c0 695b d9bf 29a8 333f cff5 01bd
000000a0: 99b7 7bbd 1a92 23be 815e e0bd d3ac 17bf
000000b0: 3f23 87bc bc5a fbbe 08be 873e 1da7 adbe
000000c0: 7661 82c0 45b8 81bd 2f3c 00be a8e6 e4bf
000000d0: 0457 673e c9a2 15bd d1c7 e3bf fce4 2dbd
000000e0: bf45 80be e402 82c0 f7bc a4bc 74c6 44bf
000000f0: 05ce 93bf 9ef3 963f 893b dcbf 5bc5 adbf
00000100: c8eb 9abf c64e adbf 2b81 e6bf a765 0fbe
00000110: 561b 0dc0 f5a4 93bc 8736 2bbe 57f1 f6be
00000120: 18db 5fbf cc32 6bbf 2b18 a4bd 1990 21c0
00000130: d860 2ec0 57db 03be f7f8 1cc0 0397 28bd
00000140: a135 e0bf fe73 0dbe cd4e 3fc0 fc18 0abe
00000150: 88e1 3abc 9467 7e3f 99ea 6dbc 9ba2 babc
00000160: 5666 febe eab8 cf3b b31d 28be f148 18c0
00000170: 1406 14be 1c58 7a3b b299 9abc f88f 51c0
00000180: cdc1 fcbd afc1 25bf 1d74 64be cba1 0dbe
00000190: 18fc f1bd 590a c0bf 03b6 1dbe c3d9 c0bd
000001a0: d042 463c b79d 6bbe 0125 54be 6453 973f
000001b0: ee27 bebf 263e 9bbc 5626 a9bd c27e 17be
000001c0: 2297 f7bd e9ef 08be eaec 79bc 1f63 83be
000001d0: 3cdd 28bd 85af 2bbe 30af e0bf f972 e6bd
000001e0: f7e3 0cbe 32d9 1fbe dda0 0740 0bf5 f7bd
000001f0: 622e ccc0 2977 29be 1e85 09bd fe83 f03b
00000200: c96a 92bf 9ecf b9bd 9047 60c0 93a8 a73d
00000210: dadd babd 5d2d 3cbe 3ca7 1cbe ac07 40be
00000220: c75a 1bbd 7b1e 2cbe cea9 b5bf 72d8 01be
00000230: 75ce fbbd 54c0 57c0 7ee5 8ebd a7b1 a8c0
00000240: 6d0a c53d f109 11be a6da 84be baf7 b4bc
00000250: 30a4 acbd 42f0 823d 2fda 69bd b507 dbbf
00000260: 988a 4abd 672e 37be 40fd 0cbe 2cc6 acbc
00000270: e90b ccbf 67e2 0ebe 4eeb ebbd ed91 d0bd
00000280: ca11 3ec0 eead 94bd a57e c43d c835 363e
00000290: fd28 4dbd b1da 61bd cd4f 30be 82a7 83bb
000002a0: ab66 3bbe e839 79bc 4301 26c0 1eaa 4abd
000002b0: d4bb 15bf 18d9 c9bf fda5 c8bd 0c9d 00be
000002c0: 42be 2abf 2b85 abbd c9ef c6bf 934e 13be
000002d0: 61a1 5ebd ded4 82bf a75f 373c a257 e0be
000002e0: e533 38bd 2ecf d1bd 9eac 15be 5858 0ec0
000002f0: 3f78 3040 96b9 d7bd 9061 20bf a37f 52c0
00000300: accf 293e 9d18 a7bd 1856 5dbd af2a 63bd
00000310: 4e88 0040 5e67 edbd d888 36be c473 eebe
00000320: 4cb5 903b 2084 5cbd 8c85 e6bf 3d6b 1ebe
00000330: b0b0 94be d34f 2fc0 8989 793f 3723 f0bd
00000340: 8e47 883f 7733 29bd c078 e13f 11de d63b
00000350: eddf 44bc d62b 5dc0 824a aebd 5cf5 8c3f
00000360: c19f 6f3f c20a 403f b27a d4bf 58eb 42c0
00000370: 68b6 c4bd 508f 82c0 a21c ba3c afa7 04be
00000380: 8130 66c0 1be4 b8bc 05a5 16be 132e f33e
00000390: 8634 f7bc 503b 3f3f be7d 093d ff24 1dbd
000003a0: b0af debd 5c89 423c 4033 cabd 23a3 8ebc
000003b0: 3c6c a0bc f432 18be 4b19 dabd 1f13 963d
000003c0: 1cb6 02be cebb acbd 4efa 493f ff77 8e3f
000003d0: 5fc4 a4be be4b 9fbe 0817 25c0 ef87 273f
000003e0: 2029 f0bc c26d cfbd 5fd1 59bf 4f8f afbf
000003f0: e08b bbbd aefc 47bf d93c c6bd 2527 80bd

layers.4.weight f4 [128, 256]
-0.123466395 0.0176238 0.05990058 -0.027314654 -0.034313586 -0.037345584 -0.015025657 -0.003241158
0.03075695 0.053265814 -0.058799125 0.07075331 -0.02287209 -0.006657675 0.010779813 -0.039615147
0.028643183 -0.05695848 -0.00388721 -0.0038089426 -0.0449471 0.016865373 -0.09780712 -0.018200964
0.00261681 -0.03648544 0.011076561 -0.029351117 -0.053932898 0.045063846 -0.059136834 0.046115607
0.017331472 -0.04813509 -0.04307321 -0.004442419 0.3422956 -0.00809415 0.12036903 -0.028514974
-0.00040514435 0.015785782 -0.050362013 0.051982354 0.033650883 0.13585699 0.07172068 -0.09905488
-0.14137055 0.04186208 -0.049119107 0.060074415 0.007432266 0.05237449 0.026933888 -0.060584296
0.022962162 -1.2580687 0.029376518 -0.29254535 0.36772907 -0.040441163 -0.08426142 -2.93761
-3.2481277 -0.30325094 -0.04333581 0.009387062 -0.050012328 -0.01874573 0.0029662757 -0.44699737
0.06969495 -0.26498592 -0.017083542 -0.10018085 -0.06632684 0.062148757 -0.34386835 0.036116198
-0.120196804 0.015941774 -0.022586066 0.03964313 -0.041744895 -0.0710988 -2.1604393 -0.006630821
0.17923112 0.0058340654 -0.05335514 -0.13065946 0.012688273 0.015293263 -0.034539312 -0.59926885
0.04641249 -0.5935922 -3.517924 -0.05493064 -0.027305536 -2.7101965 0.050666675 0.06273042
-0.0023297262 -0.021275956 0.022588054 0.21705033 0.2875548 -0.048420057 -0.119736604 0.049044006
-0.032251887 -0.052906368 -0.0006761253 -0.02644268 0.16934559 -0.04687499 0.06412487 -0.01887301
-0.078821115 -0.005299813 -0.17697339 -0.031777557 0.035029586 -0.03560957 -0.032135535 0.023101332
-0.20187667 -0.01955073 0.16228616 0.06393402 -0.05687228 -0.013868895 -0.037768763 0.035546042
-0.026950283 0.06261457 0.24325652 -0.056943566 -0.007752682 -0.32280838 0.0033531408 0.007329406
0.008076272 0.037195086 0.0048902463 -0.06295903 0.056738243 0.051355284 0.024541143 -1.4072839
-0.003982088 0.0127449315 0.027731853 0.033097003 0.0233376 0.0076543186 0.05499603 0.02726683
-1.6040474 -0.026295641 -0.18669315 -0.55893826 0.021590604 -0.049715556 0.010379017 -0.05842361
-0.014432667 -0.05131369 0.05213631 -0.020246014 -0.2235248 -0.055663873 0.012548387 0.028286077
-0.07588473 0.056647904 -0.065006316 0.048611436 0.027502306 -0.0639128 0.010127671 -0.08728465
0.012293445 -0.05371353 0.1902063 0.10180698 -0.041847885 0.048504993 0.02750077 -0.033937346
-0.04444997 0.040147584 0.06292965 0.0023110537 -0.030933527 0.041063454 0.015047609 -0.038041677
-0.042126216 0.05672353 0.2932642 0.005220239 -0.14441662 -6.087747 0.017202824 0.008994215
-0.033700764 0.059623156 -0.2776106 0.047685605 0.04175345 0.13195205 0.044305913 0.019647509
0.003535456 -0.88423944 -0.1411474 -4.67204 0.061876725 -0.533908 0.04939384 -0.01517332
0.039075408 -0.03261914 -0.04486759 -0.051886417 0.0010551519 0.024821341 -0.035993144 0.04101088
0.03290481 -0.016626392 -0.017616209 -0.055152033 0.0520498 -0.026607387 0.012075795 -0.016837018
0.022459218 0.05363694 -0.3431435 0.043636937 -1.2985061 0.02290016 0.081560366 -0.09599775
0.046307165 -0.017223353 0.12684453 0.12108267 0.24329768 0.17038004 -0.043868344 0.056620628
00000000: f3db fcbd ca5f 903c 505a 753d fbc2 dfbc
00000010: 678c 0cbd aff7 18bd 2c2e 76bc 9c69 54bb
00000020: 00f6 fb3c 412d 5a3d 5ad7 70bd 1de7 903d
00000030: 405e bbbc a028 dabb d09d 303c 7e43 22bd
00000040: 1ca5 ea3c 4c4d 69bd 90c0 7ebb 749f 79bb
00000050: 731a 38bd 4029 8a3c 194f c8bd 301a 95bc
00000060: c97e 2b3b c271 15bd 777a 353c c171 f0bc
00000070: bee8 5cbd de94 383d 7739 72bd b8e3 3c3d
00000080: bbfa 8d3c 4d29 45bd 896d 30bd b691 91bb
00000090: 5e41 af3e 539d 04bc 0a84 f63d 3c98 e9bc
000000a0: 8e69 d4b9 2f51 813c 6648 4ebd 73eb 543d
000000b0: 82d5 093d 181e 0b3e 4be2 923d 49dd cabd
000000c0: 71c3 10be 9377 2b3d 1e31 49bd 9710 763d
000000d0: 5e8a f33b a286 563d 75a4 dc3c 3d27 78bd
000000e0: 251b bc3c 6508 a1bf 06a7 f03c 81c8 95be
000000f0: fc46 bc3e a2a5 25bd 4091 acbd cd01 3cc0
00000100: 53e1 4fc0 b543 9bbe e480 31bd 31cc 193c
00000110: bad9 4cbd a590 99bc d965 423b d7dc e4be
00000120: 3abc 8e3d 3cac 87be c9f2 8bbc 9e2b cdbd
00000130: 5ed6 87bd b28f 7e3d 830f b0be 94ee 133d
00000140: be29 f6bd 5398 823c 6a06 b9bc d660 223d
00000150: b2fc 2abd 3f9c 91bd a344 0ac0 5c47 d9bb
00000160: 5d88 373e b02b bf3b eb8a 5abd 98cb 05be
00000170: 79e2 4f3c 9890 7a3c 1879 0dbd af69 19bf
00000180: 061b 3e3d a9f5 17bf ab25 61c0 f3fe 60bd
00000190: dcaf dfbc dc73 2dc0 dc87 4f3d ce78 803d
000001a0: 52ae 18bb ea4a aebc 950a b93c 7142 5e3e
000001b0: 623a 933e 1c54 46bd 7738 f5bd 5ee2 483d
000001c0: 8e1a 04bd 59b4 58bd 003e 31ba 529e d8bc
000001d0: ee68 2d3e fdff 3fbd e653 833d 929b 9abc
000001e0: f76c a1bd 0eaa adbb 8338 35be 2f29 02bd
000001f0: 2f7b 0f3d 57db 11bd 8da0 03bd 013f bd3c
00000200: c2b8 4ebe da28 a0bc 582e 263e d7ef 823d
00000210: e8f2 68bd 5d3a 63bc 6bb3 1abd ba98 113d
00000220: d7c6 dcbc 113c 803d 3d18 793e a83d 69bd
00000230: 360a febb 2447 a5be 5ec0 5b3b 842b f03b
00000240: 5752 043c e059 183d 5c3e a03b aaf0 80bd
00000250: 5c66 683d eb59 523d 820a c93c e121 b4bf
00000260: 2d7c 82bb 1ed0 503c e92d e33c b990 073d
00000270: 7f2e bf3c 14d1 fa3b 8443 613d b05e df3c
00000280: 6d51 cdbf f569 d7bc 7d2c 3fbe 9416 0fbf
00000290: c7de b03c 8aa2 4bbd c10c 2a3c 984d 6fbd
000002a0: fe76 6cbc 4e2e 52bd e28c 553d f8da a5bc
000002b0: afe3 64be cdff 63bd c097 4d3c 34b8 e73c
000002c0: 7469 9bbd a207 683d 0822 85bd c91c 473d
000002d0: 844c e13c b7e4 82bd 88ee 253c 4bc2 b2bd
000002e0: 726a 493c b802 5cbd 71c5 423e 2e80 d03d
000002f0: b068 2bbd 2cad 463d 4b49 e13c e301 0bbd
00000300: 2c11 36bd cb71 243d 43e1 803d 0c75 173b
00000310: 4f68 fdbc 2732 283d 3f8a 763c 97d1 1bbd
00000320: 8a8c 2cbd ef56 683d ba26 963e 8a0e ab3b
00000330: f3e1 13be d3ce c2c0 f0ec 8c3c 795c 133c
00000340: d009 0abd 6937 743d fa22 8ebe fb51 433d
00000350: aa05 2b3d 701e 073e 1e7a 353d d0f3 a03c
00000360: 1cb3 673b 845d 62bf f288 10be 5a81 95c0
00000370: 7372 7d3d 32ae 08bf 3251 4a3d 8499 78bc
00000380: 890d 203d a69b 05bd 14c7 37bd da86 54bd
00000390: 064d 8a3a 2056 cb3c 8c6d 13bd 06fb 273d
000003a0: 32c7 063d 1234 88bc de4f 90bc 19e7 61bd
000003b0: 2c32 553d bcf7 d9bc 8ed9 453c c9ed 89bc
000003c0: 65fc b73c 68b2 5b3d 81b0 afbe a5bc 323d
000003d0: 7335 a6bf 1e99 bb3c 1f09 a73d 789a c4bd
000003e0: 95ac 3d3d fd17 8dbc 88e3 013e 31fa f73d
000003f0: 0723 793e 1b78 2e3e 4baf 33bd 08eb 673d

layers.4.bias f4 [128]
-0.18702427 -0.12917499 -0.09257568 -2.1249218 -1.775024 -2.705318 -0.6196764 -0.08399123
-2.9004438 0.13345559 -0.15532926 -2.7662244 -1.034355 0.4080523 0.5419651 0.05637154
-0.12336977 0.51550865 -0.6927013 -0.17039019 -0.32907093 -2.107629 -0.120388635 -0.18649697
0.24681859 -0.2581284 -1.3343742 -0.12742442 0.04182247 -0.1979123 -0.32317927 -0.14626716
-0.4573557 -0.07438009 -0.89002955 -1.4182682 -0.15025315 -0.65020967 -0.060676478 -0.6484621
0.13376096 -0.16052751 0.06858464 -0.8658938 0.09372003 -0.7691911 -0.08162307 -0.33942175
-0.10243775 -0.35620752 -0.044060256 -0.705761 -0.15859234 -0.18011144 -0.9597657 -3.9160042
-1.2041339 -0.90445244 -0.20747624 -0.27633858 0.33844152 0.1867306 -1.6703058 -0.3957457
-0.1641434 -0.13568522 -0.11211004 -0.43389994 -0.27679053 -0.06981287 -0.4118421 -0.11064771
0.15595448 -0.49153298 -0.1250074 -0.22601521 0.41204265 -1.0454876 0.039291725 0.063473456
-0.53906214 -1.0420265 -1.3881239 -1.0754615 -0.21844985 -0.18296121 -0.16525728 -0.14955172
-0.9101563 -0.13305959 -3.8335438 -0.17912182 0.3665707 -1.0720093 -0.5745883 -0.14162065
-0.35141334 -0.81770355 -1.0249934 0.0762719 -0.52973497 0.050472543 -1.7788469 -0.47294873
-2.0837584 -0.080669 -0.7984283 0.35870892 -2.4802914 -0.27319703 -0.99221367 -0.9830022
-0.22499363 -1.4014953 -0.22496626 -0.4566412 -0.60400134 -0.2801362 -0.061182577 0.0182521
0.056450922 -0.5024778 -0.3274632 -2.9234345 -0.039631456 -0.0035980192 -2.4598126 -0.15672834
00000000: 4a83 3fbe 7346 04be 5198 bdbd b8fe 07c0
00000010: fd33 e3bf ee23 2dc0 1da3 1ebf 9803 acbd
00000020: dfa0 39c0 95a8 083e a20e 1fbe d209 31c0
00000030: bf65 84bf 3bec d03e 3abe 0a3f d8e5 663d
00000040: 4aa9 fcbd 60f8 033f df54 31bf c47a 2ebe
00000050: fc7b a8be 65e3 06c0 518e f6bd 10f9 3ebe
00000060: 03be 7c3e 6829 84be c6cc aabf 8c7b 02be
00000070: 0a4e 2b3d 86a9 4abe c177 a5be 0fc7 15be
00000080: 872a eabe 9754 98bd fad8 63bf d089 b5bf
00000090: f6db 19be 2474 26bf e687 78bd 9d01 26bf
000000a0: a2f8 083e 5361 24be 1b76 8c3d 37ab 5dbf
000000b0: 49f0 bf3d b5e9 44bf ff29 a7bd b0c8 adbe
000000c0: e2ca d1bd d560 b6be 8778 34bd c1ac 34bf
000000d0: 0866 22be 226f 38be 34b3 75bf d09f 7ac0
000000e0: 0f21 9abf 328a 67bf a774 54be 407c 8dbe
000000f0: 3548 ad3e 4e36 3f3e 95cc d5bf 2e9f cabe
00000100: 3515 28be 11f1 0abe f399 e5bd 2228 debe
00000110: 7db7 8dbe 0dfa 8ebd f8dc d2be 449b e2bd
00000120: 88b2 1f3e 36aa fbbe f101 00be 8870 67be
00000130: 41f7 d23e 8ad2 85bf 5cf0 203d 5ffe 813d
00000140: faff 09bf 2061 85bf 0bae b1bf b9a8 89bf
00000150: 51b1 5fbe 2f5a 3bbe 3439 29be 1624 19be
00000160: 0100 69bf c640 08be c858 75c0 b66b 37be
00000170: 28af bb3e 9a37 89bf 3818 13bf 0105 11be
00000180: 73ec b3be 0555 51bf fc32 83bf 7134 9c3d
00000190: b69c 07bf 4cbc 4e3d 41b1 e3bf 5626 f2be
000001a0: 4c5c 05c0 ca35 a5bd cc65 4cbf b2a8 b73e
000001b0: 18bd 1ec0 7be0 8bbe b701 7ebf 08a6 7bbf
000001c0: bb64 66be 3364 b3bf 8e5d 66be e0cc e9be
000001d0: d59f 1abf 036e 8fbe 959a 7abd 6e85 953c
000001e0: 1539 673d 63a2 00bf 42a9 a7be 8d19 3bc0
000001f0: 9854 22bd bfcc 6bbb 926d 1dc0 657d 20be

layers.6.weight f4 [11, 128]
-0.02880113 0.05826916 -0.053425103 -0.052808158 -0.11251883 0.010599377 -0.010983698 0.027858762
0.011206304 -0.009561837 0.14985219 -0.06256536 -0.025962597 0.026868759 -0.010034961 0.0008346729
-0.05323287 0.0074593187 -0.0077864984 -0.069015265 -0.011287579 -0.029218301 0.019335806 0.020491209
0.014798681 -0.0046951664 -0.06094871 -0.0074814623 -0.029220333 -0.010902194 -0.002231879 -0.040149152
-0.018915307 -0.022776956 -0.0030771212 0.019680377 0.011296341 -0.0016147157 0.009682337 0.0023409817
0.02593338 0.028946742 0.04096421 -0.007843509 0.021953538 -0.041990332 0.008712625 -0.011214192
0.047252405 -0.026380323 -0.05257439 0.008153179 -0.06235242 0.020610096 0.024249516 -0.07987998
-0.04946403 -0.03101076 -0.0008478801 -0.012493196 -0.0012307401 0.030691633 0.009709095 -0.0024384747
-0.045772076 -0.003919546 0.034385893 0.0041089095 -0.06412359 -0.029311858 -0.014158331 0.08732791
0.018404957 -0.013648972 0.08819592 0.008812976 0.0122362645 0.0034651621 0.0029204697 -0.010903199
-0.017300963 0.02958053 0.017698914 -0.035291325 0.012186182 -0.04564554 0.010704194 -0.081446305
-0.052678958 0.02827232 -0.05105607 0.003971261 0.039363116 0.044642225 -0.005707673 0.062016994
-0.03509197 -0.0041102106 -0.010556186 -0.010292424 -0.018799493 -0.051254798 0.014804721 -0.0097863125
-0.045474533 -0.057471346 -0.039193597 -0.058270123 0.02965918 -0.00814973 0.014053929 0.0023956099
0.021809151 -0.061775785 -0.05831619 0.03891032 -0.0034658785 0.024721391 0.03235588 0.003896585
-0.07992926 0.044103675 0.030497152 0.031927153 -0.014832963 -0.034881704 -0.041572243 0.09764208
0.016904676 -0.054810748 -0.050476845 -0.04880696 0.015167145 -0.010222923 0.01496585 -0.0042892084
-0.003736311 -0.020260317 0.064675264 -0.06451766 -0.029307066 0.027914518 0.021770403 -0.032551974
-0.041043293 -0.014186264 0.015223475 -0.032066513 -0.0032839011 0.008493376 0.028717395 0.058381323
0.02589817 -0.0025920754 0.015800621 0.026679778 -0.024241349 0.03183743 0.011747429 0.032037605
-0.030850746 -0.029433206 0.015302437 -0.030199915 0.023102036 0.017442184 -0.04326203 0.00070470513
-0.00047410498 -0.020186488 0.0039825267 0.023833562 -0.040742613 0.0114281485 -0.021636048 -0.10436351
-0.022098407 -0.053200647 -0.03847985 -0.004691168 0.009668636 -0.018928668 -0.037881285 -0.040961895
-0.0031438887 0.050763797 -0.0029687514 0.0052238107 -0.0019413318 -0.03559912 -0.105096884 -0.010042944
0.06124982 0.024888787 -0.053262196 0.022340495 -0.05393373 -0.008598521 0.026085742 0.10045095
-0.0057989936 0.03179841 -0.047892343 0.08891982 0.012993366 0.025061242 -0.010315538 -0.010510532
0.004699477 -0.030641401 -0.0150398 0.031148186 0.03199847 -0.002624716 0.06938707 -0.064156026
0.027759058 0.080262 -0.040162176 0.049627706 0.028352015 -0.028687693 0.035795532 -0.01783845
-0.03589625 0.004592594 0.016559292 -0.01300064 0.01161362 0.03189528 0.008233483 -0.00028076663
-0.04469475 0.014594958 0.03701236 -0.048304725 -0.053231806 0.013060827 0.008713218 0.012958158
0.033196606 0.029396042 -0.038070895 -0.0032470783 -0.0034955328 0.024455065 0.026360357 0.018453209
-0.022800531 0.014994366 -0.02695926 -0.05946458 -0.02214106 -0.0290399 -0.02542688 -0.00811029
00000000: 59f0 ebbc a5ab 6e3d 48d4 5abd 5e4d 58bd
00000010: 4670 e6bd 02a9 2d3c f8f4 33bc 0f38 e43c
00000020: a59a 373c 40a9 1cbc da72 193e 4422 80bd
00000030: 83af d4bc df1b dc3c ad69 24bc f3cd 5a3a
00000040: b60a 5abd 4d6d f43b e225 ffbb e057 8dbd
00000050: 8aef 38bc 385b efbc 2066 9e3c 2edd a73c
00000060: 2b76 723c e9d9 99bb 5ba5 79bd 0e27 f5bb
00000070: 7b5f efbc 1e9f 32bc b744 12bb 7073 24bd
00000080: 46f4 9abc bd96 babc 87a9 49bb be38 a13c
00000090: 4a14 393c dea4 d3ba aaa2 1e3c 286b 193b
000000a0: 3d72 d43c b821 ed3c 16ca 273d 1082 00bc
000000b0: e8d7 b33c 0efe 2bbd 66bf 0e3c bbbb 37bc
000000c0: bd8b 413d 8c1b d8bc 3e58 57bd e994 053c
000000d0: 4065 7fbd 81d6 a83c eca6 c63c 1d98 a3bd
000000e0: cb9a 4abd 470a febc 4544 5eba 43b0 4cbc
000000f0: c950 a1ba 056d fb3c e512 1f3c d1ce 1fbb
00000100: 807b 3bbd 896f 80bb 39d8 0c3d 08a4 863b
00000110: 3b53 83bd 6c1f f0bc 58f8 67bc fad8 b23d
00000120: fec5 963c f09f 5fbc 10a0 b43d 4d64 103c
00000130: 9d7a 483c c617 633b 5a65 3f3b 55a3 32bc
00000140: c0ba 8dbc de52 f23c 50fd 903c a38d 10bd
00000150: 8da8 473c d1f6 3abd a560 2f3c 52cd a6bd
00000160: e4c5 57bd 5a9b e73c 2b20 51bd 5a21 823b
00000170: 383b 213d c4da 363d 6e07 bbbb 8805 7e3d
00000180: 99bc 0fbd f2ae 86bb daf3 2cbc 8ea1 28bc
00000190: 6501 9abc 8df0 51bd 808f 723c c556 20bc
000001a0: 8143 3abd 1367 6bbd 7789 20bd a7ac 6ebd
000001b0: cff7 f23c 7286 05bc 7342 663c aaff 1c3b
000001c0: 1ba9 b23c 9b08 7dbd f5dc 6ebd 6d60 1f3d
000001d0: cb23 63bb 8484 ca3c 9987 043d d95d 7f3b
000001e0: f4b1 a3bd 0ea6 343d 2ad5 f93c 0cc6 023d
000001f0: f505 73bc 1ee0 0ebd a847 2abd 92f8 c73d
00000200: ad7b 8a3c 3c81 60bd cfc0 4ebd cfe9 47bd
00000210: 9e7f 783c 0c7e 27bc 5333 753c 7d8c 8cbb
00000220: e6dc 74bb f7f8 a5bc 7774 843d d621 84bd
00000230: 5f15 f0bc fdac e43c d857 b23c 3855 05bd
00000240: 031d 28bd 816d 68bc e26b 793c 2d58 03bd
00000250: b836 57bb cd27 0b3c be40 eb3c 4121 6f3d
00000260: 6628 d43c cfdf 29bb 4e70 813c 8d8f da3c
00000270: cb95 c6bc f767 023d 4a78 403c dd39 033d
00000280: b4ba fcbc e81d f1bc 13b7 7a3c d065 f7bc
00000290: 7b40 bd3c e9e2 8e3c 8733 31bd f6bb 383a
000002a0: 4b91 f8b9 225e a5bc db7f 823b 9a3e c33c
000002b0: bae1 26bd 213d 3b3c 153e b1bc 89bc d5bd
000002c0: b807 b5bc ece8 59bd 0c9d 1dbd 5fb8 99bb
000002d0: 3369 1e3c 4b10 9bbc 6829 1bbd a9c7 27bd
000002e0: b309 4ebb b3ed 4f3d 628f 42bb 802c ab3b
000002f0: 4974 feba 62d0 11bd 093d d7bd 298b 24bc
00000300: 17e1 7a3d 92e3 cb3c 7629 5abd 6a03 b73c
00000310: 9de9 5cbd d0e0 0cbc c4b1 d53c 3ab9 cd3d
00000320: 7c05 bebb 0d3f 023d c32a 44bd 981b b63d
00000330: 21e2 543c 3c4d cd3c 8102 29bc 5e34 2cbc
00000340: 12fe 993b ad03 fbbc 7e69 76bc 7b2a ff3c
00000350: d410 033d 6d03 2cbb cf1a 8e3d 3c64 83bd
00000360: f766 e33c 6760 a43d 1881 24bd 6c46 4b3d
00000370: 7c42 e83c 7402 ebbc 569e 123d f121 92bc
00000380: f207 13bd 797d 963b 5aa7 873c a300 55bc
00000390: 0e47 3e3c a0a4 023d bbe5 063c dc33 93b9
000003a0: d811 37bd b11f 6f3c 469a 173d 2ddb 45bd
000003b0: 9809 5abd 14fd 553c e3c1 0e3c 744e 543c
000003c0: 2af9 073d f8cf f03c 3af0 1bbd efcc 54bb
000003d0: 4f15 65bb fd55 c83c adf1 d73c 2f2b 973c
000003e0: 2ec8 babc eeaa 753c abd9 dcbc 2291 73bd
000003f0: 2b61 b5bc 16e5 edbc 084c d0bc 06e1 04bc

layers.6.bias f4 [11]
0.49722618 0.5000177 0.49944043 0.5008192 0.50121886 0.50337905 0.5016277 0.5028477
0.49791622 0.49899733 0.4966757
00000000: 6e94 fe3e 2901 003f a8b6 ff3e b035 003f
00000010: e14f 003f 73dd 003f ac6a 003f a0ba 003f
00000020: e0ee fe3e 947c ff3e 474c fe3e
