Simulation/saved_data/models/model_mzm_mzm_pm_attempt_200k_lets_try_again8x128_256_256_128_11_ZeroMean.pth (torch, 542868 bytes, 10 tensors)

layers.0.weight f4 [128, 8]
0	0xbfd6b578	-1.677413
1	0xc0ed51bb	-7.416227
2	0xc08c806e	-4.3906775
3	0xbd6851ff	-0.056718823
4	0x3fc02170	1.5010204
5	0xc06b9d44	-3.6814737
6	0x3e28afb5	0.16473277
7	0xc01fb408	-2.4953632
8	0x3e4b56bf	0.1985731
9	0xc002e026	-2.044931
10	0x3ef03096	0.46912068
11	0x39868e6c	0.00025664584
12	0x3a700544	0.0009156058
13	0xbce91de5	-0.028456638
14	0xbcb173b9	-0.021661626
15	0x40059d3b	2.0877216
16	0x3e815a1a	0.25264055
17	0xbf05094a	-0.519673
18	0xc0d1f388	-6.560978
19	0xbfa85443	-1.3150715
20	0xbc9490d2	-0.018135462
21	0xbe4003bb	-0.18751423
22	0x3ea61eea	0.3244546
23	0xbd69a82e	-0.057045154
24	0x3e6a9847	0.22909652
25	0x3fea0278	1.8282003
26	0xc06c41d1	-3.691517
27	0x3e22a671	0.15883805
28	0xc0b33d77	-5.601253
29	0x3eb59b67	0.35470125
30	0xc01a230c	-2.408389
31	0xbe6b2ad2	-0.22965553
32	0xc11f16c5	-9.943059
33	0x3f8572b9	1.0425636
34	0xc0280936	-2.6255622
35	0x3e724a74	0.23661214
36	0xbf1fa930	-0.62367535
37	0xbf8c5327	-1.0962876
38	0xbd01c36f	-0.03168052
39	0xbe3d6500	-0.1849556
40	0xb95b2001	-0.0002089739
41	0xbd849277	-0.064732485
42	0xbc10fe1c	-0.008849647
43	0xbbeb8f89	-0.0071887416
44	0xbc0c4350	-0.00856097
45	0x3bab61db	0.005230171
46	0x3b33a277	0.002741007
47	0x401425ae	2.3147998
48	0xbd52773d	-0.051383246
49	0xbe1c5473	-0.1526659
50	0xbe3293b2	-0.17439154
51	0xbdfd1c9b	-0.12358972
52	0xbde7ad18	-0.11312312
53	0x3c9cb6da	0.01913016
54	0xbdc25b2c	-0.09490046
55	0xbdfd57fd	-0.12370298
56	0xbf700e3f	-0.9377174
57	0xbfc765c9	-1.5577937
58	0x3fe86b37	1.8157719
59	0xbfba0908	-1.4534006
60	0x3e4319f4	0.19052869
61	0xc0bd0f53	-5.9081206
62	0xbf49adcd	-0.78780824
63	0xc0328376	-2.7892737
64	0xbf548643	-0.8301737
65	0xc0c5980e	-6.1748114
66	0xbf84629b	-1.0342592
67	0x3c849785	0.016185531
68	0x3d663fe3	0.05621327
69	0x3d74da3c	0.059778437
70	0xbca3f51a	-0.020014334
71	0x3d241a53	0.040064167
72	0x3fafce3d	1.3734814
73	0xbf7f0867	-0.99622196
74	0xc02e60b6	-2.7246528
75	0xbc1021f0	-0.008797154
76	0xbbc5e981	-0.0060397987
77	0x3c2e48d2	0.010637479
78	0xbb04bc63	-0.0020253889
79	0x3b200f6e	0.002442326
80	0xbc5b3040	-0.013378203
81	0x3e8017a1	0.25018027
82	0xbe9b3ac4	-0.30318272
83	0xbe96f33a	-0.29482442
84	0xbe9d65c3	-0.307417
85	0xbea7bb18	-0.3275993
86	0xbdbaf5b0	-0.091288924
87	0xbe850e65	-0.25987545
88	0xc06960ad	-3.6465256
89	0xc00db495	-2.2141469
90	0xc161c44e	-14.110426
91	0x3b09cef6	0.00210279
92	0x3c90c66e	0.017672744
93	0x3d23cafb	0.0399885
94	0x3dd449bb	0.103656255
95	0xbd2f3b36	-0.042781077
96	0x3f89ae0d	1.0756241
97	0xbff9d087	-1.9516762
98	0xc0a76ff8	-5.232418
99	0xbd2e1c2b	-0.04250733
100	0x3d272896	0.04081019
101	0x3cf6d376	0.03013013
102	0x3c307c31	0.010771797
103	0x3c96862b	0.018374523
104	0xbf9ab636	-1.2086856
105	0x3d72e60c	0.05930142
106	0x3e1912ce	0.1494858
107	0x3be10396	0.0068668826
108	0x3b6c41ab	0.0036049883
109	0xbb70b458	-0.0036728587
110	0xbf8f711a	-1.1206391
111	0xbc5c96bd	-0.013463673
112	0x3ece6b0d	0.40316048
113	0xbd27c485	-0.0409589
114	0x400b4852	2.176289
115	0xbc278e4c	-0.010226797
116	0xbcd3ece2	-0.02586979
117	0x38d8733e	0.00010321148
118	0xbbd1b352	-0.0063995505
119	0xbc133542	-0.008984866
120	0xbf20ff58	-0.62889624
121	0xbedf8f74	-0.43664134
122	0xc01a2578	-2.408537
123	0xbb9a1451	-0.004702129
124	0x3a87d5a4	0.0010363352
125	0x3ba35cfb	0.0049854494
126	0xbc136786	-0.00899685
127	0xbb433608	-0.0029786844
128	0x3f76fe17	0.9648146
129	0xc0f685e1	-7.7038426
130	0xbff88978	-1.9416952
131	0xc0389a17	-2.884405
132	0x3f166523	0.5874807
133	0xc04c9fe2	-3.1972585
134	0x3e44a998	0.1920532
135	0xbf24fddb	-0.6444985
136	0xbeba59c1	-0.36396602
137	0x400721e7	2.1114442
138	0xc19d0b81	-19.630617
139	0xbe386bc0	-0.18009853
140	0xbeb61d96	-0.35569447
141	0xbe8c5811	-0.2741094
142	0x3ee1d431	0.44107202
143	0xc0228489	-2.5393393
144	0xbd975061	-0.07388378
145	0xbbf9fa72	-0.0076287324
146	0xbf1677db	-0.58776635
147	0x3dea9575	0.11454288
148	0x3dab674d	0.083693124
149	0xbc9e1096	-0.019295018
150	0xbe17421b	-0.14771311
151	0xbdce299e	-0.100665316
152	0xbf3c657d	-0.7359236
153	0x3eb7a962	0.35871416
154	0xc10204d4	-8.126179
155	0xbede53b6	-0.4342324
156	0x3dfa881d	0.12232993
157	0x3f16c706	0.58897436
158	0xbe953e81	-0.2914925
159	0x3e8fef80	0.28112411
160	0xbfea6ec1	-1.831505
161	0x3f7d5a6e	0.9896611
162	0xbfc91abc	-1.5711284
163	0xbe2f39d5	-0.17111905
164	0xbe67b6a8	-0.22628272
165	0x3ce887e0	0.028385103
166	0xbf16f45c	-0.5896661
167	0x3dd41e13	0.10357299
168	0xbbb70586	-0.0055853752
169	0x3c269d63	0.01016936
170	0x3c36ad9d	0.011149791
171	0x3c07641c	0.008263614
172	0xc0123f6a	-2.2851205
173	0x4011903d	2.2744286
174	0xbc2c3149	-0.010509797
175	0x3c4ea5b6	0.012612751
176	0x3bb87dd9	0.0056302366
177	0x3c052a70	0.008127794
178	0x3c089046	0.008335179
179	0x3f9ee7d5	1.24145
180	0xbb35fe24	-0.0027769888
181	0xbf9e993b	-1.2390512
182	0x398c87b6	0.00026803993
183	0x3a31e908	0.00067867385
184	0x3b0845d3	0.0020793572
185	0x3c7e4a51	0.015520648
186	0x3c066a95	0.008204122
187	0x3ba5513f	0.0050450857
188	0xbfaa3f98	-1.3300657
189	0x3fa822e6	1.313565
190	0xbb8be627	-0.0042693797
191	0xbb2552a6	-0.0025226264
192	0xbe451946	-0.19247922
193	0x3d034400	0.03204727
194	0xbdcdd670	-0.10050666
195	0xbd528020	-0.05139172
196	0xbe175136	-0.14777073
197	0xbe8a6f46	-0.2703802
198	0x3d49cf78	0.049270123
199	0xbeaaa84c	-0.33331525
200	0xbfeee9a9	-1.8665057
201	0xc080af4b	-4.021398
202	0xbf7484f2	-0.9551536
203	0xbf81f924	-1.0154157
204	0x3f25caaf	0.64762396
205	0x3f8292ec	1.0201087
206	0xbf85aad4	-1.0442758
207	0xbe1f91ef	-0.15583013
208	0xbe2034de	-0.15645167
209	0xbdab8fec	-0.0837706
210	0xbe0cfb9f	-0.13767861
211	0x3d9d1f21	0.07671953
212	0xbd4dc85b	-0.050239902
213	0xbe2c6ae8	-0.16837656
214	0x3d3dc63e	0.046331637
215	0xbd3e4c3c	-0.04645942
216	0xbe904af4	-0.28182185
217	0xbdc5ecd0	-0.09664309
218	0x3c74dbc0	0.014944971
219	0xbe1349eb	-0.14383666
220	0xbda16724	-0.07881001
221	0xbe38135a	-0.17976132
222	0xbeac07f8	-0.3359983
223	0x3c32c3c0	0.010910928
224	0x3f66a9c0	0.9010277
225	0xc0a1d0ee	-5.056754
226	0xbf81da9a	-1.0144837
227	0xbe396740	-0.18105793
228	0x3f6ee1d3	0.9331333
229	0x3f07e8f0	0.5308981
230	0xbe8c754c	-0.2743324
231	0xbedbc373	-0.42922553
232	0xbf5709db	-0.83999413
233	0xc09ab167	-4.8341556
234	0xbfafe7c7	-1.3742608
235	0xbf6bf84e	-0.9217576
236	0x3e833858	0.25628924
237	0xbdbe2bc7	-0.092856936
238	0x3facde70	1.3505383
239	0xbf72f4bd	-0.9490469
240	0x3d9a2611	0.07526792
241	0x3f29a81a	0.6627213
242	0x3eca4d77	0.39512226
243	0x3c47404a	0.012161324
244	0xbc6451ba	-0.013935501
245	0x3b4e93ec	0.0031521274
246	0xba90b07f	-0.0011038928
247	0x3b96db6d	0.0046037943
248	0x3dc3de81	0.095639236
249	0x3f84e92d	1.038366
250	0x3f90a4bf	1.1300277
251	0xbfb2df7f	-1.3974456
252	0xbea4350a	-0.32071716
253	0xbe83656d	-0.2566332
254	0xbab5c829	-0.0013868856
255	0xbf7236fb	-0.94615144

layers.0.bias f4 [128]
0	0x40c742c6	6.226901
1	0xc16f903b	-14.9727125
2	0x3fc13a8c	1.5095992
3	0xbf6e57c0	-0.93102646
4	0x409af7ed	4.8427644
5	0xc15e74a3	-13.903476
6	0x3e6fa5ca	0.23403087
7	0x405e18e8	3.4702702
8	0x406c37cd	3.6909058
9	0x3e4c6ecd	0.19964142
10	0xbe03d6e1	-0.12874939
11	0x40c8724f	6.2639537
12	0x3f6a9c1d	0.9164446
13	0x401b92fe	2.4308467
14	0xc0cc5e57	-6.386516
15	0x404bab98	3.1823483
16	0x40967f11	4.703011
17	0xbf461a64	-0.7738402
18	0xbf5deace	-0.8668641
19	0xbfbbee20	-1.4682045
20	0x3f37e27d	0.7182997
21	0xc12c6692	-10.775042
22	0xbd000523	-0.0312549
23	0xc004d9ee	-2.0758014
24	0xbe48fe97	-0.19628368
25	0xbfb75e98	-1.4325743
26	0xbf395984	-0.72402215
27	0xbe559eaa	-0.20861307
28	0xc07dc334	-3.9650393
29	0xc05d06df	-3.4535444
30	0xbf022fd5	-0.50854236
31	0xc06844bb	-3.629195
32	0x3f9f4b70	1.2444897
33	0xbfb5a5dd	-1.4191242
34	0x3f995d1b	1.1981539
35	0xbf937e09	-1.1522838
36	0xc0d28da0	-6.579788
37	0xc006e623	-2.1077964
38	0x3e208e8f	0.15679382
39	0xbf5ff193	-0.8747799
40	0xbc6915ab	-0.014226357
41	0x3fd289c8	1.6448298
42	0x3f9f008e	1.2422044
43	0x403afafd	2.921569
44	0xc097702f	-4.7324443
45	0x40dc0233	6.8752685
46	0xc0a2d08d	-5.087958
47	0x403f9ae9	2.99383
48	0xc0a461a6	-5.13692
49	0xbef6cbc4	-0.48202336
50	0x3fc751a7	1.5571793
51	0x408bedd1	4.3727803
52	0xc0da85de	-6.828841
53	0x3fbfc6be	1.4982526
54	0x3da9f982	0.08299543
55	0x3f8266d3	1.018763
56	0x3f449402	0.7678834
57	0x3f66eda9	0.9020639
58	0xbe6cc3aa	-0.23121515
59	0xc13bbd4e	-11.733717
60	0xc02f8a59	-2.742819
61	0xbf65a718	-0.8970809
62	0x407df697	3.9681756
63	0xbf4ac95f	-0.7921352
64	0x3faa1838	1.3288641
65	0xc0b93b3b	-5.7884803
66	0x402a1dd3	2.6580703
67	0xbe719b70	-0.23594451
68	0xc0aca492	-5.395089
69	0x3f7dce48	0.99142885
70	0xc10b0762	-8.689302
71	0xc0e31cd8	-7.097271
72	0xbde95570	-0.11393249
73	0x40554b1f	3.33271
74	0x40b4f421	5.654801
75	0x3f070340	0.52739334
76	0xbe7c94bd	-0.24666114
77	0xbfbc4d95	-1.4711176
78	0x3ffe5c38	1.9871893
79	0xc0bb5537	-5.854152
80	0x3e2a7b36	0.16648564
81	0x3fac65cf	1.346857
82	0xc0b23c67	-5.5698733
83	0xbf6e4f52	-0.93089783
84	0x40bdd107	5.931766
85	0x406d14a8	3.7043858
86	0x40445222	3.067513
87	0x3edf20c1	0.43579677
88	0x408a583d	4.3232713
89	0xc013dfc6	-2.310533
90	0xbf2a45e8	-0.6651292
91	0x3f257add	0.646406
92	0x404bbce7	3.1834047
93	0x3ffd61d4	1.979548
94	0xbf1c8687	-0.6114277
95	0xbd979888	-0.0740214
96	0xbcadc38f	-0.021211414
97	0xc04c1156	-3.188558
98	0xc0439525	-3.055978
99	0xc0b5b97e	-5.678893
100	0x409f56d1	4.9793477
101	0x3c1bf09f	0.009517818
102	0xc16cfc64	-14.811619
103	0xbf45b9e6	-0.77236784
104	0x3fafe49c	1.3741641
105	0xbf019fb8	-0.50634336
106	0xbfad1d9e	-1.3524663
107	0xc02bc1bc	-2.6836996
108	0xc01097fe	-2.2592769
109	0xbf198375	-0.5996621
110	0xc0b36f4e	-5.607337
111	0xbd7c0dbf	-0.061536547
112	0xc0ad74db	-5.4205146
113	0x3fdbbf4c	1.7167754
114	0x40c14a5b	6.0403266
115	0x3f982128	1.1885118
116	0x406e38c8	3.7222157
117	0x3f7eb935	0.99501354
118	0xc0ad6c08	-5.4194374
119	0x3fcdd57d	1.6080776
120	0xc00e7a61	-2.2262194
121	0xbe1af091	-0.15130831
122	0xbcffb2e1	-0.031213226
123	0xc0b8419a	-5.758008
124	0x4045788f	3.0854833
125	0x41206cb3	10.026538
126	0x3f6dc00e	0.9287118
127	0xc094448e	-4.6333685

layers.2.weight f4 [256, 128]
0	0x3e097746	0.13424405
1	0x3aedee7f	0.0018152742
2	0xbf90df7d	-1.1318203
3	0xc0ad3928	-5.413227
4	0x3fc52d69	1.5404483
5	0xbeb0b78e	-0.3451504
6	0x3ea6dd8a	0.32590896
7	0xbf19c7e8	-0.6007066
8	0xc104b74f	-8.294753
9	0xbe945b3e	-0.28975862
10	0x3cb979f4	0.02264116
11	0x4073286d	3.7993424
12	0xc104e28b	-8.305308
13	0xc084c7ec	-4.1494045
14	0x4041e482	3.029572
15	0xbfde716e	-1.7378366
16	0x3e46df74	0.19421178
17	0xc0dc1616	-6.877696
18	0xbe68755f	-0.22701024
19	0xc0ec9b64	-7.3939686
20	0x40791db2	3.8924375
21	0xc1e03d3e	-28.029903
22	0xc0b35c5f	-5.605026
23	0xc09a807c	-4.828184
24	0xbd346e01	-0.04405022
25	0xc03a5643	-2.911515
26	0xbd5674ff	-0.05235767
27	0x3d5911d6	0.052995525
28	0xc17a8f13	-15.65993
29	0xc1316718	-11.087669
30	0xc092c6ed	-4.586783
31	0x3faa758a	1.331712
32	0xbcbbe93f	-0.022938369
33	0xc13a4927	-11.642859
34	0xbdd10cb7	-0.10207503
35	0xc04ec8a7	-3.2309968
36	0x3e81ebdb	0.25375256
37	0x3fd87b2b	1.6912588
38	0xbf96d7c3	-1.1784595
39	0xc054dfcc	-3.3261595
40	0xbfabc78f	-1.3420275
41	0x4064da54	3.5758257
42	0x3f3f9b4e	0.7484635
43	0xc0cc05d5	-6.375712
44	0x3e2a7d2f	0.16649316
45	0xbfe7739a	-1.8082154
46	0x3fdee852	1.7414649
47	0x3f920bb6	1.1409824
48	0xbf3f2acb	-0.7467467
49	0xc1c894aa	-25.07259
50	0xbd4f4b03	-0.050608646
51	0xbfef3f3d	-1.8691174
52	0xbf23f0ae	-0.64039123
53	0xc05db28a	-3.4640222
54	0xc08bce11	-4.3689046
55	0x41022c28	8.13578
56	0xc077ea14	-3.873662
57	0xc09a940f	-4.8305736
58	0xbec78a92	-0.38972908
59	0x406097dc	3.5092688
60	0xbf7d2aba	-0.9889332
61	0xbed89b79	-0.42306116
62	0xc1ea9e0f	-29.327177
63	0xc119c480	-9.610474
64	0x3fc41d18	1.5321379
65	0xbf99b1bf	-1.2007369
66	0xc17ff9e9	-15.998513
67	0xbd0bd3a2	-0.034137376
68	0xbf0f0560	-0.55867577
69	0xc050f747	-3.2650926
70	0x40578d0b	3.3679836
71	0xc182bade	-16.341244
72	0xbcbb2450	-0.022844464
73	0xc10b99bb	-8.725032
74	0x4056ebe4	3.3581476
75	0xbf5c1f79	-0.85985523
76	0xbcd6c95a	-0.026219059
77	0xbf5524b0	-0.83259106
78	0xc123b063	-10.230563
79	0x3dba8339	0.0910706
80	0xbd5ba32d	-0.053622413
81	0xc0f50801	-7.657227
82	0xbf74652e	-0.9546689
83	0x3f9129c8	1.1340876
84	0xbfb919dd	-1.4461018
85	0xbf3cee24	-0.73800874
86	0x3ea17df8	0.3154142
87	0x3ec0be8c	0.37645376
88	0x40b15ba3	5.542436
89	0x3fb3ecc2	1.4056628
90	0xbdd17cbe	-0.10228871
91	0xbfbe78f7	-1.4880666
92	0xc196678a	-18.800556
93	0x406cf697	3.7025506
94	0xbcffeb38	-0.03124009
95	0x3da0ce28	0.07851821
96	0xc02452b6	-2.5675483
97	0xbf8e37c7	-1.1110772
98	0x411214a4	9.130039
99	0xc1c9f2b5	-25.24351
100	0xc00dd56f	-2.216152
101	0x3f8e4eaf	1.1117762
102	0x3fc63668	1.5485353
103	0x411b89ec	9.721172
104	0xc19e39bc	-19.77819
105	0xbdc93d4a	-0.09826143
106	0xbfe1abe2	-1.763058
107	0xbfec03af	-1.8438624
108	0xc1a5e3e6	-20.736279
109	0xbfc89f73	-1.567366
110	0x40a25b98	5.073681
111	0xc08c6835	-4.3877206
112	0x40a32fed	5.0996003
113	0x3e3fde4b	0.18737142
114	0x402078d1	2.507374
115	0xc0081a34	-2.1265993
116	0xc1790a7f	-15.5650625
117	0xc1491861	-12.568452
118	0x3f17bc7c	0.5927198
119	0xc13bc048	-11.734444
120	0xc14e4721	-12.892365
121	0xc0cbc009	-6.367192
122	0x40a65029	5.197285
123	0x3e1c9e64	0.15294796
124	0x3fede4c0	1.8585434
125	0xc147ac6c	-12.479595
126	0xbfb73444	-1.4312825
127	0x405c185a	3.4389863
128	0xbee1bfff	-0.44091794
129	0xbc6d82a9	-0.014496484
130	0xbe2f32bf	-0.17109202
131	0x3e458e77	0.19292627
132	0xbfc85ad5	-1.565272
133	0xbc9f3bb0	-0.01943764
134	0x3db0954e	0.086222276
135	0x3f02a1f3	0.51028365
136	0x3de57a76	0.11204998
137	0xbdac1149	-0.084017344
138	0xbd90adc4	-0.07064393
139	0xbcc98d7b	-0.024603596
140	0x3e09c718	0.13454854
141	0x3cae7a90	0.021298677
142	0x3d4c3694	0.049856737
143	0xbccca919	-0.024982976
144	0xbfb26c85	-1.3939368
145	0x3e9e8570	0.3096118
146	0x3dbe3621	0.09287668
147	0xbec21651	-0.3790765
148	0x3ea5d9be	0.32392687
149	0x3d1b6730	0.037940204
150	0x3ee95daf	0.45579287
151	0x3cdd14a5	0.026987383
152	0x3cfb210c	0.030655406
153	0xbc313e88	-0.010818131
154	0xbd1072ce	-0.035265736
155	0x3cd333f8	0.025781617
156	0xbc9a76a7	-0.018855406
157	0xbad60195	-0.0016327376
158	0xbe1ccc77	-0.15312372
159	0xbea720a5	-0.32642093
160	0x3fcc681a	1.5969269
161	0x3dee01aa	0.11621411
162	0xbf52fea1	-0.8241978
163	0x3fb106c8	1.3830194
164	0xbc9cd45f	-0.019144235
165	0x3d927928	0.07152015
166	0xbcb0f6b6	-0.021602016
167	0xbe2bf484	-0.16792494
168	0x3fd13a82	1.634598
169	0xbe45dff2	-0.1932371
170	0x3e766198	0.24060667
171	0x3d55f020	0.052230954
172	0xbe1801a0	-0.1484437
173	0x3ddbc01e	0.10730003
174	0xc044cdac	-3.0750532
175	0xbe0b6d50	-0.13615918
176	0xbd6b6091	-0.05746514
177	0xbd7f3b75	-0.062312562
178	0xbd15ddc8	-0.03658846
179	0x3da6b41e	0.081398234
180	0xbea0c146	-0.31397456
181	0x3e760dcb	0.24028699
182	0xbd2044ce	-0.039128117
183	0xbccda2a6	-0.02510197
184	0xbe598539	-0.21242227
185	0xbe394ed4	-0.18096477
186	0xba972aaa	-0.0011533101
187	0x3f19a919	0.6002365
188	0x4026cd8b	2.6062953
189	0xbc336e85	-0.010951643
190	0xbd2039ec	-0.03911774
191	0x3d77e044	0.06051661
192	0x3cd8a827	0.026447369
193	0xbcf9def9	-0.03050183
194	0xbc9e5079	-0.019325482
195	0x3d44cd55	0.048047382
196	0xbd8a69af	-0.06758439
197	0xbe513075	-0.20428641
198	0x3d2b1468	0.041767508
199	0xc05be01a	-3.435553
200	0xbc612418	-0.013741516
201	0xbd886efc	-0.066617936
202	0xbd4e4613	-0.050359797
203	0xbd76cf90	-0.06025654
204	0xbda3993e	-0.07988213
205	0xbe9b06dd	-0.30278674
206	0x3d4391e6	0.04774656
207	0x3db865b2	0.09003772
208	0xbcd98f7c	-0.026557676
209	0xbd4b2b49	-0.049601827
210	0x3d78f30a	0.060778655
211	0x3e4a3fba	0.19750872
212	0x3d3938df	0.045220252
213	0xbc874356	-0.0165116
214	0xbd060e10	-0.032728255
215	0x3d92522e	0.07144581
216	0x3bbf4294	0.005836794
217	0x3e7dcaa9	0.2478434
218	0xbd108bdc	-0.03528963
219	0xbd0e197b	-0.03469227
220	0x3e73d049	0.23809923
221	0x3cb5c62a	0.022189219
222	0xbdbe7ceb	-0.0930117
223	0xbd696596	-0.056981646
224	0x3ba58b14	0.00505198
225	0xbf003bb3	-0.50091094
226	0x3f2198f4	0.6312401
227	0x3c3d3c59	0.0115500325
228	0x3bad7c5c	0.005294366
229	0xbcfe80c7	-0.031067265
230	0xbd6dcf43	-0.05805899
231	0xbfae6bfd	-1.3626705
232	0x3e49f93e	0.19723985
233	0xbde49374	-0.11160937
234	0x3da153fd	0.078773476
235	0x3dca4762	0.098768964
236	0xbbd9a228	-0.006641645
237	0x3ec97f85	0.39355102
238	0xbe9fa14f	-0.31177756
239	0x3d38186f	0.044945177
240	0xbbb507c1	-0.005524606
241	0x3d3293b3	0.04359789
242	0xbbebf38d	-0.0072006644
243	0x3e5bc02c	0.21460027
244	0x3d44e33b	0.048068266
245	0xbc8af5ad	-0.01696285
246	0x3be1374d	0.0068730474
247	0x3f8de56d	1.108564
248	0x3c970da6	0.018439125
249	0xbedefac9	-0.4355071
250	0xbca17fc0	-0.019714236
251	0xbe872540	-0.26395607
252	0x3c90fbf6	0.01769827
253	0x3c5dfbf4	0.01354884
254	0x3c216d56	0.009852728
255	0x3d65a647	0.056066778

layers.2.bias f4 [256]
0	0xc14e4a88	-12.893196
1	0xc0828eb2	-4.079919
2	0x40003058	2.0029507
3	0xbd8774fd	-0.066141106
4	0xbdcbc94b	-0.09950503
5	0xc0875259	-4.228802
6	0x4003a3ff	2.0568845
7	0xbe179667	-0.14803468
8	0xc1185e44	-9.523014
9	0xbfbff25c	-1.4995837
10	0xc0f5afd8	-7.6777153
11	0xc0b9a6b3	-5.801599
12	0xc0c53cda	-6.163678
13	0xc16791d3	-14.473102
14	0xbe15dd44	-0.14635187
15	0xbe80ac48	-0.2513144
16	0x4071e23b	3.779433
17	0xbf3893b4	-0.7210038
18	0xbdd33810	-0.103134274
19	0xbe3fcb8a	-0.18729988
20	0xc16b7b5a	-14.717615
21	0xc17bb825	-15.732457
22	0xbdfc1fb6	-0.12310736
23	0xbe0f0afe	-0.13969037
24	0xc11a4c63	-9.643649
25	0x3c9bc0d0	0.019012839
26	0xbfe7947a	-1.8092186
27	0xbe120f3c	-0.14263624
28	0xbd4b4bda	-0.049632885
29	0xc112e749	-9.181466
30	0xc09bd21b	-4.8693976
31	0xbd54e4d0	-0.051976025
32	0xc0432939	-3.049391
33	0xc067411a	-3.6133485
34	0xc04cd42f	-3.2004507
35	0xbdf9e133	-0.122011565
36	0xbdf1d2b8	-0.118077695
37	0xbdcbd63f	-0.099529736
38	0xbd4979e7	-0.04918852
39	0xc118f64b	-9.56013
40	0xbc9be808	-0.01903154
41	0xbe45d0e5	-0.19317968
42	0x3efa60d8	0.4890201
43	0xbea668b5	-0.3250176
44	0x3feeb06a	1.8647587
45	0x3fb46112	1.4092124
46	0xc115c9ba	-9.36175
47	0x40071aba	2.1110063
48	0xc05f64c3	-3.490525
49	0xc084c0d7	-4.14854
50	0x3f9e0248	1.2344446
51	0xbd259338	-0.040423602
52	0xc0c8f85f	-6.2803187
53	0x404a636e	3.1623187
54	0x400d95ee	2.212276
55	0x3f189910	0.59608555
56	0xbf23f38d	-0.64043504
57	0x3f8ee4fd	1.1163632
58	0xbe144ed2	-0.14483193
59	0xbfc28839	-1.5197822
60	0xbedc329b	-0.4300736
61	0xbe005b4e	-0.1253483
62	0x3fa97b55	1.3240763
63	0x4002c782	2.043427
64	0xbdac44b3	-0.08411541
65	0xc0fd1aaf	-7.9095073
66	0xc1a05097	-20.03935
67	0xbdbe318e	-0.092867956
68	0xbe470fb4	-0.19439584
69	0xc0e417d6	-7.1279097
70	0xbe1d6cca	-0.15373531
71	0xbd3caeb2	-0.04606504
72	0xc111fdde	-9.124479
73	0xbf45ddc5	-0.7729152
74	0xbd343ca1	-0.044003133
75	0x401f4e08	2.4891376
76	0xbc080869	-0.008302786
77	0xc136629b	-11.399074
78	0x3c83852a	0.016054709
79	0xbf3b6dab	-0.73214215
80	0xbe002a0e	-0.12516043
81	0x3ea8feca	0.3300689
82	0xc0ddff49	-6.9374127
83	0xbff2e625	-1.8976485
84	0xbb865d32	-0.004100465
85	0x404ffe9c	3.2499151
86	0x40c0fae6	6.0306273
87	0x3d978887	0.073990874
88	0x3faec133	1.365271
89	0xbc7afa58	-0.015318476
90	0x3fac1824	1.3444867
91	0xbdce7f3a	-0.1008286
92	0xc0c35a94	-6.104807
93	0xc0a74715	-5.227427
94	0xbd6366a3	-0.055517804
95	0xc039af9f	-2.901344
96	0x3f7bdd7e	0.98384845
97	0xbda55da5	-0.08074502
98	0xc09ad34a	-4.838292
99	0xbdacf046	-0.08444266
100	0xc0f349ae	-7.602744
101	0xc0336685	-2.8031323
102	0xc14def80	-12.870972
103	0xc0be8fe6	-5.9550657
104	0xbfe70296	-1.8047664
105	0xbf9550cd	-1.1665283
106	0xc07fb10b	-3.9951808
107	0x3fe9cd8c	1.8265853
108	0xbe86f22e	-0.26356643
109	0x3f0c16e9	0.5472246
110	0xbd267acb	-0.04064445
111	0xc113005d	-9.187589
112	0xc0593980	-3.3941345
113	0xc0c64754	-6.196207
114	0xbd97c375	-0.07410327
115	0x40331062	2.797875
116	0xbf1a0264	-0.601599
117	0xc1993b4f	-19.15396
118	0x3f5c7560	0.861166
119	0x3ff15a35	1.8855654
120	0xc0961bec	-4.6909084
121	0x3ff9658d	1.9484116
122	0xbdc06783	-0.09394743
123	0xc192a040	-18.328247
124	0x3e50568c	0.20345515
125	0xbecb3257	-0.39686844
126	0xbe53b488	-0.20674336
127	0xbde31c85	-0.11089424
128	0xbdc98077	-0.09838956
129	0xc10344fb	-8.204341
130	0xbce711fa	-0.028206814
131	0xbd9f1be3	-0.07768991
132	0xc0a789eb	-5.2355857
133	0xbcccda9b	-0.025006583
134	0xbdab97e6	-0.08378582
135	0xbde81f83	-0.113341354
136	0x3d471834	0.048607066
137	0x3f9636a7	1.1735429
138	0xbffc916f	-1.9731883
139	0xc04b35b5	-3.175153
140	0xc02cf16c	-2.7022352
141	0xbdd2fd6c	-0.10302243
142	0xbd7ca6bf	-0.06168246
143	0xbed0433a	-0.4067629
144	0xc161ae17	-14.105002
145	0xbdb5c5e3	-0.088756345
146	0xc1289601	-10.536622
147	0xbe571807	-0.2100526
148	0x400d13e9	2.2043402
149	0xc0d250c9	-6.5723615
150	0xc055429f	-3.3321912
151	0xc05fc11a	-3.496161
152	0xbe424024	-0.1896978
153	0xc08a2633	-4.317163
154	0xbd05ea2d	-0.03269403
155	0xbefd13c5	-0.49429145
156	0xc03813d9	-2.8762114
157	0xc1085001	-8.519532
158	0x3fc18b40	1.5120621
159	0xbcb5a5a4	-0.02217371
160	0xc119227e	-9.570921
161	0xbffbfc47	-1.9686364
162	0x3fcc23e1	1.5948449
163	0x3f164bb3	0.5870926
164	0xc158c796	-13.548727
165	0xc0390c85	-2.8913891
166	0xbd8b2b72	-0.06795396
167	0xbe06764e	-0.13131067
168	0xbdab77dd	-0.083724715
169	0xbc8c3b4b	-0.017118117
170	0xc0a3deea	-5.120961
171	0xc06f9371	-3.743374
172	0xc1932145	-18.391245
173	0xc0ac897c	-5.3917828
174	0xc08b566b	-4.354299
175	0xbdb79a50	-0.0896498
176	0xbff2a279	-1.8955833
177	0xc12d273c	-10.822079
178	0xbe129f17	-0.143185
179	0xc116a52c	-9.415325
180	0xbbdc018c	-0.0067140516
181	0xc009ac14	-2.1511278
182	0xc0091b97	-2.142309
183	0xbe122e49	-0.14275469
184	0xc09efa28	-4.9680367
185	0xbcb0f53a	-0.021601308
186	0xbfbdeaa8	-1.4837236
187	0xc05e2e42	-3.4715734
188	0xbe5baa09	-0.21451582
189	0xc10f2c2e	-8.948286
190	0xc09188e9	-4.5479627
191	0x40900dd5	4.5016885
192	0xc06447c3	-3.56688
193	0xc01e5b67	-2.4743288
194	0xbd5611bc	-0.052263007
195	0xc1789db4	-15.538502
196	0xc03ba8c0	-2.9321747
197	0xc0b44557	-5.6334643
198	0xc19e8aa2	-19.817692
199	0xc0b34e8f	-5.6033397
200	0xc01b5d47	-2.4275682
201	0xc063cb15	-3.5592701
202	0xbdb50924	-0.08839634
203	0xc095106f	-4.658256
204	0xc00d25b4	-2.2054262
205	0x401ac4fd	2.4182732
206	0xbdfe9b80	-0.12432003
207	0xbe6b82bc	-0.2299909
208	0xc149b5b6	-12.606863
209	0xc0735855	-3.8022664
210	0xbda7423f	-0.08166932
211	0xbded9602	-0.11600877
212	0xbdc8a5ff	-0.09797286
213	0xc117b84e	-9.482496
214	0xbe16a3ce	-0.14710924
215	0xbd06b735	-0.032889564
216	0xc121511b	-10.082301
217	0xbe112ef8	-0.14178073
218	0xbe13813a	-0.14404765
219	0xbdcc3b53	-0.09972253
220	0xc034a928	-2.8228245
221	0xbed840ea	-0.42237025
222	0xbe3831a9	-0.17987694
223	0xbdcc226b	-0.09967502
224	0xbffcef56	-1.976054
225	0xbe444aef	-0.1916921
226	0xbd211e44	-0.039335504
227	0xbd56bf42	-0.05242849
228	0x404347a2	3.0512471
229	0xbe1257e4	-0.1429134
230	0x4099a49f	4.8013453
231	0xbf992b72	-1.1966383
232	0x4019494b	2.3950984
233	0xc035a846	-2.8383956
234	0xc13ce55e	-11.805998
235	0xbd83675d	-0.06416199
236	0xbd9c5b59	-0.07634611
237	0x3d1f5218	0.03889665
238	0x3ffc76bb	1.9723734
239	0xc0536f99	-3.3036864
240	0xc0a01dbd	-5.00363
241	0xbe0ecbb4	-0.13944894
242	0xc08c4926	-4.3839293
243	0xbd48ec3f	-0.049053427
244	0x4033efd3	2.8115127
245	0xbffd50d7	-1.9790295
246	0xc06c9761	-3.6967394
247	0xbe45d1a8	-0.19318259
248	0xc03327cf	-2.7993047
249	0xbe4e729c	-0.20160908
250	0xc0c32348	-6.098057
251	0xc149215c	-12.570644
252	0xbcb9b56f	-0.022669522
253	0xbf7bbc3b	-0.9833409
254	0x3fff695e	1.995403
255	0x3f73c25a	0.9521843

layers.4.weight f4 [256, 256]
0	0xbd4cad9b	-0.04997025
1	0xbd895957	-0.06706493
2	0xbd023cdd	-0.031796325
3	0xbc80c027	-0.015716625
4	0xbcbd17f8	-0.023082718
5	0xbcdcfad6	-0.026975077
6	0x3bb77555	0.005598704
7	0x3c8d05c0	0.017214656
8	0xbd13163c	-0.035909876
9	0xbd569127	-0.05238452
10	0x3c925738	0.017863855
11	0xbd983f6d	-0.074339725
12	0xbc31aea2	-0.010844858
13	0x3d1f75dc	0.03893076
14	0xbc9f851b	-0.01947265
15	0x3c70f251	0.01470621
16	0xbda6ad01	-0.081384666
17	0xbd9ef931	-0.07762373
18	0xbd061eb6	-0.032744132
19	0xbce59e6d	-0.028029645
20	0x3b30bd7e	0.0026968415
21	0xbd0d16a4	-0.03444542
22	0x3d491a63	0.04909743
23	0x3d0404ad	0.03223102
24	0x3cbee98d	0.023304725
25	0xbbc83a2c	-0.0061104503
26	0x3c96fa06	0.018429767
27	0xbd4afefd	-0.049559582
28	0xbbe116b0	-0.0068691596
29	0x3ce13305	0.027490148
30	0xbc9ab8e5	-0.018886993
31	0x3c906c8a	0.01762988
32	0xbc8417c6	-0.016124617
33	0xbc367c06	-0.011137968
34	0xbc3a4f71	-0.011371479
35	0x3c850738	0.016238794
36	0x39942cba	0.00028262084
37	0x3d161d0c	0.036648795
38	0xbcb72df5	-0.022360781
39	0x3cafbba4	0.021451779
40	0xbd52b26e	-0.051439695
41	0x3c1341c0	0.008987844
42	0x3c120b20	0.008913785
43	0x3c9f16e0	0.019420087
44	0xbcd81c79	-0.026380764
45	0xbd82d931	-0.06389082
46	0xbd953628	-0.0728572
47	0xbd55a51d	-0.052159417
48	0xbd06fcb8	-0.032955855
49	0x3c9fdaab	0.019513449
50	0xbd266672	-0.040625043
51	0xbbe103c0	-0.006866902
52	0xbd25b20f	-0.040453013
53	0xbcc0f52e	-0.02355441
54	0xbbc36b08	-0.005963687
55	0xbd7a15be	-0.06105589
56	0x3c4857f8	0.012228005
57	0xbd2b2f55	-0.041793186
58	0x3d47e9e7	0.04880705
59	0xbb914acd	-0.004433966
60	0xbda9a08e	-0.082825765
61	0x3d11f848	0.03563717
62	0xbcee5843	-0.02909482
63	0xbd7ccab8	-0.061716765
64	0x3d043043	0.03227259
65	0x3ce4285a	0.027851272
66	0x3c8b3f1b	0.016997864
67	0xbd3b658a	-0.045751132
68	0x3d435a5d	0.0476936
69	0x3c8567f4	0.01628492
70	0xbd103d9e	-0.035215013
71	0xbc81f429	-0.015863495
72	0xbd368e5a	-0.04456935
73	0xbc7c1ffc	-0.015388485
74	0x3c2b04c8	0.010438152
75	0xbe059985	-0.13046844
76	0x3d514d16	0.051098906
77	0x3c255853	0.010091859
78	0x3d23f554	0.040028885
79	0x3c3f0998	0.011660002
80	0xbd4ce8ea	-0.05002681
81	0xbd8e667a	-0.069531396
82	0x3c187f30	0.009307668
83	0xbc3a3c11	-0.01136686
84	0xba823047	-0.0009932601
85	0xbd7604cc	-0.06006317
86	0xbd30f716	-0.04320439
87	0xbd502666	-0.05081787
88	0x3b2aecdf	0.0026081128
89	0x3d45cd46	0.048291467
90	0x3d4284ca	0.04748992
91	0x3cbcdfac	0.023055874
92	0xbd2dacc1	-0.04240108
93	0xbc0e0467	-0.008668042
94	0xbbc70697	-0.0060737836
95	0xbd9ce277	-0.07660382
96	0xbb0fcdec	-0.0021942807
97	0xbc8a531e	-0.016885336
98	0x3cb54ca5	0.022131274
99	0xbce93a4b	-0.028470179
100	0x3ca66bc1	0.020315053
101	0xbc068a80	-0.008211732
102	0x3b0600fa	0.002044736
103	0x3c73db7b	0.014883871
104	0x3d38db64	0.045131102
105	0xbc903642	-0.017603997
106	0xbc659553	-0.014012652
107	0xbd9e1293	-0.077183865
108	0xbc10c652	-0.008836346
109	0xbdb2a334	-0.08722535
110	0x3d57610c	0.052582785
111	0x3b8ca294	0.0042918418
112	0xbd3784f3	-0.044804525
113	0x3abeb21f	0.0014548934
114	0xbaa46ec0	-0.0012545213
115	0xbe0b736a	-0.13618246
116	0xbbf7ac10	-0.0075583532
117	0x3baf5c10	0.005351551
118	0xbd8cdfa5	-0.06878594
119	0xbd35e390	-0.044406474
120	0x3be35581	0.006937683
121	0x3d0e23ec	0.034702227
122	0xbd7afac0	-0.06127429
123	0x3c969ae2	0.0183844
124	0x3d11a023	0.03555311
125	0x3c4d87a3	0.012544545
126	0x3c460183	0.012085321
127	0x3cbfbdb0	0.02340588
128	0xba48e5d7	-0.00076636433
129	0xbcc0d0f6	-0.02353714
130	0x3c9f1309	0.019418256
131	0xbd194ea6	-0.03742852
132	0x3d184dae	0.037183456
133	0xbd865b0d	-0.06560335
134	0xbcfeef4b	-0.031119963
135	0x3d0dfeb9	0.03466675
136	0xbc842172	-0.01612923
137	0xbd010127	-0.03149524
138	0xbc4b3edd	-0.0124051245
139	0xbd89bca8	-0.067254364
140	0xbdb0eec6	-0.086392924
141	0x3c0564bd	0.008141694
142	0x3d3ac584	0.04559852
143	0xbdca0478	-0.098641336
144	0xbc05c94f	-0.0081656715
145	0x3d055cfe	0.032559387
146	0x3c8270a5	0.015922854
147	0xbd7e9fba	-0.062164046
148	0xbcd785ea	-0.026308972
149	0xbd993ad5	-0.074819244
150	0x3c0a307a	0.008434409
151	0x3d1e0f34	0.038588718
152	0x3d0dbbd3	0.03460295
153	0xbcf30db4	-0.02966962
154	0xbcd9bdd6	-0.026579779
155	0xbd0ff150	-0.035142243
156	0xbc01d705	-0.0079248
157	0xbdb09807	-0.08622747
158	0xbcfd0932	-0.030888174
159	0x3c38032e	0.011231227
160	0xbd247e9a	-0.0401598
161	0x3b748164	0.0037308568
162	0x3cb63096	0.022239964
163	0x3bb08647	0.005387101
164	0xbc326a84	-0.010889653
165	0xbd9280b3	-0.07153454
166	0xbc19c898	-0.009386204
167	0x3d4e339d	0.05034219
168	0xbc795641	-0.015218318
169	0x3b1265d5	0.0022338529
170	0x3c561f16	0.013068935
171	0x3b9b3342	0.004736335
172	0xbc12ddc9	-0.0089640105
173	0x3d0298ab	0.031883877
174	0xbd88d429	-0.06681091
175	0x3d202e2e	0.03910654
176	0xbcb297be	-0.021800872
177	0xbdb63e35	-0.08898584
178	0xbcc13ce0	-0.023588598
179	0x3d53e5ca	0.051732816
180	0xbc8ad6e8	-0.016948178
181	0x3d2bb857	0.041923847
182	0x3c446568	0.011987068
183	0xbcfcbf22	-0.030852858
184	0x3c8b8164	0.017029472
185	0x3d1362d4	0.03598292
186	0xbc81d3d5	-0.01584808
187	0xbcf15480	-0.029459238
188	0xbd5f58fc	-0.05452822
189	0xbd3bcb77	-0.045848336
190	0xbc191120	-0.009342462
191	0x3b490ff7	0.0030679682
192	0xbd3508c5	-0.044197816
193	0xbc623094	-0.013805527
194	0xbd38f374	-0.04515405
195	0xbd3834b2	-0.04497213
196	0x3c63f7db	0.013914074
197	0x3c325358	0.0108841285
198	0xbd3d3ceb	-0.046200674
199	0x3d3437dd	0.043998588
200	0xbdb5d6c9	-0.08878858
201	0xbd928df7	-0.07155984
202	0xbd429cee	-0.04751294
203	0x3d211502	0.039326675
204	0xbd42f6ca	-0.047598638
205	0xbae06852	-0.0017120934
206	0x3d06c556	0.032903038
207	0xbcc51002	-0.024055485
208	0x3ac51ffc	0.0015039439
209	0x3d1ceb13	0.03831012
210	0x3cbcd390	0.0230501
211	0xbccc708b	-0.024956008
212	0x3d736a80	0.05942774
213	0xbc23f5bc	-0.010007318
214	0xbd13f7c8	-0.036124974
215	0xbd23c2a2	-0.03998054
216	0xbd0ec6fa	-0.034857728
217	0xbc6f3950	-0.014601067
218	0x3c63b20a	0.013897428
219	0x3c94025a	0.018067528
220	0x3d6bc650	0.057562172
221	0x3d426d61	0.047467593
222	0x3b74d3cb	0.0037357684
223	0xbcaaf870	-0.020870417
224	0x3d481a31	0.048853103
225	0xbcdd6e00	-0.027029991
226	0xbc6bd6b8	-0.014394455
227	0x3d13701c	0.035995588
228	0x3d15439a	0.036441423
229	0x3cd2fd9b	0.025755694
230	0xbd724f23	-0.059157502
231	0xbd82a042	-0.06378223
232	0xbd022d40	-0.031781435
233	0x3d5a541e	0.053302877
234	0xbc8cf991	-0.017208846
235	0xbca67389	-0.020318763
236	0x3d2ea081	0.042633537
237	0xbcbaeebf	-0.022818921
238	0xbd156774	-0.036475614
239	0x3ca049f4	0.019566514
240	0xbd785095	-0.060623724
241	0x3d30dbd3	0.04317839
242	0x3c40b420	0.011761695
243	0xbd670c3b	-0.05640815
244	0xbd5c60a1	-0.05380309
245	0xbcb93ad9	-0.022611069
246	0xbdb79c74	-0.08965388
247	0x3d3e5d70	0.046475828
248	0x399fc7c4	0.0003047568
249	0xbd2cb7cc	-0.04216747
250	0x3aa4261d	0.0012523566
251	0xbc5ecae4	-0.013598178
252	0xbbf18365	-0.0073704
253	0x3d3bf58b	0.045888465
254	0xbc06366e	-0.008191688
255	0xbd462b1d	-0.04838096

layers.4.bias f4 [256]
0	0xbe10b958	-0.14133203
1	0xbdb7a568	-0.089670956
2	0xbfdad1f4	-1.7095323
3	0xbe139f46	-0.14416227
4	0xc0c5b030	-6.1777573
5	0xbe22bc62	-0.15892175
6	0xbfa195bf	-1.2623824
7	0xbed50355	-0.41604105
8	0xbf1a6ac1	-0.60319144
9	0xbf083a42	-0.53213894
10	0xbd91b3d1	-0.071143754
11	0xbda054eb	-0.07828697
12	0xbdf3c30f	-0.11902439
13	0xbddd0d1a	-0.107935145
14	0xbf3b055d	-0.7305506
15	0x3e8e0b1a	0.27742845
16	0x3f987b21	1.1912576
17	0xc1084c65	-8.518651
18	0xbea310fa	-0.3184889
19	0xbe0803fe	-0.13282773
20	0x3e59311d	0.21210141
21	0xc12192c2	-10.09833
22	0xbec3b0b9	-0.38220766
23	0x3f03bdab	0.51461285
24	0xbe11096e	-0.14163753
25	0xbe36e76b	-0.17861716
26	0xbd1508e6	-0.03638544
27	0xc0c05471	-6.010308
28	0xbe08f2e8	-0.13373911
29	0xbfea2139	-1.8291389
30	0xbf8b610b	-1.088899
31	0xbe0f1196	-0.13971552
32	0x3f28277f	0.65685266
33	0xbe84cf7a	-0.25939542
34	0xc0876f5e	-4.2323446
35	0xbdbc3375	-0.09189502
36	0xbfaf5694	-1.3698297
37	0xbd2c3325	-0.042040963
38	0x3f62a2a5	0.88529426
39	0xbe8aec00	-0.2713318
40	0x3f595778	0.8489909
41	0xbfe27302	-1.7691348
42	0xbf36dd12	-0.71431077
43	0xbe084152	-0.13306168
44	0xbe055bee	-0.1302335
45	0xbfb51dfd	-1.4149777
46	0xbee34ad4	-0.44393027
47	0xbe189624	-0.14901024
48	0xbeb3d09f	-0.35120103
49	0xbe2f6af1	-0.17130639
50	0xbf3c4afa	-0.73551905
51	0x3faf8e7d	1.3715359
52	0x3f8a4ebf	1.0805281
53	0xbf08a8ec	-0.53382754
54	0xbfc0e3f2	-1.5069563
55	0xc02c968e	-2.6966891
56	0x3cb05ad9	0.021527695
57	0x3f5d0983	0.8634264
58	0xbeca0efa	-0.3946455
59	0xbe4acaa8	-0.1980387
60	0x3f1f8619	0.6231399
61	0xbf1f405d	-0.62207586
62	0x3dfe980a	0.12431343
63	0xbe14402d	-0.14477606
64	0xbe98fb49	-0.29879215
65	0xc00fe8bf	-2.2485807
66	0xc04df648	-3.2181568
67	0x3fb0773e	1.378639
68	0xbff2a33c	-1.8956065
69	0xbe98c885	-0.29840484
70	0xbf1cfb40	-0.6132088
71	0x3e3e0333	0.18555908
72	0xbf15180f	-0.58239836
73	0x3ecc37dd	0.3988637
74	0x3f7879d0	0.9706087
75	0xc017ad01	-2.3699343
76	0xbfb1abca	-1.3880551
77	0x3e2901ca	0.16504589
78	0xc0472134	-3.1114016
79	0xbda46875	-0.08027736
80	0x3d4eb1a0	0.050462365
81	0xbd2dd36f	-0.042437967
82	0xc083ea8b	-4.1223807
83	0xbdc07476	-0.09397213
84	0xbd8b9011	-0.06814588
85	0xbf309c68	-0.68988657
86	0x3e38e124	0.18054634
87	0xc0a78229	-5.2346387
88	0xbfba92ee	-1.4576089
89	0xbfdbffc8	-1.7187433
90	0xc06ccba7	-3.69993
91	0xbf7a915e	-0.9787806
92	0xbf945dbe	-1.1591108
93	0xbfbe5312	-1.4869101
94	0xbde2a86b	-0.110672794
95	0xc08e2ea3	-4.443193
96	0xbde14e0f	-0.110012166
97	0x3fe4f74b	1.7887968
98	0xbf42806e	-0.7597722
99	0xbdace35d	-0.084418036
100	0xc03129f2	-2.7681851
101	0xbdf57fa7	-0.119872384
102	0x3ea33bbc	0.3188151
103	0xbe49279e	-0.19644019
104	0xbdc228d0	-0.094804406
105	0xbe205c13	-0.15660124
106	0xbe159043	-0.14605813
107	0x3f90d424	1.131474
108	0xc13fdd4c	-11.991528
109	0x3dbccfc4	0.09219316
110	0xbe01207b	-0.12610047
111	0xbf867b56	-1.0506389
112	0x3f61a2b8	0.88138914
113	0xc1023f7a	-8.140497
114	0xbd77ffdd	-0.060546745
115	0xbd7e6b66	-0.062114142
116	0xc02bc298	-2.683752
117	0xc023ec6c	-2.561305
118	0xbf866d6e	-1.0502145
119	0xbda01add	-0.07817624
120	0xbfd3258e	-1.6495836
121	0xc0010ff0	-2.0165977
122	0xbdf51e9f	-0.11968731
123	0xbe32021d	-0.17383619
124	0xc00cbfc3	-2.1992042
125	0xbf81f624	-1.0153241
126	0x3f5ab22f	0.85428137
127	0xbde961c5	-0.11395601
128	0xbef64da8	-0.48106122
129	0xbe4356a9	-0.19076027
130	0x4036512e	2.8487048
131	0xbdefb40b	-0.11704262
132	0xc0a281af	-5.0783305
133	0xbfae7754	-1.3630166
134	0xbe916763	-0.2839919
135	0xbf4de79d	-0.8043154
136	0xc08c8d3d	-4.392241
137	0x3f8f0ade	1.1175191
138	0x3f34980f	0.70544523
139	0xbfe0180e	-1.7507341
140	0xc0ff0f38	-7.9706078
141	0xbe7a1a0d	-0.24424
142	0x3f8a1450	1.0787449
143	0x3f2fbd90	0.68648624
144	0x3f542899	0.8287445
145	0xbea630ae	-0.32459015
146	0xbfa35d90	-1.2762928
147	0xbe9cd962	-0.306346
148	0xbcd68b55	-0.026189486
149	0x3eadea22	0.33967692
150	0xbe1ec65e	-0.15505359
151	0x3f7e2b2c	0.99284625
152	0x3fe75741	1.8073503
153	0xbe1e907e	-0.15484807
154	0xbf86f2b5	-1.0542818
155	0x3e5338a4	0.20627075
156	0x3f8de14c	1.108438
157	0xbd8fb7e4	-0.07017496
158	0xbf12ddef	-0.57369894
159	0xbe2e269f	-0.1700692
160	0xbd6b9cb0	-0.057522476
161	0x3cc1f8dc	0.023678236
162	0xbe6cf83a	-0.23141566
163	0xbd86385d	-0.06553719
164	0x3e0570f6	0.13031372
165	0xbf889ce5	-1.067288
166	0x3f7a087e	0.9766921
167	0x40aad80b	5.3388724
168	0x3f83a884	1.0285802
169	0xbdc217a7	-0.094771676
170	0xbf7f8110	-0.9980631
171	0xbf565d3e	-0.83736026
172	0xbf57be7e	-0.84275043
173	0xc002ef51	-2.0458567
174	0xbddb6596	-0.10712735
175	0xbdc3c9b2	-0.09559955
176	0xbe2a421a	-0.16626778
177	0xbdee2b34	-0.11629334
178	0xbf6717f8	-0.9027095
179	0xbe087f0f	-0.13329719
180	0xbfe6a903	-1.8020328
181	0xc0ade20c	-5.4338436
182	0xbfbfe3ef	-1.4991435
183	0xbfb8b15c	-1.4429126
184	0xbf92a5cc	-1.1456847
185	0x3f4e92e4	0.8069289
186	0x3f94d98f	1.1628894
187	0xc0c643d0	-6.195778
188	0xbe0c86cb	-0.13723294
189	0xbdbd6a1c	-0.092487544
190	0xbfef6293	-1.8701957
191	0xc1231163	-10.191745
192	0xbe02d88a	-0.12777916
193	0xbfcf0d0e	-1.6175859
194	0xbfa4bd78	-1.2870321
195	0x3f2a66c5	0.66563064
196	0xc08c3150	-4.3810196
197	0xbdbbda2a	-0.09172471
198	0xbe175b74	-0.1478098
199	0xbf354df5	-0.7082208
200	0xbf54e471	-0.83161074
201	0xbee8ba77	-0.4545476
202	0xbf8dd659	-1.1081039
203	0x3f359dee	0.70944107
204	0x3f840f7d	1.0317227
205	0x3fabcf7a	1.3422692
206	0xc0ec3535	-7.381495
207	0xbe2f11c3	-0.1709662
208	0xbed7807b	-0.4209021
209	0xbe0315be	-0.12801263
210	0xc0ba5f2c	-5.8241177
211	0x3f9344ef	1.1505412
212	0x3f47f7d6	0.7811254
213	0x3f3e6fa3	0.74389094
214	0xc008f5f8	-2.1400127
215	0x3f9ea8cb	1.2395262
216	0x409a9a39	4.831326
217	0x3f59bfc7	0.85058254
218	0xbf0c0fc6	-0.5471157
219	0xc006a5ee	-2.1038775
220	0x3ce84ece	0.02835789
221	0xbcfac787	-0.03061272
222	0xbfae8a74	-1.3636003
223	0x3ea936c9	0.3304961
224	0xbe01c2c9	-0.12671961
225	0xbe1c2be1	-0.15251113
226	0x3e54b14b	0.20770757
227	0xbe0171a8	-0.12641013
228	0xbe01313d	-0.12616439
229	0xc02dc24c	-2.714984
230	0xbf534317	-0.82524246
231	0xbdaa384e	-0.083115205
232	0xbfad7b61	-1.3553277
233	0xbdbb6038	-0.09149212
234	0x3e7e7a39	0.24851312
235	0xbd590c61	-0.05299032
236	0xbdd7ac36	-0.105308935
237	0x3f76a373	0.96343154
238	0xbfffa8b3	-1.9973358
239	0xc00b646d	-2.1780045
240	0x3e1dc9b1	0.1540897
241	0xbe2e8c58	-0.17045724
242	0x3ea154a3	0.31509885
243	0x3e460855	0.19339116
244	0xbe03360d	-0.12813587
245	0xbf6e94eb	-0.9319598
246	0x3e10387b	0.14084046
247	0xbdb67e93	-0.08910861
248	0x3ed009b1	0.40632394
249	0xbf663c40	-0.89935684
250	0xbdcd8c24	-0.10036495
251	0x3e72a4e8	0.23695719
252	0x3fc7c38c	1.5606551
253	0x3f08a56e	0.53377426
254	0x3e625817	0.22103916
255	0x3f1c7aaa	0.6112467

layers.6.weight f4 [128, 256]
0	0x3d36bb78	0.044612378
1	0x3d1a5e8c	0.037687823
2	0xbedf3514	-0.43595183
3	0x3bac4977	0.005257781
4	0xbd82a1ab	-0.06378492
5	0x3cef29e6	0.029194783
6	0xc01364e6	-2.3030334
7	0xbfe20b09	-1.7659618
8	0xc0036875	-2.0532506
9	0xbdfbc2c0	-0.12293005
10	0x3d055ffc	0.03256224
11	0x3d33c75a	0.04389129
12	0x3d5776cf	0.05260354
13	0x3d05eb24	0.03269495
14	0xbf5859ef	-0.8451223
15	0x3ee3b242	0.44471937
16	0xbdb96055	-0.09051577
17	0xbd9cf24c	-0.07663402
18	0xc00ef55d	-2.2337258
19	0x3b0e1ea0	0.0021685734
20	0xbf861373	-1.0474685
21	0x3c68ac30	0.014201209
22	0xbceeba4f	-0.029141573
23	0xbf51b2e5	-0.81913596
24	0xbd675094	-0.05647333
25	0x3d4f560e	0.050619178
26	0x3cf7f542	0.030268315
27	0x3cc783d2	0.024354849
28	0xbd404c9f	-0.04694807
29	0xbe9838e3	-0.297309
30	0xbe0b3e9c	-0.13598102
31	0xbc5e6f77	-0.01357638
32	0xbf620c41	-0.8829995
33	0xbe1f9375	-0.15583594
34	0xbf04a00f	-0.5180673
35	0x3d1c3212	0.03813369
36	0x3b04f440	0.0020287186
37	0xbd21307a	-0.03935287
38	0xbfbe5bc4	-1.4871755
39	0x3ecde984	0.4021722
40	0xbd9c41f5	-0.07629768
41	0xbe372dfd	-0.17888637
42	0xbdf20699	-0.11817665
43	0xbd0c24b0	-0.034214675
44	0x3d60845b	0.054813724
45	0x3b898896	0.0041971905
46	0xbf15809a	-0.58399355
47	0xbce7fb1e	-0.028317984
48	0xbe8c7ffe	-0.274414
49	0x3cd62eb0	0.02614531
50	0xbeb6d10f	-0.35706374
51	0xbd785783	-0.060630333
52	0xbf5c84e4	-0.86140275
53	0x3e964e9b	0.29356846
54	0xbf319a24	-0.69375825
55	0xbeafadc4	-0.3431226
56	0x3db34251	0.08752883
57	0xbd95e6da	-0.07319422
58	0xbf29a543	-0.66267794
59	0x3f0da8e7	0.5533585
60	0xbf0295d2	-0.5100986
61	0xbd26dd2a	-0.040738262
62	0xbfae7a63	-1.36311
63	0x3d2332b0	0.03984326
64	0x3d50dac2	0.050989874
65	0xbf56c53e	-0.8389472
66	0x3cfe339a	0.031030465
67	0x3dad4f65	0.08462409
68	0x3def27b7	0.11677497
69	0x3f40e29a	0.75345767
70	0xbcf5cd7c	-0.03000521
71	0xbe4464a7	-0.19179021
72	0xbe946f89	-0.28991345
73	0xbd35a266	-0.04434433
74	0x3dee4c3b	0.116356336
75	0xbdb959a7	-0.09050303
76	0x3e04da49	0.12973894
77	0xbf589b7a	-0.8461224
78	0xbf72df02	-0.9487153
79	0x3cf2a5ec	0.029620133
80	0x3ee9d7c1	0.4567242
81	0x3e8e75a5	0.2782413
82	0xbdb56dca	-0.08858831
83	0xbce5252e	-0.02797183
84	0x3d2dc0ad	0.042420078
85	0xbe4c0a36	-0.1992577
86	0xbeb969d9	-0.36213568
87	0x3d795fae	0.060882263
88	0xbd7ba633	-0.061437797
89	0xbd8b7964	-0.06810263
90	0xbe943fdc	-0.2895497
91	0x3f005357	0.50127167
92	0x3ed61708	0.41814446
93	0xbecfa629	-0.40556458
94	0x3d228b74	0.039683774
95	0xbd33d016	-0.043899618
96	0x3d4fa7cc	0.050697133
97	0xc04be4a1	-3.1858294
98	0xbf36c099	-0.7138763
99	0x3d079b86	0.033107303
100	0x3ced003b	0.028930774
101	0xbd614ecb	-0.055006783
102	0x3e34c49e	0.17653129
103	0x3ea68503	0.32523355
104	0xbcb273a0	-0.02178365
105	0xbd316d1a	-0.043316938
106	0xbcf3bf6c	-0.029754363
107	0x3d0bac2c	0.034099743
108	0xbd8ad1bd	-0.06778286
109	0x3f13187a	0.57459223
110	0xbd160ec2	-0.036635168
111	0x3c87918d	0.016548896
112	0x3f14ebca	0.58172286
113	0xbc52a178	-0.01285588
114	0x3d08682a	0.033302464
115	0xbb8a69ee	-0.0042240536
116	0xbdecdbfa	-0.11565395
117	0xbd3f28da	-0.04666982
118	0xbdf02269	-0.11725313
119	0xbd594d6a	-0.053052343
120	0xbf84ffd0	-1.0390568
121	0xbf0a616e	-0.54054916
122	0x3cd42c04	0.025899895
123	0xbf52fccf	-0.82417005
124	0x3d408ce7	0.047009375
125	0x3d0baef4	0.034102395
126	0xc0026612	-2.0374799
127	0xbd166979	-0.03672168
128	0xbd761564	-0.060078993
129	0x3d11f254	0.035631493
130	0xbd88c8f6	-0.06678955
131	0xbe2d6310	-0.1693232
132	0xbc687043	-0.0141869215
133	0xbe476e2a	-0.19475618
134	0xbf464245	-0.7744487
135	0xbe7dacfc	-0.2477302
136	0xbc37fed0	-0.011230186
137	0xbf7bc042	-0.9834024
138	0xc03a1ec1	-2.908127
139	0xbd03b04b	-0.032150548
140	0xbc950687	-0.018191589
141	0xc0028fa1	-2.0400164
142	0xbfdc87bb	-1.7228922
143	0x3e887431	0.26651147
144	0xbfbe201f	-1.4853553
145	0xbf88a01f	-1.0673865
146	0xbebbf3cd	-0.36709443
147	0xbc829b85	-0.015943298
148	0x3b110460	0.0022127852
149	0xbffb5e86	-1.9638221
150	0x3d4c703c	0.049911723
151	0x3f0bc9ec	0.54604983
152	0x3ddcfbe3	0.10790231
153	0x3d12008e	0.03564506
154	0xbc671efc	-0.014106508
155	0xbf6bdafc	-0.9213102
156	0xbec8750f	-0.3915181
157	0x3a51e6b7	0.00080070965
158	0x3d03e7f4	0.03220363
159	0x3e81119c	0.25208747
160	0xbcb1bc48	-0.021696225
161	0x3d78277b	0.060584527
162	0x3e471591	0.1944182
163	0xbb06be20	-0.00205601
164	0xbe96f2c9	-0.29482105
165	0x3e11a020	0.14221239
166	0x3cae8320	0.02130276
167	0x3c1d750f	0.0096104285
168	0xbbf722f2	-0.0075420076
169	0xbcb93751	-0.022609385
170	0xbf7a85ae	-0.9786023
171	0xbe6c7c36	-0.23094258
172	0xbeb45fc5	-0.35229316
173	0xbbf9ecf2	-0.007627123
174	0xbb1dc14c	-0.0024071513
175	0xbcc82dd9	-0.024435924
176	0xbbe28720	-0.006913081
177	0xbced7b50	-0.028989464
178	0x3cad37ad	0.021144712
179	0xbd844a4f	-0.06459486
180	0xbe2c52ee	-0.1682851
181	0xbd4f2d6a	-0.05058042
182	0xbe21991b	-0.15781061
183	0x3e8308e8	0.25592732
184	0xbda88faa	-0.08230527
185	0xc029c1fd	-2.652465
186	0x3f4d4fd0	0.8019991
187	0x3ca125c2	0.019671325
188	0xbd376f72	-0.044784017
189	0x3d0e7fec	0.034789965
190	0xbc35e747	-0.011102504
191	0xbcd3a8ec	-0.025837384
192	0x3d4bea66	0.049784087
193	0xc043e212	-3.0606732
194	0xbf4c2799	-0.7974792
195	0x3eafb93d	0.34321013
196	0xbf3a1914	-0.72694516
197	0x3ca70bd3	0.02039138
198	0xbfdf9356	-1.7466838
199	0xc00148ea	-2.0200753
200	0xbf034640	-0.5127907
201	0xbe8b2e45	-0.27183738
202	0xbf350710	-0.707139
203	0xc04afb48	-3.171587
204	0xbdc0a3cc	-0.09406242
205	0x3d906517	0.07050531
206	0x3d5f56b8	0.05452606
207	0xbb192c02	-0.0023372178
208	0x3ccb7239	0.024834739
209	0x3ce39885	0.027782688
210	0xbde13ac0	-0.10997534
211	0xbef87e8b	-0.48534045
212	0xbe90a25d	-0.28248873
213	0x3bcc21f9	0.006229636
214	0xbd408974	-0.047006086
215	0xbf8923f7	-1.0714101
216	0xbd63d116	-0.05561932
217	0x3d84f96c	0.06492886
218	0xbe9d34b9	-0.30704287
219	0xbe52b495	-0.20576699
220	0xbfcc716e	-1.5972116
221	0xbe8f3fca	-0.27978355
222	0xbf76e6e8	-0.96446085
223	0xbf7f1467	-0.99640507
224	0xbcebed04	-0.028799541
225	0xbc9bdd6e	-0.019026484
226	0xbe276a16	-0.16349062
227	0x3d034a6f	0.032053407
228	0xbcd92860	-0.02650851
229	0xbd909c5b	-0.070610724
230	0xc0d2f31f	-6.592178
231	0xbab8856e	-0.0014077851
232	0xbdaaeb2f	-0.08345639
233	0xbd6e1cf6	-0.058133088
234	0xbe1e5d6d	-0.15465327
235	0x3cb28f46	0.021796834
236	0xbb9b6a55	-0.0047429004
237	0x3ddc0e46	0.1074491
238	0xbf2f6fc6	-0.6852993
239	0x3df3a75b	0.11897155
240	0xbf76cec1	-0.9640923
241	0x3d82a050	0.063782334
242	0xbfb30d8b	-1.3988508
243	0xbfb8a6e9	-1.4425937
244	0xbc2d0aa8	-0.010561623
245	0xbcdb441c	-0.026765876
246	0xbdde5da0	-0.10857701
247	0x3c64fd03	0.013976338
248	0xbf6bdc8b	-0.92133397
249	0xbdaf6cc0	-0.08565664
250	0x3d570de4	0.05250348
251	0x3b4d3590	0.0031312443
252	0xbf04db2c	-0.5189693
253	0xbd7f7fc2	-0.0623777
254	0xbba64239	-0.0050738123
255	0xbfc5c840	-1.5451736

layers.6.bias f4 [128]
0	0xc00f5fca	-2.2402215
1	0xbea2fb6e	-0.3183245
2	0x3d085bd4	0.0332907
3	0xbf2a3949	-0.6649366
4	0xbe255de0	-0.16149092
5	0xc0250d7e	-2.5789485
6	0x3ed09bc6	0.40743846
7	0xbe41f605	-0.18941505
8	0x3e6a44b1	0.22877766
9	0xbe29bb7f	-0.1657543
10	0xbe95a8ec	-0.2923044
11	0x3d9e7cb5	0.0773863
12	0x3dc8e5cb	0.098094545
13	0x3ea93a4c	0.3305229
14	0x3de4eb33	0.11177673
15	0x3e4228b8	0.18960845
16	0xbe4a54c4	-0.19758898
17	0x3cb32384	0.021867521
18	0x3d2552a5	0.04036202
19	0xbe4d9df0	-0.2007978
20	0xc101bdb4	-8.108814
21	0xbe6ecf23	-0.23321204
22	0xc07a1ba8	-3.907938
23	0xbe926281	-0.28590778
24	0xbc9b9e09	-0.018996255
25	0x3b761362	0.0037548174
26	0xc0382751	-2.8773997
27	0x3d0eab8c	0.03483157
28	0xc19d80fc	-19.68798
29	0xbe59c658	-0.21267068
30	0xbe5b732d	-0.21430655
31	0xbfbf8735	-1.4963137
32	0xc1306a77	-11.025992
33	0xbde11995	-0.109912075
34	0x3ec1d205	0.37855545
35	0xbe09d1d0	-0.13458943
36	0x3e166662	0.14687493
37	0xbea62b9c	-0.32455146
38	0x3d4fb0ec	0.050705835
39	0x3cf398de	0.029735979
40	0x3dda7b19	0.1066801
41	0x3e63d20f	0.222481
42	0xbdad97ec	-0.084762424
43	0xbe31a6cf	-0.17348789
44	0x3e750682	0.23928264
45	0xbe961012	-0.29309136
46	0xbea240d0	-0.31690073
47	0xbc770b8f	-0.015078439
48	0xbd7cf32a	-0.061755337
49	0x3e1f50df	0.15558194
50	0x3d8b5c5a	0.06804724
51	0x3e7c710b	0.24652497
52	0xbe150985	-0.14554413
53	0xbecec570	-0.40385008
54	0x3e88a114	0.26685393
55	0xbe6d6d79	-0.23186292
56	0xbf2a9de7	-0.6664719
57	0xbe3a6f1a	-0.18206444
58	0xbdf96381	-0.12177182
59	0x3dfcd147	0.12344604
60	0x3d0669ac	0.03281562
61	0x3e73ab84	0.23795897
62	0xbeac7a13	-0.33686885
63	0x3cf6dead	0.030135477
64	0x3e70cd76	0.23515877
65	0x3e41d044	0.18927103
66	0x3e6d2302	0.23157886
67	0xbe4740b2	-0.19458273
68	0x3e8bc050	0.2729516
69	0xbfcbff10	-1.5937214
70	0xbe957621	-0.29191688
71	0xbe34ef61	-0.17669441
72	0x3dc58a29	0.096454926
73	0xbe82fce0	-0.25583553
74	0xbc19ba46	-0.00938279
75	0x3d738d34	0.059460834
76	0x3d5d6191	0.054048125
77	0xbe6a9c0d	-0.22911091
78	0x3de75c5b	0.11296912
79	0xbef27891	-0.4735761
80	0xbe186795	-0.14883263
81	0xbe82dcbc	-0.25559032
82	0xc07a41cc	-3.910266
83	0xbe5bd8ff	-0.21469496
84	0x3dc2c68d	0.09510527
85	0x3e5a4587	0.21315585
86	0xbf9ebd75	-1.2401568
87	0xbe07e3ce	-0.13270494
88	0x3d0663b9	0.032809947
89	0xbf11627c	-0.567909
90	0x3d714497	0.058903303
91	0x3e7a4ec0	0.24444103
92	0xbe51e0d2	-0.20495918
93	0x3ea30abd	0.3184413
94	0xbe868bc6	-0.26278514
95	0x3d8d97bf	0.06913709
96	0x3ea2978c	0.31756246
97	0xbe8b28a0	-0.27179432
98	0x3e9c5c10	0.30538988
99	0xbf07a75c	-0.52989745
100	0xbe602617	-0.2188953
101	0x3e1439d6	0.14475188
102	0x3e4eb1b3	0.20184974
103	0x3d719038	0.05897543
104	0x3e45981c	0.19296306
105	0x3d956b0a	0.07295807
106	0xbfc347fa	-1.525634
107	0xbe818f19	-0.25304487
108	0xbe386f10	-0.18011117
109	0x3de1b08a	0.1102
110	0xc0052cc8	-2.0808582
111	0xbe4d594d	-0.20053597
112	0x3e91b4b3	0.28458175
113	0x3e89df3d	0.2692813
114	0x3d1a27ec	0.03763573
115	0xc0ce44e9	-6.445912
116	0x3dae4903	0.0851002
117	0xbddd3656	-0.108013794
118	0x3da8005d	0.08203194
119	0x3e2c48b9	0.16824616
120	0x3d1d7e32	0.038450427
121	0x3e12db84	0.14341551
122	0x3ea4ed31	0.32212213
123	0xc0563700	-3.347107
124	0xbea166e8	-0.31523824
125	0xbd825ec5	-0.06365732
126	0x3e98c98b	0.29841265
127	0x3df8a51e	0.121408686
