Simulation/saved_data/models/model_mzm_mzm_pm_attempt_100k_ddmzm8x128_256_256_128_11_NoZeroMean.pth (torch, 541170 bytes, 10 tensors)

layers.0.weight f4 [128, 6]
000000 b8 91 96 bd 88 ec 1e be 67 6b 88 be be f2 00 be
       -0.073520124 -0.15519917 -0.2664444 -0.12592599
000010 77 5b 1a bf 6b 05 61 bc c4 04 f4 bf 27 bb bc bf
       -0.60295814 -0.013734202 -1.9063954 -1.4744614
000020 ab 94 27 be 4b 76 f5 bf 3d 8e 8d be bd 11 0f 3d
       -0.16365306 -1.9176725 -0.27647582 0.034929026
000030 5c fa 27 40 1c 69 48 c0 14 db 4f 3b 94 8e 4b 3b
       2.6246557 -3.1314154 0.0031716274 0.0031060325
000040 a1 f8 d3 ba 7b be 2a 3b dd 39 58 be 92 53 01 be
       -0.001617212 0.0026053477 -0.21115823 -0.12629536
000050 d2 b0 33 be 8c 0f f1 bd b8 9b 0a be 00 57 50 be
       -0.1754792 -0.117705435 -0.13535964 -0.20345688
000060 d8 48 4d 3f de 53 39 3f 66 78 10 c0 1c b8 90 be
       0.80189276 0.72393596 -2.2573485 -0.28265464
000070 42 c0 0f be cd b7 00 bd 86 c6 44 c0 a6 8c 22 c0
       -0.14038184 -0.031425286 -3.074617 -2.5398345
000080 b8 3e 23 bd a1 78 85 bb ab 91 9f 3d 12 49 69 be
       -0.039854735 -0.004073218 0.07791456 -0.2278178
000090 43 5f 22 3d ab e3 d1 be 87 05 6e be f6 92 36 bd
       0.03964163 -0.4099401 -0.23244296 -0.044573747
0000a0 40 60 87 bb 74 cc 15 be 02 7c 78 bd 56 f9 b7 3d
       -0.004131347 -0.14628774 -0.060665138 0.08983104
0000b0 2e 03 5b be c6 c8 b2 bf cd 9f 8e bf 45 fc 2f c0
       -0.21387932 -1.3967521 -1.1142517 -2.7497723
0000c0 76 97 e8 3b 6c 67 e4 3a 85 2e d2 3c a5 23 aa bc
       0.0070981337 0.0017425842 0.025656948 -0.02076895
0000d0 d0 b3 e1 bf ba 77 e1 3f 93 89 b1 c0 08 53 ba c0
       -1.7633 1.7614663 -5.5480437 -5.8226357
0000e0 ce 5c be 3d b2 e3 09 be 30 53 3c 3c 3e b5 d4 be
       0.09295045 -0.13465765 0.011494443 -0.41544527
0000f0 47 41 82 be d9 a7 5b bd 9f a6 d2 3d 29 be bf be
       -0.25440428 -0.05362687 0.10285687 -0.37449768
000100 d7 11 1e be 7c e3 a5 be 8f b8 b7 bb 44 64 7b c0
       -0.15436493 -0.3240012 -0.005606718 -3.9279947
000110 92 7d 86 be 9d 2b d3 be f8 96 67 be 44 1f bb be
       -0.26267678 -0.41244212 -0.22616184 -0.3654729
000120 ab 49 9d be 5a 60 43 3e 9c f5 97 bc 7b a1 ba bd
       -0.30720267 0.19079724 -0.018549733 -0.09112831
000130 14 1b a1 bd 60 b4 c2 bd 7a df 53 3e 43 df e4 be
       -0.07866493 -0.0950706 0.20690718 -0.44701585
000140 cc 3f 74 bd cc 9f fb ba 92 a3 22 bc 94 82 9e bc
       -0.059631154 -0.0019197403 -0.0099266935 -0.019349374
000150 6c 85 ed c0 77 ff 71 3f 67 60 17 bf 2f dc d5 bf
       -7.422537 0.94530433 -0.59131473 -1.670782
000160 55 8c c1 be a4 17 75 3e ef 16 00 c1 2e b4 cc bd
       -0.37802377 0.239348 -8.005599 -0.09995304
000170 45 b3 6b 3c 75 7f 52 3a fa 83 aa 3c 37 cb ac 3b
       0.014386003 0.0008029857 0.020814884 0.0052732485
000180 9b f1 1d c0 81 d6 e8 3e fb 19 bc 3e 1d 76 42 c0
       -2.4678714 0.45476153 0.36738572 -3.038459
000190 d7 df 40 c0 f8 b0 4e bf 72 61 32 bf ec 8b 33 bf
       -3.013662 -0.8073878 -0.6967994 -0.7013538
0001a0 bb ec 68 bb 67 1b fd b8 ae 1e f5 3a a3 c0 7e bb
       -0.0035541493 -0.00012069084 0.001870116 -0.0038872145
0001b0 88 1d 30 3f 02 6c 31 c0 07 b0 c9 be 51 87 2a bf
       0.6879506 -2.7722173 -0.3939211 -0.66612726
0001c0 cf c7 b0 be 4f e0 15 c0 79 92 80 bd 38 f6 8f bd
       -0.34527442 -2.3418157 -0.062779374 -0.070293844
0001d0 5e 1e 1d bc af 45 5d bd 05 85 32 be ea 5a 37 3d
       -0.00958976 -0.054021534 -0.17433555 0.044764437
0001e0 77 64 1d 3e 1d 40 97 3d 42 21 39 bc 93 db ca bf
       0.15370356 0.073852755 -0.011299433 -1.5848259
0001f0 77 29 ad bf 2c 74 81 c0 72 c6 ef be a5 d1 df be
       -1.3528279 -4.045431 -0.4683109 -0.43714634
000200 1b 91 26 be 0e 56 f7 be b2 ed bb be fa db 3a 3e
       -0.16266291 -0.48307842 -0.36704785 0.18247977
000210 60 5b df 3d a8 61 94 3c b2 32 6e be 29 70 59 be
       0.109061 0.018112972 -0.23261526 -0.21234192
000220 f4 0b 9e be 3a 49 80 bd 89 f9 71 3b 3d 00 ae ba
       -0.30868495 -0.06263967 0.0036922416 -0.0013275217
000230 f4 94 0f 3c 6a 7e 1a bb 9c e2 7e 3f 0b ac 7d bf
       0.008763541 -0.0023573884 0.9956453 -0.9909064
000240 a5 d5 55 be ed 0a 62 be 4e 8d 76 3d db c4 5f 3c
       -0.2088228 -0.2207448 0.060193352 0.013657774
000250 73 a8 95 bd 80 1b 1e 3d 8d 4f 0a 40 84 4f 0a c0
       -0.0730752 0.038600445 2.1611054 -2.1611032
000260 c4 50 23 b9 5b 46 78 3a 2c 10 01 3b e2 76 91 39
       -0.00015574979 0.0009470933 0.0019693477 0.0002774513
000270 44 b5 a0 3e d0 1c f7 bf 07 ac 20 3e f9 85 b5 3d
       0.31388295 -1.9305668 0.15690623 0.08863444
000280 68 52 ef bf b2 22 32 c0 e6 40 01 3d 66 09 bb bd
       -1.8697023 -2.7833676 0.031556033 -0.09132652
000290 b9 5f f9 bf ef b4 91 3e 3f 60 14 bd 2f fb 65 be
       -1.9482337 0.28458354 -0.0362246 -0.224591
0002a0 d8 fc b6 3d 48 dd cb be aa b0 19 bd 69 5b c7 bd
       0.08934945 -0.39817262 -0.037521996 -0.09734232
0002b0 33 a2 c4 bd 8d e6 b2 bd ae 08 89 be 10 38 d0 3d
       -0.096012495 -0.0873538 -0.26764435 0.10166943
0002c0 13 b0 ae be 90 aa c9 be 60 3c de bc 68 91 a7 bd
       -0.3411871 -0.3938794 -0.027128398 -0.08182031
0002d0 21 df 7a be 6a e7 4f bf c2 fc 1e be e5 15 8d bc
       -0.2449918 -0.81212485 -0.15526107 -0.017222354
0002e0 0c 64 60 be e8 29 df bc a1 52 2f c1 91 b6 34 c1
       -0.21913165 -0.027241662 -10.957673 -11.294572
0002f0 53 3d 09 3f c6 57 39 3f cf 23 6e be 59 d2 92 3f
       0.536092 0.72399557 -0.23255847 1.1470443
000300 5a a7 fd be 6f 15 06 bf de 31 71 bd 00 32 19 be
       -0.49541742 -0.52376455 -0.058885448 -0.1496048
000310 dd b5 b7 bd e8 64 83 bd da a4 36 bf 94 2f 22 bf
       -0.089702345 -0.06415731 -0.71345294 -0.6335385
000320 e4 5b 75 be 86 06 af bf 63 b2 6e be 42 53 b4 bc
       -0.23960835 -1.3673866 -0.23310237 -0.022012357
000330 cf 72 51 bf 3d dd 2f 3e d2 9e 68 bd a4 0d 11 bd
       -0.8181581 0.1717424 -0.056792088 -0.0354134
000340 d9 17 26 bd eb 70 fe bc bb fd 4c bf 23 b3 39 bf
       -0.040550087 -0.031059703 -0.8007466 -0.72538966
000350 26 ae 82 be e0 35 cc bf e8 b1 df be 80 03 21 3d
       -0.2552349 -1.5953941 -0.4369042 0.03930998
000360 b7 4a fb be a5 57 b3 3e 5e 3f 1d bd 3d fc 38 bc
       -0.4908044 0.35027805 -0.03839051 -0.011290607
000370 f0 d2 3a bc 0d f0 01 bd a1 9d d6 be 12 09 c7 be
       -0.0114028305 -0.03172307 -0.41917136 -0.38874108
000380 c3 38 33 3e b8 31 48 be e2 1d 24 bd 5c 03 78 be
       0.17502122 -0.19550216 -0.04006756 -0.24220031
000390 8a 85 5b bf 6e 3e 32 bf d2 c7 08 be 86 15 94 be
       -0.8575064 -0.6962651 -0.13357475 -0.2892267
0003a0 0d 5e 3d bc 3f ca da bd b0 22 05 bd 4c 64 0a bd
       -0.011558068 -0.10683107 -0.032503784 -0.033787057
0003b0 6e 21 30 bd 62 4d 1f bd f1 61 62 3e 0f fc 8a be
       -0.04300063 -0.038892157 0.22107674 -0.2714543
0003c0 c8 14 4b c0 57 78 ec bc d6 5c 26 39 c0 ca 8c 3b
       -3.1731434 -0.028865976 0.00015865578 0.0042966306
0003d0 eb 25 32 3b ff d3 ab 3b 77 7e db bc 35 51 ed bc
       0.0027183245 0.0052437778 -0.026793702 -0.028969387
0003e0 7d 23 38 bc bc e5 d4 bc eb 26 85 3e 24 e4 d3 be
       -0.01123893 -0.025988452 0.26006255 -0.41384995
0003f0 fa 44 ae bd c2 c3 c9 bd db bf b8 bd 0a 2b bc bd
       -0.0850925 -0.09851791 -0.090209685 -0.091878965

layers.0.bias f4 [128]
000000 b0 0d 87 3e 29 77 a8 3f e4 b2 fe c0 38 b3 b6 3e
       0.2637763 1.3161365 -7.959337 0.35683608
000010 13 33 a0 c0 c6 5b ff 3e a4 ce bd bc fa 17 80 3f
       -5.0062346 0.49874705 -0.023169823 1.0007317
000020 4c 41 e4 c0 e3 3c e4 3f 70 76 ce bd 2c bb 13 40
       -7.132971 1.7831081 -0.10081184 2.308299
000030 e5 8d 2b bf 45 6b 5c bf 25 c1 1e c0 93 05 0b 40
       -0.6701339 -0.8610118 -2.4805386 2.1722152
000040 5a 99 33 3f ac bb 13 40 40 d0 a8 bf 9d 75 72 be
       0.7015587 2.3083296 -1.3188553 -0.23677678
000050 e4 e3 bc bd 60 f2 16 bf fd 92 9f be af 44 fe bf
       -0.09223154 -0.58963585 -0.3116683 -1.986471
000060 7a 32 7d bf e9 43 b5 bc de 58 92 bf 9d 29 bd bf
       -0.98905146 -0.022127109 -1.143337 -1.4778324
000070 2e 34 2e be 33 9b 76 be 6a 93 bc 3e 10 fc c0 c0
       -0.17012092 -0.24082641 0.36831218 -6.0307693
000080 0b 36 04 3f d2 f1 83 3f e1 6d 07 bf 8e a1 5e 3f
       0.51644963 1.0308173 -0.52902037 0.8696526
000090 8f 78 c7 bf dc 35 fa be 8a a2 10 3f d5 aa c5 bf
       -1.5583667 -0.48869216 0.56498015 -1.5442759
0000a0 60 15 1b 40 aa e1 f5 bf db f0 9a be 84 db 81 bf
       2.4231796 -1.9209492 -0.30261883 -1.0145116
0000b0 4e 04 8f 3e a2 61 3f c0 36 98 53 be 0f fc d2 bf
       0.27932972 -2.990334 -0.20663533 -1.6483172
0000c0 24 a4 2c 40 93 4f cd be cf 91 14 bc bb 90 ce c0
       2.6975183 -0.40099773 -0.009067967 -6.4551673
0000d0 ff c8 ec bd 65 fa 46 bf 25 cb c1 be 9a 59 96 bf
       -0.115617745 -0.7772582 -0.378503 -1.1746094
0000e0 a1 27 2a 3d 1d 8d b4 c0 a7 52 92 be f4 a8 dd be
       0.0415417 -5.6422257 -0.28578684 -0.43292964
0000f0 b7 d7 03 40 bf 15 14 3f 8f 57 fc bd f9 95 48 b8
       2.0600412 0.5784568 -0.12321388 -4.782339e-05
000100 aa 9f ee c0 f5 bf 00 c0 02 c5 c4 bf 0f 1d f6 bf
       -7.4569902 -2.0117161 -1.5372622 -1.9227618
000110 56 41 98 3f df bf a3 bf 08 3c 71 bf f2 b5 71 bf
       1.1894939 -1.279293 -0.94232225 -0.9441825
000120 17 51 7d 3e 9b 86 9b bf 30 be bf bf d8 4e 5e 3d
       0.24737965 -1.2150453 -1.4979916 0.05427441
000130 ac e8 e3 be 7f 9c 32 bd 4b 1c 05 c1 cd ae e8 bf
       -0.44513452 -0.043606278 -8.319407 -1.8178345
000140 82 4f 10 c0 e8 25 08 bd 1a f3 d4 3f 7b 43 28 be
       -2.2548528 -0.033239275 1.6636689 -0.16431992
000150 25 a1 65 bf c5 9a 10 bf b7 1f 22 bf 92 36 0b 3f
       -0.8969901 -0.5648616 -0.63329643 0.5438014
000160 f7 90 3f 3f a8 40 3f 3e 53 f1 60 c0 b5 55 a2 c0
       0.74830574 0.18677008 -3.5147293 -5.0729623
000170 c7 a1 2a 40 07 92 3b 3f 3e 56 2f 40 f8 77 9f bc
       2.666124 0.73269695 2.7396388 -0.019466385
000180 d6 1e d1 be 5c 5d df 3e c1 0d 5a 3f 48 86 95 3c
       -0.40843838 0.43625915 0.85177237 0.018252507
000190 9b 51 da 3e 6d 33 75 bf 07 f5 af 3f fc 80 85 3f
       0.42640385 -0.95781595 1.3746651 1.0429988
0001a0 78 32 cf 3e 3a 48 91 be 1a 3b 3c 3f 01 48 51 3f
       0.40468192 -0.28375417 0.7352768 0.81750494
0001b0 9e 92 fc bf 04 1a 33 c1 da dd ef be 56 e5 73 bf
       -1.9732244 -11.193851 -0.46848947 -0.95271814
0001c0 8f 6d e2 bc 62 57 43 bf b2 29 f7 c0 03 10 b0 3c
       -0.027640132 -0.7630521 -7.7238398 0.02149201
0001d0 4a 65 09 3e 31 ad 11 be b1 ca c5 c0 94 5a bf 3b
       0.13417545 -0.14226224 -6.1809926 0.005839655
0001e0 b5 fc ae be c8 d3 7a be ac 6c 2d 3f 83 95 ef c0
       -0.34177175 -0.2449485 0.67743945 -7.487001
0001f0 11 b4 2c c1 55 0b 64 bf c2 e3 39 3f ea 57 a8 c0
       -10.793962 -0.8907979 0.72613156 -5.2607317

layers.2.weight f4 [256, 128]
000000 71 ad 16 3c c0 a4 32 bd 12 0b 8b be 7a f5 b1 bd
       0.009196625 -0.04361415 -0.27156883 -0.08689399
000010 44 4b c1 3d 2d bb d8 bd bc d3 93 bd b5 10 cb 3c
       0.09438184 -0.10582576 -0.072181195 0.02478824
000020 44 dd 82 3a 9b 76 cb 3d 66 9a 98 bd 46 b5 a3 be
       0.0009984155 0.099347316 -0.07451324 -0.31974238
000030 1d 62 da 3c 71 23 60 3c ba 55 d5 3c c4 8d 9f bc
       0.026658112 0.013680325 0.026041854 -0.019476779
000040 21 19 ec 3d be cb c2 be ea e7 14 3d b6 33 13 3c
       0.115282305 -0.38046068 0.036353983 0.008984497
000050 92 a8 37 be 94 29 56 3d d1 eb 7b 3d ed a2 1c 3c
       -0.17935398 0.052285746 0.06150419 0.009560329
000060 91 ef c7 bb e3 25 fc bd 88 a8 1b 3d 1a 5f 15 bb
       -0.0061015566 -0.12311914 0.03800252 -0.002279228
000070 d0 87 03 3e f0 bf a0 3b 75 17 08 be 84 c4 c9 bd
       0.12844777 0.0049056932 -0.13290198 -0.098519355
000080 67 b5 47 bd 45 bb 6a bc 36 f0 2d be e4 4d b3 3a
       -0.048756983 -0.014326875 -0.16986164 0.001367983
000090 96 8c 71 3b de 85 5a 3c ae 76 ed 3d 78 e5 cb bd
       0.0036857477 0.0133375805 0.11594902 -0.09955877
0000a0 aa 17 1d bb b6 9f b2 3d f7 1b e3 ba a4 a0 57 3d
       -0.0023970404 0.08721869 -0.001732706 0.052643433
0000b0 ff 03 dd 3c eb 16 c3 3f 98 db f0 3c 16 e7 8c bb
       0.026979445 1.5241369 0.029401585 -0.0043000085
0000c0 a0 40 d0 3c ed 0c d4 bd 4f 2c af b9 5b e8 3f 3d
       0.02542144 -0.10354028 -0.00033411614 0.04685245
0000d0 32 31 3a bd e1 d8 9c 3c e8 9b 94 3c 32 f2 92 3d
       -0.045457073 0.019146385 0.018140748 0.07175101
0000e0 e2 3c 9d bc 98 7c 70 bb d7 32 31 bd 1a 63 3b 3d
       -0.01919407 -0.0036695357 -0.043261375 0.045748807
0000f0 db 41 b6 3c 6b f5 46 bd 8e e1 42 3d 82 dc 15 b9
       0.0222482 -0.048573893 0.047578387 -0.00014291893
000100 ae 8a a1 3d 1b c4 9a 3c e4 f1 b2 3b a6 04 b6 be
       0.07887779 0.018892338 0.0054609645 -0.3555042
000110 2b 4c 8a bc e5 bf 24 3d f9 b3 5f 3d ac 36 05 bc
       -0.016882023 0.040222067 0.054614995 -0.008130711
000120 56 b7 09 3e e5 79 09 3d f1 16 13 3e 8e 66 f5 3c
       0.13448843 0.033563513 0.1436422 0.029956128
000130 e6 ba 0c 3d cd e7 2a 3c 01 e3 52 3d f8 11 ab 3c
       0.034357928 0.010431242 0.05148602 0.020882592
000140 63 85 b9 bd 94 c0 f7 bd f0 1e 0d 3d c0 02 8a bc
       -0.090586446 -0.12097278 0.034453332 -0.016847014
000150 e4 9f ff 3c 05 44 37 3d 72 47 23 bd 22 09 de 3d
       0.031204171 0.044742603 -0.039863057 0.10841586
000160 54 eb 85 bb ed c3 8c bd 49 08 82 3a 2a 0e fc bb
       -0.004086891 -0.068733074 0.0009920682 -0.007692118
000170 5b 44 43 bd da 26 84 bd 7b 06 1c bd 9d 80 08 39
       -0.04767261 -0.06452723 -0.038092118 0.00013017883
000180 2b 4b 88 bd a2 cc df bc a7 ef ea bd 97 32 f1 bd
       -0.06654962 -0.027319256 -0.11471491 -0.11777227
000190 85 5f ca 3d 2c cd a2 3d fb 1c 8c bb ac e4 e9 bd
       0.098815 0.0794929 -0.0042759157 -0.11420569
0001a0 8d cc 3b 3c 9f 36 bf 3b bd 36 b9 3e df d1 c1 be
       0.011462343 0.0058353688 0.36174574 -0.3785543
0001b0 62 d4 95 be 12 c7 fd bc b2 14 a4 be 33 11 d3 3d
       -0.29263598 -0.030978713 -0.3204704 0.10306015
0001c0 28 68 ae 3c ed eb 9e 3c 8d bf 14 3d 9e cd 60 bd
       0.0212899 0.019399608 0.03631549 -0.05488359
0001d0 4b 1b 32 bd b5 45 c4 bc ef dc c3 39 05 73 88 3a
       -0.04348306 -0.02395902 0.00037357907 0.0010410255
0001e0 06 2f 80 3c 00 88 26 bc e7 42 54 bd f4 74 0b bd
       0.015647423 -0.010164261 -0.051821616 -0.034047082
0001f0 89 7c 6c bc db e9 b3 3c e8 29 68 bc a0 e2 33 bc
       -0.014433988 0.021962097 -0.0141701475 -0.010979325
000200 1b 51 93 bd 05 f6 4b bc 0a f2 00 bd 40 08 cd 3a
       -0.07193204 -0.012448792 -0.031480826 0.0015642717
000210 5b 6c 9f bd 2f 3c 88 bd 4a f0 bb bc f0 28 07 be
       -0.07784339 -0.06652104 -0.022941727 -0.1319921
000220 68 76 ea bb 69 c8 4a bb 92 33 19 3d de b8 13 3d
       -0.0071552284 -0.0030942208 0.037402697 0.036064975
000230 9f a2 ec bd 40 54 9c 3c 1e fa b9 3d 31 1d 32 3c
       -0.11554455 0.019083142 0.09080909 0.010871218
000240 24 92 c8 3c 7d 8b e1 3c 04 7f ca 3d e7 8d bd bd
       0.024483748 0.027532334 0.098875076 -0.09255581
000250 0d 12 4e 39 3b 4e 30 bd 49 fe ac 3d 90 54 03 be
       0.00019652415 -0.043043356 0.084469385 -0.12825227
000260 ba 19 4c bd 80 da 8c bd 49 89 1b bd 1b 1a 8f bb
       -0.049829222 -0.06877613 -0.037972722 -0.0043671257
000270 62 35 28 3d cc b4 88 3c fb 7f cb bc 38 0d 2c bd
       0.041066535 0.016687773 -0.0248413 -0.042004794
000280 05 92 b6 bc 43 f0 86 bb 96 6c 4c 3c 88 47 f8 3d
       -0.022286424 -0.004117997 0.012477061 0.121230185
000290 40 bf 59 3d 3c 28 4c 3d f6 f6 2a bd 7e 14 96 bc
       0.053160906 0.049843058 -0.041739427 -0.018320318
0002a0 2c 61 b7 bc cc e4 aa 3c 63 6b be bc 2c 37 11 3d
       -0.022385202 0.020861052 -0.023244565 0.035453007
0002b0 a2 39 8d bc d4 5b 2e be 5a 9c 41 3d 6a 30 40 bd
       -0.017239396 -0.17027217 0.04726825 -0.04692117
0002c0 47 73 2d 3d 39 39 28 bc 56 cb 16 ba e5 e2 0e bd
       0.042346265 -0.010267549 -0.00057523453 -0.034884352
0002d0 5c 67 6a 3d 77 1a dd 3c 21 f3 83 3d b3 94 01 be
       0.057227477 0.026990158 0.064428575 -0.1265438
0002e0 ac c0 3d bd 6c 22 ac bd e2 fd 8b bd 86 d3 01 bc
       -0.046326324 -0.08405003 -0.06835534 -0.007923966
0002f0 86 a8 23 be e8 ac a7 bd a6 74 9c bc 81 5a 5b bd
       -0.15982255 -0.08187276 -0.019098591 -0.053553108
000300 e1 ed 8d bd ca 1b 9d bd a1 86 6d bd 98 ff 83 bc
       -0.069301374 -0.07671316 -0.05798972 -0.016113088
000310 fd 9f 65 3c ba 22 9a 3c 78 34 74 bd 57 5e ba bc
       0.014015195 0.018815387 -0.05962035 -0.022750063
000320 fd ba 7e bd 50 f8 fc 3c 13 3e e3 bd eb c6 fd bd
       -0.062190045 0.030880123 -0.11095824 -0.12391456
000330 4e fd b4 bd 4f a0 24 3d 81 99 85 3d 15 b7 96 bd
       -0.088373765 0.040191945 0.06523419 -0.07359139
000340 92 46 94 bc 5b d6 53 bc 93 36 22 bd da b8 d0 bd
       -0.018100057 -0.012929524 -0.039602827 -0.10191508
000350 34 df 87 bc 17 4d d1 bd 65 1c 39 3c 0d 8a b0 3a
       -0.016585924 -0.10219782 0.011298274 0.0013468877
000360 e3 c3 81 3d 6b 86 ae 3d ce 00 fe bd 3b 8b 63 bd
       0.063361906 0.08521732 -0.12402497 -0.055552702
000370 a0 2a f6 3b 15 0d d3 3b 4b f3 9f bc 0a 3a 69 bd
       0.0075124055 0.0064407685 -0.01952519 -0.056940116
000380 c9 cd ab bc b1 7f 46 3d 5b 3b 9d 3c 0c 59 00 3d
       -0.02097215 0.04846162 0.019193342 0.03133492
000390 30 c6 9d bd ca 2b 4b bd fd 08 a4 bd 25 e5 92 3d
       -0.07703817 -0.049602307 -0.08009527 0.07172612
0003a0 34 f6 73 3d f4 b5 8f bd b0 01 ec bd 54 f7 29 bd
       0.05956097 -0.07017127 -0.11523759 -0.041495636
0003b0 f3 e7 68 bd 0a 11 6b 3d 8a e7 00 be 62 ef d8 bd
       -0.05686183 0.057389297 -0.12588325 -0.10592534
0003c0 c9 b7 0f bc 32 1d 4c bd 3a cd e0 bd f8 50 3b bd
       -0.008771845 -0.04983253 -0.10976644 -0.045731515
0003d0 51 c9 32 3d 2c 64 d6 bd b0 fc 5e bc 44 56 ca bd
       0.04364902 -0.10468325 -0.01361005 -0.09879735
0003e0 ca ee 6a 3d b0 52 9d bc 81 47 0e 3e 85 69 ee ba
       0.057356633 -0.019204468 0.13894464 -0.0018189406
0003f0 c1 4b d5 3c 1a 0a 19 bd 34 6f a7 bd db d9 0b bd
       0.026037099 -0.03736315 -0.08175507 -0.03414331

layers.2.bias f4 [256]
000000 e7 ee 88 c0 1f fb 52 be a5 e1 99 bd 91 5d cf bd
       -4.279163 -0.20603608 -0.075137414 -0.10125268
000010 dc 07 0a 3a b9 a0 ca bd 48 d7 9d bd ff b9 0f be
       0.00052654534 -0.09893937 -0.07707077 -0.14035796
000020 a1 02 b7 bd 5d c3 2e be 52 e9 e9 bd 2c db 21 be
       -0.08936048 -0.17066713 -0.114214554 -0.15806264
000030 a2 15 48 be 93 55 e1 bf dc 47 02 be 3d 9f 3f be
       -0.19539502 -1.760424 -0.12722725 -0.18713088
000040 ae 0b 75 bd 2b 63 91 bd a8 35 13 be 08 3c ff bc
       -0.05982559 -0.07098993 -0.14375937 -0.031156555
000050 4b 2f 8f be 94 85 22 be 80 30 5d be 47 9f 1a bf
       -0.2796577 -0.15871269 -0.21600533 -0.6039929
000060 07 83 01 3f 29 2a 1b bf 9e 68 66 c0 bf a8 db bc
       0.50590557 -0.60611206 -3.6001353 -0.026813863
000070 58 cb e9 bd 71 e3 c1 bd 7c ac 1e be f4 bc 41 be
       -0.11415738 -0.09467209 -0.15495485 -0.18919736
000080 9b 3d f7 bd 45 62 00 40 de e5 3f bf 00 3b 56 bd
       -0.12072297 2.005998 -0.74960124 -0.05230236
000090 06 cf 9e c0 27 da 10 bc 5a bb 38 be 97 98 c5 3e
       -4.9627714 -0.008841074 -0.18040219 0.3859298
0000a0 39 9f c6 bf 50 2d fa c0 50 ba df bb 9f cb a9 bf
       -1.5517341 -7.8180313 -0.00682763 -1.3265265
0000b0 98 11 3c bd bb 78 ff bc 66 47 2c bd 94 41 e5 bd
       -0.045915216 -0.031185498 -0.04206028 -0.11194149
0000c0 0c fd cb bd f2 78 59 bd ab c9 9c bd 0c 88 1f 40
       -0.09960374 -0.053093858 -0.076556526 2.4926786
0000d0 6a a1 0a c1 5c 3c 4a bd fd 9c 08 be 39 26 fa bf
       -8.664408 -0.04937397 -0.13341136 -1.9542915
0000e0 27 bc 9d be f3 df 57 bd 3f 51 89 bd 2a 10 03 be
       -0.3080761 -0.05270381 -0.067049496 -0.12799135
0000f0 4a e8 0d 3c 3c af 9b c0 62 98 55 40 a8 4b 2c bd
       0.008661339 -4.865141 3.3374257 -0.04206434
000100 e9 d7 36 bd a7 32 ac bf 52 7d 5c bc bc e6 ee bd
       -0.0446395 -1.3452958 -0.013457613 -0.11665103
000110 c4 e5 8a bb f5 f0 02 bd e6 8b 2b be 61 0d 89 c0
       -0.004238816 -0.031968076 -0.16752586 -4.282883
000120 57 06 32 3c dd 59 84 be a0 21 1a be eb df 89 c0
       0.010865769 -0.2584981 -0.1505189 -4.3085837
000130 26 8a c1 bd d9 44 f9 bd a7 5f b4 bf 6e 61 6d c0
       -0.09450178 -0.12171335 -1.4091691 -3.7090716
000140 df b6 33 bf 60 67 33 bd d1 48 26 be 0c 4e 68 bf
       -0.70200914 -0.043799758 -0.16238715 -0.9074409
000150 ec a2 83 c0 20 08 99 bd 64 32 3e bc 40 2d 33 40
       -4.113638 -0.07472253 -0.011608694 2.7996368
000160 65 9d ff bd 04 dd 1a be 55 00 04 be fd b1 ae bd
       -0.124811925 -0.15123373 -0.12890752 -0.08530042
000170 65 35 20 be 62 b5 2d be 19 6d a4 bd 71 71 c5 bd
       -0.15645368 -0.16963723 -0.08028621 -0.09640778
000180 99 5b dc bd 1e ae 6a 40 63 db 90 3f 3e ca ca bf
       -0.10759658 3.6668773 1.1316952 -1.584297
000190 e2 21 f9 3d c6 cd 3c bd b4 3c 2b be a6 85 39 c0
       0.12164666 -0.04609468 -0.16722375 -2.8987823
0001a0 1e 9b fe bf 66 07 d3 3d 0c 6d 07 be d0 cb 13 bb
       -1.9891088 0.103041455 -0.13225192 -0.0022551902
0001b0 cf cf 47 be c7 4a 50 bd 47 6a ba bd b5 bc 4e be
       -0.19512866 -0.050852563 -0.09102302 -0.20189174
0001c0 71 96 91 3c d3 3f 02 be 5e 51 4d be f1 a3 0f be
       0.017771931 -0.1271966 -0.2005057 -0.14027382
0001d0 09 a8 d6 bf fb 14 f3 bd 4c e3 e4 bd db a9 a4 bd
       -1.677003 -0.11869236 -0.11176166 -0.0804021
0001e0 a6 3a 9b c0 f7 71 2a c0 26 ef e2 bd a9 e4 40 bc
       -4.850909 -2.6632059 -0.1108077 -0.011773267
0001f0 85 ab 01 bd 0e 4c 66 bd 86 d1 de bd 20 3d 4b be
       -0.031657714 -0.056224875 -0.10879807 -0.19847536
000200 3b 45 47 c1 a6 53 f1 bd d9 b7 2d be 7b aa 45 c0
       -12.454402 -0.11783533 -0.16964664 -3.0885303
000210 5c b7 6d bd d0 7f 74 c0 cd 2e 60 bb 9c 56 f3 be
       -0.058036193 -3.820301 -0.0034207583 -0.47527015
000220 a7 55 4f bf f7 6b ba bc fc 93 1d bc e8 d2 d7 bd
       -0.8099007 -0.02275656 -0.009617802 -0.10538274
000230 1b 7c a4 bd 34 90 80 bd 80 a6 1b c1 01 a8 2b be
       -0.08031484 -0.062775046 -9.728149 -0.16763307
000240 6a bc f1 bd 18 41 d7 bd ce ad ac bd aa fc ca bd
       -0.11803515 -0.105104625 -0.08431588 -0.09911473
000250 b4 67 0c 3c ff a2 bb bd 4d 56 52 be a9 09 fa bd
       0.008569647 -0.091619484 -0.20540734 -0.12208874
000260 6a 03 12 be f8 20 2f bc 99 13 37 bf 52 8f 44 bf
       -0.14259115 -0.010689013 -0.7151428 -0.7678119
000270 99 b0 da bd 49 63 46 bd c8 35 5e be 59 54 12 be
       -0.106782146 -0.04843453 -0.21700203 -0.14289989
000280 a2 c4 dc bd 03 59 20 3c 46 98 68 bd 6b 10 a5 bd
       -0.10779692 0.009786847 -0.056785844 -0.08059772
000290 7f f4 4e bf 06 a0 63 c0 5c 63 5e bf 08 57 22 3f
       -0.8084182 -3.556642 -0.8687036 0.6341405
0002a0 8c 37 42 3f ba d3 80 bd 6f ba 92 c0 48 2b f8 bd
       0.7586601 -0.06290384 -4.585258 -0.1211763
0002b0 e1 a6 e0 bd 62 16 8c 3f 4a 81 e6 be da d4 23 be
       -0.109693296 1.0944331 -0.45020515 -0.15999165
0002c0 3a e4 0c 40 1a cc 40 be 3a b4 07 bd 52 b5 0c c0
       2.2014298 -0.18827859 -0.03313086 -2.198567
0002d0 ae 16 66 bd a0 56 54 bd c0 ce a0 bd 27 1c 9a bc
       -0.056173973 -0.051840425 -0.078519344 -0.018812252
0002e0 0d 8c 6f c0 09 5f 9a bd 66 7d f7 bd f1 d9 72 bd
       -3.742923 -0.07537658 -0.12084465 -0.059289876
0002f0 04 93 94 be 64 62 90 bf 12 ca 0b bf e7 0f 32 be
       -0.29018414 -1.1280026 -0.5460521 -0.17388879
000300 14 ab 47 be 64 ca ea bd a9 d5 c7 3c 53 75 c8 bd
       -0.19498855 -0.11464384 0.024393873 -0.09788003
000310 e8 e5 38 3f c1 50 c2 bc f2 ec dd bd c0 f8 1d be
       0.7222581 -0.023720147 -0.10836209 -0.15426922
000320 07 dd a3 bd f0 d1 23 bf de e9 e5 bd 81 fb a4 bd
       -0.08001142 -0.63992214 -0.11226247 -0.08055783
000330 71 5c 16 40 7e ad f9 be 80 18 1b be 86 4a 81 be
       2.3493922 -0.48765177 -0.15146065 -0.2525217
000340 a6 33 f7 bf 9e 35 39 be 3a fd e2 bd fd bf 96 bf
       -1.9312637 -0.1808686 -0.110834554 -1.177734
000350 85 a8 16 be cd 97 8d bd cf 5d 01 be 27 1e 0c be
       -0.14712723 -0.06913719 -0.12633441 -0.13683377
000360 4a 40 a0 bd 7c 5c 18 be f3 05 03 bd f9 39 1c be
       -0.07824762 -0.1487903 -0.031988095 -0.1525649
000370 2c 12 57 c0 eb 82 1a 3e 66 6a f0 3f 12 c5 29 bd
       -3.3604841 0.15089004 1.878247 -0.041447707
000380 be b6 a5 bd 0d 40 65 be bf c9 83 be 3b 1a ea c0
       -0.08091496 -0.22387715 -0.25739858 -7.315702
000390 35 89 81 bd 4a 85 bb bd 28 6d 18 40 25 9a 18 be
       -0.06324998 -0.09156282 2.3816624 -0.14902551
0003a0 a3 91 7b be cd 30 84 c0 ce 22 6b be 6e 10 f0 bd
       -0.24567275 -4.130957 -0.22962496 -0.11721884
0003b0 4b 12 f0 3e cd d6 85 bf 50 7d 09 c1 7f 1b 38 be
       0.46888956 -1.0456177 -8.593094 -0.17979239
0003c0 9e 2b 31 be f5 11 c3 bf 34 e1 b2 be 89 19 22 be
       -0.17301795 -1.5239855 -0.3493744 -0.15830053
0003d0 3b 83 90 bd d1 a8 18 bd 0c a0 27 c0 ae 8e 8c c0
       -0.0705628 -0.03727037 -2.6191435 -4.392417
0003e0 b5 f0 9e bf 2d a0 d5 bd 76 68 e3 bf ef e0 0c be
       -1.2417208 -0.10430942 -1.7766254 -0.1375768
0003f0 67 55 23 be 8d 25 c2 3e 9e 48 08 c0 b6 c1 b3 bb
       -0.15950547 0.37919274 -2.1294322 -0.0054857386

layers.4.weight f4 [256, 256]
000000 40 72 ff bb 11 57 43 bc fe d7 7f bc 49 ad be 3d
       -0.007795602 -0.011922614 -0.015615461 0.09310395
000010 82 3a 9b 3c bf e4 ea bc a2 79 85 3d 91 eb c6 3d
       0.018948797 -0.028673528 0.0651734 0.097128995
000020 e0 cb 0d bd b9 09 4a bc 25 86 2e 3d 0a 64 1a bd
       -0.03461826 -0.01233142 0.0426084 -0.03769306
000030 25 67 0e bd 96 7d 50 3f cd 4e 50 3d a4 d4 fd bb
       -0.034766335 0.8144163 0.0508564 -0.007746296
000040 0d fd 0e bc 91 14 25 bd 01 cb 51 3d 48 e0 6b 3d
       -0.008727324 -0.040302817 0.05121899 0.05758694
000050 2c 99 aa bd f7 8e 48 bc 87 88 1c 3d bd 0b ca 3d
       -0.083299965 -0.012241117 0.03821614 0.0986552
000060 e1 db 1e 3c 82 04 5b be 1c 7b aa 3d 45 2a 9a 3c
       0.009695978 -0.21388438 0.083242625 0.018818984
000070 ff c7 e3 3c 27 30 28 bd 47 eb db bc bb 7a c8 bd
       0.027805327 -0.041061547 -0.026845587 -0.09789034
000080 c6 2d 0e 3c d7 1e b9 bf d0 50 45 3c 67 ee 1d bc
       0.008677905 -1.4462537 0.012043193 -0.009639359
000090 a4 e7 47 bc d2 40 0e bc 1d 8b 1a bd 15 77 7b bd
       -0.0122012235 -0.008682447 -0.037730325 -0.061392862
0000a0 61 f1 ed 3c ac dc ad b9 dd 2f 38 bc 1a 84 7c 3c
       0.029045762 -0.00033161545 -0.01124188 0.015412355
0000b0 a6 c4 e8 bc 29 4c 8b bc a6 48 9b bd ee 00 f8 38
       -0.028414082 -0.01700409 -0.07582216 0.00011825735
0000c0 26 7d 5c bb a9 f7 12 3d 0a 0a 51 bd 90 ae 0b 3f
       -0.003364393 0.03588072 -0.051034965 0.54563236
0000d0 4a 76 aa bc c7 e9 00 bb 8d 25 ee bc 7f f6 8f 3c
       -0.020808358 -0.0019670592 -0.02907064 0.017573593
0000e0 2e a6 33 bd 62 8a 3b bb 14 2c 76 3c 15 29 86 3c
       -0.043859653 -0.0028616418 0.0150251575 0.016377011
0000f0 f8 96 18 3d 8c b8 63 3f d7 ac 0c bc b0 08 e9 bc
       0.03725335 0.8895347 -0.00858613 -0.028446525
000100 23 6d 20 bd 41 1e 84 3b e0 90 93 3c 73 a4 c8 3c
       -0.03916658 0.004031927 0.018013418 0.024492478
000110 da c4 b4 bc 25 dd 6f 3d b3 43 2b 3d 4b d0 db 3c
       -0.022066522 0.05856051 0.04181261 0.02683272
000120 94 0a 20 bc e5 6d f2 bc 11 ba 62 bd 7b 7a 81 bd
       -0.009768147 -0.029593417 -0.055353228 -0.063221894
000130 fd cc 35 bd b7 34 7e 3d a7 70 67 be 49 fd 85 3b
       -0.044384945 0.06206199 -0.22601567 0.004089032
000140 e4 db 4c bc f4 b4 78 bc 24 2a 3e 3d 37 7f 1a bc
       -0.012503598 -0.015179861 0.046426907 -0.009429744
000150 e9 e0 79 bd 0e 34 48 bc d5 a7 c8 bb f0 8d bc be
       -0.061005507 -0.012219442 -0.0061235228 -0.3682704
000160 67 ae d1 3c a2 66 87 3d 2d e9 31 bb d1 8d 6e bc
       0.025595857 0.066113725 -0.002714704 -0.014560179
000170 94 b0 db bc 1b 29 96 bc f1 df c1 bc f8 a2 26 3a
       -0.026817597 -0.018330147 -0.023666354 0.00063566817
000180 14 eb 7e 3c 69 4e a8 3f cc 77 20 3f 08 97 bf 3c
       0.015558977 1.3148929 0.62682796 0.023387447
000190 64 d2 fc 3c 2e 80 ab 3b 4a 80 99 3b ea ec 35 3d
       0.03086204 0.005233786 0.0046844827 0.044415392
0001a0 ad be 3b bd 0a 62 61 bc d2 3b 80 bb 84 44 1f bc
       -0.04583614 -0.0137562845 -0.003913381 -0.009720925
0001b0 1d 60 10 3c 68 f2 2b 3d 20 26 27 bd ea 6b a5 bd
       0.008811978 0.041979223 -0.040807843 -0.080772236
0001c0 81 9b ea 3c 73 3a 5a bd 6c 5e 47 3f 65 7b e5 39
       0.028638603 -0.053278398 0.7787845 0.0004377022
0001d0 68 29 b9 bd 6f ae 87 b9 ac 62 96 3d 29 3e 08 bd
       -0.09041101 -0.0002587917 0.07343039 -0.033262406
0001e0 97 f2 1f be f5 7b d1 3a e4 c3 39 bd 03 6b 66 3d
       -0.15619884 0.0015982377 -0.04535283 0.056254398
0001f0 2e 23 3a 39 e3 42 15 3d c0 96 56 bc 11 fe 55 3c
       0.00017751448 0.03644074 -0.013097465 0.013061062
000200 6a 79 2e bd 54 5b b9 bc af 2a 54 bd 1a f3 b1 be
       -0.04259626 -0.022626556 -0.05179852 -0.34755784
000210 49 10 07 be 6f 7e 99 3d 29 8a dd 3c b6 24 47 3d
       -0.13189806 0.074948184 0.027043419 0.048618995
000220 68 b6 00 bd 2a 56 1a 3d a2 a7 c7 bd 0c 86 a2 bd
       -0.031423956 0.03767983 -0.0974877 -0.07935724
000230 21 4f c1 bc f5 82 3d bd 9a 17 4a 3c 0d 7f 44 ba
       -0.023597302 -0.04626747 0.012334729 -0.00074957387
000240 e5 14 01 3d 92 bb 8b 39 44 b8 5d bd c3 3b 18 bd
       0.031514067 0.00026651897 -0.054130808 -0.03716637
000250 59 e0 71 bb e6 79 48 3d 46 88 d3 3c a0 6b 20 3d
       -0.0036907403 0.048944376 0.025821816 0.03916514
000260 fb 89 39 bc 43 a9 d8 bd 34 ef 67 bd 3e 3b 12 41
       -0.011324401 -0.10579159 -0.056624606 9.139463
000270 62 b8 3e 3c 30 85 52 bc 60 bb b0 3b 0e 00 4e bd
       0.01164064 -0.012849137 0.0053934306 -0.05029302
000280 f1 95 b8 bc 90 36 9b 3e ea cc 97 bd 04 5d b7 3b
       -0.022532435 0.30315065 -0.07412131 0.005595805
000290 b4 c8 11 3c 17 75 18 3f 4c a8 ac bc 16 27 6f bd
       0.008897949 0.59553665 -0.021076344 -0.058386885
0002a0 c9 92 4b 3c 73 73 56 bc f3 9c 23 bb bc 1a 0b 3d
       0.012425133 -0.013089049 -0.0024965375 0.033961043
0002b0 2f 03 5e bd bf ba 03 bd 44 52 e8 3b 9d 25 38 3d
       -0.054202255 -0.032160517 0.007089885 0.044957746
0002c0 14 f3 15 bf 57 57 fa 3b 4f ea 1f 3d 64 57 00 3c
       -0.5857403 0.0076398063 0.039041813 0.007833336
0002d0 99 fa eb 3c fa ff 48 3d dd 9a 91 3d b5 f7 af bc
       0.028806018 0.049072243 0.07109616 -0.02148042
0002e0 21 8c 97 bf 7a 7f 19 bd 7e ee 4b 3d f4 d4 58 bd
       -1.1839639 -0.037475087 0.04978799 -0.052937463
0002f0 07 4c 71 3c 4c a9 0c bd 09 b6 76 3f 87 cb 59 bc
       0.014727599 -0.03434114 0.96371514 -0.013293154
000300 c3 02 3f 3c 1b 51 26 bd f2 cf 7e 3c 0f 2d bb 3d
       0.011658373 -0.040604692 0.015552508 0.091394536
000310 80 d4 0a 3d 72 6b be 3c 81 65 c3 3d 43 f5 82 bc
       0.033894062 0.023244593 0.09540845 -0.01598609
000320 03 8d 22 3d 16 19 12 bd d6 1c 2d bd 0f 6c 41 bc
       0.03968526 -0.035668455 -0.04226383 -0.011805548
000330 0a 29 13 be e6 bc bf bd 23 90 18 3c 42 0f 5f 3c
       -0.14371124 -0.093622014 0.009311709 0.013614478
000340 c1 8d d3 be 60 e9 23 3d c7 bc 24 3b 4d 91 15 3f
       -0.41319087 0.040017486 0.0025136934 0.58424836
000350 0a 6c 93 3d 36 93 1f 3d c9 a8 80 bd e4 5e bb 3c
       0.07198341 0.03895875 -0.06282193 0.022872396
000360 84 65 e4 3c 89 7e 8c 3c e8 ba 66 3d 7e 77 e1 bc
       0.027880438 0.01715018 0.05633059 -0.027522799
000370 49 c3 80 be 5b 0d 27 3d df 8e 2d 3c d1 f1 c7 bc
       -0.2514899 0.04078422 0.010593145 -0.0244073
000380 1f 09 27 bd 03 63 a8 3d 0f 7a 01 be 57 a3 f1 bc
       -0.040780183 0.0822201 -0.12644218 -0.029496832
000390 fd ec 17 3d c3 89 a3 ba ec 6e 56 39 7b 30 8b 3d
       0.037091244 -0.0012476969 0.00020449952 0.06796356
0003a0 3e 23 45 bc 7f 68 c6 bb f6 5d 47 bc 6e 96 05 3c
       -0.012032328 -0.0060549374 -0.012168398 0.008153541
0003b0 65 ce f5 3a 03 43 bd bc 05 bc 90 3c 20 a1 77 3d
       0.0018753527 -0.023103243 0.01766778 0.060456395
0003c0 52 dc 33 3d a1 a4 6c 3c e8 df 7f be ad 33 76 bc
       0.043911286 0.014443547 -0.24987757 -0.015026969
0003d0 f7 3c be 3c 3b 77 24 bc d2 9a 7b bd 12 05 79 3f
       0.02322243 -0.010038192 -0.061426945 0.9727336
0003e0 10 46 fd bc c9 be 98 3d 10 a5 f9 bc 3f ba b0 3b
       -0.030917197 0.074582644 -0.030474216 0.005393296
0003f0 0e 8a f1 b9 75 b6 f1 bb 52 6f 9d bb 09 ca 32 bd
       -0.0004606996 -0.007376487 -0.00480453 -0.043649707

layers.4.bias f4 [256]
000000 a0 17 a7 bf 2b 5c d8 bd 42 61 3a 3f 2b 31 61 bd
       -1.3054085 -0.10564455 0.72804654 -0.05497853
000010 8c b5 83 bd ec ea 90 be 70 57 ab bd 85 5f 35 bf
       -0.06431112 -0.2830423 -0.08366287 -0.70848876
000020 d2 d4 1c c1 d3 6d 6c bd 61 ee 6d c0 31 cc 3a bd
       -9.801958 -0.057721924 -3.7176745 -0.04560489
000030 2a 1d cc bc 55 b6 92 bd 7c e3 ed bf 7c c5 fb bd
       -0.02491625 -0.07163683 -1.8585048 -0.122935265
000040 63 51 a5 bd 59 ff 5a c0 e9 77 72 bd d7 12 4b c0
       -0.08072164 -3.4218352 -0.059196386 -3.173025
000050 55 1a af bd 9b 11 66 bf 75 e1 e0 bd f8 fb ad bf
       -0.08549944 -0.89870614 -0.109805025 -1.359252
000060 48 41 28 bd d4 cd bd 3d 1d 88 ab bd 0e f1 7a bd
       -0.041077882 0.09267774 -0.08375571 -0.061265044
000070 85 88 e1 bd 24 b0 43 bd af 09 a9 3f a5 18 c2 bd
       -0.11012367 -0.047775403 1.320608 -0.09477357
000080 c2 0d 18 3b ad cb c7 bc 97 f4 b6 bd e9 31 59 bf
       0.002320156 -0.024389112 -0.089333706 -0.8484178
000090 2e 40 25 bd 48 a8 25 3d a8 78 6e bd 75 55 39 bf
       -0.04034441 0.04044369 -0.058220536 -0.7239602
0000a0 d4 1a 66 bd d8 19 cf c0 af 4a 88 c0 38 ba 3b 40
       -0.05617793 -6.4719048 -4.2591166 2.933241
0000b0 74 65 8c 3f df bf 7d c0 f4 03 b7 3f 86 52 f3 bd
       1.0968461 -3.964836 1.4298081 -0.118809745
0000c0 c4 42 6f c0 46 75 c2 bd da e6 1e bd b3 de 07 3f
       -3.73845 -0.094950244 -0.038794376 0.5307419
0000d0 21 69 bb bd 55 9f 02 c1 6b c3 64 bd 5c 2d aa 3f
       -0.09150911 -8.163899 -0.055850428 1.3295093
0000e0 a1 38 59 bd 6b 56 e0 c0 de 25 ae bf df b7 ad bf
       -0.05303252 -7.010549 -1.3605306 -1.3571738
0000f0 0f 5f 39 c0 44 54 86 bd 2b 21 19 c0 90 c1 71 c0
       -2.896427 -0.06559041 -2.3926494 -3.777439
000100 aa f5 03 c1 5a f1 f8 bd eb 47 f3 c0 7f 28 97 c0
       -8.247477 -0.12155409 -7.602529 -4.7236934
000110 ea c3 c6 bd e4 c8 ca bd 61 8c 38 bf 64 7a 3d bd
       -0.097053364 -0.09901598 -0.720892 -0.0462593
000120 94 57 52 bd c1 8e 07 c0 83 0d 0d be 88 fe 8d ba
       -0.051353052 -2.118088 -0.13774686 -0.0010833303
000130 02 e6 d3 bf a2 79 03 be 93 ad 33 c0 b8 f1 b2 3f
       -1.6554568 -0.12839368 -2.8074691 1.3980017
000140 c2 ce d6 bf 6b 89 a3 be 30 f6 74 3e a1 ba 6b bd
       -1.6781847 -0.3194078 0.23922038 -0.05755103
000150 ab cf 3d bd ff ee f8 bd a4 b6 ae bd ba 2b 97 bd
       -0.046340626 -0.1215496 -0.0853093 -0.07381387
000160 1e ab 54 40 7b ff a0 bd fa 9c ab be 52 87 30 c0
       3.3229442 -0.07861229 -0.335182 -2.7582593
000170 53 a9 9c bd d2 fe 9c bd 75 2b ac bc a6 a3 c5 bf
       -0.076494835 -0.076657906 -0.021016816 -1.5440567
000180 1f 91 9a c0 6a f4 07 bd ba 81 31 bf 8a b6 13 c0
       -4.830215 -0.033192076 -0.6933857 -2.3080163
000190 13 79 2c be 4b a9 c4 bd 77 e9 9d bd 0d 05 85 bc
       -0.16843061 -0.096026026 -0.077105455 -0.01623776
0001a0 54 d3 bb 3f d3 4d 38 3f 4b 08 10 3f 3d c0 c8 bd
       1.4673867 0.7199375 0.56262654 -0.098022915
0001b0 27 f0 41 c0 48 4f dd bd 7f ba 81 bd a7 eb a1 bd
       -3.0302827 -0.10806137 -0.063343994 -0.07906275
0001c0 65 a8 75 bd 10 ba a3 bd 2c 76 5c c0 e2 81 62 c0
       -0.059975047 -0.07994473 -3.4447126 -3.5391774
0001d0 09 50 2d c0 ce be 1c bd 98 27 9e bd 14 bd 39 bd
       -2.70801 -0.038267903 -0.07722396 -0.045346335
0001e0 a8 30 52 40 fb eb 5a 3f 29 73 89 bd 43 65 5a c0
       3.2842197 0.8551633 -0.06711418 -3.4124305
0001f0 17 f5 a7 bd 03 8f 32 c0 04 d8 04 c0 95 f9 7f bf
       -0.08201044 -2.7899787 -2.0756845 -0.99990207
000200 47 c7 ba bf a0 a0 5c 40 ab 80 e5 bf 7b 9b 70 bd
       -1.4592065 3.4473038 -1.7929891 -0.058742028
000210 9e 21 f7 ba ed ea 59 c0 64 bd 9e c0 c9 71 03 be
       -0.0018854623 -3.4049637 -4.960619 -0.12836374
000220 5a ba 1a be c5 0e b0 bd 5b 20 15 40 02 bf 1a c0
       -0.1511015 -0.08596567 2.3300998 -2.4179082
000230 e0 c7 92 bd 5b 60 95 bd aa 89 10 3d 2a a0 26 3c
       -0.071670294 -0.07293769 0.035287537 0.010170022
000240 4b 8f 63 c0 4b ee c6 c0 e3 43 02 be bc 14 10 bd
       -3.555621 -6.2165885 -0.12721209 -0.035176024
000250 4f b1 ac bf e8 71 3a bf cf f4 bc bd 52 4d e6 bf
       -1.349161 -0.7283006 -0.09226381 -1.7992346
000260 48 e6 1d c0 f6 43 c3 bc 88 0e e2 bd bb 56 80 be
       -2.4671803 -0.023836117 -0.11037928 -0.2506617
000270 87 dd 5a c0 06 1f 8d c0 71 1f 58 3e bc 2a 93 bd
       -3.419771 -4.410037 0.21105744 -0.07185885
000280 8e 03 2f 3f 38 e7 06 be ab a3 95 bd 5b 93 07 3d
       0.683648 -0.1317414 -0.07306608 0.033099514
000290 76 0c 11 3d d9 78 56 c0 f8 40 73 bd 8d 4e 6b 3d
       0.035412274 -3.351126 -0.05938813 0.05744796
0002a0 98 b2 bb bd fe bf d6 bd f9 69 d7 be d4 08 bc bd
       -0.091649234 -0.10485838 -0.42073038 -0.09181371
0002b0 87 7d b2 bf 37 97 0a 40 c3 d7 15 c0 c2 a6 a6 bd
       -1.3944558 2.1654794 -2.341294 -0.08137275
0002c0 77 64 21 bd fa 4e 8d c0 e0 cc 10 c1 4b 2f 6f bd
       -0.03940245 -4.4158907 -9.050018 -0.05839471
0002d0 9f f3 e9 bd d4 e0 cf bd 16 75 67 bd 52 37 9a bf
       -0.1142342 -0.101503044 -0.056508146 -1.2048132
0002e0 84 a5 06 3d 3a a6 de bd d3 46 38 bd fc b8 82 be
       0.03287269 -0.10871549 -0.04498942 -0.25531757
0002f0 38 8c fa bd 9e 25 66 c0 65 30 ba bc 5b 13 9e bd
       -0.12233776 -3.596046 -0.022728154 -0.077185355
000300 5a 9c ff bd 5d 90 34 bd 04 a6 2f bd ac 87 c2 bd
       -0.124809936 -0.044082988 -0.042882934 -0.094985336
000310 32 4f db 3c 67 e2 37 bf e1 6c 13 40 ec 51 97 bd
       0.026771162 -0.7182984 2.3035204 -0.07388672
000320 f9 9f 29 bd 7c 01 22 bf cc 43 1f bd 2a 8e a9 bc
       -0.041412327 -0.63283515 -0.038883016 -0.020697672
000330 d1 d8 b0 bc 8d 7b ed c0 e0 a8 03 be 2b e0 94 3f
       -0.021587761 -7.421332 -0.1285739 1.1630911
000340 f3 07 44 c0 21 c2 82 c0 52 0d a1 bd 36 97 e0 bb
       -3.0629852 -4.0861974 -0.07863869 -0.0068539632
000350 ab 9c 51 bf dd 4e d6 bd fc 18 d6 3e 89 c6 53 c0
       -0.8187968 -0.10464261 0.41815937 -3.3089926
000360 6a 34 d9 3e 6e 67 ef be af 45 48 bd 59 80 68 bd
       0.424228 -0.46758598 -0.04889458 -0.056763027
000370 e5 d2 15 c0 71 a3 3b c0 73 41 05 be 25 39 f2 c0
       -2.340997 -2.9318507 -0.13013248 -7.5694757
000380 4b bb 84 3e 60 94 37 c0 f9 93 c7 bd 71 38 fb bd
       0.25924143 -2.868431 -0.097450204 -0.12266625
000390 0e f6 1d 3b 80 78 60 c0 c6 49 ba bd ad bf cf c0
       0.002410296 -3.5073547 -0.090961024 -6.492148
0003a0 6f 89 54 bf a7 9e 76 bd dc 99 12 be 0f 52 63 bd
       -0.8302221 -0.060209896 -0.14316505 -0.05549818
0003b0 23 38 13 3e 78 66 a4 bd 8e 4b 61 be 82 3f 0b c1
       0.14376883 -0.08027357 -0.22001478 -8.703005
0003c0 00 a4 8f 3f f9 a4 82 be fa 94 1a c0 e5 82 ca bd
       1.1221924 -0.2551649 -2.4153428 -0.098882474
0003d0 02 47 d4 bd 86 2d f6 c0 75 9b 8e 3e 72 fe b0 c0
       -0.10365106 -7.693057 0.2785298 -5.53106
0003e0 c3 55 9e c0 87 76 0a be bd 59 67 3c 57 51 88 3f
       -4.947969 -0.13521777 0.014120516 1.0649823
0003f0 1a e8 fd bd 0b ac d6 be 27 a5 cd bf c9 03 8e bf
       -0.123977855 -0.41928133 -1.6066025 -1.1094905

layers.6.weight f4 [128, 256]
000000 fe b6 e8 be fb 19 ac 3c 70 8e 92 3d fa d8 05 bd
       -0.45452112 0.021008482 0.07156074 -0.032677628
000010 96 ed 33 bc 9a bd 16 be f7 b4 6e bb 50 d5 85 bd
       -0.010981938 -0.14720765 -0.0036423781 -0.06534827
000020 b8 92 b0 bd 9f 5a e3 bc 78 a6 aa bc e3 19 4e bc
       -0.086217344 -0.027753172 -0.020831332 -0.012579414
000030 9d a4 86 3b b1 7c 6a bc c7 69 24 be 00 63 8b 39
       0.004108979 -0.014311955 -0.16055976 0.00026585907
000040 26 66 1c bd 61 cf 47 3c 99 7f b5 bc 10 4d f6 3a
       -0.038183354 0.012195439 -0.02215557 0.0018791277
000050 4c 7e 6b bd a8 56 67 bd 95 1d 03 3d 84 c8 56 bc
       -0.057493493 -0.056479126 0.032010633 -0.01310933
000060 b8 83 4c 3c f7 f5 bf 3c eb 28 2c 3d df da 52 3d
       0.012482576 0.023432715 0.04203121 0.051478263
000070 0b f9 66 3b d3 63 a8 bb 9f 01 02 3c 62 86 c8 bc
       0.0035243656 -0.005138853 0.007934957 -0.024478141
000080 db 0c 91 bd 4a c3 54 3d 9a f2 8b bc ba ee dc bc
       -0.0708253 0.051944055 -0.017083455 -0.026969302
000090 1c 02 4a bd 09 4e 0b bd af 38 88 bd 9e 9c 83 bd
       -0.049318418 -0.034009967 -0.066514365 -0.06426357
0000a0 a2 e4 9b bc db e0 13 3c 4e 0f 1f bd 12 67 d8 3d
       -0.019029919 0.009025778 -0.038832955 0.10566534
0000b0 9c c6 92 be 3f ea 5b 3c 61 7e bc be 90 e6 07 3d
       -0.28667152 0.013422548 -0.3681517 0.033178866
0000c0 2c 21 3a 3d cc 1f e1 bc ff 7f 7b 3b a2 1d 86 3c
       0.04544179 -0.027480982 0.0038375852 0.016371552
0000d0 7d 60 04 3d 26 96 4f bd 99 19 85 bd ec 97 cf bd
       0.03231858 -0.050680302 -0.06499023 -0.10136399
0000e0 82 ad 0e 3d d0 c9 b9 bd cc 82 5b be 55 18 a7 bb
       0.03483344 -0.09071696 -0.21436614 -0.005099336
0000f0 f9 15 8c bd 55 46 00 bd 8c 03 4f bd 5b d4 b7 bc
       -0.068401285 -0.031317074 -0.050540492 -0.022440126
000100 12 b1 d1 3c d3 49 e4 bc 3c 83 7d bd 04 e1 81 bc
       0.025597129 -0.027867233 -0.061892733 -0.015854366
000110 f3 c8 69 bd 7c 18 96 bc e5 b4 03 3e f0 e4 24 bd
       -0.057076406 -0.018322222 0.12861975 -0.040257394
000120 ae f7 29 bd 96 79 ab bd 8a 7f 20 bd 5a da 1b 3d
       -0.04149597 -0.083728 -0.03918413 0.038050033
000130 8d 90 29 be 43 01 df bc 6c 38 86 bd 21 6c 40 be
       -0.16559048 -0.027222281 -0.0655373 -0.18791248
000140 38 e7 f6 bd 94 61 00 be 5f 48 06 bd 63 27 d9 bc
       -0.1205582 -0.12537223 -0.032783862 -0.026508039
000150 c0 f9 34 bd 02 f7 22 bd ba aa 30 bd 7f 72 fc bd
       -0.044183493 -0.039786346 -0.043131568 -0.12326526
000160 a6 0f 08 bc ef 7a 32 3d 22 13 db bd 48 19 d0 bc
       -0.008304512 0.04357427 -0.10697009 -0.02540268
000170 c3 55 22 bd 3c f2 e6 bb 16 fc 57 3d 04 b6 e7 bd
       -0.03963257 -0.0070479196 0.052730642 -0.113140136
000180 53 32 35 be 22 87 28 3c e7 dd ee bc f5 91 70 bc
       -0.17694978 0.010286124 -0.029158546 -0.014683236
000190 e0 6d 97 bc 4c bd f6 3c ea fd 19 3d 43 67 4d 3b
       -0.01848501 0.03011956 0.037595667 0.0031342066
0001a0 a6 a4 52 3d 1c 39 d3 bd c5 ca a5 bd 9d b7 ad bc
       0.051426552 -0.10313627 -0.08095316 -0.021205718
0001b0 be e1 04 be e1 81 78 bc 44 a1 05 3d dc 77 f2 bb
       -0.12976739 -0.015167684 0.032624498 -0.0073995423
0001c0 42 c9 58 bd 86 51 2f bd 15 c8 a1 bd 71 f2 8c bc
       -0.05292631 -0.042802356 -0.07899491 -0.017205449
0001d0 4e eb 52 3e 8e e9 66 bd 79 3f c6 3c 9a 48 01 bd
       0.20597574 -0.05637508 0.024200188 -0.03156338
0001e0 21 98 c1 be cd fa 87 be 51 cf 71 bc 3e c8 b3 bd
       -0.37811378 -0.26558533 -0.014758901 -0.087784275
0001f0 a5 71 35 bc 80 f9 b2 3c cf 98 86 bd 67 54 01 3c
       -0.011074458 0.021847486 -0.06572115 0.007893658
000200 b0 8a ec bb f1 1f d4 bc 52 6b 1a 3d 1f 6f e0 bb
       -0.0072186813 -0.025894137 0.037700005 -0.006849184
000210 b4 1a 59 bc 21 c9 08 bc 5a d6 45 be ba 89 88 bd
       -0.013250995 -0.008348734 -0.1932005 -0.06666894
000220 af 3d 78 bc 54 01 6b bd 56 c9 73 bd 14 e4 a2 bb
       -0.015151425 -0.057374313 -0.05951818 -0.0049710367
000230 27 f7 84 bd 94 4a 79 bd 2c fd 57 3d d7 60 8c bd
       -0.06492453 -0.06086214 0.052731678 -0.06854408
000240 c7 a3 96 3c 64 36 80 bc 38 f7 54 3c 8b 49 10 bd
       0.018388642 -0.015650935 0.012998395 -0.035226386
000250 18 a9 18 be 80 0a 6a be 38 7a 38 3d b7 6c aa 3c
       -0.14908254 -0.22855568 0.045038432 0.020803792
000260 34 7c 73 bc 9c c8 ae bc d4 de 30 3d 09 2a 95 bd
       -0.014861155 -0.021335892 0.043181255 -0.07283408
000270 df 95 22 bd 0b 08 be bd 2e 10 7f bd 5e 90 4a bd
       -0.03969371 -0.09278878 -0.06227129 -0.049454086
000280 5d f4 24 bd a8 3d ff bb d8 10 5d be 79 0b 14 3b
       -0.040272105 -0.0077893324 -0.21588457 0.0022589846
000290 24 16 ae bc 04 53 df 3b c6 a1 5c bd 1b 48 2a bd
       -0.021250792 0.006815316 -0.053865217 -0.04157267
0002a0 1e 3b 7a bb 9b c6 29 bd 81 1b 57 be c7 cf 82 bd
       -0.003818221 -0.04144917 -0.21006586 -0.06387287
0002b0 a2 3c 35 be 55 e1 5f be f0 f6 97 bd e5 85 2e bd
       -0.17698911 -0.21863301 -0.074201465 -0.04260816
0002c0 7b 2c 32 3d 08 39 4d bd a3 f7 b1 3c bb cf 26 bd
       0.04349945 -0.050103217 0.021724528 -0.04072545
0002d0 14 e8 50 3d 72 00 61 3d 63 9c 60 bc 52 62 ec 3c
       0.051002577 0.054932065 -0.0137091605 0.028855477
0002e0 5c ff df b6 2e 08 28 bc 21 e2 aa 3c 98 5f 6c 3c
       -6.6756456e-06 -0.010255856 0.02085978 0.014427088
0002f0 39 6d d1 3b b1 69 95 3b 96 e9 31 bc c0 b8 85 bc
       0.006391194 0.0045597185 -0.010858914 -0.016323447
000300 d0 f4 97 3c ac 67 8c bc e6 04 30 3d d8 aa 61 3d
       0.018549353 -0.017139278 0.04297342 0.05509457
000310 e6 1e 21 3d a1 05 a4 bc cc 9e 1a bd 00 38 1b b8
       0.039336108 -0.020022215 -0.037749097 -3.7007034e-05
000320 a0 f8 4b 3c ab 43 0c 3c ce 80 54 bd ce e6 48 bd
       0.012449414 0.008561055 -0.05188065 -0.049048238
000330 3f 5e a6 3c e2 a1 86 bd c9 06 4e 3d 17 a5 97 3c
       0.020308612 -0.065738454 0.05029944 0.018511338
000340 67 28 11 bd a7 c3 89 bd 06 12 bb 3c cf 28 63 bd
       -0.03543892 -0.06726771 0.022835743 -0.05545884
000350 ac d5 23 be 4c 60 4f 3d d4 5f 2c be d2 d1 02 bd
       -0.15999478 0.050628945 -0.1683343 -0.03193838
000360 2f 98 33 be 47 c3 80 bd 2e 5a 4d 3d de 60 c0 bc
       -0.17538522 -0.06287246 0.05013483 -0.02348369
000370 db 79 fb 3c c0 57 32 bd c6 6c 06 bd f7 e7 89 3d
       0.030697754 -0.043540716 -0.03281858 0.06733697
000380 5d 9a 60 be f5 65 0a bd 35 3d 2b 3d 8a f9 2f bd
       -0.21933885 -0.03378864 0.04180642 -0.04296259
000390 2e 3e 5d bd 26 66 d6 bc ca 63 64 3c 6f 97 f5 bd
       -0.054014377 -0.026171755 0.013939807 -0.11991774
0003a0 01 28 f9 bc d6 b7 6d bd 80 76 66 3b e6 31 03 bd
       -0.030414583 -0.058036648 0.0035165846 -0.03203001
0003b0 9d 95 83 3c 54 3b 2d 3c bd 57 85 3c 78 f8 c1 bc
       0.016062552 0.010573227 0.016277188 -0.02367805
0003c0 6c be f5 bd 8b cb 72 3c 54 1d 52 be 79 8d 75 bd
       -0.11999211 0.014819036 -0.20519 -0.059949372
0003d0 a6 6c 4e 3d 5c 55 f8 3c 70 78 9f 3d 6b 61 9b bd
       0.050396584 0.03031414 0.077866435 -0.075869404
0003e0 88 de bb 3a 35 5c e1 bc 90 9c 0a bd 8f 2c d9 3c
       0.0014333287 -0.027509788 -0.033840716 0.026510505
0003f0 5b 62 90 3b 8b f9 44 bd 20 ab 7a 3b f4 77 8e bd
       0.004406256 -0.048089545 0.003824897 -0.06956473

layers.6.bias f4 [128]
000000 97 20 e8 be 7a dc dd bd 57 52 18 be ed f3 2a be
       -0.45337364 -0.10833068 -0.1487516 -0.16694613
000010 53 5d e9 bd 23 e0 66 bd bd 09 ad bf b2 45 0d bf
       -0.11394753 -0.056366097 -1.3518597 -0.5518447
000020 59 af 7b 3e d1 c1 f6 bd 5b a9 8e bf 43 ab ac be
       0.24578609 -0.12048686 -1.1145433 -0.33724412
000030 2d 69 02 be e7 66 04 3f a3 ae e7 bd 9e 91 a8 3e
       -0.12735434 0.51719517 -0.11312606 0.32923597
000040 a0 5a 2a be b7 5e 84 bd 81 28 09 be 21 1b e2 be
       -0.16636133 -0.06463378 -0.13394357 -0.44161323
000050 31 92 09 be 1a 5f 45 be 34 b3 ed bd e3 47 6b 3e
       -0.13434674 -0.1927456 -0.11606446 0.22976641
000060 53 b7 74 be fb 0e 31 be bf 7f ba bd 35 d8 82 bd
       -0.23898058 -0.17290871 -0.09106397 -0.063888945
000070 db 94 8d bd 36 bc 70 bf e8 99 ad bf 0d 14 36 be
       -0.069131576 -0.9403719 -1.3562593 -0.17781086
000080 e0 aa 07 be 52 53 2f be eb 9f 82 bf bc ee 7b 3e
       -0.13248777 -0.17121628 -1.0205053 0.24602789
000090 7e bd 02 bf 96 12 a6 bf 09 1b fd be c5 06 e4 bd
       -0.5107039 -1.2974422 -0.4943469 -0.11134104
0000a0 fd 0c 09 be c2 69 12 be 67 d1 be 3e 51 03 02 be
       -0.13383861 -0.14298156 0.37269136 -0.12696578
0000b0 19 31 74 be cb 19 7f 3d f9 b8 dc bc 2e 8a bb bf
       -0.23846854 0.062280457 -0.02694367 -1.4651544
0000c0 64 2b 36 bc b4 c4 35 c0 32 87 78 be 28 13 1a bf
       -0.011118744 -2.8401308 -0.24270323 -0.6018548
0000d0 28 95 74 bf 22 1f de bd 5a 02 bc bd 2e 35 92 be
       -0.95540094 -0.10845782 -0.09180136 -0.28556198
0000e0 bb fb cf bf bb 28 ca bd 9a 65 47 3d a6 50 1f be
       -1.6248697 -0.0987105 0.04868088 -0.15558109
0000f0 0f a1 37 3e d4 76 0d bd 81 5a 91 bd 82 96 2e be
       0.17932533 -0.03453715 -0.070973404 -0.17049602
000100 4c a2 1a be 67 9b 2e c0 6d 11 0e bf 34 d0 20 be
       -0.15100974 -2.728235 -0.5549534 -0.15704423
000110 ad 82 90 bd e4 bd 73 3f be 91 11 be 4d 8b 85 bd
       -0.070561744 0.95211625 -0.14215752 -0.0652071
000120 a1 f7 ae bf e0 dd d4 bd d9 f9 bb bd bd 47 12 be
       -1.366932 -0.10393882 -0.09178514 -0.14285178
000130 fb e2 0c be 8b 0c 21 be 95 37 ca 3d 7d b7 0a be
       -0.13758461 -0.15727441 0.09873883 -0.13546558
000140 f7 dd 42 c0 b0 cf c0 be bc 72 b0 bd 03 05 c6 bf
       -3.0447977 -0.37658453 -0.08615634 -1.547028
000150 50 d8 ad bd f9 d1 2a be 37 bf f9 bd f3 ca 28 be
       -0.08488524 -0.1668166 -0.121946745 -0.16483669
000160 6f fd 8b 3e b0 5a 04 be 84 81 40 bf b6 66 d5 bc
       0.27341792 -0.1292522 -0.75197625 -0.026049953
000170 47 9f c1 bd ba 27 17 be 47 21 0f be ac 76 86 3e
       -0.09454208 -0.14761248 -0.13977538 0.26262414
000180 7f 4e 2e be 9b ae 9b 3f 07 8e 06 be 3d ff a4 bd
       -0.17022131 1.216266 -0.13140117 -0.08056495
000190 df 44 3b bf 31 40 25 be e9 5e 0b 3f 41 2e 17 be
       -0.73151964 -0.16137768 0.54441696 -0.14763738
0001a0 ed d3 01 be e5 34 01 be 89 8f 12 3d 49 50 45 bf
       -0.126785 -0.12617834 0.035781417 -0.7707563
0001b0 d0 59 7b bd 38 04 14 be 4b e9 2f be aa a5 84 3e
       -0.06136495 -0.14454734 -0.17178838 0.25907642
0001c0 e2 28 a0 3a 7b e0 97 bd 64 35 47 be 70 36 91 be
       0.0012219215 -0.07415863 -0.1945396 -0.28361845
0001d0 63 5a 69 bf 01 59 cd 3e 1f 91 d9 bd 4c a6 11 be
       -0.91153544 0.40106967 -0.10623383 -0.14223593
0001e0 2b e6 28 c0 26 c1 d3 be f3 7f b2 3e 5e 47 6a bd
       -2.6390483 -0.41358298 0.34863243 -0.057196967
0001f0 6d bd d7 bd ea 0e 0f be 1e 15 02 be d1 9d 6e be
       -0.10534177 -0.13970533 -0.12703368 -0.2330239
