Simulation/model_8_128_256_256_128_11_mzm_mzm_pm_300k_samples_batch_size_64_val_min.pth (torch, 542854 bytes, 10 tensors)

layers.0.weight f4 [128, 8]
00000000: 42e9 303f 5adf 63be d8d2 9abf 9069 5aba
00000010: de22 993a 68c8 683b 29ab caba 312a c3ba
00000020: 9ce1 16c1 273a e5c0 fe82 8ac1 a0ff 2dbd
00000030: d37b 0e3d d0f1 c4be e72c a23e 0e38 63be
00000040: c7d3 99be 8871 b3be c507 bebf 9036 0cba
00000050: df40 2fba f4a7 08bc 75d6 893b 76aa 3c3b
00000060: d964 b0be d211 d9bd 7dfa 77be 6699 96bc
00000070: 9e65 2ebe 2528 963d ab76 b6be 7f6e 18be
00000080: fb8d aabd df48 0bbc 4ebf 78bd ef66 4dbd
00000090: a2cc c63d 9b3a 75be 79a4 a9bd e656 193e
000000a0: 26e1 86be a48b a8be d92b aabe 584a 93bc
000000b0: 444d d43d 4236 15bd c71c 44be f7ad 62bd
000000c0: fa72 4abe 3953 15be fad9 efbd e873 dbbd
000000d0: 1915 c03d f2b3 ddbe 50f8 16be 5c17 f5be
000000e0: 226a 26c0 65dd c6be 1b2b 753e cce4 b3bf
000000f0: 2920 50bf 7858 623e 7bc5 14bf 5a4a 573d
00000100: 75e9 f33c 69bf 4d3d 3e87 433e bf0d 1cbd
00000110: ba97 d0bd a64a 82bc 5797 54bd 925c 603b
00000120: 55a6 a1bf 782b 1b3f 6bd5 94be eec3 a7be
00000130: e629 a1bd 02ed 2fbf 8eb3 18c0 d2b3 62c0
00000140: 2b7c 82ba 1a4d 803a 3ae8 323a e672 523a
00000150: f638 e13a 3d8f a9b9 ef21 413a c28e 07c0
00000160: 9057 18c0 a1e2 383f 01fa a9c0 90c8 fbbd
00000170: 995a 38bd 192a 63be d45a da3b 2f23 9dc0
00000180: bda4 42c1 2d6e fcc0 f075 8abf 2c61 483f
00000190: ce0c 943e 0f76 d33a 1d92 f1bf e4f5 48c0
000001a0: e032 c7bd 0618 59be 30a4 6ebd e656 a8be
000001b0: 941a 2abd 3ca0 973c cb99 02c0 754b dcbd
000001c0: 608f 0b3e 6222 1dc0 7602 c53e 6dba e0ba
000001d0: 22f2 95bb baa7 843b 6cc9 51ba 3712 b2bb
000001e0: fc01 92be 1230 64be 6daa 81be 4a15 b73d
000001f0: 7331 f8bd cf91 0ebe 1abd 09bf 8d0d f9be
00000200: 613e abbd a92b 8cbe 8863 15bd 887e 3abf
00000210: 7587 0dbe 592b 773e 4e55 99bf 1f0f aebd
00000220: d2b8 b53e bd56 893e d914 25be df0a 6f3e
00000230: c08e bebe e1dc 89bf 69e7 abbf aae3 8ebf
00000240: 362a c3bd f10a a23d 7237 94be 8389 35bd
00000250: 3a42 4ebe 4ae0 263d 5af4 a6bb 8175 6e3d
00000260: 2f1f 4b3b 14b5 94bc 9784 d6bb 17b3 35bb
00000270: b4c5 5c3f 1b6b 5cbf f42e 6bbb fc23 acb9
00000280: f2ff f6be 8299 6dbe 3cfd e8be 9ef5 1ebd
00000290: b2a0 09be ddac 3b3d e197 99be 76c1 1ebe
000002a0: 4c0f 75bd f812 a83d 201f cbbb aa69 d5bc
000002b0: 6a1d 3cbd f6b9 b3bd ab9a cabd 9c66 3e3f
000002c0: be10 bc3c 51d6 29be 3b83 c3be 8e78 fcbe
000002d0: c244 b9be 2c89 6ebe d6c4 b63d f76f 4dbe
000002e0: 8720 a23e 4b58 853e df7e 903e 94c3 a7bd
000002f0: bb39 79bd ab45 b7bd 8c10 cabd 5748 cebd
00000300: c764 643d 368e 2d3f fcbd e43d 3338 2a3a
00000310: 9e55 53bb e833 c33a 0c0e 5739 7e6b 9c3a
00000320: 5689 d6bd b7f2 00be 8fa4 8fbc d764 d0bd
00000330: b474 aebe d366 a2be a197 f0bd 95ee 0bbe
00000340: fdad 963d 9ca8 f6be e9ba 68bd caac 843d
00000350: 39b3 4abe a7d2 2bbf 22a5 a9bd b5be 9abd
00000360: 7c1f bebe 14ae 063d aaab dabb 1e6a 56bd
00000370: 6618 11bb e489 dcbd 8852 2abe 4081 d33d
00000380: e92c 6fbc 0d98 383a 0519 823b 7db3 0fbf
00000390: f3e1 023f c169 403d fd3b f0bb 9c14 a4bb
000003a0: ef7b a6bd 0ef5 a9be f13c 913e cba9 0abe
000003b0: 2d21 99be 795f 9abd 50a9 afbe 1797 85be
000003c0: 1e5b 2b3e 574c 82bd be2e 71be 32d3 d0bd
000003d0: 8fa5 0bbe 5a33 fabd b56f 02bf 6f64 d9bd
000003e0: 90a5 19be 5011 f53c 6664 f83d b964 9bbd
000003f0: 1436 8b3d cf77 0cbe ae85 d5bb f054 f9bd
0.69105923 -0.2225317 -1.2095594 -0.000833177 0.0011683365 0.0035519842 -0.0015462387 -0.0014889893
-9.43008 -7.1633487 -17.313961 -0.04248011 0.034786057 -0.38465738 0.31674883 -0.22189352
-0.30044386 -0.35047555 -1.4846121 -0.00053487066 -0.0006685387 -0.008340824 0.0042064735 0.0028788126
-0.3445194 -0.10599102 -0.24216647 -0.018383693 -0.17030951 0.07331876 -0.3563741 -0.14885901
-0.08327862 -0.008501261 -0.060729317 -0.050146993 0.09706999 -0.23948137 -0.08283324 0.14974555
-0.2634365 -0.32919037 -0.33236578 -0.017979786 0.103663 -0.036428697 -0.19151603 -0.055341687
-0.19770423 -0.14582528 -0.117114976 -0.10715467 0.09379024 -0.4330135 -0.14743161 -0.47869384
-2.6002278 -0.38840786 0.23942225 -1.4054198 -0.8129907 0.2210406 -0.5811383 0.05256114
0.029774407 0.05023137 0.1909456 -0.038099047 -0.101851895 -0.015904736 -0.05190214 0.0034234864
-1.2628886 0.60613203 -0.29069075 -0.3276667 -0.078693196 -0.6872102 -2.3859591 -3.5422254
-0.0009955218 0.0009788603 0.00068247656 0.00080279855 0.0017183113 -0.00032340913 0.0007367422 -2.1180882
-2.3803444 0.7222081 -5.311768 -0.12294114 -0.045008276 -0.22184028 0.0066636596 -4.910545
-12.165219 -7.888449 -1.0817242 0.7827327 0.2891602 0.0016133207 -1.8872715 -3.140008
-0.097265005 -0.2120057 -0.05826205 -0.32878798 -0.041529253 0.018509023 -2.0406368 -0.1075658
0.13628912 -2.4552236 0.3847844 -0.0017145403 -0.0045759836 0.004048315 -0.00080027315 -0.0054343003
-0.2851714 -0.22283962 -0.25325337 0.089396074 -0.12118807 -0.13922809 -0.5380417 -0.4864315
-0.08361507 -0.2737706 -0.036471874 -0.7284932 -0.13821204 0.2413763 -1.1979158 -0.08498978
0.3549257 0.2682399 -0.16121234 0.2334399 -0.37218285 -1.0770532 -1.3429996 -1.1163228
-0.095295355 0.07912243 -0.2894855 -0.044320595 -0.20142451 0.040741242 -0.005095047 0.05821753
0.0030993929 -0.018152751 -0.0065465677 -0.0027725154 0.8623917 -0.8610093 -0.003588614 -0.00032833207
-0.48242146 -0.2320309 -0.45505702 -0.038808458 -0.13440207 0.045819152 -0.29998687 -0.15503487
-0.05982904 0.08206743 -0.0061987787 -0.026051361 -0.04592649 -0.087757036 -0.09892782 0.7437532
0.022957202 -0.16585661 -0.38186058 -0.49310726 -0.3618527 -0.23294514 0.08924262 -0.20062242
0.3166544 0.26043925 0.28221795 -0.081916004 -0.06084607 -0.08948835 -0.09866437 -0.100723915
0.05576017 0.6779512 0.11169049 0.00064933597 -0.0032247077 0.0014892789 0.0002050923 0.0011933891
-0.104754135 -0.12592588 -0.017534522 -0.10175484 -0.34073412 -0.31719074 -0.11747671 -0.1366523
0.073574044 -0.48175514 -0.056818876 0.064782694 -0.1979493 -0.67118305 -0.0828345 -0.07555906
-0.37133396 0.032880858 -0.006673296 -0.052347295 -0.0022139787 -0.10768488 -0.16633046 0.10327387
-0.01459811 0.00070417003 0.0039702677 -0.5613325 0.5112602 0.046975855 -0.00733137 -0.0050073396
-0.08129107 -0.33194774 0.28366807 -0.13541333 -0.29908124 -0.07537741 -0.34308863 -0.26091835
0.16733977 -0.06362217 -0.23552987 -0.10196532 -0.13637374 -0.12216826 -0.509517 -0.10614859
-0.15004563 0.029915482 0.121285245 -0.07587571 0.06797424 -0.13717578 -0.00651618 -0.12174404

layers.0.bias f4 [128]
00000000: 12f4 0abd 0e48 1641 9bf4 ca3f 5aa1 dbbb
00000010: 5e8b d9bf 7265 97be 549e 0cbe 068c f2bd
00000020: 2c6b 67bf 3364 b43f d25c 8640 465e b43e
00000030: 9161 b240 158f a53e da1a 023f 624b a13e
00000040: 93f2 92bf 90d4 b8bf e5ca 30bf 1280 793e
00000050: 63c6 f13e f7ae c2c0 3a84 f13d c069 09c0
00000060: 9910 18bf 7a12 06bd 63e9 7fbe 9005 3fbf
00000070: 711d d4bf 5051 86be 5285 d43c 6014 3bbf
00000080: 3728 ba40 92d7 7940 c05a d43f 8c2a 5b3e
00000090: a847 9f3f d36f 45bd 2b6a afbf 389a 6abe
000000a0: fb0a aa3f c874 243e 6516 e1be f959 9dbf
000000b0: 5454 9e40 895f a8be bebb 613f a1cd 01c0
000000c0: 50fc 71bf bfc5 b0be 5043 243d 613d 8abc
000000d0: af92 a440 7f7a 53bf 0327 c2be 18b0 aabe
000000e0: 2b6f 19bf e322 2740 0fdd bcbc cf6e a8bd
000000f0: 7934 603e 261c c13f 0570 b1be f1e8 90bd
00000100: b99c efbe 3466 7c3e 9e19 ab40 10fa cdbe
00000110: c168 b8be f3e9 5bc1 2894 84c0 942a 0abe
00000120: 3c7b 083d 80bb ecbc 61c0 9ac0 2852 eebf
00000130: 5bf7 85c1 e718 efbd 7c54 9dbe 4379 61c1
00000140: e68e f6be ef16 cdbf 4e1e e33f 64f8 91c1
00000150: dc88 17bf 070d 483e c575 97be eaab 8dbf
00000160: 691c 5fbe 7126 0a3d a989 77bd 0ada c5be
00000170: 2c74 8b3f d776 63c0 50e0 91bf 7b8f fbbf
00000180: daee 82bf 18fd 87bf c210 9240 19e1 e9bf
00000190: 8e53 60be a84f 9cbe 7486 8240 0399 4fc1
000001a0: 4153 79c0 7c56 88bf 1fe5 96bf a535 9ec0
000001b0: cd09 173f 8711 60c1 3795 ac3e 1a54 aa3f
000001c0: 1bbe ff3d c6da 2a40 4117 51bd 96ed 0a40
000001d0: b015 3440 c708 0bbf d762 0ac0 c072 c0be
000001e0: 8bd7 9c3f 9290 2e3f d5c1 e2c0 b3aa c8be
000001f0: d7d7 afbe 13bf 80be 73e0 aebe 2341 b2be
-0.03392417 9.392591 1.5855898 -0.006702584 -1.6995656 -0.29569584 -0.13732272 -0.118431136
-0.90397906 1.4093078 4.1988306 0.35228175 5.57441 0.32335725 0.5082222 0.31502825
-1.1480278 -1.4439869 -0.6905959 0.24365261 0.4722167 -6.083858 0.11792798 -2.1470795
-0.59400326 -0.032732464 -0.24991374 -0.7461786 -1.6571485 -0.26233912 0.025942478 -0.73077965
5.817409 3.9037824 1.6590195 0.21402949 1.2443743 -0.048202347 -1.3704275 -0.22910392
1.3284601 0.16060174 -0.43962398 -1.2293082 4.947794 -0.32885388 0.88177097 -2.0281756
-0.94525623 -0.34525868 0.040103257 -0.01687497 5.1429057 -0.8260879 -0.3792039 -0.33337474
-0.59935254 2.6115043 -0.023054628 -0.0822426 0.21895017 1.5086715 -0.34655777 -0.0707568
-0.46799257 0.24648362 5.346877 -0.40229845 -0.3601742 -13.7446165 -4.1430855 -0.13492805
0.03332065 -0.028898 -4.8359838 -1.8618822 -16.745779 -0.116746716 -0.3072852 -14.092105
-0.48155898 -1.6022624 1.7743623 -18.246284 -0.59193206 0.1953622 -0.2958204 -1.1068089
-0.21788181 0.033728067 -0.060434017 -0.38642913 1.0894828 -3.5541284 -1.139658 -1.9653162
-1.0229142 -1.0624113 4.5645456 -1.8271819 -0.21906874 -0.30529523 4.0789127 -12.974856
-3.8957064 -1.0651393 -1.1788672 -4.9440484 0.5899933 -14.004279 0.33707592 1.3306916
0.124874316 2.6696029 -0.051047567 2.170751 2.8138237 -0.5431027 -2.1622827 -0.37587547
1.2253278 0.68189347 -7.086161 -0.39192733 -0.3434436 -0.25145778 -0.34155616 -0.3481532

layers.2.weight f4 [256, 128]
00000000: eb8e 0b3d 4686 0fbd ee65 f1bd d503 2f3d
00000010: a2ec fa3c 4231 e6bd c8e5 adbb 87b3 e63c
00000020: 2247 a1bd ba3e 9fbc 461f 76bc 7344 cdbc
00000030: 2736 33bc bc06 e8bc 079e 85bd 1544 42bd
00000040: 2436 8dbd 8419 b23d bdef 33bb fa2d 8a3b
00000050: be26 1f3d 2c11 373b 8468 1abd fefd 583d
00000060: 495d a3bd 8bbc a73d 7132 4dbd 148c 90bc
00000070: ac15 2bbb 932f 7fbd eaf3 b43c 5bdd 97bd
00000080: c784 8fbd dfd9 f8bc 9a09 383d 2c33 debc
00000090: df13 e0bc 6d18 9bbd 1701 5bba b134 a5bd
000000a0: 5bb9 9ebd 2d67 5c3d 15a0 883d 9cff 253d
000000b0: 50b6 91bd c992 c3bd 6dc0 dcbd 0e6e 983b
000000c0: b2b0 b5bd 40fa 1fbd 6a2c acbd 9ef0 5e3d
000000d0: 2a67 793c 16ed 6dbd fd82 9c3c 985b e33c
000000e0: 9e06 cfbd 49be 5c3d cc4b e0bd 7c2f fc3c
000000f0: 0530 fcbc ced4 d8bd 6f3a 443d 54d5 413d
00000100: c8d9 1a3d 8862 3d3a af28 a13d 2db6 e2bd
00000110: 61ef 193d 0191 5fbc 3a2f 3b3d 1ea9 85bd
00000120: 9dfc d83c 7bf0 63bd dd4d dabd 53c1 56bb
00000130: a41b 2ebd 41ca 4fbc dc9b 5ebd 36c4 8f3d
00000140: d3d3 04be ccff 6cbd 46a2 e0bd 5bc2 e6bb
00000150: 6254 b93c cb6a 073d 5f99 55bd 55c9 743d
00000160: 97fc 5bbd 8ec6 393d cebc f9bc 7611 2abd
00000170: 2f54 aabd 222b 043c 22bb 97bd 04cb cc3b
00000180: 9bd2 4fbd edc4 f9bd f774 13bd ca5e 9eb9
00000190: 0c53 01bd 9a0b a8bc dbee 053d 9e67 72bd
000001a0: b936 b3bc 5555 623d 0af9 f03c 8cca d1bd
000001b0: 1016 b8bd 399a 06bd 33bc 0dbd 5356 c0bd
000001c0: dea8 99bc 48de a8bd fa88 e8bc 3637 21bc
000001d0: 75b5 753d f048 04bd 2c2a 453d 8964 903b
000001e0: 5b12 8bbd 8573 70bd a401 c0bd 7e07 a5bd
000001f0: 808c 93bd 3170 f33c be14 d1bc a6bf a0bc
00000200: 3bbb a6bf b66b 023e ab4a 00bf 2b08 2a3d
00000210: 4e99 683d 0db0 fcbd f3e9 23bd b638 31be
00000220: 7364 0ebe 402e b13e c83a 93bd 7696 d6be
00000230: a0f1 863d fb0c 78be 0b6c bd3d 51f7 aabd
00000240: d701 243e 8a2a d13d 1c90 0bbd 7345 60bd
00000250: 867c 1abd a818 1e3e 0d19 25bd 6342 aa3d
00000260: 0c8c cdbd c487 563d 2e58 e73d f073 4a3d
00000270: 3044 46bc 4cb6 913d f5ce fdbd 1da2 9dbd
00000280: af79 1cc2 b75c 5dc0 b9f9 f33e eb69 86bd
00000290: 29a5 49bd 3aab df3d e70f 18bb c1af a73d
000002a0: 8498 753e d997 bdbe d6d3 85bd e5bd 1b3e
000002b0: efc4 7d3d 20d0 febc 70a8 a5be 7cbf 233d
000002c0: db6b 373c efb7 97be 2f0d 8d3d 5e27 66be
000002d0: 29c7 41c0 7b12 a83d 8391 57bd 8214 8abc
000002e0: c303 283d f1c8 47bf 3d77 203d a02c 02be
000002f0: 1332 d7bb 9b57 0ebf 962c 893d b764 163d
00000300: d577 0e3e 298e ccbf 0f6e 9e3e fb98 99be
00000310: 4473 a7bd 7f8f 74bc 83fe 4ebf 35c5 fe3d
00000320: 0498 ebbd c52b 003e 28a4 c3bf 975e bf3d
00000330: f694 4ebb 4d73 32bd f0f3 d83d 334c 6fbd
00000340: f142 323e 6c8c bc3d 8990 dcbe 7b6e 59bb
00000350: 7dab 573d 0a40 93bc 3d84 a8be 16bc 44bd
00000360: 7be8 e9bd ee5d 8d3d 6755 16bd 1c57 47bd
00000370: 8091 873f b0b4 a7bd 93ce 8e3e ad43 16bf
00000380: 521f 6f3e 23e4 dcbd f9e2 c5bf 6e7e 7c3d
00000390: 0624 a13c ff2f 023d 8e9e 133e a626 783c
000003a0: e619 2bbf c8d6 853d 1d6b ad3f 713d 743d
000003b0: a0ee 993d 5f29 c63f 7cad 13be dc36 9abc
000003c0: c161 cfbe 5710 e03c 1473 063e 0119 81be
000003d0: 2e06 90bd 6473 393f 9c31 4bbb fef7 ddbd
000003e0: 2d56 393c 8107 fe3e 518e 1b3c 8463 23be
000003f0: 95cb 293c c5bd c9bc 6f05 d53d 9d85 88bd
0.034071844 -0.035040163 -0.1178702 0.042728264 0.030630413 -0.11239864 -0.005306933 0.028161777
-0.07874896 -0.01943909 -0.015022105 -0.025057053 -0.010938204 -0.028323524 -0.06524282 -0.04742821
-0.06895092 0.08696273 -0.0027456128 0.0042169066 0.038855307 0.002793382 -0.03769733 0.0529766
-0.07976777 0.081902586 -0.050096933 -0.01764492 -0.0026105447 -0.06230123 0.022088964 -0.07415267
-0.07007747 -0.030377327 0.04493103 -0.02712401 -0.027353225 -0.07573018 -0.00083543494 -0.08066691
-0.077501975 0.053809334 0.06671158 0.04052697 -0.071148515 -0.095494814 -0.1077889 0.0046517914
-0.088715926 -0.039057016 -0.08406909 0.05442869 0.01522235 -0.05808743 0.019105429 0.027753636
-0.10108684 0.053892408 -0.10951957 0.030784361 -0.030784616 -0.10587464 0.04790729 0.047322586
0.03780535 0.000722446 0.07869088 -0.110699035 0.037581805 -0.0136454115 0.045699336 -0.06526397
0.026487643 -0.055649262 -0.106593825 -0.0032769039 -0.04250683 -0.012682498 -0.054347858 0.07019846
-0.1297143 -0.057861134 -0.10968451 -0.007042212 0.022623245 0.03306083 -0.05214822 0.059762318
-0.053707685 0.045355372 -0.030485537 -0.04152056 -0.08316838 0.008066924 -0.074087396 0.0062497873
-0.05073796 -0.12195764 -0.03600022 -0.00030206732 -0.03157334 -0.020513345 0.032698493 -0.05918085
-0.02187668 0.05525716 0.029415626 -0.10243711 -0.08988583 -0.032861922 -0.03460331 -0.09391465
-0.01875728 -0.08245522 -0.028385628 -0.0098398235 0.059987504 -0.03229612 0.04813592 0.004406516
-0.067906104 -0.058703918 -0.09375313 -0.0805807 -0.072045326 0.029716583 -0.025522586 -0.019622635
-1.3025888 0.12736401 -0.50113934 0.041511696 0.056786828 -0.123382665 -0.040018033 -0.1730679
-0.13905506 0.34605598 -0.07188946 -0.41911668 0.06589055 -0.24223702 0.09249123 -0.08347953
0.16016327 0.10213192 -0.03407298 -0.054753732 -0.03771641 0.15439093 -0.040307093 0.083134435
-0.100364774 0.05237557 0.11296116 0.049426973 -0.012101218 0.071148485 -0.123929895 -0.07696936
-39.11883 -3.4587839 0.4765146 -0.06563171 -0.049229775 0.10921331 -0.0023202838 0.08187819
0.23983961 -0.37029913 -0.06534545 0.15209158 0.06195539 -0.031105101 -0.3235507 0.039977536
0.011195148 -0.29632518 0.0688728 -0.22475955 -3.0277808 0.0820665 -0.052629005 -0.016855482
0.041019212 -0.7804099 0.039176214 -0.12712336 -0.0065672486 -0.55602425 0.06697957 0.036717143
0.139129 -1.5980884 0.30943343 -0.29999527 -0.08176282 -0.01492679 -0.80857104 0.12439958
-0.11503604 0.12516697 -1.5284472 0.093442135 -0.0031521893 -0.04356699 0.105934024 -0.05842228
0.17408349 0.09206471 -0.43079022 -0.0033177424 0.05265378 -0.017974872 -0.3291339 -0.048030935
-0.11421295 0.06902681 -0.03670254 -0.04866706 1.0591278 -0.0818876 0.2789198 -0.58697015
0.23351792 -0.10785701 -1.5459892 0.06164401 0.019670498 0.031784054 0.14415953 0.015145933
-0.6683639 0.06535107 1.3548313 0.059628908 0.07516217 1.5481375 -0.14421648 -0.018824987
-0.40504268 0.027351541 0.13129836 -0.2521439 -0.07032429 0.724417 -0.0031004911 -0.108383164
0.01131205 0.496151 0.00949438 -0.15955931 0.010363479 -0.024626622 0.10401427 -0.0666611

layers.2.bias f4 [256]
00000000: 14b1 30be 5cd1 a83f 3490 01be b1e6 4dbe
00000010: b899 e3bd 2945 84bd cdc7 b4bd 7cf3 1ec1
00000020: 457b 87bd 0f51 5abd 0311 0dc1 2262 83bd
00000030: d804 febd 28e2 60bd 9097 fdbd 4e60 1a3f
00000040: 0690 143f 63c8 ea3f 5d31 bc3e 6789 c13e
00000050: 1984 19be 8327 ccbd 9657 34be c7d7 11c1
00000060: e0f2 15c1 970c 1cbe 6b05 c2c0 7e78 37bd
00000070: bb40 333f 0af3 cbbc 9252 34c1 d139 14be
00000080: bc3d 26be 9e7f 25be 1068 32be 7537 83be
00000090: 8d3c 96bd 7de9 d9bc 10e0 a1be 7da4 b4bd
000000a0: 7e44 26be c4f8 55be f4fa 2d3f e1b4 84bd
000000b0: 4ac4 e9bc cb15 0cbe 30a9 3fc1 09fb 42bd
000000c0: 2978 62be 447e 26be 591a 06be f6d1 f1c0
000000d0: 9ff1 f3bd f4a3 12be 8c32 54c0 ac22 07c1
000000e0: 4ca9 00be 2cec cfbd 787c 3d3d e02b ccbd
000000f0: f8f5 c6bd ce69 10be 0498 b0bf 3dd3 58c1
00000100: d91d c9bd 06ac 5dbd 54e2 3b3c 642c 00be
00000110: 0ff5 a4be da03 13be 5a52 c9bd b4b0 42be
00000120: dd8c 633e f046 2abe ef3d 22be fc41 3dbe
00000130: 97fe 05be da85 c73e 087a e9bd 8663 53c0
00000140: 958c 73c0 05bb 573f a8e1 23be e99b 07be
00000150: 7510 bebd 717a 9bbd 3913 83bd 42f6 1dc0
00000160: eba6 31bd d03c ebbd 5ae8 e13f a56b 1abe
00000170: 72f1 a6c0 6e6c 75be 280b 24c1 3e40 d8c0
00000180: fe8d 84bd 031c 3fc1 aa6a 7ec1 eea5 d3bf
00000190: 5282 0cbe 4df4 7cc0 841e 0ebf f378 e1bd
000001a0: ed2d 9cbd 9520 96bd 223f 3ebc 96ff c0bb
000001b0: abe5 bebd b900 37be cae6 67bd 4e47 38c1
000001c0: aba4 ecbd f2a5 d3bf e2b5 07be 41af edbd
000001d0: 8aeb ee3d e52f 2cbe 187c 0940 c51c 91bf
000001e0: dfb9 52be 270e 0ebd 3148 3ebe 8554 f5bf
000001f0: 2d92 2ebc d558 52bd ddc9 c9bd c309 99bd
00000200: d421 e43e 6257 34be 530c 76bd be57 3cbe
00000210: 1f8c b139 aef4 90bd 34ad 21be 6c37 40be
00000220: 9a89 66be 9600 8dbd 5ac3 25bd eb9c 78bd
00000230: 1f37 16be e84e c5bb 5395 4dbd ea51 55bc
00000240: a043 973f 0e38 2ac1 9761 9abd d227 21be
00000250: e02b 40c0 601d 05be 6b5e 0940 cbcb 42bd
00000260: 8a86 36bd 2a2e 3ebd 2ec3 5dbe 3258 11be
00000270: 3421 0dbe 0b89 cec1 1ee7 8b3d 042e 0bbe
00000280: fbea 5e3d 11ee bdbe 674c 05be d1bb b2bd
00000290: fd2b 04be 8aeb f4bd 8b81 a2bd f3ec ebc0
000002a0: 723d 05be 7b6a d4bc 0d7e e6bd edd3 273d
000002b0: 60d0 463f 92d0 28c1 5ca4 a1bf 01d1 8bbd
000002c0: 17c1 fabd e5f0 a3bd 23f9 09c0 ac5a cabd
000002d0: c04d 1abf 9be7 e1c0 5dac c3bd a369 51be
000002e0: 0386 2e40 3103 2ac0 3c0b c1bd af88 b2bd
000002f0: 349d 7cbd 0e34 b740 a6c7 93c0 d26d 32be
00000300: b96a d3bd dd16 d5c0 965b e3bc 6324 abbd
00000310: f305 e0bd 4c27 19be 39eb 0dbe d5ef 55c1
00000320: e2bb 0bc1 9ec8 0cc0 ccd2 04c0 9243 1dbe
00000330: 369d 2abe 4a5c c0bd 2414 83c1 2de7 fdbd
00000340: 1bc1 02be f364 5fc1 8ac9 dcbd d8fa 1abe
00000350: 0ca2 b9bd 6c17 33be 355b 4bbe 0b70 09be
00000360: 8542 febd 59ff ccbd d12f 5ec0 0bd2 f3bd
00000370: d432 38be 93cd 7dc0 b0fe bfbd 78d9 923b
00000380: 68e5 04c1 a4bb b7bd 6db2 28c0 2989 0ac1
00000390: ebe3 04be 3c8d 263b 1a8e 71bd 512d 85bd
000003a0: 305e e5bd e434 9bc0 a274 80bf 5523 1bc0
000003b0: 9ef5 10bd 12da e6bd 1901 eb3e 37b5 ebbd
000003c0: 4283 3abe a575 23be 83fb 37be 4f0c 863c
000003d0: e16d 23be 2edd b3bd 914c 603f 44f2 4cbd
000003e0: 3edc f03b 7e6c 06be d034 cebf 1053 e8bd
000003f0: 6430 babd b123 f5bd 9ee9 09be 084f 10be
-0.1725505 1.3188891 -0.12652665 -0.20107533 -0.11113304 -0.06458504 -0.088271715 -9.934444
-0.06615309 -0.05329996 -8.816653 -0.06415202 -0.124032676 -0.05490318 -0.12382424 0.603032
0.5803226 1.8342403 0.3675641 0.37800142 -0.14991798 -0.09968474 -0.17611536 -9.11518
-9.371796 -0.15239178 -6.0631614 -0.044792645 0.70020646 -0.024896163 -11.270159 -0.1447518
-0.16234487 -0.16161963 -0.17422509 -0.25628248 -0.07335768 -0.026600594 -0.3161626 -0.08820436
-0.16237065 -0.20895678 0.6796105 -0.064798124 -0.02853598 -0.13680188 -11.978806 -0.047602687
-0.2211615 -0.16259104 -0.13095988 -7.55688 -0.1191132 -0.14320356 -3.3155851 -8.445965
-0.12564582 -0.10152468 0.04626128 -0.09969306 -0.097148836 -0.14102861 -1.3796391 -13.551572
-0.09820146 -0.054119132 0.011467535 -0.12516934 -0.32218215 -0.14356938 -0.098301604 -0.1901272
0.22221704 -0.16628623 -0.15843938 -0.18482202 -0.130854 0.38969308 -0.11400229 -3.3029494
-3.8054554 0.84269744 -0.1600405 -0.13243069 -0.09280483 -0.07591713 -0.06400151 -2.4681554
-0.043372076 -0.114862084 1.7649033 -0.15080126 -5.2169733 -0.23967144 -10.252724 -6.757842
-0.06472395 -11.944339 -15.901041 -1.6535013 -0.13721588 -3.952411 -0.55515313 -0.11009397
-0.07625947 -0.07330433 -0.011611732 -0.005889843 -0.093211494 -0.1787137 -0.056616582 -11.517408
-0.115548454 -1.6535017 -0.13252977 -0.11605693 0.11666019 -0.16815145 2.148199 -1.1336905
-0.20578717 -0.034681465 -0.18582226 -1.9166418 -0.010654968 -0.051354248 -0.098529555 -0.07472565
0.4455706 -0.17611459 -0.060070347 -0.18392846 0.0003386447 -0.07077919 -0.15788728 -0.18771142
-0.22513428 -0.068848774 -0.040469505 -0.060696524 -0.14669465 -0.0060213692 -0.050191235 -0.013020018
1.1817513 -10.638685 -0.07538145 -0.15737846 -3.002678 -0.12999487 2.1463878 -0.047557633
-0.0445619 -0.046430744 -0.21656486 -0.141938 -0.13782197 -25.816916 0.068311915 -0.13591772
0.054423314 -0.37095693 -0.13017426 -0.087272294 -0.12907405 -0.11958988 -0.079348646 -7.3726745
-0.13011721 -0.02592968 -0.11254511 0.040973593 0.77661705 -10.5509205 -1.2628284 -0.06826974
-0.1224386 -0.08004931 -2.155831 -0.098805755 -0.6027489 -7.059522 -0.0955436 -0.20450453
2.7269294 -2.6564448 -0.09425971 -0.087174766 -0.061673358 5.7251043 -4.618121 -0.17424706
-0.1032309 -6.659041 -0.027753633 -0.083565496 -0.10938635 -0.14956397 -0.13859262 -13.371053
-8.73337 -2.1997447 -2.075366 -0.15357807 -0.16661534 -0.09392603 -16.384834 -0.12397609
-0.12768976 -13.962146 -0.10780628 -0.15134752 -0.09064111 -0.17489403 -0.19859011 -0.13421647
-0.12415031 -0.10009641 -3.4716685 -0.11905297 -0.1798814 -3.9656723 -0.0937475 0.0044814907
-8.306007 -0.089713365 -2.6358902 -8.658486 -0.12977569 0.0025413772 -0.05897341 -0.06502784
-0.111996055 -4.8502064 -1.0035594 -2.4240315 -0.03539049 -0.11272062 0.45899275 -0.11509173
-0.18214133 -0.15962847 -0.17967038 0.016363291 -0.15959884 -0.08782421 0.8761683 -0.05003573
0.0073504737 -0.13127324 -1.6109867 -0.11343968 -0.09091261 -0.11969698 -0.13468024 -0.14092648

layers.4.weight f4 [256, 256]
00000000: 201b 333b a81e 6abe 9c11 29bd 40f1 793c
00000010: 8edb 09bd b075 e43c 52f4 8bbc ee5c 68be
00000020: 1042 b53b d0da 60bd 46b0 c63d 2a86 5e3c
00000030: cc3f f4bc ec13 4e3d be6c 603d d575 923c
00000040: eed7 b33c cf6b 79bd 7e84 8a3e cba6 933f
00000050: 5e3e 6b3d 8842 65bd 0a15 a4bc c2f2 a03d
00000060: 507d ba3e ffa7 963b 24d8 543d af94 c03b
00000070: 5ef1 bcbe f0d3 65bd 5335 7d3e 6ad1 853c
00000080: 3bf6 05bd 41e2 2c3d 56be 603c 18ff 4a3c
00000090: c07a 6fbd 46a2 7fbd 7d47 8fbe 1152 c6bc
000000a0: 4042 a3ba b859 5b3c cead 6e3d 3ca1 b3bc
000000b0: a4b0 213d b0af fcbc d286 14c2 7c84 d93c
000000c0: 9fd6 8ebd bea5 25bd 1e69 3cbd 908b 6dbe
000000d0: b340 c93c f010 b5bc 1ade ccbe 11ef ab3f
000000e0: 807e 113a 90d7 613c a45a 8a3c 9838 30bd
000000f0: 0093 4cba 62af 083d db81 123f 0fd1 7fbf
00000100: 98b4 573d 0489 e0bb 2ed7 4d3c f412 49bd
00000110: f441 f7bd 9dd5 bebd b452 cabc 9e3b 6cba
00000120: 86be 39bd f963 9ebd 002b 9b3b 5abf 373d
00000130: 20ba 80bc af12 5bc2 7c30 453d e74c 94be
00000140: 9668 d83f 67e1 81be 2489 cfbc c8a3 073c
00000150: d7f9 953b 0d31 4e3d 443c 9cbc 7735 cf3d
00000160: 4cfa 723d cc97 99bc 926d 67be 160e 7ebd
00000170: 491a abbf cad7 00bd 57d4 07bf e3b5 1dbe
00000180: 64d2 66bc 4348 1d3f 3773 9a3f 94c2 873a
00000190: ad48 203d bed6 2abc cef1 b9bb 002c 67bc
000001a0: 7a59 0a3d d2b8 1ebd 35bd d5bd f7c1 bbbc
000001b0: 8828 e13c a933 2ebd ec06 863c 663a 243f
000001c0: b0ad f7bb 18bd 30bd 1cc8 6d3d ff23 213d
000001d0: 135f 043d 229d ecbb bfef c5bf c5f1 81bd
000001e0: f275 1c3d f71b eeba 11d2 ea3c 7275 853f
000001f0: ea05 15bd c8a7 6dbc f478 533d 941e 803c
00000200: 2743 973c f8cc a6bc 64f4 863c 6c64 f2bc
00000210: f2d5 7bbd 04f0 c6bc 2020 9d3c 7a59 13bd
00000220: 00e4 b1bc 0485 3cbd a417 863c 804a 423b
00000230: 4492 39bd d0fd ca3b 4fd9 73bd 5a32 843c
00000240: 8c3d f53d d7ab b8c0 9a38 a4bc 125e 3e3c
00000250: ffb5 cb3e e42a 69bd 3bea 50bc 6ca0 8abc
00000260: f3ba 02bd a52e 643b c02b 1cbb 9058 5bbd
00000270: 74ed 46bd 69cb 3cbd dfb1 9b3c 77b2 70bc
00000280: be59 39bc 4043 b53d 469a 2b3d b68b 31bd
00000290: 67af 3f3d f48f c7bc b663 70bd 3137 febf
000002a0: 589b 1d3c 3be9 523d a4f9 1dbd 6e36 edbe
000002b0: e03a 863f 4d05 433f 088f 6dbf 0658 243d
000002c0: 068a 6b3d 9a71 073d c051 20bf 2c60 bcbc
000002d0: 7fa4 d53d 853f 10bf cbed 63bd 1451 7abd
000002e0: 971f 92bc 5f9b c43d 1a3a 5a3d 026e 5a3d
000002f0: eadd 2bbd d730 6fbd d29f 9a3f da2e 44bd
00000300: eaa2 483d 9cea 7c3e 5ce5 4cbd c74d e1bb
00000310: 282a 673c 367e 3ebd 40f9 a73c b862 4a3f
00000320: 2779 be39 1fe5 d9bc cf4b 4dbf ea1c 66bd
00000330: 80c4 d0bb e5e7 103c 5002 8fbd c800 efbc
00000340: 4a8a 45bd bbef 0ec1 b801 35bc 3616 82bc
00000350: 68cc cabc dc6b 40bd 88b2 1c3d 6c66 983c
00000360: 8b71 96bb d9cc 483d 80fc 7fbe 9885 5ebd
00000370: 4081 f63b 9bd5 cbc0 f782 a53b fd59 3fbd
00000380: d125 19bf 60f5 8ebc d09b 9ebf 7465 cac1
00000390: 00e2 f93c abbf 5c3c c648 5bbd 907d a43c
000003a0: 80d8 5d3b 1196 753c 0def 4c3d 0c18 d13c
000003b0: 1857 483c 40a5 223c fde5 83c1 9eb0 e4bc
000003c0: 634a fc3c ef83 4abd 99e9 50bd 8089 ea3c
000003d0: c4a0 ad3c 5169 9bbd 7398 dabd b424 b0bc
000003e0: c27e 61bd 08a7 8e3c 6906 993d 80e3 d3bb
000003f0: a0d8 c5bc 1464 7e3d b4ea 42bd a89a 40bd
0.00273294 -0.22863257 -0.04127656 0.015255272 -0.03365665 0.027888149 -0.017084274 -0.226917
0.005531557 -0.054896176 0.0970159 0.013581792 -0.029815577 0.050311968 0.054791205 0.017878452
0.02195355 -0.06089383 0.2705421 1.1535276 0.057432525 -0.055971652 -0.020029563 0.078588024
0.3642373 0.0045976634 0.05196394 0.0058770995 -0.369029 -0.056110322 0.24727373 0.016335208
-0.032705527 0.04220796 0.013717255 0.012389921 -0.058466673 -0.062410615 -0.2798423 -0.024209054
-0.0012455657 0.01338809 0.05827122 -0.021927468 0.0394751 -0.030845493 -37.13166 0.026552431
-0.069745295 -0.040441267 -0.045998685 -0.2319777 0.024566984 -0.022102803 -0.400132 1.3432332
0.0005550161 0.013784304 0.016888924 -0.043022722 -0.0007803887 0.033370383 0.57229394 -0.99928373
0.052662462 -0.006852271 0.01256351 -0.04909034 -0.120731264 -0.09318087 -0.024697639 -0.0009011569
-0.045347713 -0.07733912 0.0047353506 0.04486022 -0.015713751 -54.768246 0.04814194 -0.28964922
1.6906917 -0.2536728 -0.025333948 0.008278795 0.0045769024 0.050339747 -0.019071706 0.101176195
0.059320733 -0.01874914 -0.22600392 -0.062025152 -1.3367397 -0.031455792 -0.5305838 -0.15401416
-0.014088247 0.6143839 1.2066411 0.0010357671 0.03913181 -0.010427175 -0.0056745773 -0.0141096115
0.033776738 -0.038750477 -0.10436479 -0.022919638 0.027485147 -0.042529736 0.016360722 0.6415161
-0.007558547 -0.043149084 0.058052167 0.03934097 0.032317232 -0.00722088 -1.546379 -0.06344942
0.03819842 -0.0018166293 0.02866462 1.0426466 -0.036382593 -0.014505334 0.05162902 0.01563958
0.018464638 -0.020361409 0.016473956 -0.0295889 -0.06148333 -0.02428437 0.019180357 -0.035974003
-0.021715164 -0.04602529 0.016368695 0.0029646456 -0.045305505 0.0061948076 -0.059533413 0.01613729
0.1197463 -5.7709765 -0.020046521 0.011619108 0.3978729 -0.05692567 -0.012751157 -0.016922198
-0.03191657 0.0034817841 -0.0023829788 -0.053551257 -0.048566297 -0.046092425 0.019005714 -0.014690987
-0.0113129 0.088507175 0.041895173 -0.04334613 0.046798136 -0.024360634 -0.05868884 -1.9860593
0.009619556 0.051491957 -0.038568154 -0.4633059 1.0486717 0.76179963 -0.92796373 0.04012301
0.057504676 0.033067323 -0.6262474 -0.022995077 0.10431766 -0.56346923 -0.0556467 -0.06111248
-0.017837329 0.09599947 0.053278066 0.053327568 -0.04195968 -0.058396187 1.2080023 -0.047896244
0.048983492 0.24698871 -0.05002342 -0.006875727 0.014109172 -0.046507083 0.020504594 0.7905688
0.0003632989 -0.026598511 -0.801938 -0.05617992 -0.006371081 0.00884435 -0.06982863 -0.029175177
-0.048227586 -8.933528 -0.011047773 -0.015879732 -0.024755672 -0.046977863 0.0382562 0.018603526
-0.004591172 0.049023483 -0.24998665 -0.054326624 0.007522732 -6.369825 0.0050510126 -0.04671668
-0.5982333 -0.017450988 -1.23913 -25.299538 0.030503273 0.013473432 -0.0535362 0.020079404
0.0033850968 0.014989392 0.050032664 0.025524162 0.012227796 0.009927094 -16.487299 -0.027916249
0.03079719 -0.049442228 -0.051004026 0.028630018 0.021194823 -0.07588447 -0.10673609 -0.021501876
-0.055052526 0.017413631 0.07471926 -0.006466329 -0.024151146 0.06210716 -0.04758711 -0.04702249

layers.4.bias f4 [256]
00000000: b227 9cbd 16b6 95bf 00f0 32c1 b84e d6c1
00000010: 7404 5d3f e39e adbf 310d 41be 6d35 1a3f
00000020: 67a5 1abe 90bf 28be 85c6 4bc0 4990 b93d
00000030: 8ed3 21c0 98b0 173f 8230 bdbd f42a 14c0
00000040: bb91 06be 9a68 febd e32a dac0 c32a 0ebe
00000050: 113a 14c0 a108 32be 7a3a 52bf 8603 35be
00000060: 557f 103e a0a7 aebe 8498 0cbf 64cb f4bd
00000070: 0f36 74c0 17cc 5dbf 23e3 4d3f d317 2abe
00000080: a8b1 653d 9d75 70be fc1d 0abe 1460 53be
00000090: 2145 12bf 4518 97bf b179 c5c0 5b8c d5bf
000000a0: 3d92 88be 6ad7 9ebd 277c b7bd 0265 4dbf
000000b0: 19a5 35be afa1 03c0 202f 78be 09ab 8abf
000000c0: 63c0 1fbe bff3 083f 6528 35c1 1740 0fbe
000000d0: 0ffe d7bd e816 2ebd d899 e4bd 435c e2bf
000000e0: 2190 833f f9ee c3bd aed5 86be df4d 13bf
000000f0: 4a81 b43e de84 a1bd 4c2e 45be 0700 993e
00000100: fc6b d5bf d2af 40c0 cc99 9bbf d512 adbd
00000110: 9129 1ebe 1480 c4be d738 d7bd ca1c 023f
00000120: 4311 ce3e b7fb 06be f5b6 43bf c14f 33be
00000130: 5359 5cc0 5ab6 b7bd 6977 913f 383f 2dc0
00000140: d101 d2bf fc79 293f 5322 31bf b092 48be
00000150: c4a8 983f 1096 00c0 d429 c2bd 4f6b e2be
00000160: 4351 20bf 4ade 2dc0 ee11 20be 17a5 993d
00000170: b4d4 54be 1a3c 953e 4614 adbd e3db 0fbe
00000180: d16e 18c1 5417 343e 0812 6a3f 9251 543f
00000190: 0b0b 5ec0 f555 6dc0 e833 bd3f f2ad 2abe
000001a0: df19 fe3a 58b3 b33e 42f6 593f cbd6 c2bd
000001b0: 1987 85bf e0bc 9bbf a098 f93f 6ff7 27be
000001c0: bbcd 04c0 c829 48be 4ab7 81bd a133 33bf
000001d0: 4e6d 27bf 7798 383f a21a 1cbe 4a64 30be
000001e0: b76d 49c0 f571 05be 4ea6 1abe 40bb 153f
000001f0: 05fb 1cbe e732 45be dfba a0bf 4c89 cebd
00000200: e463 c1bd 35bb 9dbf 4602 50bf 97db b8be
00000210: 6c40 f6bd 9dad 49bd 441f 113f 7595 9ebd
00000220: aaea 72be b09c 5ebe 4ca7 69c2 8f43 cebd
00000230: 6392 0ebf eff9 6fbe 0117 493d 5552 83bf
00000240: 5052 8dc0 9f49 30be 112f 6ebe b281 b1be
00000250: f3f7 70bd 6146 0bc0 d49b fbbf 901b 2cc1
00000260: 96b9 2bbf f3f4 61be 78e0 06be 8d86 d93e
00000270: e543 4abf 7f3f 21c0 001c c9bd 3092 c03e
00000280: ccc6 fbbd 93f4 e6bd dd8b 913f 5e4b 523f
00000290: fa2b b2bd f6d6 353f 505a 263e 8ae6 02be
000002a0: b238 423c 3f67 8dbe c492 26be 62f6 eebd
000002b0: 178d e2be 2d8b 00c0 5eec 143f b76c b9bd
000002c0: 3857 41c0 c6b8 a7c0 de21 e8be 5ec7 c7bd
000002d0: b6d0 bdbd 12be c1bd 59a4 4fbf 6f8b 513e
000002e0: 26ac 01be 72de 2c3f 3f8b 00bf a5f5 9bbd
000002f0: d9af dabd 81e4 17be 4758 8ebd fffa 15be
00000300: c927 5a3f 12e1 9cbe ae2d 24c0 f524 70bf
00000310: 3665 93be 416b 9c3e a90b 993e 6f98 49c0
00000320: f9b6 05c0 6609 f1bd 06bf 763d 6185 08c0
00000330: 7da2 23bf 3926 1dbe 9869 69bd b204 febd
00000340: 2847 b9be b748 cdbd e466 f6be e5dc 143d
00000350: d967 a8bd dac7 e5bd f789 4ebd a48b 03c0
00000360: 816a f23e e8f3 fa3e 18e2 f93e a3ec febe
00000370: 34eb 95bf a901 42bd 3db7 01be 961a 1f3f
00000380: 061c 3abf aee0 d93e 7a48 653f bcee 25bf
00000390: 6006 ecbd 8d77 dfc0 cc66 823f 84b4 10be
000003a0: 10a3 a5bf 53f3 6b3f 5ce2 adbd b44b a3bd
000003b0: d520 77c0 9e40 b5be 1722 27c1 4383 2dbe
000003c0: da27 73be e163 09be 7d68 05c0 9677 26c0
000003d0: d4f0 763f d080 9cbf 1bb6 213f 19b8 93bd
000003e0: 6eac 53be 420b 2cc0 cbcc d7bf f5ab 1cbe
000003f0: f4cc 39be 82ef 1dbf 5ba2 dcbd a8a4 16bf
-0.07624759 -1.1696193 -11.183594 -26.788437 0.8633492 -1.3564113 -0.18852688 0.6023777
-0.15102158 -0.16479325 -3.1839917 0.09060723 -2.5285373 0.59253836 -0.09237768 -2.3151217
-0.1314153 -0.12422295 -6.817735 -0.138835 -2.316044 -0.17386104 -0.8212048 -0.17677125
0.14111073 -0.34112263 -0.5492022 -0.11952856 -3.8157995 -0.8663954 0.8042471 -0.1661065
0.05607763 -0.23482366 -0.13488 -0.2064212 -0.5713673 -1.1804281 -6.171105 -1.6683458
-0.2667407 -0.07755931 -0.08959227 -0.8023225 -0.17738761 -2.0567434 -0.24236727 -1.0833446
-0.15600733 0.5349693 -11.322362 -0.13989292 -0.10546505 -0.042502314 -0.11162156 -1.7684406
1.027836 -0.09567065 -0.263349 -0.57540697 0.3525489 -0.078866705 -0.19255942 0.29882833
-1.6673579 -3.0107312 -1.215631 -0.084508575 -0.15445544 -0.38378966 -0.10508888 0.5082518
0.40247545 -0.13181959 -0.76451045 -0.17510892 -3.442952 -0.08970328 1.1364566 -2.7069836
-1.6406804 0.6620176 -0.69193 -0.19587207 1.1926503 -2.009159 -0.09480634 -0.44222495
-0.62623996 -2.7166924 -0.1563184 0.075021915 -0.20784265 0.29147416 -0.084511325 -0.14048724
-9.527055 0.17587024 0.91433764 0.82936966 -3.469424 -3.7083714 1.4781466 -0.16667917
0.0019386372 0.35097766 0.85141385 -0.09513625 -1.0431854 -1.2167015 1.9499702 -0.16402982
-2.0750568 -0.19547188 -0.06333788 -0.70000654 -0.6540116 0.7210764 -0.15244535 -0.17225757
-3.1473215 -0.13031752 -0.15102503 0.58488846 -0.15330131 -0.19257699 -1.2557029 -0.10084781
-0.09442881 -1.2322756 -0.8125347 -0.36105034 -0.12024006 -0.049237836 0.5668833 -0.077433504
-0.2372233 -0.21739459 -58.413376 -0.100714795 -0.5569212 -0.23435186 0.049094204 -1.0259501
-4.416298 -0.17215584 -0.23260142 -0.34669262 -0.058830213 -2.1761706 -1.965693 -10.756729
-0.67080057 -0.22066097 -0.13171566 0.42485467 -0.7900985 -2.5195005 -0.09819794 0.37611532
-0.12293777 -0.112771176 1.1370808 0.8214625 -0.08699794 0.7103113 0.16245389 -0.12783256
0.0118543375 -0.27617833 -0.16266924 -0.116680875 -0.44248268 -2.0084946 0.5817317 -0.09053939
-3.0209484 -5.2413054 -0.4533834 -0.09754823 -0.09268324 -0.09460081 -0.8111015 0.20463346
-0.12663326 0.67526925 -0.5021247 -0.07615212 -0.106780715 -0.14833261 -0.06950431 -0.14646529
0.8521696 -0.30640465 -2.565288 -0.9380639 -0.28788155 0.30550578 0.29891708 -3.1499288
-2.0892928 -0.11769371 0.060240768 -2.1331408 -0.6391981 -0.15346612 -0.056985468 -0.12403239
-0.361871 -0.10023635 -0.48125374 0.036343474 -0.08222932 -0.11219759 -0.050424542 -2.055398
0.4734688 0.4901421 0.48805308 -0.49789914 -1.1712403 -0.047364864 -0.12667556 0.6214994
-0.7269901 0.4255423 0.89563715 -0.64817405 -0.115246534 -6.9833436 1.0187621 -0.14131361
-1.2940388 0.9216816 -0.0849044 -0.079734236 -3.861379 -0.35400862 -10.445823 -0.16944604
-0.23745671 -0.13417007 -2.0845025 -2.601049 0.96461225 -1.222681 0.63168496 -0.07212848
-0.20671245 -2.6881871 -1.6859373 -0.15299971 -0.1814459 -0.61693585 -0.10773154 -0.58844995

layers.6.weight f4 [128, 256]
00000000: ff92 0ebd df68 ecbd 4bd6 f43d c50c 9bbf
00000010: d091 6d3e 868f 453e 161d 6abb b0ca dbbd
00000020: 5b0c 2cbc 8886 d43d ae1a c9bf c7a9 53bd
00000030: ab77 993d 3e42 a3be be22 e2bb ee1b 13bf
00000040: 15af d13c 606c a5bd fcb1 fabf 6f28 7fbd
00000050: d478 02bf aae4 1bbc 0fdf 133f 21bd aa3d
00000060: 30b5 8bbf 4e46 4e3d 77f5 87c0 3dfa b33b
00000070: e3f1 bf3c 292b 85be 9941 fabd 86e3 bcbd
00000080: 7839 e43e c5fd 5dbd a6d0 cf3c 2ebb 62bd
00000090: 1e1c 9abe 5dce 47be 9530 b8c0 1a70 04bd
000000a0: afd7 58bc ca90 923c f323 af3c 0be2 213d
000000b0: a6a5 473d cf42 f73c b537 9cbd 2253 8d3d
000000c0: 0351 29bd 50d7 b8bf fd0e 4dbe c125 10bc
000000d0: 6b13 81bd e0f8 ad3d 8b89 e0bc 88cf 77bd
000000e0: b34c 97bd 72e6 1abd bbe0 05bd c50a 9ebe
000000f0: 3c7d 803b 41e7 f43b 1c18 d8bb 4d10 20bf
00000100: 7d3e dabe efd7 c3bf 8b2e 503e 3e7e 8d3d
00000110: 9830 c83e fe35 8cbd db85 33bd e619 47be
00000120: 82bf d93d 63c9 d63b cfb4 1bbe 0aca 08be
00000130: 6218 993e e874 2bbd 1db1 92bd 202a 36be
00000140: 2c44 2e3f ec9e 9d3e bcbd 603e c9f9 31bd
00000150: c4bc 2e3e 3e0a 5bbd 267d 863b 2666 98bd
00000160: 1829 0abc c1bc 98bd b34c 0f3d 7b03 04be
00000170: 386b 2bbe 70bb b9be 3c6e 86bc 8ef7 02bd
00000180: 573c 9ebe 8567 8ebd 1447 b338 0156 553d
00000190: 4f83 60be f49e 6ec0 35ee 0fbe ce97 2b3e
000001a0: b26e 7fbc 13c2 003f 4042 f6be 100f 1b3c
000001b0: 5c78 373d e64d 76be 1614 95be 7597 b63c
000001c0: 5b3f bb3b 4e00 073d 7a48 8dbd 0e78 223e
000001d0: 0e3e cd3c 74f1 523d aaf8 a63d 27af f83c
000001e0: 600b 473f 8a9f 8dbd c61b 653d e63d ad3d
000001f0: cdc9 42bd 70f0 48be e119 e8bd 36e0 2e3d
00000200: 7aae 08bd 313c 2ac0 bbd4 f93d 3351 503e
00000210: 5540 c0bb 2a3c 13bc f9ef da3e 37b6 7fbd
00000220: 8ab8 ab3d 5d48 a5be 01d0 2d3e f7e3 dbbc
00000230: e29e d13d 2a6e 3fbb 9ab0 5e3e c23f c63c
00000240: 799c cdbe 6961 29bd b29a af3c a95f 903e
00000250: e7d9 803e f2e3 71bd ada9 3cbd e32a 28c0
00000260: d974 fb3d 1471 2a3d 7156 20bc ee60 d23e
00000270: 2270 0d3d ecca 6bbd 2f42 85bd 1c91 c13d
00000280: 3ea0 ce3d 8d6e a63c 924e 15bf 25aa ac3d
00000290: 411c f93d d1b3 09bd 2e1e 28bf fccc 903d
000002a0: fced 52bd 87e2 00bd 95ac c4bc 3a72 34bb
000002b0: 0da9 813d 66b8 a13e 97eb 08be 0495 efbd
000002c0: ccaf 093d fc76 083e 0cae 02be 359e 853c
000002d0: 8c59 413c b234 30bc 5411 71bf 5f68 8a3d
000002e0: dc94 9a3d 5ee2 1e3e bde1 3fbe a09e c5bc
000002f0: 24bc 06bd a5a7 383d 6127 22bc e56f 29bd
00000300: 1c3c 6abd 28a7 90be 8c8c 6fbd c2dd cc3d
00000310: f8ec d03c 7189 8b3d fb73 1a3c 1d3a 6cbc
00000320: 92ef f7bd 3d62 e8bb c6cf 5bbe 9b12 79be
00000330: 0c98 763d b83f 913b b7ab a4bb 1373 61bd
00000340: 1a5c be3d 2e3d d53d f163 bfbe 7f46 6f3e
00000350: fe30 d5bc 3d18 03bd 2a55 93bb 2664 c83d
00000360: 8dbe 33bf 0ae7 52be a19f 533e 7b26 073e
00000370: 5b0c c9be a344 1ebf 3b6b 043c 496f e1be
00000380: 3c62 a8bd 575b 5fbe fcfd 0f3e 3c35 783d
00000390: 6bc8 43bd 0cc6 09bd 77b5 34be 0da2 4dbd
000003a0: 388f c9bd e4fd aebe 4c1f 97bd d125 a13c
000003b0: 4353 f3be 83c3 82bc 3fe0 243f 5f36 fa3c
000003c0: 45e3 36bd e931 653d d642 b13e ce99 ff3c
000003d0: 284f 1e3e 9359 253c 5ef8 28bf d03c 013d
000003e0: 4570 773d fadf c9bc 5be3 0fbe 5e6a d93c
000003f0: a9b9 42bd 8618 f1b9 256f e43c bf12 4dbf
-0.034808155 -0.1154344 0.11954936 -1.2113272 0.23200154 0.19293031 -0.0035722903 -0.10732019
-0.010500993 0.10377222 -1.5711267 -0.051675584 0.07493528 -0.31886476 -0.0069011142 -0.5746449
0.02559618 -0.080773115 -1.9585567 -0.06229442 -0.5096562 -0.009514967 0.57762235 0.08336855
-1.0914669 0.050360017 -4.248714 0.005492477 0.02343077 -0.2600949 -0.12219543 -0.09223084
0.44575095 -0.05419709 0.025368046 -0.05535429 -0.30099577 -0.19512315 -5.7559304 -0.03233347
-0.013235017 0.017891306 0.021379447 0.039522212 0.04874196 0.030183224 -0.07627813 0.06900622
-0.041337024 -1.4440708 -0.20025249 -0.008798064 -0.06302532 0.08494735 -0.027409336 -0.06050065
-0.07387676 -0.037817426 -0.032685023 -0.30867592 0.003921179 0.0074738567 -0.006594671 -0.62524873
-0.426258 -1.5300273 0.20330255 0.069088444 0.39099574 -0.06846236 -0.043828826 -0.19443473
0.1063223 0.006554769 -0.15205692 -0.13358322 0.29901415 -0.041859537 -0.07162688 -0.17789507
0.6807277 0.3078531 0.21947378 -0.043451104 0.17064196 -0.053476565 0.0041042743 -0.07441358
-0.008432649 -0.07457877 0.034985255 -0.12891953 -0.1674012 -0.36275816 -0.016409986 -0.031974368
-0.3090541 -0.069533385 8.5486245e-05 0.052083973 -0.2192509 -3.7284517 -0.14055713 0.16757128
-0.015590357 0.50296134 -0.4809742 0.00946404 0.044792518 -0.24053153 -0.29116887 0.022289017
0.0057143397 0.032959275 -0.068985894 0.1586611 0.025054004 0.0514998 0.08152898 0.030356957
0.7775173 -0.06915195 0.05593469 0.08459072 -0.047555733 -0.1962297 -0.11333061 0.042694293
-0.03336952 -2.6599238 0.12198778 0.20343475 -0.005867044 -0.008986512 0.4276121 -0.062429633
0.083848074 -0.3228177 0.16973878 -0.0268421 0.102353826 -0.002920995 0.21747056 0.024200324
-0.40158442 -0.041352663 0.02143607 0.28197983 0.25166246 -0.059055276 -0.046060253 -2.6276176
0.12278146 0.041611746 -0.009786234 0.41089576 0.034530766 -0.05756657 -0.06506764 0.094515055
0.100891575 0.020316387 -0.58323014 0.0843089 0.12163592 -0.033618752 -0.6567105 0.07070348
-0.05149649 -0.031466033 -0.024008075 -0.0027533905 0.06331072 0.31585997 -0.1337112 -0.11698344
0.03361492 0.13326639 -0.12761706 0.01631079 0.011801135 -0.010754751 -0.94167066 0.067581885
0.07547924 0.1551604 -0.18738456 -0.02412349 -0.03289427 0.045081753 -0.009897084 -0.041366477
-0.05718623 -0.2825253 -0.058483645 0.100032344 0.02550362 0.06813324 0.009427066 -0.014418152
-0.12106241 -0.007091789 -0.21465978 -0.24323504 0.060203597 0.0044326447 -0.005025353 -0.055041384
0.09294911 0.1041206 -0.37380937 0.23366736 -0.026024338 -0.032005537 -0.0044962363 0.09784727
-0.7021263 -0.20595947 0.20666362 0.13198273 -0.3926724 -0.6182348 0.008082206 -0.44030216
-0.08221862 -0.21812187 0.14061731 0.060597643 -0.047798555 -0.033636138 -0.17647348 -0.05020337
-0.0984177 -0.34178078 -0.07379016 0.019671353 -0.4752446 -0.015962368 0.6440467 0.030543504
-0.044650335 0.0559558 0.34621304 0.03120127 0.15459883 0.010092157 -0.6600398 0.031552136
0.060409803 -0.024642933 -0.14051573 0.026539978 -0.04754034 -0.00045985373 0.02788503 -0.8010673

layers.6.bias f4 [128]
00000000: 1493 6c3e b618 3bbe b3d0 ee3b 8a00 093c
00000010: c3ab 1abe b678 10be 300d d93d f32f 063e
00000020: a77e 6dbe 6a26 0b3d 21f0 593e 8a15 14be
00000030: dff1 fd3d acaf 20be 04b2 083e f935 59be
00000040: 0090 353e 3557 84be d956 ae3a fa42 893e
00000050: 9dab eebc 9987 e2bd cfaa 4abe 48ed 66bd
00000060: f655 db3d e9b2 92be 2522 51be 7f97 cc3e
00000070: c81c 0a3e 7bc9 d5be 83cf 9d3e 92df 86be
00000080: 90b0 e2bd 730b e3bc 554f 8abd 55ca e63e
00000090: 7c9d da3d 44e3 0cbe 1a15 8fbe 0581 3ebd
000000a0: baf9 f73d 63c7 1cbe 0d64 c83b b5ac 0ebf
000000b0: eab7 bcbc 7ecf 4d3e 8108 98be ce28 90be
000000c0: 6fbf b7be 14f1 08bf 34b9 d23c c5a3 21be
000000d0: 681c ce3d 981b 18be 8181 ddbe fe9e c7bd
000000e0: 8919 f4bf dbc6 b93d 6019 2f3d 42df d4bd
000000f0: 598a 413e bdaa 3abd 0309 54be 594f 70bd
00000100: 5841 b43d 2139 cabb 6b05 68be 5a48 55be
00000110: bd34 20be f8d9 14bc 5771 38bf c3c6 d2bd
00000120: 3724 c9bd e2ca 39be 5c60 1bbe f4d3 40be
00000130: c57b 05be 9835 15bd a30a 22bd 4855 08be
00000140: 2c13 22bf e978 843d 02cc 953c 1172 e0bc
00000150: 522f 51be 3785 903d a62c fc3c 9ee4 383e
00000160: 59d8 15bf 6cff 083f 5d4c 363e 9e21 363e
00000170: 8d01 8ebe 4a88 b63b 3e77 77be 1a55 cf3c
00000180: 038a 14be e3f6 0e3c 8143 ae3d a31f 7e3e
00000190: e2ba 2abe f5b1 3fbe 47e5 5c3d bdbe 503e
000001a0: ddab 4abe 361a 093f 0e0d 33be b608 91bd
000001b0: 3191 53be 9387 02be b3f6 223e d086 a3be
000001c0: 1d36 1bbe 7a2a 50be 33a5 a63d 2cd6 f1be
000001d0: 2daf a53c 8ec5 24c0 4a70 313d 3554 c93d
000001e0: fce0 173d 78e7 783d 62c9 96be b7cf d3bc
000001f0: e60e 9f3e eda4 04be 656f c3be a7d4 39be
0.23102981 -0.18271145 0.0072880625 0.008361945 -0.15104584 -0.14108548 0.105982184 0.13104229
-0.23192845 0.03397218 0.21283008 -0.14461342 0.12399649 -0.15692014 0.13349158 -0.21211995
0.17730713 -0.25847784 0.0013301029 0.26808912 -0.029134566 -0.110610195 -0.19791721 -0.056378633
0.10709755 -0.28652123 -0.20423181 0.39959332 0.13487542 -0.4175528 0.3082238 -0.26342446
-0.11068833 -0.02771542 -0.06753413 0.45076242 0.10674569 -0.1375857 -0.27945787 -0.04650976
0.121081784 -0.15310435 0.0061154426 -0.5573228 -0.023036916 0.20098683 -0.29693988 -0.28156132
-0.3588824 -0.53492856 0.025723077 -0.1578513 0.10064012 -0.14854276 -0.43262866 -0.09747122
-1.9070293 0.09071132 0.04274881 -0.103941455 0.18900432 -0.045572985 -0.20706563 -0.05866942
0.08801526 -0.006171361 -0.22658317 -0.20828381 -0.15645118 -0.009085171 -0.7204794 -0.10291817
-0.098213606 -0.181438 -0.15173477 -0.18830854 -0.13035496 -0.036428064 -0.039560925 -0.13313782
-0.63310504 0.06468374 0.018285755 -0.027398141 -0.20428208 0.07056659 0.030783009 0.1805596
-0.58533245 0.5351474 0.17802568 0.17786261 -0.27735558 0.005570446 -0.24166581 0.025309134
-0.14505772 0.008725855 0.08508969 0.24816756 -0.16672853 -0.18720229 0.053929593 0.20385261
-0.19792123 0.5355562 -0.17485449 -0.070817396 -0.20660855 -0.1274703 0.15914421 -0.3193879
-0.15157361 -0.20328704 0.08136978 -0.47233713 0.020225132 -2.5745578 0.043319978 0.09830514
0.037079796 0.06076762 -0.29450518 -0.025855882 0.31066054 -0.12953539 -0.38170925 -0.18147527

layers.8.weight f4 [11, 128]
00000000: 5447 963a f2dc e63c 5ba6 87bb df5e d4bb
00000010: 871c b53b e19d 973d 15ee 97b9 f36f 64bd
00000020: 995e ab3c 05f1 f4b9 a104 0a3d 6b20 1c3e
00000030: c3f6 24bd 6ee7 9abc 5804 d03b 483c 893c
00000040: e626 813d de57 cd3d dfd4 95bc 5f55 d739
00000050: f0eb 0abd 91ab 44bd 748b 33bc 60d4 86bc
00000060: 2896 48bb 2aa5 99bc 9c66 24bc e37c d1bd
00000070: 1fcd d63c c116 cebc be53 1abc 3f16 b33c
00000080: 0e04 923d 2ff6 47bb 8d7f 86b9 1f24 a33b
00000090: d81d 24bd 5a93 c9bb 3760 bd3d d3ad 9a3b
000000a0: 10cf 443b d1fc bebc 514d 04bd e5ae db3d
000000b0: adc6 52bb db55 c6b9 2f57 4fbd d1ac ddbc
000000c0: eaca 7f38 50a1 80be d961 163a 54b2 a83d
000000d0: 8c20 c73c 3bd4 e4ba e16f ee38 85d8 90bb
000000e0: 96e0 7cbd 19cf 0f3c 570c acbc b596 233d
000000f0: bcef 573b b3db dd3a db97 98ba cdb4 36bc
00000100: d56f 5a3d 8b72 693c 5187 fbbb af40 ffb9
00000110: 8a98 02bd 8583 96bb 6c6a 803e 419b a03b
00000120: ffc8 b2bc 5a1a 3e3c 1b9d 0f3d 2f16 e73d
00000130: 8bb2 06bb 54f7 883d 9c76 3f3b 3365 4d3b
00000140: 0c02 20bd ae6d f73c f199 47bb 50a6 90bc
00000150: c01f 903c 8401 91bb ed88 773a 9edf 063d
00000160: 3488 1fbd 6de4 cc3b 1b0c 24bc 59fb 60bd
00000170: 5013 1c3e a819 843d 208e a23d ce15 dbbb
00000180: 6fad 8b3c ecae 05bb 952f 1dbb 8969 ed3c
00000190: 653d cabb 01c1 debc fcef 9b3c cd1b b8bc
000001a0: f931 b9bb 320b 51bd fb35 403a 7d4d 6fbb
000001b0: f99c d6bc 3c11 48bc aa46 5fbc b022 583d
000001c0: 5c3f a2ba 2c80 3abd 3e4c bb3c b05f 8d3a
000001d0: ede2 613c 37e7 11bd a441 e43c 4bfd 0abc
000001e0: eb0f 193b 8731 ffbc 2e66 21bc 6cea cdbc
000001f0: f9b5 22bc 4d23 eb3b b16c afbc 7b2c 073d
00000200: 6e2c 093c b510 283c 23ad 9e3b 87c8 13ba
00000210: 152f 473c 6ddb b03d 693f 1abc 5919 c9bc
00000220: 09eb 4b3d 0ace 913a c4d0 a53c 76cd 053d
00000230: ef01 503d eed8 17bd 349c 7b3b 33f3 48bb
00000240: 550c 60bd b91d ccbb 7837 1d3c 7f59 ce3b
00000250: 96df 1cbd 4c6a 403d f887 91bc 2823 483c
00000260: 3ce6 37ba d6ff 27bc 4340 7a3c 6cb6 42bd
00000270: 0940 143d d79b 463d 28c4 90bb 5af3 83bc
00000280: 76e4 8a3d 8018 b73b b7a4 3dbc 5d8a 85ba
00000290: d3a0 b93a 9126 f63c c0c8 e739 3aa7 e03a
000002a0: 90e2 c8bb aa74 27bd 96f2 193c 229c 6a3e
000002b0: bc72 1abc 77cc 56bb f7df b43d 88eb 543d
000002c0: 3bea bdbd 8682 473e 1fd7 bdba ea1e 77bc
000002d0: 15c5 f33c bfde b23c 4dc9 e3bb 4731 71b9
000002e0: feb8 77bd 4060 c23b a7d8 97bb c7ba eb3a
000002f0: 6705 1d3a 0dc0 1cbd 5a9c b53d b431 3ebc
00000300: 1f76 80bb 96c5 0dbb 601a 98ba 475d 7c3c
00000310: 1440 3abd b382 21bb 9e2a 1b3e 8956 af3c
00000320: bfdd 7cbd 77c2 4e3d 1f81 b13d 8d4f c0bc
00000330: 750e 483c db47 87bd 206a 9ab9 ee96 ebbc
00000340: cbff d23d 500e 9c3c d3fd 37bb a58b e4bb
00000350: ab25 cc3c ede5 b5bc 8ecf 1eba 6a3b 963c
00000360: 160e 2b3d 2bbd 863c 880e 663b ea4e e9bc
00000370: 4a68 b9bd 0314 8bbd 1321 f13c bf8a 08bc
00000380: 4ad3 4abd ac0b 3bba 4b7b 6fbb 2c27 083d
00000390: 9df0 40bc f8f2 e73d ae79 a23c d32a 373c
000003a0: 235e 5e38 f84d f8bc 1b4f 57bb a4bf b33a
000003b0: 0441 fe3b 16d9 48bd 3f30 fcbc 18f5 c7bd
000003c0: af66 0abd d4c2 d6bc 00ae dc3b 0695 9bbb
000003d0: dfef 893c 934c c6bc 727f fa3c 1827 29bc
000003e0: 627a 513b 1008 15bd 435d 86bd 56f1 a03d
000003f0: 537d 31bc d041 92bd bea7 01be 6d12 193d
0.0011465349 0.028181527 -0.004139704 -0.006481036 0.0055270824 0.0740316 -0.0002897835 -0.055770826
0.020919131 -0.0004671888 0.03369582 0.15246741 -0.040274393 -0.018909182 0.006348174 0.016752377
0.063062474 0.10026525 -0.018289981 0.00041071602 -0.033916414 -0.04801518 -0.010958541 -0.01645869
-0.0030607078 -0.018755514 -0.01003423 -0.102288984 0.026220856 -0.025157334 -0.00941938 0.021861194
0.071296796 -0.0030511727 -0.00025653504 0.004978671 -0.040067524 -0.006151599 0.09246867 0.0047204285
0.0030030645 -0.023313912 -0.032300297 0.10726718 -0.0032161877 -0.0003782947 -0.050620254 -0.027059944
6.0985716e-05 -0.25123072 0.00057366263 0.082371384 0.024307512 -0.0017458269 0.000113695634 -0.0044203424
-0.06173762 0.008777403 -0.021001978 0.039938647 0.003294929 0.0016926437 -0.0011641936 -0.011151505
0.053329308 0.014248501 -0.007676043 -0.00048685583 -0.031883754 -0.004593315 0.25081193 0.00490132
-0.021824358 0.011602962 0.035061937 0.11283528 -0.0020553197 0.06687799 0.0029214984 0.0031340837
-0.039064452 0.030203667 -0.0030456746 -0.017657429 0.017593265 -0.0044252295 0.0009442706 0.0329281
-0.038948253 0.0062528164 -0.010012652 -0.054927204 0.15241742 0.06450206 0.079372644 -0.006685949
0.017050473 -0.002039845 -0.002398466 0.028980987 -0.0061718696 -0.02719164 0.019035332 -0.022474194
-0.005651709 -0.051036067 0.00073322625 -0.0036514692 -0.026197897 -0.01221114 -0.0136276875 0.052767456
-0.0012378502 -0.04553239 0.022863504 0.0010785963 0.0137870135 -0.035620894 0.027863331 -0.008483241
0.0023355435 -0.031151546 -0.009851022 -0.025136195 -0.009931081 0.007175839 -0.021414133 0.033001404
0.008372409 0.0102578895 0.004842417 -0.0005637486 0.012157221 0.08635602 -0.009414532 -0.02454822
0.049784694 0.0011124026 0.020241149 0.032666646 0.050783094 -0.037072115 0.0038392665 -0.0030662536
-0.05469926 -0.006229129 0.009595744 0.00629729 -0.038299166 0.046976373 -0.01776503 0.012215413
-0.00070152036 -0.010253867 0.01527411 -0.047537252 0.03619388 0.048488464 -0.004417915 -0.01610725
0.06781857 0.0055876374 -0.011574916 -0.001018833 0.0014162309 0.030047687 0.00044209324 0.0017139681
-0.006130524 -0.040882744 0.009396216 0.22911122 -0.009426769 -0.003277568 0.088317804 0.051982433
-0.092731915 0.19483384 -0.0014483667 -0.015083054 0.029757062 0.02183473 -0.006951487 -0.00023001908
-0.060479157 0.005931884 -0.0046339813 0.0017984741 0.000598988 -0.03826909 0.08867712 -0.01160853
-0.003920331 -0.0021632663 -0.001160454 0.015403098 -0.045471266 -0.0024644553 0.15152976 0.021403568
-0.06173491 0.050478425 0.08667206 -0.023475433 0.012210478 -0.06605502 -0.00029452238 -0.028758492
0.10302695 0.019049793 -0.0028074875 -0.0069746547 0.024920305 -0.022204364 -0.000605815 0.018338878
0.04176148 0.016447624 0.0035103876 -0.028480012 -0.09053095 -0.06790926 0.029434716 -0.008333861
-0.049517907 -0.0007135223 -0.0036541994 0.033240482 -0.011776117 0.113256395 0.019833412 0.011179644
5.3016596e-05 -0.030310616 -0.0032853547 0.001371373 0.0077592153 -0.049035154 -0.030784724 -0.09763545
-0.033789333 -0.026215948 0.0067346096 -0.0047479896 0.016838012 -0.024206435 0.030578349 -0.010324262
0.0031963815 -0.036384642 -0.06560757 0.07858531 -0.010833102 -0.07141459 -0.12661645 0.037371088
