Simulation/model_7_176_176_176_176_176_176_176_176_11_pm_pm_mzm_300k_samples_batch_size_80val_min.pth (torch, 895018 bytes, 18 tensors)

layers.0.weight f4 [176, 7]
-0.097479284 0.106352195 0.02581412 -0.09109931 -0.2370228 0.32605153 0.006407557 0.12335559
-0.050641853 0.16189921 0.07087948 -0.043048557 -0.013914185 -0.1858022 0.0016058504 -0.06216239
0.010956404 -0.0018014145 -0.0076734927 0.0019236269 -0.014648266 0.24096383 0.3854141 -0.04536054
0.10341453 0.081509255 -0.018583259 0.089959726 -0.26829192 0.2948356 -0.0012160332 0.25246936
-0.34122062 0.079096004 -0.0033541995 0.14892511 -0.18039481 0.023942653 0.39390144 0.250588
-0.643026 -0.0053334124 -0.22960807 0.4098895 0.0044243285 -0.26262903 0.2666139 0.013216541
0.0018471698 0.1301099 0.03280982 -0.005617691 0.016001262 0.010158594 0.0029210213 0.095378645
0.15059891 -0.18722574 -0.04328789 0.1652111 0.026690878 -0.17590404 0.035265982 0.056492884
0.27908653 0.07797195 0.014063225 0.043606263 0.06923154 0.16911724 -0.005274139 -0.12296332
-0.008838731 -0.0061749504 -0.008862948 -0.015614282 -0.0056268047 -0.23363315 0.10533595 -0.1713951
-0.102978885 0.07867465 0.106540464 -0.047712132 -0.17517589 -0.056838844 0.1690956 0.031119611
-0.054931153 -0.025976602 -0.16813223 -0.53310204 -0.306902 0.17507654 0.020787202 0.065988615
-0.12661377 0.2025745 0.12374843 -0.07131507 0.30947018 -0.054629467 0.06576663 0.10910155
0.18417853 0.05688377 0.08385516 -0.18552554 -0.251083 0.12021998 0.048207477 -0.059784852
0.10379107 -0.061867785 -0.5098943 0.04143694 0.07508059 0.12409385 0.11804643 -0.1367798
0.19165954 -0.0046242615 0.4860436 -0.489975 0.0003098878 0.00045924768 0.01406148 0.09103246
0.0088593755 0.5230792 -0.52251023 0.006626516 0.0021955809 0.087780975 -0.08172435 -0.01066907
0.00044128372 -0.0027849555 -0.012096538 -0.023341833 -0.3206427 -0.3024848 -0.23596457 0.19810826
-0.111194946 -0.034228362 0.18161081 -0.09517247 -0.0040883236 -0.43688086 0.18567356 -0.08930783
0.1621416 -0.26122513 0.010078694 0.00087077403 0.100405276 0.04142877 0.054645814 -0.09016422
-0.00029603337 0.22142716 0.35533464 0.0604857 -0.07774923 -0.0033540365 0.023427667 -0.032280494
0.07475302 0.035993397 0.058225114 0.029037885 0.03734461 0.00521922 0.002174838 -0.0814726
0.024772147 -0.007157694 0.010547005 0.015152934 -0.006072327 -0.09599259 0.15668203 -0.020561015
0.0034879444 -0.42821684 0.43256325 0.0040195747 0.0020289484 -0.042902626 0.031051716 0.06225517
0.041455958 0.0658821 -0.10240844 0.27545285 -0.040165547 -0.03795745 -0.16680714 -0.006548732
-0.007701354 -0.009739317 0.19194494 0.11004059 0.025823012 0.1855838 0.008426821 -0.004372288
0.03560565 0.15966822 0.47551426 -0.46547893 -0.015303091 -0.033774603 0.041004967 -0.0066406163
0.0048033553 0.07686844 -0.022262787 -0.28787932 0.030849772 0.053786628 0.080040775 0.07957692
-0.5440579 0.16557513 -0.28362387 -0.122480236 -0.12898257 -0.13795668 0.19605601 -0.19667242
0.13460836 -0.036442176 -0.09894517 0.07611656 0.0012757535 0.01874312 -0.07001663 0.1625394
0.005347136 0.0728311 0.37265408 -0.44333377 -0.0029202376 0.1647715 0.10137672 -0.0136648435
0.41217673 -0.41611737 -0.0035203176 -0.009611181 0.23595919 0.2595441 -0.02174982 0.28208843
00000000: 38a3 c7bd 2ecf d93d 2278 d33c 4692 babd
00000010: 1bb6 72be 3af0 a63e 7cf6 d13b dba1 fc3d
00000020: d56d 4fbd e8c8 253e 4329 913d af53 30bd
00000030: 52f8 63bc ef42 3ebe 667b d23a fe9d 7ebd
00000040: 7d82 333c 711d ecba ec71 fbbb 3522 fc3a
00000050: 48ff 6fbc 39bf 763e ff54 c53e f9cb 39bd
00000060: ffca d33d 53ee a63d eb3b 98bc ce3c b83d
00000070: 8f5d 89be b1f4 963e 4e63 9fba aa43 813e
00000080: 78b4 aebe 16fd a13d 21d2 5bbb d37f 183e
00000090: 6bb9 38be 6223 c43c 73ad c93e 124d 803e
000000a0: 5a9d 24bf e8c3 aebb 611e 6bbe 09dd d13e
000000b0: f5f9 903b 5077 86be 9e81 883e 318a 583c
000000c0: bc1c f23a 883b 053e 9763 063d 9c14 b8bb
000000d0: 1415 833c 3b70 263c 9b6e 3f3b e155 c33d
000000e0: 9a36 1a3e 1bb8 3fbe a44e 31bd 192d 293e
000000f0: d4a6 da3c 3020 34be 1073 103d 1565 673d
00000100: 6ee4 8e3e c2af 9f3d 7169 663c 7b9c 323d
00000110: 44c9 8d3d 122d 2d3e afd2 acbb 31d4 fbbd
00000120: 53d0 10bc 3d57 cabb e635 11bc 0cd3 7fbc
00000130: 0f61 b8bb 873d 6fbe 60ba d73d 3282 2fbe
00000140: 98e6 d2bd 2d20 a13d e331 da3d cc6d 43bd
00000150: 4f61 33be d9cf 68bd 6627 2d3e 8eee fe3c
00000160: 7dff 60bd e2cc d4bc db2a 2cbe 6079 08bf
00000170: 4222 9dbe 4447 333e ec49 aa3c 0a25 873d
00000180: 0aa7 01be b16f 4f3e d16f fd3d a30d 92bd
00000190: e072 9e3e 26c3 5fbd a8b0 863d a270 df3d
000001a0: 4c99 3c3e f5fe 683d 41bc ab3d 68fa 3dbe
000001b0: f38d 80be e535 f63d 3475 453d f6e0 74bd
000001c0: 6a90 d43d 1369 7dbd 6f88 02bf c8b9 293d
000001d0: dac3 993d eb24 fe3d 54c2 f13d 0110 0cbe
000001e0: 6642 443e 1e87 97bb b5da f83e 01de fabe
000001f0: 7078 a239 2ec7 f039 1f62 663c 3a6f ba3d
00000200: ea26 113c 85e8 053f 3bc3 05bf 3f23 d93b
00000210: bce3 0f3b 83c6 b33d 195f a7bd 53cd 2ebc
00000220: 195c e739 cd83 36bb 8f30 46bc 5f37 bfbc
00000230: 482b a4be 4adf 9abe b2a0 71be e4dc 4a3e
00000240: 2dba e3bd 0a33 0cbd 2ff8 393e c9e9 c2bd
00000250: 58f7 85bb d9ae dfbe 3621 3e3e 06e7 b6bd
00000260: 7308 263e 4dbf 85be 1b21 253c a844 643a
00000270: 48a1 cd3d 37b1 293d 4ad4 5f3d 05a8 b8bd
00000280: ed34 9bb9 cdbd 623e 6cee b53e dabf 773d
00000290: fd3a 9fbd 65cf 5bbb 61eb bf3c 8d38 04bd
000002a0: 1d18 993d d06d 133d 757d 6e3d dce0 ed3c
000002b0: a9f6 183d fe05 ab3b ba87 0e3b 1bdb a6bd
000002c0: f5ee ca3c 178b eabb 58cd 2c3c 0344 783c
000002d0: 5ffa c6bb c397 c4bd 4171 203e 936f a8bc
000002e0: ff95 643b 3d3f dbbe ee78 dd3e a3b6 833b
000002f0: 1bf8 043b aaba 2fbd 2b60 fe3c 47ff 7e3d
00000300: b9cd 293d 32ed 863d 84bb d1bd 2808 8d3e
00000310: a184 24bd 4579 1bbd 7ecf 2abe bf96 d6bb
00000320: a45b fcbb a891 1fbc 378d 443e f65c e13d
00000330: c88a d33c ae09 3e3e a610 0a3c 6945 8fbb
00000340: 3bd7 113d 1180 233e 9b76 f33e 4153 eebe
00000350: d1b9 7abc 3d57 0abd d3f4 273d 8799 d9bb
00000360: 7765 9d3b 336d 9d3d 7360 b6bc eb64 93be
00000370: a9b8 fc3c 5e4f 5c3d 6bec a33d 39f9 a23d
00000380: 6147 0bbf 878c 293e 2637 91be ebd6 fabd
00000390: 0214 04be 8444 0dbe e8c2 483e 7f64 49be
000003a0: c6d6 093e 6444 15bd c4a3 cabd 00e3 9b3d
000003b0: 2f37 a73a 2c8b 993c e164 8fbd ba70 263e
000003c0: 0737 af3b 7928 953d 84cc be3e a5fc e2be
000003d0: 7561 3fbb dcb9 283e 999e cf3d 82e2 5fbc
000003e0: d408 d33e 560d d5be 21b5 66bb 3778 1dbc
000003f0: 499f 713e f7e2 843e ae2c b2bc e56d 903e

layers.0.bias f4 [176]
-0.17110412 -0.33236876 -0.03764083 -0.66555303 -0.4990232 -0.104344614 -0.43964583 -0.36999053
0.10301705 -0.651998 0.5485569 0.66699976 0.06053681 -0.18113735 -0.77052486 -0.38680935
-0.50113946 -0.5486007 -0.39096987 -0.24312726 0.67366767 0.6000688 0.013941819 0.46416435
-0.4998242 0.93570095 -0.5142625 -0.82218736 -0.7157293 -0.40526703 -0.24224368 -0.4785343
-0.24150863 0.6960439 -0.3790671 -0.8421936 0.50013053 -0.28050882 0.86269766 -0.6195128
-0.1161368 0.80929816 -0.5855774 0.46472597 0.08592284 0.6267158 0.17184517 -0.47049674
-0.43805614 -0.17003684 -0.31189495 -0.3705419 0.31731498 0.12595451 -0.4863214 0.8268222
0.1501742 -0.0032381169 0.8668215 0.4696887 0.3100073 -0.27745524 -0.4634854 -0.1503884
-0.36426756 0.7523914 0.54368937 -0.75919265 -0.56247854 -0.0005924982 -0.020764142 -0.6793662
0.179826 0.6724421 0.06431312 -0.37455535 -0.064583205 -0.15079896 -0.4644389 0.08708491
0.737362 0.45877662 0.6974107 0.42973855 0.09921119 -0.57057756 -0.68502855 0.2198639
-0.19001466 -0.6155294 0.8534705 0.8212795 -0.6301644 0.04721912 -0.041650444 -0.13106151
0.15761837 0.40203387 0.7939112 -0.18284635 -0.72434473 -0.3673698 0.7496232 0.01038359
-0.5146393 0.6769681 -0.5457023 -0.3323765 0.93734455 -0.27875298 -0.7503438 -0.5527089
-0.81080246 0.385114 -0.33780995 -0.6563431 0.6301261 0.30033326 0.3086244 -0.11617655
0.8658816 -0.38422805 0.017843073 -0.10413446 0.38673082 0.38072708 -0.65986943 -0.0303422
-0.49817246 0.83304363 0.1307194 0.947089 -0.4771945 -0.1677572 -0.41527858 0.2361558
0.5515308 0.18268923 -0.5793205 -0.75415283 -0.4901239 0.13953073 0.13860804 0.8481408
-0.30846682 0.32582253 0.90380865 -0.48473895 0.04491354 -0.74973977 0.1174841 -0.65478784
-0.45054367 0.008115696 0.47791737 -0.10836772 -0.81801164 -0.11388367 -0.20937735 -0.81798977
-0.24650726 -0.47938251 -0.3981842 0.35076523 0.38949436 0.57655233 -0.37242043 0.31938145
0.0106143 0.31952444 -0.40833336 -0.0867983 0.6803339 0.08192917 -0.11450727 -1.0758193
00000000: eb35 2fbe 3d2c aabe 452d 1abd af61 2abf
00000010: f87f ffbe a1b2 d5bd 4219 e1be 666f bdbe
00000020: 9afa d23d 57e9 26bf 3a6e 0c3f 7fc0 2a3f
00000030: 72f5 773d 127c 39be 1e41 45bf e00b c6be
00000040: ad4a 00bf 1871 0cbf 342d c8be 5af6 78be
00000050: 7c75 2c3f 1c9e 193f 3a6c 643c f3a6 ed3e
00000060: f5e8 ffbe 198a 6f3f b5a6 03bf df7a 52bf
00000070: 093a 37bf 297f cfbe ba0e 78be 7302 f5be
00000080: 0a4e 77be ef2f 323f 1515 c2be 009a 57bf
00000090: 8e08 003f da9e 8fbe c1d9 5c3f 6498 1ebf
000000a0: 21d9 edbd 2a2e 4f3f 67e8 15bf 90f0 ed3e
000000b0: 50f8 af3d 7270 203f 2ef8 2f3e f3e4 f0be
000000c0: e548 e0be 231e 2ebe b2b0 9fbe abb7 bdbe
000000d0: 1c77 a23e 38fa 003e 1eff f8be 9faa 533f
000000e0: 44c7 193e 9636 54bb 04e8 5d3f 0a7b f03e
000000f0: 47b9 9e3e 9d0e 8ebe f54d edbe 6bff 19be
00000100: 4781 babe b99c 403f 3a2f 0b3f 735a 42bf
00000110: 98fe 0fbf e251 1bba 9019 aabc f1ea 2dbf
00000120: 4f24 383e 2a25 2c3f 99b6 833d b8c5 bfbe
00000130: 3344 84bd 0b6b 1abe efca edbe 9359 b23d
00000140: c2c3 3c3f c5e4 ea3e 8289 323f b106 dc3e
00000150: 3d2f cb3d 5f11 12bf 085e 2fbf 0124 613e
00000160: 3493 42be 5693 1dbf 0b7d 5a3f 603f 523f
00000170: 7452 21bf d668 413d a899 2abd fd34 06be
00000180: b666 213e 62d7 cd3e c43d 4b3f 133c 3bbe
00000190: a86e 39bf e517 bcbe 4ee7 3f3f ef1f 2a3c
000001a0: 67bf 03bf c84d 2d3f 25b3 0bbf 412d aabe
000001b0: d0f5 6f3f b6b8 8ebe 8816 40bf 557e 0dbf
000001c0: c090 4fbf aa2d c53e 6df5 acbe 1a06 28bf
000001d0: f24f 213f 48c5 993e 0404 9e3e f9ed edbd
000001e0: 6baa 5d3f 8ab9 c4be a32b 923c 7344 d5bd
000001f0: 9501 c63e a9ee c23e 34ed 28bf 3590 f8bc
00000200: 7610 ffbe 5942 553f 4edb 053e 6d74 723f
00000210: d652 f4be 8bc8 2bbe 659f d4be d3d2 713e
00000220: 1f31 0d3f e312 3b3e 594e 14bf 2910 41bf
00000230: 85f1 fabe 25e1 0e3e 44ef 0d3e c11f 593f
00000240: 5def 9dbe 36d2 a63e 0160 673f b42f f8be
00000250: 43f7 373d f2ee 3fbf 819b f03d 2da0 27bf
00000260: a9ad e6be b2f7 043c 96b1 f43e e5ef ddbd
00000270: 3669 51bf d73b e9bd 0467 56be c767 51bf
00000280: 666c 7cbe a071 f5be cdde cbbe 8097 b33e
00000290: ce6b c73e ef98 133f e4ad bebe f785 a33e
000002a0: 9ae7 2d3c b598 a33e 1211 d1be 4fc3 b1bd
000002b0: 5d2a 2e3f 7bca a73d ca82 eabd 72b4 89bf

layers.2.weight f4 [176, 176]
-0.020253453 -0.10363313 -0.010396775 0.08188978 0.32394168 -0.12598027 0.010585779 0.035686728
-0.056415524 0.0403721 -0.0010529564 -0.04271481 0.13983199 -0.020124732 0.0698361 0.005406136
-0.018182341 0.43778524 0.45077503 -0.005344601 -0.07221757 -0.0700424 -0.05609736 -0.098538026
-0.08524601 -0.16275303 0.29383948 -0.03085788 -0.030242318 -0.071263485 -0.2212958 -0.02659767
-0.31146902 -0.030632574 -0.20615885 0.4449409 -0.09646254 0.02436065 -0.14446923 -0.029439958
0.05463162 -0.033376195 -0.04111368 0.018241445 0.025536506 -0.11361223 -0.081177495 0.05265971
0.15669131 -0.06910551 -0.1663909 -0.20639369 -0.030869959 -0.08153806 0.11252977 0.018469865
-0.12381206 -0.06834863 -0.013941168 -0.0681673 -0.06600766 0.09547691 -0.009741419 0.15140755
0.0636448 -0.106917195 -0.051162373 0.14110121 0.01972532 0.014526343 -0.016338993 0.063222356
-0.042150192 -0.019322224 0.07116147 0.24011631 0.22112672 0.3445113 -0.090930805 -0.09299978
-0.10525988 -0.025147516 0.0041067274 -0.015232014 -0.14328282 0.14076771 0.11780206 -0.05444643
0.069472484 0.063995615 -0.023359347 0.026547056 0.056685157 -0.10161268 -0.01919476 -0.14456086
-0.05026524 -0.07732717 -0.11083022 0.03288948 -0.034368776 0.40997905 -0.07874699 -0.1352891
-0.04871419 -0.0062819263 0.2159391 0.082642555 0.061594218 -0.01071122 0.034233697 -0.07803029
-0.03442362 0.26226857 0.17973006 0.01298582 -0.036703855 -0.18375924 -0.3064325 0.032846127
-0.019194135 0.013235973 -0.12184901 0.34475356 0.20909472 0.007190996 0.06748732 -0.06534847
0.45134324 -0.074853234 -0.013721832 -0.05560489 0.056137368 -0.022562671 -0.23320645 0.06513386
-0.080686525 0.013593311 0.28502536 0.2518702 -0.011934458 -0.0245494 0.03577659 -0.036042493
-0.03449925 -0.026287474 -0.095936984 0.11957151 0.050881848 0.025792 -0.19010727 0.051386993
-0.086659476 -0.17886312 -0.05702711 -0.16820307 0.026443757 -0.05223917 0.0043232143 -0.007998959
-0.052897442 0.049416948 0.06456359 -0.25988892 -0.06780242 -0.07009141 -0.019385545 -0.01955596
0.0329396 0.025914595 -0.036000587 0.32881364 -0.04003722 -0.055914328 -0.26462957 -0.030600956
-0.055373155 -0.11502187 -0.05877993 -0.056533303 -0.124303944 -0.07168749 0.02490035 0.028707925
0.06156989 -0.06607995 -0.026397737 -0.045164693 0.070658445 -0.19040163 0.0035143748 0.065125264
0.016373325 0.14374335 -0.16480748 -0.046873208 0.11032983 0.006013074 0.08852753 -0.045542736
-0.20164856 0.06913646 -0.13177678 -0.20223045 -0.6419615 0.033139054 -0.10115202 0.1408904
0.16205053 -0.032090828 -0.045580134 -0.012267366 0.07478265 0.05727607 0.026002325 -0.11707482
-0.08486977 0.064634405 0.0803905 -0.09085341 -0.08321181 -0.07981049 -0.18526523 -0.38001177
0.09804333 -0.040182125 0.064433515 0.0549731 0.08023254 0.10024726 -0.020987324 -0.31309074
0.08927203 0.03738027 0.1515266 0.034860693 0.01691119 0.047656234 -0.05982416 0.09490992
-0.2389318 0.093087375 -0.0073160995 0.18812372 -0.17389289 0.009139633 0.0057218224 -0.23051558
-0.1352642 0.04554397 -0.06990464 0.12128417 -0.09716617 0.02855619 0.05883171 0.002472404
00000000: 92ea a5bc 9b3d d4bd 3c57 2abc d4b5 a73d
00000010: afdb a53e f900 01be fa6f 2d3c 3f2c 123d
00000020: f713 67bd 375d 253d 5b03 8aba baf5 2ebd
00000030: 1e30 0f3e 9fdc a4bc 3b06 8f3d f525 b13b
00000040: 22f3 94bc 6325 e03e fccb e63e c321 afbb
00000050: cee6 93bd 6472 8fbd 58c6 65bd 4ece c9bd
00000060: 7695 aebd bba8 26be 2172 963e aac9 fcbc
00000070: bdbe f7bc 97f2 91bd 5e9b 62be 5be3 d9bc
00000080: de78 9fbe 2af1 fabc 4e1b 53be 4bcf e33e
00000090: 278e c5bd fc8f c73c beef 13be 112c f1bc
000000a0: 68c5 5f3d 7ab5 08bd d166 28bd 156f 953c
000000b0: ef31 d13c 87ad e8bd 6340 a6bd b5b1 573d
000000c0: b073 203e 3187 8dbd 6062 2abe de58 53be
000000d0: ffe2 fcbc 6dfd a6bd 0276 e63d 1d4e 973c
000000e0: 2d91 fdbd 5efa 8bbd 7f69 64bc 4c9b 8bbd
000000f0: 062f 87bd 6689 c33d 799a 1fbc 950a 1b3e
00000100: 3458 823d 67f7 dabd a38f 51bd d67c 103e
00000110: ff96 a13c e6ff 6d3c 5ad9 85bc b97a 813d
00000120: aea5 2cbd a449 9ebc 1bbd 913d 0de1 753e
00000130: 0b6f 623e c963 b03e ee39 babd ab76 bebd
00000140: 7e92 d7bd 2a02 cebc ba91 863b b28f 79bc
00000150: bbb8 12be 6925 103e 3542 f13d 3803 5fbd
00000160: 9747 8e3d 2210 833d 1a5c bfbc 3679 d93c
00000170: b22e 683d 4f1a d0bd 543e 9dbc c307 14be
00000180: ede2 4dbd b55d 9ebd f4fa e2bd 1fb7 063d
00000190: 46c6 0cbd c6e8 d13e 1a46 a1bd 3a89 0abe
000001a0: 8888 47bd 9ed8 cdbb 241f 5d3e 8040 a93d
000001b0: 384a 7c3d 1d7e 2fbc a238 0c3d 58ce 9fbd
000001c0: c8ff 0cbd 1148 863e 280b 383e 7ac2 543c
000001d0: c856 16bd 622b 3cbe b8e4 9cbe a989 063d
000001e0: 053d 9dbc b2db 583c f98b f9bd 8a83 b03e
000001f0: ed1c 563e 72a2 eb3b cb36 8a3d 6bd5 85bd
00000200: 7616 e73e a74c 99bd 89d1 60bc f4c1 63bd
00000210: 4cf0 653d 5ad5 b8bc accd 6ebe e764 853d
00000220: fa3e a5bd 7bb6 5e3c d8ee 913e 21f5 803e
00000230: bf88 43bc d31b c9bc 798a 123d 4ba1 13bd
00000240: 164f 0dbd d458 d7bc 9c7a c4bd e8e1 f43d
00000250: 7c69 503d bf49 d33c 7bab 42be 2b7b 523d
00000260: 867a b1bd e527 37be 4295 69bd 6d3d 2cbe
00000270: 94a0 d83c bdf8 55bd c0a9 8d3b 110e 03bc
00000280: fdaa 58bd 6d69 4a3d ea39 843d 2910 85be
00000290: ffdb 8abd 168c 8fbd 6fce 9ebc d233 a0bc
000002a0: adeb 063d d84a d43c 5a75 13bd 435a a83e
000002b0: 11fe 23bd 6c06 65bd 877d 87be dbae fabc
000002c0: f6ce 62bd 9690 ebbd 39c3 70bd 778f 67bd
000002d0: 1193 febd e4d0 92bd d2fb cb3c e22c eb3c
000002e0: b530 7c3d ed54 87bd 1140 d8bc 9dfe 38bd
000002f0: 60b5 903d a5f8 42be 6d51 663b 6560 853d
00000300: 5a21 863c 7531 133e 4bc3 28be 1ffe 3fbd
00000310: 9bf4 e13d 5209 c53b ec4d b53d 058b 3abd
00000320: f67c 4ebe 6b97 8d3d 7ef0 06be 8015 4fbe
00000330: 9757 24bf d1bc 073d ca28 cfbd 9345 103e
00000340: 93f0 253e ac71 03bd 3cb2 3abd 10fd 48bc
00000350: a527 993d 509a 6a3d d402 d53c ecc4 efbd
00000360: 34d0 adbd 0b5f 843d c6a3 a43d 5a11 babd
00000370: f46a aabd af73 a3bd 2bb6 3dbe e790 c2be
00000380: f1ca c83d 0396 24bd b8f5 833d 792b 613d
00000390: f550 a43d 6f4e cd3d 9ced abbc 6e4d a0be
000003a0: 41d4 b63d 0e1c 193d ca29 1b3e 16ca 0e3d
000003b0: 5689 8a3c 2f33 433d 2e0a 75bd 2260 c23d
000003c0: 8aaa 74be 98a4 be3d e4bb efbb 81a3 403e
000003d0: fa10 32be 66be 153c 207e bb3b 470c 6cbe
000003e0: b382 0abe 508c 3a3d 2a2a 8fbd d663 f83d
000003f0: 0fff c6bd acee e93c 85f9 703d 0e08 223b

layers.2.bias f4 [176]
-0.18804751 0.088961326 -0.014562529 0.11081691 -0.5497089 -0.46155718 -0.059410863 0.18438815
0.25485602 0.015309644 -0.006948327 -0.13296935 0.009790999 0.029655121 -0.11879315 -0.4777966
-0.08268725 -0.041772824 -0.12646501 -0.5650425 0.22140108 -0.18447897 -0.20881987 -0.085210204
0.03820778 0.056547057 0.03235374 -0.041027393 0.22894695 0.2780181 -0.07280874 0.1473738
-0.0012697162 -0.1746625 -0.034619346 0.12302125 -0.026042853 0.11336899 0.16609938 0.15258013
-0.069965556 0.028861498 -0.29565862 -0.046514954 0.13584444 -0.28915006 -0.1252282 -0.03010188
0.1629074 -0.29229257 -0.21051078 0.19163245 -0.473613 -0.2596329 0.19107118 0.28846753
0.043790966 -0.55903214 -0.4494927 0.38653645 -0.028667273 -0.06945122 0.29933813 -0.05538247
0.026847886 -0.31371188 -0.35471776 -0.36872393 0.116239384 0.052021947 0.24316932 -0.17011456
0.40477118 -0.26887825 0.3227187 -0.00074297213 0.5155238 0.14656919 -0.029703418 0.06105978
0.36655208 0.22853708 -0.22935101 0.5977161 0.10142631 -0.12607993 0.08709068 -0.07938415
0.13419019 0.2252704 0.26232275 -0.49584365 -0.14578906 -0.15007813 0.07002879 -0.39897949
0.13040286 -0.14369674 -0.4271572 3.15841e-05 0.030294966 -0.06933068 -0.20414525 0.2281691
-0.022848258 -0.17079806 0.013654978 -0.32864544 -0.21134731 0.018878106 0.07204968 -0.40559652
0.0058507062 0.10731234 0.026672171 -0.12028814 0.31607306 0.19566603 -0.006993742 -0.03717069
-0.053867403 0.1117315 -0.16485076 0.06587223 0.15108581 0.2105893 -0.03489892 -0.36881474
0.11021726 -0.16677871 0.04667282 -0.040027544 -0.31297472 -0.11892581 0.027352996 0.123354435
0.23898476 0.270918 -0.1632066 0.063028015 0.18586423 0.031288818 0.0007243197 -0.27206892
-0.032713436 0.16595218 -0.16560817 0.02840406 0.13391681 -0.36848164 -0.062251993 -0.1980844
-0.15521419 0.21375352 0.5221213 0.15522552 0.043201007 0.049011856 0.2314146 0.4915047
-0.18353076 -0.22183077 -0.050344083 -0.34690583 -0.036783174 0.27679905 -0.38368586 0.24906172
0.4695088 0.29279107 0.011391016 -0.0741413 0.3925931 0.0926239 -0.038009074 0.068059735
00000000: 878f 40be 5b31 b63d ac97 6ebc faf3 e23d
00000010: b9b9 0cbf 3951 ecbe ce58 73bd 3fd0 3c3e
00000020: 7d7c 823e 4dd5 7a3c cbae e3bb 1e29 08be
00000030: 6d6a 203c 4cef f23c d349 f3bd c2a1 f4be
00000040: ef57 a9bd fb19 2bbd 0b80 01be a0a6 10bf
00000050: f7b6 623e 0ee8 3cbe e0d4 55be b082 aebd
00000060: c37f 1c3d e39d 673d 5b85 043d 570c 28bd
00000070: 1271 6a3e 6358 8e3e c01c 95bd 28e9 163e
00000080: 9b6c a6ba bada 32be 04cd 0dbd 91f2 fb3d
00000090: d257 d5bc 002e e83d f515 2a3e f73d 1c3e
000000a0: 1a4a 8fbd f36e ec3c 9160 97be 7786 3ebd
000000b0: ce1a 0b3e 7a0b 94be d23b 00be 3898 f6bc
000000c0: 33d1 263e 5fa7 95be 2390 57be 4c3b 443e
000000d0: 677d f2be 9aee 84be 2aa8 433e 04b2 933e
000000e0: 285e 333d bb1c 0fbf e823 e6be 1be8 c53e
000000f0: a1d7 eabc 713c 8ebd d942 993e bbd8 62bd
00000100: 19f0 db3c d89e a0be 919d b5be 62c9 bcbe
00000110: ea0e ee3d f714 553d 6101 793e 8332 2ebe
00000120: 2b3e cf3e 69aa 89be 633b a53e 04c4 42ba
00000130: 5ef9 033f 3c16 163e 9554 f3bc d219 7a3d
00000140: b7ac bb3e a005 6a3e feda 6abe ec03 193f
00000150: 99b8 cf3d 191b 01be 995c b23d 2894 a2bd
00000160: 2769 093e 49ad 663e 2b4f 863e 38df fdbe
00000170: ba49 15be 15ae 19be 416b 8f3d 0a47 ccbe
00000180: 5488 053e 3d25 13be 59b4 dabe 2b79 0438
00000190: 262d f83c 3efd 8dbd 740b 51be 29a5 693e
000001a0: 452c bbbc b0e5 2ebe 21b9 5f3c 3744 a8be
000001b0: 6e6b 58be 42a6 9a3c c88e 933d 59aa cfbe
000001c0: 48b7 bf3b 92c6 db3d 997f da3c a159 f6bd
000001d0: 54d4 a13e ad5c 483e c32b e5bb 4b40 18bd
000001e0: 11a4 5cbd 7cd3 e43d a3ce 28be 05e8 863d
000001f0: 3db6 1a3e b9a4 573e 2cf2 0ebd 49d5 bcbe
00000200: 96b9 e13d 0ac8 2abe 002c 3f3d ecf3 23bd
00000210: 393e a0be 608f f3bd 6413 e03c 40a1 fc3d
00000220: 6cb8 743e c4b5 8a3e a21f 27be d514 813d
00000230: 3153 3e3e b428 003d 46e0 3d3a 9e4c 8bbe
00000240: 86fe 05bd 5eef 293e 3095 29be a2af e83c
00000250: 7d21 093e a0a9 bcbe f2fb 7ebd a3d6 4abe
00000260: 78f0 1ebe 34e2 5a3e bea9 053f 70f3 1e3e
00000270: 8af3 303d a8c0 483d f3f7 6c3e 81a6 fb3e
00000280: 7def 3bbe 9b27 63be 9935 4ebd a49d b1be
00000290: f4a9 16bd 9bb8 8d3e 7972 c4be 090a 7f3e
000002a0: 7563 f03e b6e8 953e 62a1 3a3c 65d7 97bd
000002b0: f601 c93e 99b1 bd3d 67af 1bbd e762 8b3d

layers.4.weight f4 [176, 176]
-0.04857538 0.002060507 -0.070464514 -0.29700145 -0.048881277 0.0901674 0.012380282 -0.045843657
-0.05072526 0.07612349 0.036241278 -0.025100047 -0.00048188187 -0.054203443 0.012980636 -0.02174288
-0.023625968 -0.041489586 0.0022479114 0.038810663 0.06742154 -0.10477377 -0.08110578 -0.07487032
-0.07189742 0.057530195 0.04592788 -0.04222844 0.004996381 0.01991856 -0.0013669117 0.15819475
0.015675416 0.01121439 0.085456856 0.02135326 -0.04088307 0.03448325 -0.055771366 -0.07949297
0.09307688 -0.31942755 -0.06755984 0.036631674 0.027309272 -0.08612359 0.024759436 -0.03107487
-0.23251401 0.0076990644 0.00941243 -0.0087540075 -0.023455502 -0.027717106 0.07304783 -0.048119232
-0.04171397 -0.03660654 0.05323268 -0.024167934 -1.2440517 -0.01977196 0.036116995 -0.014468006
-0.02900079 -0.0015826006 -0.021833533 0.05235939 -0.012749144 -0.0059471377 0.049709234 0.00076587225
-0.016958306 -0.0021734564 -0.03508796 -0.017117102 0.039509803 -0.08638102 -0.030924164 0.026254818
0.02323262 0.014886255 0.028290628 0.16781344 0.0047749737 -0.057757273 0.01935963 0.07184011
0.02770552 0.0019308977 -0.040081993 0.0020726458 0.069717444 0.1272087 -0.009747507 0.050873708
-0.007779458 0.0045656487 -0.048551317 0.006767944 -0.038151525 -0.0033381875 -0.051604312 -0.02187006
-0.04009262 0.026218794 0.049562916 -0.023569277 0.05000909 0.03885683 0.03684958 0.0032320337
0.02712106 0.072414145 -0.055795092 0.04145422 0.028876085 0.0027468207 -0.012400841 -0.0082548605
-0.00070534134 -0.817367 -0.0064016604 0.065324076 0.048980135 0.17270626 0.12809299 0.043295927
-0.044366498 -0.025369743 -0.03965586 -0.02363951 0.0065128705 0.034241833 0.044721745 -0.008247616
-0.02000177 -0.0081051625 0.02478007 -0.14723901 0.024159912 -0.10887392 0.055278942 0.029290041
-0.03030056 -0.034547385 -0.005878923 -0.00783331 -0.003353998 0.19986992 0.07472352 0.043282047
-0.04795272 0.019531291 0.18341002 -0.026408194 0.030957282 0.04499871 -0.026596542 0.05009795
0.014009055 0.045959722 -0.038384605 -0.12000578 0.06626777 0.044590108 -0.02348136 0.01000906
0.29836386 0.00777991 -0.037094243 0.0016138292 0.0731292 -0.048776463 -0.12733918 0.0058119306
-0.33287045 0.019675074 0.010120429 -0.092046194 -0.024841765 -0.05774612 0.034770127 -0.0027533716
-0.009326013 0.13190934 0.03339961 -0.0509392 0.16891469 0.06501542 -0.006621777 -0.2895732
-0.05758974 -0.058488715 -0.07353896 -0.020467075 -0.0125676505 -0.045365315 -0.028251613 -0.07397304
-0.052801706 -0.4913136 0.06691402 0.1312407 0.03833078 0.0752144 -0.010019161 0.099377595
0.10715447 0.13157715 0.20552504 0.03988825 -0.03505441 -0.03119097 -0.025170356 -0.00031030783
-0.07430803 -0.13865161 0.030556824 0.25194496 0.019505385 -0.10546864 -0.008466008 0.04061643
0.007120721 0.13480325 -0.008123206 -0.29679883 0.007175974 -0.1035151 -0.026090346 0.14876048
0.02787041 -0.1110493 -0.06764986 0.037612293 0.008820898 0.0036187023 -0.01050987 0.05788141
0.04422775 0.100564905 -0.1183155 0.027642665 0.043833844 0.09893999 -0.03166273 -0.035942204
0.008194724 -0.0017901093 0.028133288 -0.07403496 0.26133808 0.12044945 -0.035850078 0.11572077
00000000: faf6 46bd 9209 073b b34f 90bd 9310 98be
00000010: bc37 48bd b0a9 b83d abd6 4a3c 8fc6 3bbd
00000020: 4ac5 4fbd a2e6 9b3d bc71 143d 9d9e cdbc
00000030: 17a5 fcb9 6e04 5ebd bcac 543c 201e b2bc
00000040: 3f8b c1bc fcf0 29bd b251 133b eef7 1e3d
00000050: 4e14 8a3d a193 d6bd ca1a a6bd 9c55 99bd
00000060: f43e 93bd c8a4 6b3d df1e 3c3d bbf7 2cbd
00000070: aeb8 a33b 3f2c a33c f229 b3ba cefd 213e
00000080: bb69 803c 90bc 373c 0104 af3d 08ed ae3c
00000090: 0275 27bd 4f3e 0d3d 8470 64bd 36cd a2bd
000000a0: 179f be3d 028c a3be d05c 8abd 180b 163d
000000b0: b2b7 df3c 9161 b0bd 4dd4 ca3c ba90 febc
000000c0: 2718 6ebe 6f48 fc3b 9836 1a3c f86c 0fbc
000000d0: c125 c0bc fc0e e3bc 1a9a 953d ac18 45bd
000000e0: 45dc 2abd bdf0 15bd 830a 5a3d d5fb c5bc
000000f0: 163d 9fbf cef8 a1bc 6aef 133d 370b 6dbc
00000100: 1193 edbc 446f cfba 3ddc b2bc cd76 563d
00000110: c9e1 50bc 35e0 c2bb e99b 4b3d d1c4 483a
00000120: 25ec 8abc 8c70 0ebb 65b8 0fbd 2a39 8cbc
00000130: 08d5 213d 88e8 b0bd ac54 fdbc 5814 d73c
00000140: 5652 be3c 7be5 733c bfc1 e73c 49d7 2b3e
00000150: 6277 9c3b e492 6cbd 1698 9e3c e820 933d
00000160: b0f6 e23c 2d16 fd3a 042d 24bd 3ad5 073b
00000170: 05c8 8e3d ff42 023e 02b4 1fbc f360 503d
00000180: d3ea febb 709b 953b bfdd 46bd a1c5 dd3b
00000190: c644 1cbd 7ec5 5abb 0b5f 53bd d728 b3bc
000001a0: 2938 24bd ccc8 d63c 7c02 4b3d 5b14 c1bc
000001b0: 55d6 4c3d 5728 1f3d 96ef 163d 87d0 533b
000001c0: fc2c de3c de4d 943d 6589 64bd e6cb 293d
000001d0: 8a8d ec3c 0104 343b e62c 4bbc 653f 07bc
000001e0: a8e6 38ba f73e 51bf 05c5 d1bb a1c8 853d
000001f0: 659f 483d e9d9 303e cf2a 033e 1257 313d
00000200: a5b9 35bd 35d4 cfbc 2f6e 22bd a5a7 c1bc
00000210: eb69 d53b 2a41 0c3d 262e 373d 0221 07bc
00000220: c1da a3bc 84cb 04bc 93ff ca3c d3c5 16be
00000230: 02eb c53c 4af9 debd 2c6c 623d abf1 ef3c
00000240: e138 f8bc 8f81 0dbd fba3 c0bb 4957 00bc
00000250: c0ce 5bbb b3aa 4c3e a508 993d 8448 313d
00000260: 126a 44bd 1600 a03c d6cf 3b3e ff55 d8bc
00000270: 209a fd3c 9150 383d fee0 d9bc 8233 4d3d
00000280: 3c86 653c 4340 3c3d 2d39 1dbd 97c5 f5bd
00000290: 66b7 873d 1ea4 363d fb5b c0bc 0afd 233c
000002a0: 26c3 983e 9eee fe3b 22f0 17bd 1f87 d33a
000002b0: c3c4 953d d4c9 47bd 3465 02be 0272 be3b
000002c0: ff6d aabe 9f2d a13c 28d0 253c b782 bcbd
000002d0: f580 cbbc 3287 6cbd 1f6b 0e3d e971 34bb
000002e0: 22cc 18bc 3e13 073e 08ce 083d 9fa5 50bd
000002f0: f9f7 2c3e ce26 853d 7efb d8bb f042 94be
00000300: 38e3 6bbd dd91 6fbd 989b 96bd 91aa a7bc
00000310: 8ce8 4dbc fbd0 39bd ed6f e7bc 2d7f 97bd
00000320: 9a46 58bd 758d fbbe 380a 893d f663 063e
00000330: bc00 1d3d 020a 9a3d 6827 24bc 7b86 cb3d
00000340: ce73 db3d 29bc 063e 2875 523e dd61 233d
00000350: 3795 0fbd 3584 ffbc 1032 cebc d0b0 a2b9
00000360: cf2e 98bd b0fa 0dbe 4e52 fa3c eefe 803e
00000370: c2c9 9f3c f1ff d7bd 03b5 0abc 6a5d 263d
00000380: f054 e93b dd09 0a3e 3217 05bc 04f6 97be
00000390: 6f24 eb3b baff d3bd 6cbb d5bc ab54 183e
000003a0: 7c50 e43c d16d e3bd 038c 8abd 590f 1a3d
000003b0: 8785 103c c027 6d3b 9731 2cbc 0f15 6d3d
000003c0: 2828 353d f9f4 cd3d 664f f2bd df72 e23c
000003d0: 1e8b 333d 0da1 ca3d c7b0 01bd 2238 13bd
000003e0: 2a43 063c 1aa2 eaba c877 e63c a49f 97bd
000003f0: 1bce 853e 34ae f63d 88d7 12bd 03ff ec3d

layers.4.bias f4 [176]
-0.012095753 0.077801906 0.53234786 -0.076124996 0.18992169 0.06512469 0.19548847 0.034836296
-0.023515921 0.24517265 -0.029210774 -0.26276034 -0.16036773 -0.04411573 0.39082015 -0.05911593
0.49115402 0.024689607 -0.40398178 -0.06801764 -0.017814618 -0.11600071 -0.053302582 -0.357716
0.18762803 -0.015712842 -0.0052538384 -0.03617333 0.09051497 0.25591448 0.16755334 0.023879757
0.10477554 0.004927524 -0.07519849 0.17169759 0.32955477 0.17773612 0.19156829 -0.12917729
-0.0656852 -0.14579305 0.13402538 0.6034811 0.07921983 0.3035336 0.3133895 -0.036080737
-0.2406248 0.074353874 -0.032315873 0.044811808 -0.21525112 0.008718321 0.15809993 -0.23863384
0.17388046 0.0074684806 -0.10817484 0.013691484 -0.08477475 0.29833755 -0.19553831 0.46686402
0.06593644 -0.13327171 0.010284975 -0.035875767 -0.18102987 0.07017108 0.22037537 -0.14712921
-0.08767487 0.124368526 0.06365252 -0.36713305 0.05829104 -0.023262285 -0.21897863 0.32169706
0.08072673 -0.0042419154 -0.017794257 -0.14167126 -0.09785672 -0.17630163 -0.21126495 0.10385386
-0.19769019 -0.051298454 -0.17527138 0.09207777 -0.037215434 0.17630671 0.12854955 -0.026510717
0.3116657 -0.14981773 0.11730345 -0.5118685 -0.066771194 -0.1953065 -0.06474563 -0.10109391
-0.21333075 -0.12164509 -0.074704945 0.19851503 -0.0201552 0.5425896 -0.4376605 -0.25982672
0.107997954 0.43882582 0.033963196 -0.053451464 -0.1657122 -0.14017965 0.10390766 0.017173588
0.043383285 -0.09292305 -0.046378236 0.46022314 -0.06797604 0.023679476 -0.36125338 0.3792596
-0.03490129 0.11419664 -0.024909869 -0.049409073 -0.08461244 -0.5916979 0.002467086 -0.094859675
-0.13316342 0.12308907 -0.057130065 0.15853031 0.022233456 0.104528576 0.11837452 0.037144937
0.15622872 0.04310675 -0.3389794 -0.011449391 0.043691896 0.21927653 -0.35345182 0.31053495
0.17714776 -0.4405652 -0.01567103 0.0021160855 -0.20060991 -0.09535251 -0.056502245 0.053782944
0.17667104 0.030843994 -0.1676849 -0.061966583 0.004861915 0.2587509 0.15700117 -0.14825828
0.012011139 0.18599689 -0.14496553 0.05027218 -0.0054331175 0.33121118 0.18570471 -0.048795942
00000000: 442d 46bc 9b56 9f3d f347 083f 6ce7 9bbd
00000010: d57a 423e 1860 853d 212e 483e 81b0 0e3d
00000020: 76a4 c0bc 8a0e 7b3e 6f4b efbc 8688 86be
00000030: 7037 24be b2b2 34bd 9419 c83e 8c23 72bd
00000040: 8a78 fb3e dc41 ca3c b3d6 cebe d54c 8bbd
00000050: f6ef 91bc c891 edbd cf53 5abd 8d26 b7be
00000060: 9021 403e 38b8 80bc 6428 acbb 7c2a 14bd
00000070: ea5f b93d 3907 833e 1a93 2b3e 7b9f c33c
00000080: 8f94 d63d 1177 a13b aa01 9abd 7ed1 2f3e
00000090: 67bb a83e 7500 363e 7a2a 443e 0d47 04be
000000a0: f685 86bd c64a 15be f33d 093e bd7d 1a3f
000000b0: 023e a23d c268 9b3e 9774 a03e 65c9 13bd
000000c0: 5966 76be d846 983d a65d 04bd 968c 373d
000000d0: ca6a 5cbe 4ad7 0e3c f3e4 213e 6e5c 74be
000000e0: b80d 323e 28ba f43b c58a ddbd 3f52 603c
000000f0: 629e adbd b3bf 983e 323b 48be cd08 ef3e
00000100: af09 873d 6178 08be 5082 283c 78f2 12bd
00000110: e55f 39be dbb5 8f3d 15aa 613e 0aa9 16be
00000120: e28e b3bd edb4 fe3d 415c 823d ddf8 bbbe
00000130: 96c2 6e3d 8c90 bebc ef3b 60be 7ab5 a43e
00000140: 0e54 a53d c4ff 8abb 43c5 91bc 4512 11be
00000150: 1b69 c8bd 6a88 34be d755 58be 55b1 d43d
00000160: 4c6f 4abe 541e 52bd 577a 33be 4593 bc3d
00000170: 366f 18bd bf89 343e 7ea2 033e 012d d9bc
00000180: a692 9f3e d269 19be cb3c f03d d009 03bf
00000190: 56bf 88bd 6dfe 47be 5b99 84bd 530a cfbd
000001a0: 6073 5abe 1021 f9bd e8fe 98bd 8647 4b3e
000001b0: 851c a5bc 27e7 0a3f 0915 e0be 0208 85be
000001c0: 082e dd3d c7ad e03e fe1c 0b3d ecef 5abd
000001d0: 75b0 29be 418b 0fbe 8acd d43d a0af 8c3c
000001e0: acb2 313d 714e bebd 1bf7 3dbd 5ea2 eb3e
000001f0: 0637 8bbd 76fb c13c 34f6 b8be 502e c23e
00000200: a8f4 0ebd eedf e93d c80f ccbc 2b61 4abd
00000210: 4949 adbd 8379 17bf d6ae 213b ca45 c2bd
00000220: fe5b 08be 1f16 fc3d 3701 6abd c555 223e
00000230: f022 b63c 1413 d63d 576e f23d 4a25 183d
00000240: 6cfa 1f3e b490 303d b58e adbe 3a96 3bbc
00000250: 46f6 323d 078a 603e a3f7 b4be 70fe 9e3e
00000260: 3966 353e c391 e1be 8860 80bc 06ae 0a3b
00000270: af6c 4dbe 2d48 c3bd e66e 67bd 814b 5c3d
00000280: 41e9 343e 8bac fc3c 97b5 2bbe acd0 7dbd
00000290: b350 9f3b ff7a 843e eac4 203e 05d1 17be
000002a0: 5eca 443c f875 3e3e d871 14be 34ea 4d3d
000002b0: 4b08 b2bb 8394 a93e 6029 3e3e 41de 47bd

layers.6.weight f4 [176, 176]
0.017788567 -0.18317392 0.0034457236 0.05768453 -0.27912885 0.18383963 0.086992525 -0.06980436
0.083411366 -0.021877522 -0.11307331 0.046430808 0.081856936 0.036367957 -0.018058456 -0.02113305
0.019805448 -0.01712008 0.18007584 -0.026022412 0.01815464 0.010004701 -0.011628283 0.011271477
-0.044378243 -0.50474256 0.005792089 -0.21760112 0.16214612 0.039895214 0.17073192 0.033543035
-0.012919238 -0.14681366 0.08169745 -0.048767496 0.12934853 -0.2534791 -0.15371577 0.12373556
0.05079602 0.06330004 -0.29521713 0.033264093 -0.52524763 0.21204615 -0.040492896 0.137597
0.20010845 -0.27085865 0.15646389 -0.016396426 -0.27349898 0.066677675 -0.16597427 0.08059433
0.14211936 -0.13224429 0.13223587 -0.027731301 0.041305915 0.1358894 0.002265139 0.003768729
0.26480663 -0.22503455 -0.057711348 0.15346397 0.09878779 0.06053999 -0.09391119 0.10605165
-0.2878247 -0.09524387 -0.5994646 0.028320866 0.11285707 -1.1129564 -0.055533692 0.040332638
0.024548894 -0.23487179 -0.03506585 -0.0903936 -0.09939784 0.08188968 -0.06281446 -0.07600923
-0.0500109 -0.1775643 -0.0023404544 0.24477305 0.040106375 0.03916419 0.050789837 -0.031860244
-0.29034606 -0.0746954 -0.0092187505 0.028192298 0.0933572 0.021844445 0.2044399 -0.0552356
-0.14295024 0.08036138 0.0018455627 0.1360741 0.06647347 0.021498485 -0.03541879 -0.2966855
0.10223263 0.0006496209 0.051100384 -0.010873534 -0.0065986332 0.19131286 0.015814811 0.00045675217
-0.2086134 -0.22086878 -0.018912194 -0.0066095344 -0.008911408 -0.11180297 -0.04041952 0.13202119
-0.13857183 0.22417761 0.18391615 0.01270181 -0.0073989085 -0.07866 -0.055049196 0.0041612
-0.020126922 -0.14120834 -0.065835275 0.01602324 -0.050864745 -0.060065057 0.18877463 0.061659534
-0.18716523 -0.023247046 -0.08684682 -0.46452063 -0.23170397 0.010542773 -0.036761295 -0.21649736
0.06362455 -0.08623737 0.3308232 -0.04114153 -0.0962731 0.14430894 0.091606386 0.13105397
-0.2362832 -0.16697603 0.08861879 -0.24886844 0.061168227 -0.06501385 0.037326075 -0.50131357
0.13074052 0.026681047 -0.1322291 -0.42049843 -0.028242035 0.023451386 -0.068681695 0.009524416
-0.05591025 0.11162621 -0.01222961 0.009556693 -0.05783828 -0.08133909 -0.06556658 -0.20189631
-0.015918111 0.08724651 -0.046738554 -0.06687259 -0.022614159 -0.019864887 0.058404732 -0.029027754
0.05463195 0.02240685 -0.12576349 0.0071110446 0.031452082 0.0054065087 0.06375861 0.04583675
-0.027316332 -0.024645796 -0.21772271 0.0096566705 0.100579254 0.11846591 0.11870273 -0.020060237
0.20872836 -0.06412497 0.0072291554 -0.09481073 0.07711674 -0.12940924 0.04970336 0.02281571
-0.011496858 0.04711631 -0.13727348 0.033485536 -0.018885462 0.06371692 -0.07508277 -0.03119069
-0.018169563 -0.01144585 -0.08588623 -0.11580995 -0.12018403 -0.014312591 0.033077437 -0.06186801
0.030451547 -0.10804524 -0.02113897 0.06405118 -0.111841366 -0.13000757 0.086131565 0.037115093
-0.071699835 0.07657268 0.02226226 0.0149698015 0.078695446 -0.07575192 -0.112462685 -0.13545887
-0.08526139 -0.015607192 -0.12609449 0.01733688 0.0029319653 0.19086593 -0.09058698 -0.02297976
00000000: 54b9 913c f291 3bbe a6d1 613b 9d46 6c3d
00000010: fae9 8ebe 7540 3c3e 2329 b23d 97f5 8ebd
00000020: 94d3 aa3d 7d38 b3bc fb92 e7bd 3b2e 3e3d
00000030: 9ca4 a73d 91f6 143d 54ef 93bc 381f adbc
00000040: 093f a23c 693f 8cbc cd65 383e f42c d5bc
00000050: 0ab9 943c c2ea 233c 8e84 3ebc 00ac 383c
00000060: f6c5 35bd cf36 01bf 90cb bd3b d4d2 5ebe
00000070: a209 263e 2a69 233d 59d4 2e3e 6c64 093d
00000080: 36ab 53bc 5256 16be fe50 a73d 6dc0 47bd
00000090: f173 043e 03c8 81be ab67 1dbe 1269 fd3d
000000a0: 7d0f 503d 74a3 813d b326 97be ee3f 083d
000000b0: a176 06bf a022 593e e1db 25bd 3ae6 0c3e
000000c0: 3be9 4c3e fcad 8abe 1238 203e cc51 86bc
000000d0: 0f08 8cbe 4e8e 883d 29f5 29be a40e a53d
000000e0: bd87 113e 0c6b 07be d768 073e c12c e3bc
000000f0: 6430 293d 9726 0b3e ba72 143b c8fc 763b
00000100: bc94 873e 756f 66be bc62 6cbd a925 1d3e
00000110: 4151 ca3d c8f8 773d 8354 c0bd 9c31 d93d
00000120: c25d 93be 380f c3bd 8376 19bf 2901 e83c
00000130: 9c21 e73d 5b75 8ebf 4c77 63bd d633 253d
00000140: c31a c93c 3b82 70be 35a1 0fbd 4820 b9bd
00000150: 1891 cbbd c7b5 a73d dea4 80bd baaa 9bbd
00000160: 3bd8 4cbd 6ad3 35be 4f62 19bb c9a5 7a3e
00000170: 9546 243d a16a 203d 0109 503d e37f 02bd
00000180: 3da8 94be e7f9 98bd 3e0a 17bc 89f3 e63c
00000190: 0f32 bf3d 1ff3 b23c b158 513e b93e 62bd
000001a0: 8c61 12be 8294 a43d cfe6 f13a 0257 0b3e
000001b0: 3e23 883d 971d b03c 4b13 11bd 29e7 97be
000001c0: 575f d13d 524b 2a3a a34e 513d e826 32bc
000001d0: 5939 d8bb 85e7 433e 108e 813c 3d78 ef39
000001e0: c09e 55be 6d2b 62be bfed 9abc cb94 d8bb
000001f0: 2701 12bc f5f8 e4bd f08e 25bd 9030 073e
00000200: c6e5 0dbe d18e 653e 8454 3c3e 411b 503c
00000210: 8b72 f2bb 7e18 a1bd 447b 61bd ad5a 883b
00000220: 37e1 a4bc eb98 10be a5d4 86bd 2b43 833c
00000230: 8d57 50bd c706 76bd 234e 413e b58e 7c3d
00000240: 3ea8 3fbe 9770 bebc bfdc b1bd a6d5 edbe
00000250: ce43 6dbe 98bb 2c3c 0393 16bd 7cb1 5dbe
00000260: 974d 823d 389d b0bd a961 a93e 0584 28bd
00000270: d52a c5bd b9c5 133e 219c bb3d 0333 063e
00000280: 39f4 71be c4fb 2abe c57d b53d 5ed7 7ebe
00000290: 898b 7a3d fb25 85bd 3ae3 183d 1656 00bf
000002a0: d8e0 053e 3692 da3c 1167 07be 924b d7be
000002b0: d75b e7bc 1f1d c03c fda8 8cbd 4c0c 1c3c
000002c0: 2502 65bd 489c e43d b45e 48bc ad93 1c3c
000002d0: d5e7 6cbd 1c95 a6bd c547 86bd e8bd 4ebe
000002e0: b366 82bc 4cae b23d ed70 3fbd 7ff4 88bd
000002f0: 5441 b9bc b0bb a2bc cd39 6f3d 9dcb edbc
00000300: c0c5 5f3d 928e b73c 25c8 00be c403 e93b
00000310: e6d3 003d 1529 b13b e093 823d 51bf 3b3d
00000320: 80c6 dfbc fbe5 c9bc b4f2 5ebe 0337 1e3c
00000330: 7ffc cd3d 419e f23d 6b1a f33d 5e55 a4bc
00000340: e3bc 553e f453 83bd 8de2 ec3b 212c c2bd
00000350: 62ef 9d3d db83 04be c095 4b3d 03e8 ba3c
00000360: 515d 3cbc 08fd 403d 6b91 0cbe 2128 093d
00000370: afb5 9abc 047e 823d ffc4 99bd 9e83 ffbc
00000380: 56d8 94bc 6087 3bbc 1fe5 afbd c42d edbd
00000390: 0b23 f6bd 5c7f 6abc 357c 073d 4f69 7dbd
000003a0: 8675 f93c d346 ddbd a22b adbc 442d 833d
000003b0: 160d e5bd b420 05be bf65 b03d ff05 183d
000003c0: 5dd7 92bd 23d2 9c3d 585f b63c e643 753c
000003d0: 142b a13d d323 9bbd d652 e6bd bbb5 0abe
000003e0: 869d aebd 4fb5 7fbc ea1e 01be 1306 8e3c
000003f0: 3726 403b 5c72 433e ab85 b9bd 0d40 bcbc

layers.6.bias f4 [176]
-0.008256374 0.22136734 -0.26299194 0.012450453 -0.10132302 0.099416025 0.09982765 -0.19468881
-0.0590528 0.23225884 0.023394989 -0.034932274 0.1259991 0.07365049 0.27336463 -0.16483687
0.002453244 0.04799869 -0.26283002 -0.115107164 -0.28560185 -0.39183757 -0.07075814 0.5471115
0.24278013 -0.031577867 0.035801765 -0.02286556 0.05771029 0.1290262 -0.39760554 0.02009615
0.050207376 -0.019358572 -0.055374574 -0.061714396 -0.08431903 -0.40988827 0.09503888 -0.11897631
0.2447933 0.22437468 -0.03216059 -0.060661603 -0.13349612 -0.11643988 -0.11823674 -0.19639148
-0.16043703 0.28381088 -0.07873247 -0.09634046 0.5017661 -0.50009835 0.07700131 -0.075353526
-0.34500152 -0.026855579 0.026981903 0.2841928 -0.1715591 0.095587716 -0.03637449 -0.01653919
0.11305934 -0.0628905 -0.08668319 0.11559611 -0.051580917 -0.09519505 0.33921975 -0.072813645
0.099811524 0.26931468 -0.0058647613 -0.051429626 0.5448199 0.08856509 0.31252876 0.03864411
-0.09125522 0.113731004 0.20374174 -0.12236401 -0.21820705 -0.25543714 -0.067098886 -0.21386114
0.100839354 -0.5567541 0.5491518 0.020768542 -0.42843938 -0.168419 0.21601121 0.37084758
0.29702863 0.10771495 -0.056676682 -0.030243823 -0.20520714 -0.015410058 0.035396174 0.124505445
0.23440021 -0.26169208 -0.16932945 -0.31736153 -0.32628113 -0.017088858 -0.039259028 0.02024345
0.0071585462 0.039946854 0.3265293 -0.0994373 -0.44892362 0.10770586 0.06796247 -0.11160671
-0.10635215 0.49126974 0.50381017 -0.013091239 -0.16723649 0.15479 0.0920203 0.0301545
0.27506533 0.0055251545 -0.08482375 -0.2804377 -0.09912911 -0.46681198 0.020589653 0.28360546
-0.09128226 -0.19414456 0.03588725 -0.07841757 0.04624127 -0.17648414 0.045320313 -0.28220984
-0.12892164 0.042597458 -0.13013183 0.13172208 0.01871846 0.24108478 -0.1777781 -0.14041351
-0.015176683 0.12388083 -0.18680741 0.101956464 -0.15418187 0.043089185 0.1829251 -0.14781173
-0.09937363 -0.6184901 -0.07509273 -0.22152327 0.013093861 -0.44211286 0.032162152 -0.16035779
0.11212072 0.20998657 -0.2685329 0.4032616 -0.28868508 0.059773684 -0.3375171 -0.23449874
00000000: be45 07bc 1fae 623e e1a6 86be fcfc 4b3c
00000010: 7282 cfbd a19a cb3d 7072 cc3d 815c 47be
00000020: 59e1 71bd 43d5 6d3e d9a6 bf3c 2515 0fbd
00000030: e805 013e 11d6 963d 73f6 8b3e ffca 28be
00000040: 9bc6 203b 469a 443d a891 86be 4ebd ebbd
00000050: 683a 92be ef9e c8be a5e9 90bd 800f 0c3f
00000060: 5b9b 783e cb57 01bd dfa4 123d 8e50 bbbc
00000070: a061 6c3d 721f 043e f492 cbbe aea0 a43c
00000080: 40a6 4d3d de95 9ebc 73d0 62bd 3cc8 7cbd
00000090: 75af acbd e0dc d1be bfa3 c23d daa9 f3bd
000000a0: 18ab 7a3e 7ac2 653e d3ba 03bd 4d78 78bd
000000b0: 35b3 08be 0878 eebd 1b26 f2bd d91a 49be
000000c0: 9b49 24be a94f 913e 7d3e a1bd 264e c5bd
000000d0: be73 003f 7206 00bf ddb2 9d3d f352 9abd
000000e0: 0aa4 b0be 3b00 dcbc 2709 dd3c b881 913e
000000f0: 30ad 2fbe 7ec3 c33d 6bfd 14bd 327d 87bc
00000100: a88b e73d bccc 80bd f586 b1bd a7bd ec3d
00000110: 8346 53bd 9ff5 c2bd 36ae ad3e 521f 95bd
00000120: fc69 cc3d 9de3 893e 2f2d c0bb dfa7 52bd
00000130: 5179 0b3f 9d61 b53d c503 a03e 4949 1e3d
00000140: 04e4 babd cdeb e83d ada1 503e fb99 fabd
00000150: ab71 5fbe a8c8 82be 246b 89bd 6afe 5abe
00000160: dd84 ce3d 7087 0ebf 3695 0c3f ca22 aa3c
00000170: 685c dbbe 0876 2cbe 0b32 5d3e bcdf bd3e
00000180: 2314 983e a899 dc3d cf25 68bd e5c1 f7bc
00000190: d221 52be 787a 7cbc 94fb 103d b6fc fe3d
000001a0: 9c06 703e 81fc 85be b364 2dbe 367d a2be
000001b0: 520e a7be effd 8bbc 13ce 20bd 97d5 a53c
000001c0: 3d92 ea3b 509f 233d d92e a73e c8a5 cbbd
000001d0: 51d9 e5be e494 dc3d e82f 8b3d 0f92 e4bd
000001e0: 28cf d9bd b587 fb3e b4f9 003f a37c 56bc
000001f0: 0b40 2bbe 4581 1e3e 2475 bc3d 9206 f73c
00000200: 5dd5 8c3e 5b0c b53b 13b8 adbd 8895 8fbe
00000210: 3404 cbbd fb01 efbe a2ab a83c bc34 913e
00000220: 32f2 babd d5cd 46be 82fe 123d 6499 a0bd
00000230: 7c67 3d3d 42b8 34be cba1 393d cf7d 90be
00000240: 0904 04be ac7a 2e3d 4741 05be 27e2 063e
00000250: 7557 993c eede 763e 760b 36be 8fc8 0fbe
00000260: 9fa7 78bc 3cb5 fd3d 714a 3fbe 8dce d03d
00000270: dae1 1dbe 497e 303d b850 3b3e f55b 17be
00000280: 6784 cbbd 5e55 1ebf 38ca 99bd ffd6 62be
00000290: a287 563c 9e5c e2be 76bc 033d d534 24be
000002a0: 8c9f e53d b806 573e 257d 89be 4e78 ce3e
000002b0: 88ce 93be 40d5 743d 0bcf acbe 7020 70be

layers.8.weight f4 [176, 176]
0.039569087 0.030258035 0.03372389 0.0009822721 0.04976338 0.07730932 0.017198695 -0.043494474
0.037624124 -0.0066228043 0.046957333 -0.008284595 0.008014159 -0.04872113 -0.031060178 -0.21086638
-0.058202673 -0.04113677 -0.011920958 0.0141655095 0.050079435 0.019830585 -0.13070332 -0.016552076
0.36503723 -0.0010014082 -0.008513818 -0.0077426815 0.021228494 0.089993805 0.017704444 0.05057003
-0.08684066 -0.006424715 0.05265566 -0.05952916 0.0066849813 -0.07570753 0.026738008 0.14358991
0.072702594 0.043981005 -0.06037559 -0.7309052 -0.08898815 0.051959213 0.05136168 -0.001294513
0.0032065725 0.13812673 -0.026912902 0.016391471 -0.03584585 0.0051202215 -0.030609429 0.10758881
0.0061692316 -0.041399296 0.015223259 -0.040512484 -0.33225495 -0.09937607 -0.01188369 -0.040925875
0.043117434 -0.07838616 0.62466145 0.05470489 -0.14185776 -0.14044632 0.0066148113 0.010305676
-0.009855357 -0.046811983 -0.31561777 0.012884777 0.06259343 -0.0139117595 -0.05896145 -0.025320698
-0.004156842 -0.0320358 0.03029711 0.17784002 -0.0062693004 -0.03125327 0.02846005 0.013352788
0.048827656 -0.13855208 0.05086385 -0.009070551 -0.081058405 0.30702755 -0.007862056 0.030197017
-0.03124525 -0.01873682 0.0076377075 0.03515553 0.07702849 0.06374728 0.02328223 -0.00040324047
0.0013595606 0.060959306 -0.03318025 0.0018249742 -0.06671524 0.05373847 0.14338061 -0.045535587
-0.0028041624 0.18265225 0.055423856 -0.073556274 -0.029798264 -0.08680577 -0.7050211 0.044352457
0.0692154 0.029157441 0.053163696 -0.0013780164 0.026580472 -0.0073062195 0.16176578 0.013351231
0.059994046 0.11153953 -0.014047834 -0.03454837 0.07911036 0.0154821295 0.05572431 -0.01903449
0.038765278 0.8930526 0.47729912 0.030227765 -0.42871115 0.012850017 -0.024275383 -0.024645535
-0.09039721 -0.0526105 0.0043712575 -0.004682147 0.0062697176 -0.037929542 -0.041106205 -0.04836686
0.0134069575 -0.06655151 -0.059252333 0.054187384 0.03134536 0.0555165 -0.009686899 -0.002547196
0.01684039 -0.045096517 0.032865845 0.040594596 -0.00013773867 -0.13517989 0.052730408 0.010729384
-0.044293866 -0.117405154 0.063178815 0.04212049 0.001406924 -0.2308992 -0.023007665 0.01051861
0.078131154 -0.04768916 -0.038354788 0.012465751 0.04459497 -0.004797504 0.02727886 0.030381715
0.06731335 0.037292104 0.011586219 -0.06938122 -0.0059363716 0.0076241894 0.0273452 -0.0029529503
0.044462297 -0.060226217 -0.045124836 0.08282688 -0.022766553 0.016183423 -0.031308625 0.046152305
0.07419059 -0.03862041 -0.06890355 0.0015856761 0.032793697 0.11159908 -0.05401571 0.059300993
0.06687766 -0.06748483 0.028954497 -0.052509367 0.022394102 -0.04513231 -0.065643646 0.02186263
-0.031437013 0.21583031 -0.005438059 -0.059932295 -0.002802417 0.061657637 0.03032723 -0.042668387
-0.005853434 0.031886637 0.047724355 -0.0786609 0.062106814 0.0076322057 -0.047130093 -0.0013809035
-0.024256473 0.17513235 0.017983 0.013671378 -0.047153488 -0.03896075 0.032046456 0.014674515
-0.025393344 -0.024812615 0.014876719 0.16597919 -0.026811229 0.08680983 0.008771785 -0.05597362
0.06804277 0.049382713 -0.01379673 0.053132165 0.0953039 0.06985188 0.03128353 0.10419186
00000000: 3213 223d b3df f73c 1022 0a3d 95bf 803a
00000010: b0d4 4b3d 5954 9e3d 47e4 8c3c 4327 32bd
00000020: c11b 1a3d 1c04 d9bb 5556 403d 1cbc 07bc
00000030: d24d 033c cf8f 47bd ea71 febc 5bed 57be
00000040: ed65 6ebd 087f 28bd 1f50 43bc 7416 683c
00000050: 1820 4d3d c073 a23c 17d7 05be 3898 87bc
00000060: 29e6 ba3e af41 83ba 8a7d 0bbc 52b6 fdbb
00000070: 61e7 ad3c ac4e b83d e908 913c 8522 4f3d
00000080: 84d9 b1bd 6a86 d2bb 76ad 573d d9d4 73bd
00000090: b00d db3b 8d0c 9bbd ab09 db3c 3c09 133e
000000a0: 19e5 943d 6d25 343d 654c 77bd 9a1c 3bbf
000000b0: 6b3f b6bd 2fd3 543d a060 523d a6ac a9ba
000000c0: 5c25 523b 1871 0d3e 7278 dcbc 6847 863c
000000d0: 19d3 12bd 88c7 a73b a0c0 fabc 8657 dc3d
000000e0: 4427 ca3b 4f92 29bd fa6a 793c 6bf0 25bd
000000f0: 521d aabe ae85 cbbd cfb3 42bc e4a1 27bd
00000100: e89b 303d ec88 a0bd d0e9 1f3f 3c12 603d
00000110: 2943 11be 29d1 0fbe 0fc1 d83b 23d9 283c
00000120: 5d78 21bc ecbd 3fbd a798 a1be ac1a 533c
00000130: fc30 803d 26ee 63bc 9081 71bd 5a6d cfbc
00000140: 1e36 88bb f937 03bd a531 f83c b21b 363e
00000150: b46e cdbb 6e03 00bd 0d25 e93c a7c5 5a3c
00000160: 82ff 473d 99e0 0dbe 9d56 503d a69c 14bc
00000170: f301 a6bd b732 9d3e dacf 00bc bc5f f73c
00000180: 0af6 ffbc f67d 99bc bc45 fa3b 3fff 0f3d
00000190: 1dc1 9d3d ef8d 823d 60ba be3c 056a d3b9
000001a0: 4933 b23a 77b0 793d 04e8 07bd f933 ef3a
000001b0: 00a2 88bd df1c 5c3d 5ed2 123e 8683 3abd
000001c0: 0ac6 37bb 3109 3b3e 2004 633d aca4 96bd
000001d0: 7d1b f4bc 39c7 b1bd 437c 34bf ecaa 353d
000001e0: cec0 8d3d 96db ee3c 2dc2 593d 8f9e b4ba
000001f0: 4abf d93c 0369 efbb eea5 253e 1fbf 5a3c
00000200: 51bc 753d d66e e43d e328 66bc 9782 0dbd
00000210: 9d04 a23d c2a8 7d3c 2d3f 643d 38ee 9bbc
00000220: 57c8 1e3d 189f 643f 8d60 f43e 38a0 f73c
00000230: 0780 dbbe e188 523c 2bdd c6bc 6fe5 c9bc
00000240: 2c22 b9bd 1c7e 57bd c43c 8f3b b26c 99bb
00000250: 3472 cd3b 025c 1bbd fb5e 28bd 541c 46bd
00000260: dba8 5b3c 284c 88bd 93b2 72bd 97f3 5d3d
00000270: fe63 003d 4565 633d cdb5 1ebc dcee 26bb
00000280: dcf4 893c 20b7 38bd 569e 063d 8546 263d
00000290: f16d 10b9 996c 0abe d7fb 573d 4cca 2f3c
000002a0: 7c6d 35bd 1d72 f0bd e563 813d 8986 2c3d
000002b0: 8968 b83a d770 6cbe 927a bcbc 3f56 2c3c
000002c0: 3a03 a03d b555 43bd e919 1dbd 263d 4c3c
000002d0: 37a9 363d 6134 9dbb ea77 df3c 13e3 f83c
000002e0: 95db 893d 9bbf 183d 20d4 3d3c be17 8ebd
000002f0: e585 c2bb 56d4 f93b 0a03 e03c 4986 41bb
00000300: 191e 363d c4af 76bd d2d4 38bd 24a1 a93d
00000310: ec80 babc 1993 843c 793d 00bd 330a 3d3d
00000320: 3cf1 973d 6f30 1ebd 4e1d 8dbd 76d6 cf3a
00000330: af52 063d 0f8e e43d 943f 5dbd 99e5 723d
00000340: 28f7 883d 7d35 8abd fb31 ed3c 1014 57bd
00000350: d673 b73c a8dc 38bd 2d70 86bd 4219 b33c
00000360: 19c4 00bd 9f02 5d3e bf31 b2bb 917b 75bd
00000370: c1a8 37bb b88c 7c3d d070 f83c 0cc5 2ebd
00000380: 2ace bfbb 909b 023d 9d7a 433d f718 a1bd
00000390: b763 7e3d 9517 fa3b 7c0b 41bd 6fff b4ba
000003a0: 83b5 c6bc e555 333e 1651 933c eafd 5f3c
000003b0: 0424 41bd 4f95 1fbd 2543 033d 616d 703c
000003c0: b405 d0bc d343 cbbc 7bbd 733c 73f6 293e
000003d0: 39a3 dbbc 5ac9 b13d 88b7 0f3c 9844 65bd
000003e0: 025a 8b3d 8745 4a3d ae0b 62bc 1da1 593d
000003f0: b12e c33d 810e 8f3d 2923 003d 8b62 d53d
