Simulation/saved_models/model_large_dataset_test5.pth (torch, 540340 bytes, 10 tensors)

layers.0.weight f4 [128, 6]
0.2286041 -0.10209602 -11.190839 -0.05731876 0.07705876 0.087069675 -0.55356884 -0.18040337
-0.07360016 -0.14292243 -0.017089352 -2.8541868 0.14167283 -6.268176 -0.007644339 0.0012804765
-0.009149399 -0.006796918 0.08441538 0.2522335 -0.15706444 -0.8099383 0.03896179 0.69604003
-0.004056444 -0.0027574743 0.0036250157 -0.0006678046 1.4066747 -1.4034259 0.003914572 0.084149435
-2.862598 -0.1800519 -0.28331646 0.00817596 -0.69117534 0.952013 0.5007808 -0.50333196
-0.93336433 -0.10707314 1.0073824 0.7598921 -0.22752924 -0.042725082 0.01395839 -0.40571254
0.4667288 0.5189348 -0.2204763 -0.14037563 0.10428372 0.25570187 0.015715359 0.003869708
1.4363682 -1.4381338 0.00040202038 0.0037102972 -0.04646497 -0.04540649 -0.16852574 -0.1481168
-0.27268308 -0.20143105 -0.4968615 -0.15008616 0.014662377 0.22932966 0.16385835 -0.37150487
-0.13121592 -0.005184392 0.02652115 -0.2026347 0.023572724 -0.5897524 -0.0811936 -0.21719356
0.54963785 -0.047687244 -0.17842916 0.12565558 -0.3217808 -0.4083035 0.4855126 -0.56760114
-0.15707535 -0.22180662 1.962862 -1.9635739 0.0013439425 -0.00052997 -0.002519546 -0.0012009818
0.2971199 0.34608242 -0.17846398 0.4142094 -2.071839 -0.5168975 0.042154234 0.07727233
-0.012866819 -0.06630218 -0.07088027 -0.06743592 -3.0317805 2.781401 -0.00367462 -0.016443858
0.0030717608 -0.007211611 -0.19045848 -0.2556581 0.10539543 0.03814537 -0.15023802 -0.17949295
-0.7895762 0.17540795 -0.10690586 -0.17618793 0.0072615156 -0.13217564 -0.018680256 -0.060247164
1.0347241 -1.0562426 1.1416298 -1.1686538 0.036306325 -0.47121373 -0.24680921 -0.0017785992
-0.3692949 -0.12670289 0.31945363 0.4599841 -0.4129327 -0.36932757 -0.04096809 -1.8244635
-0.0010912417 0.0007288845 -0.44541582 0.4444711 0.69394886 -0.6937604 -0.113685995 -0.024544358
-0.52067256 -0.42432675 -0.2277558 -0.24089871 0.20662986 -0.19023906 -0.8652668 1.1507949
-0.5590009 -0.5730219 0.14110771 0.44982538 -2.0848405 -0.26770797 0.919377 -0.3264443
-0.33325484 0.3898434 -0.56741214 -0.8316477 0.61014444 0.018362226 -1.955914 2.0570443
-0.00374025 -0.004215139 0.0023244356 0.0027886152 0.14422162 0.03136213 -0.081778154 -0.17091341
-0.25235942 -0.25037074 -0.0045662774 -0.00869391 0.8231446 -0.81826526 1.2990477 -1.2942649
-0.32519728 0.085100524 -0.27371264 -0.058626227 -0.23974119 -0.38801587 -0.35634866 0.1562551
0.17979836 -0.35559988 0.46716094 -3.9714468 -2.7604432 0.12840931 -0.5434338 -0.74188316
-0.016868189 -0.9938112 -1.9474142 -0.4463395 -0.57455647 -0.33807793 -0.464438 0.21112238
0.7865701 -1.115255 0.3023665 -0.9567254 -0.23234506 -0.2653096 -6.7793107 0.1251637
-0.078209065 0.036442973 -0.8384197 -1.8613808 -0.004117787 -0.009523008 -0.81573236 0.8094395
-1.2698857 1.2632048 1.2079405 0.505666 0.56072706 -0.91378546 -0.364201 -2.5839474
1.4057748 0.17072105 -0.56221825 0.2841396 -1.2748324 -0.042283002 -0.1786854 0.1245806
-0.10325787 -0.18734396 -0.71999085 0.04897365 -0.042031646 -0.05739338 -0.7747123 0.6936335
00000000: 3117 6a3e b817 d1bd ad0d 33c1 13c7 6abd
00000010: fcd0 9d3d 9651 b23d b0b6 0dbf a9bb 38be
00000020: aebb 96bd 425a 12be f8fe 8bbc ffaa 36c0
00000030: af12 113e e694 c8c0 5d7d fabb a9d5 a73a
00000040: 5ce7 15bc aeb8 debb f9e1 ac3d c024 813e
00000050: 80d5 20be 1e58 4fbf 6696 1f3d ae2f 323f
00000060: ebeb 84bb beb6 34bb ac91 6d3b 9c0f 2fba
00000070: eb0d b43f 76a3 b3bf cf45 803b 8a56 ac3d
00000080: ce34 37c0 865f 38be db0e 91be 76f4 053c
00000090: def0 30bf 20b7 733f 2c33 003f 5dda 00bf
000000a0: f7f0 6ebf 2a49 dbbd e8f1 803f 4a88 423f
000000b0: 6dfd 68be 7f00 2fbd bbb1 643c 8eb9 cfbe
000000c0: 14f7 ee3e e9d8 043f 8ac4 61be a1be 0fbe
000000d0: b492 d53d 5beb 823e 7fbd 803c ed9a 7d3b
000000e0: eada b73f c514 b8bf 43c6 d239 7528 733b
000000f0: 0d52 3ebd 28fc 39bd 0392 2cbe eeab 17be
00000100: 1e9d 8bbe f143 4ebe a164 febe 30b0 19be
00000110: 773a 703c 65d5 6a3e 7cca 273e e335 bebe
00000120: 775d 06be d5e1 a9bb e242 d93c 797f 4fbe
00000130: 961b c13c 03fa 16bf d548 a6bd fd67 5ebe
00000140: 11b5 0c3f b353 43bd 22b6 36be dbab 003e
00000150: 74c0 a4be 280d d1be 1c95 f83e 4f4e 11bf
00000160: 5cd8 20be 4621 63be 103f fb3f 6456 fbbf
00000170: 3a27 b03a afed 0aba f81e 25bb 436a 9dba
00000180: 1920 983e b731 b13e 43bf 36be 4113 d43e
00000190: 0399 04c0 6553 04bf eba9 2c3d f540 9e3d
000001a0: 5acf 52bc 70c9 87bd ad29 91bd d81b 8abd
000001b0: b108 42c0 7902 3240 e5d1 70bb 45b5 86bc
000001c0: 984f 493b 614f ecbb 8c07 43be 9ee5 82be
000001d0: 8fd9 d73d 523e 1c3d ffd7 19be 00cd 37be
000001e0: aa21 4abf 249e 333e 76f1 dabd 9c6a 34be
000001f0: 02f2 ed3b 0d59 07be 5607 99bc bbc5 76bd
00000200: d771 843f f532 87bf ed20 923f 7396 95bf
00000210: f1b5 143d ed42 f1be 8ebb 7cbe e31f e9ba
00000220: 3914 bdbe 67be 01be 6d8f a33e 0983 eb3e
00000230: ea6b d3be 8118 bdbe 28ce 27bd 0588 e9bf
00000240: ff07 8fba 9c12 3f3a 8b0d e4be b791 e33e
00000250: a2a6 313f 489a 31bf 34d4 e8bd 4011 c9bc
00000260: cc4a 05bf 5b41 d9be d138 69be 27ae 76be
00000270: c796 533e 07ce 42be 2082 5dbf 3f4d 933f
00000280: af1a 0fbf 90b1 12bf 8a7e 103e 834f e63e
00000290: 076e 05c0 0511 89be 4b5c 6b3f b523 a7be
000002a0: 61a0 aabe 8e99 c73e ec41 11bf dde6 54bf
000002b0: 6d32 1c3f 616c 963c 645b fabf 9da6 0340
000002c0: fb1e 75bb 261f 8abb 8f55 183b 33c1 363b
000002d0: d5ae 133e 9475 003d 4e7b a7bd ed03 2fbe
000002e0: 4135 81be 9830 80be b6a0 95bb e770 0ebc
000002f0: 9bb9 523f d579 51bf 3247 a63f 79aa a5bf
00000300: 4280 a6be 2f49 ae3d 1024 8cbe 0e22 70bd
00000310: b77e 75be 04aa c6be 5573 b6be 5601 203e
00000320: 101d 383e 3011 b6be b82f ef3e 2f2c 7ec0
00000330: 1aab 30c0 bb7d 033e 7a1e 0bbf 0eec 3dbf
00000340: 282f 8abc 696a 7ebf de44 f9bf 9c86 e4be
00000350: 2216 13bf 8d18 adbe d1ca edbe 7730 583e
00000360: a85c 493f adc0 8ebf c8cf 9a3e f5eb 74bf
00000370: ddeb 6dbe a9d6 87be 1df0 d8c0 ea2a 003e
00000380: 132c a0bd 3a45 153d aca2 56bf ba41 eebf
00000390: 80ee 86bb 6406 1cbc d6d3 50bf 6d37 4f3f
000003a0: 9d8b a2bf b2b0 a13f cb9d 9a3f 5473 013f
000003b0: cf8b 0f3f d8ed 69bf 8e78 babe 655f 25c0
000003c0: 6ef0 b33f 80d1 2e3e 89ed 0fbf bf7a 913e
000003d0: b52d a3bf f130 2dbd 4ef9 36be 1d24 ff3d
000003e0: dd78 d3bd 18d7 3fbe 5251 38bf 9898 483d
000003f0: 6029 2cbd 5215 6bbd 8c53 46bf f791 313f

layers.0.bias f4 [128]
-0.020479588 3.0848565 2.7406404 -5.743995 -2.7959628 1.4156703 -3.7823372 -5.594938
-4.949754 -0.09331734 0.2637552 -0.15135445 -0.22314535 -4.2138147 1.1868564 -0.057154045
-1.6888452 -0.5563038 -7.325609 1.5406402 -0.64297587 -9.951834 0.112060875 -0.53825545
-0.0030812512 1.9856405 -4.543651 -6.1690507 -3.2108243 -3.503741 -0.6175055 -7.7828813
-0.1668107 -2.0272748 3.7221668 3.5942519 -1.8192221 2.7550583 -7.5605106 -6.4077287
-6.547375 -0.5474262 -8.79447 0.4128746 -0.5380159 -1.4330775 -4.291487 -1.5694435
-0.012617884 -0.093546234 -2.389526 0.017193694 -7.2395225 0.10306575 -2.6170948 -4.4004655
1.2946018 0.7273439 -4.278324 -5.0099735 -0.72851413 -0.045577526 -0.36898357 1.0087892
-1.2499517 1.385351 -0.4673915 0.8225397 0.29502827 -1.8047686 -4.349953 -4.9564962
-7.625786 0.118584715 -5.240339 -5.640253 -8.502223 -0.14966369 -1.1891586 -2.6443725
-1.6152626 -5.8005276 -2.5701218 2.8625376 -0.62297493 -0.3451533 0.021403119 -1.50955
-0.03652012 -11.535311 -2.0832064 0.2359701 -0.033987045 -3.3297482 1.7983556 -0.016528562
6.349912 7.8936524 -0.8485467 -0.104201734 -0.9751626 -1.8641489 -0.35499695 -0.67937875
-3.7178266 0.03470414 1.9040986 -0.5176742 -2.6973279 -2.7894096 1.0136745 -8.100756
6.285016 -1.4988031 -0.11787619 -1.9328179 -5.1141706 -0.4154954 0.75818783 -3.1714783
-2.0825698 0.46204785 -2.3477504 -1.0808072 -3.1638443 0.06476253 -7.7292542 -0.95646393
00000000: cfc4 a7bc 4a6e 4540 a766 2f40 cfce b7c0
00000010: 0ef1 32c0 af34 b53f d011 72c0 bb09 b3c0
00000020: 6364 9ec0 291d bfbd ec0a 873e a9fc 1abe
00000030: 3780 64be 92d7 86c0 e9ea 973f 5c1a 6abd
00000040: 142c d8bf ed69 0ebf 646b eac0 b333 c53f
00000050: 119a 24bf b63a 1fc1 2c80 e53d 1ccb 09bf
00000060: d1ee 49bb 7829 fe3f 9765 91c0 dd68 c5c0
00000070: 257e 4dc0 4b3d 60c0 d714 1ebf 5d0d f9c0
00000080: 6dd0 2abe dfbe 01c0 fb37 6e40 3908 6640
00000090: 45dc e8bf e052 3040 b4ef f1c0 1d0c cdc0
000000a0: 1984 d1c0 2024 0cbf 26b6 0cc1 4d64 d33e
000000b0: 69bb 09bf 156f b7bf dd53 89c0 86e3 c8bf
000000c0: 3ebb 4ebc 2b95 bfbd feed 18c0 cad9 8c3c
000000d0: 2baa e7c0 2314 d33d 7b7e 27c0 9dd0 8cc0
000000e0: 83b5 a53f 3633 3a3f 08e8 88c0 b451 a0c0
000000f0: e77f 3abf 80af 3abd 6aeb bcbe 0120 813f
00000100: 6bfe 9fbf 2e53 b13f f04d efbe f691 523f
00000110: f20d 973e a802 e7bf d132 8bc0 9e9b 9ec0
00000120: 7006 f4c0 8bdc f23d dbb0 a7c0 f47c b4c0
00000130: 1b09 08c1 7041 19be 5936 98bf 663d 29c0
00000140: edc0 cebf ec9d b9c0 e07c 24c0 d133 3740
00000150: 497b 1fbf efb7 b0be 9855 af3c ef38 c1bf
00000160: 1f96 15bd a290 38c1 4153 05c0 25a2 713e
00000170: 0036 0bbd 981a 55c0 8430 e63f e866 87bc
00000180: 7b32 cb40 cd98 fc40 5b3a 59bf b867 d5bd
00000190: 42a4 79bf 6e9c eebf 29c2 b5be c4eb 2dbf
000001a0: dff0 6dc0 ee25 0e3d 81b9 f33f 4c86 04bf
000001b0: 05a1 2cc0 b085 32c0 16c0 813f b29c 01c1
000001c0: da1e c940 c8d8 bfbf 1269 f1bd 9466 f7bf
000001d0: 49a7 a3c0 d0bb d4be 9918 423f 80f9 4ac0
000001e0: d348 05c0 8991 ec3e 8b41 16c0 e457 8abf
000001f0: 6d7c 4ac0 38a2 843d 0d56 f7c0 d2da 74bf

layers.2.weight f4 [256, 128]
-0.0951489 -0.02191805 -0.013838455 -0.033760168 0.08246026 0.006529726 -0.051858466 0.056103516
0.07095986 -0.08409549 -0.06064687 -0.061958194 -0.063716784 0.05645296 -0.038064856 -0.033713184
-0.07928807 -0.011080274 -0.102447964 0.049445596 -0.05239819 -0.07762383 0.05778862 0.07907706
-0.07662153 -0.087395586 0.020646572 -0.026457278 -0.10639639 0.046103284 0.0044482113 0.0755141
-0.033574812 -0.017859608 0.04304079 0.025269266 0.08706982 0.0824228 -0.049756113 -0.047229026
0.03721835 0.02804965 -0.061512902 -0.0052166483 -0.017024701 -0.02709736 0.020447757 0.02547662
0.017214647 -0.064600304 -0.010452084 -0.03958218 -0.098546 0.008005276 -0.051837586 -0.082681276
-0.05477004 0.009376724 0.0074388445 -0.04271275 -0.05887764 -0.10231235 0.02053719 -0.053888973
-0.1077748 -0.017986357 -0.015359543 -0.012567678 -0.007703781 -0.023666553 -0.044312935 0.009544803
-0.0075496384 0.046186466 -0.077477604 0.030122383 -0.0749042 -0.052808344 -0.006074477 -0.027558828
-0.03706294 -0.06716472 -0.04326214 -0.09426952 -0.056934934 -0.038412772 -0.04629855 -0.058359664
0.054790147 -0.04345228 0.015015102 -0.03423212 -0.08391988 -0.076360755 -0.06799348 0.036582083
-0.10298299 -0.07129052 0.018638743 -0.08293525 -0.103404194 -0.04303794 -0.032956902 0.010391412
-0.08915712 -0.07356696 -0.06741771 -0.04587426 0.067601606 0.028902413 0.07499491 -0.03342245
-0.04658741 0.011207048 -0.05138701 -0.09017503 0.018051505 0.06919014 -0.103430346 -0.08581947
-0.062401295 -0.11466893 -0.07443336 -0.09726575 0.04937292 0.029216334 -0.03043062 -0.018938698
0.026845908 0.023079379 -0.13170145 -0.0010437573 -0.03444681 -0.085075505 -0.023417497 -0.11273014
0.06854711 -0.045221575 0.019989798 -0.0027224612 0.062102403 -0.034674972 0.000288225 -0.07628109
-0.07894859 -0.03526452 0.017457368 0.02615894 -0.035752617 0.01331178 -0.113077514 -0.037911683
0.028810399 -0.088208035 -0.040237367 -0.023394506 0.04129565 -0.015372058 -0.08040891 0.050135184
-0.0075599705 -0.07904323 0.047267463 -0.09230242 0.07798307 -0.052078396 -0.089007355 -0.09618278
0.045285564 -0.004612288 0.07638345 0.017739508 -0.08610494 -0.012489384 -0.07437728 0.02339498
0.047969747 -0.09822695 -0.019212462 -0.010802309 -0.09438418 -0.045748275 -0.13496444 -0.03880895
0.0614321 -0.00061524403 -0.10318839 -0.08031813 -0.06573125 -0.08019255 -0.09569376 -0.0338384
0.014595314 -0.07595994 0.06038619 -0.029860465 -0.035369243 0.079447575 -0.14119586 -0.023846144
0.005282117 -0.077459656 -0.033087254 -0.13482709 -0.039170437 -0.063454345 -0.12701438 -0.048647217
0.03327539 -0.10766661 0.0062555242 -0.088263206 0.017600419 -0.09824405 0.025773354 -0.15957555
0.074524395 0.012564235 -0.079653285 0.022367094 0.036600314 -0.11430102 -0.112555385 -0.04968566
0.0033024547 -0.050028123 -0.039362613 -0.06954622 -0.08453703 -0.099714145 -0.11689565 -0.050566703
-0.12519683 -0.096765146 -0.14664246 0.065206945 0.11208495 -0.075561926 0.06331554 0.0302353
-0.0681538 -0.10705501 -0.05294644 -0.060011495 0.008512517 0.08431005 -0.15208173 -0.046744905
0.0020288627 0.054098003 0.040972944 -0.069651745 0.043186642 0.06310194 -0.102404036 -0.06260448
00000000: 6ddd c2bd 7b8d b3bc b0ba 62bc 1a48 0abd
00000010: ede0 a83d 50f7 d53b 8b69 54bd cdcc 653d
00000020: 6753 913d 423a acbd da68 78bd e0c7 7dbd
00000030: f27d 82bd 383b 673d e5e9 1bbd d616 0abd
00000040: c961 a2bd 0a8a 35bc 3dd0 d1bd 7787 4a3d
00000050: 7c9f 56bd 3ef9 9ebd c3b3 6c3d 27f3 a13d
00000060: c0eb 9cbd 75fc b2bd 0023 a93c efbc d8bc
00000070: 5ae6 d9bd ccd6 3c3d 4dc2 913b 23a7 9a3d
00000080: be85 09bd 504e 92bc 8a4b 303d 7e01 cf3c
00000090: a951 b23d 49cd a83d 11cd 4bbd 3973 41bd
000000a0: 4572 183d 61c8 e53c f4f4 7bbd 6bf0 aabb
000000b0: 6377 8bbc 48fb ddbc 0e82 a73c 58b4 d03c
000000c0: bb05 8d3c 2a4d 84bd 383f 2bbc ed20 22bd
000000d0: 7cd2 c9bd 9028 033c a653 54bd cd54 a9bd
000000e0: 8d56 60bd d5a0 193c 8dc1 f33b 91f3 2ebd
000000f0: ae29 71bd 2389 d1bd 9c3d a83c afba 5cbd
00000100: 09b9 dcbd 2058 93bc 98a6 7bbc a9e8 4dbc
00000110: 0070 fcbb 5ce0 c1bc 7b81 35bd ce61 1c3c
00000120: f562 f7bb 052e 3d3d 94ac 9ebd 37c3 f63c
00000130: 6067 99bd 904d 58bd 680c c7bb 0dc3 e1bc
00000140: 4fcf 17bd a88d 89bd a433 31bd 6110 c1bd
00000150: 9b34 69bd b656 1dbd 8ca3 3dbd 8b0a 6fbd
00000160: a26b 603d 05fb 31bd e701 763c fb36 0cbd
00000170: 30de abbd 0763 9cbd 2a40 8bbd 18d7 153d
00000180: bfe8 d2bd c400 92bd 47b0 983c f5d9 a9bd
00000190: 94c5 d3bd 8d48 30bd d1fd 06bd be40 2a3c
000001a0: 0298 b6bd 46aa 96bd 4c12 8abd a6e6 3bbd
000001b0: b672 8a3d c1c4 ec3c ee96 993d fbe5 08bd
000001c0: 71d2 3ebd c49d 373c 2f7b 52bd b0ad b8bd
000001d0: c0e0 933c 8fb3 8d3d 4ad3 d3bd 1ec2 afbd
000001e0: 8098 7fbd 8bd7 eabd 8470 98bd 4433 c7bd
000001f0: 423b 4a3d 1857 ef3c a349 f9bc 5425 9bbc
00000200: f3eb db3c f710 bd3c bfdc 06be afce 88ba
00000210: 1918 0dbd 113c aebd 0dd6 bfbc 0fdf e6bd
00000220: 6d62 8c3d 423a 39bd a5c1 a33c 526b 32bb
00000230: 175f 7e3d 5807 0ebd e81c 9739 4339 9cbd
00000240: ccaf a1bd 8871 10bd c102 8f3c 464b d63c
00000250: 5671 12bd a719 5a3c 2f95 e7bd 4849 1bbd
00000260: c903 ec3c 6aa6 b4bd f0cf 24bd d6a5 bfbc
00000270: a125 293d 16db 7bbc 6dad a4bd 8d5a 4d3d
00000280: a1b9 f7bb 6be1 a1bd 879b 413d 0d09 bdbd
00000290: 96b5 9f3d 2850 55bd 7d49 b6bd 7afb c4bd
000002a0: 5b7d 393d ad22 97bb ed6e 9c3d 7252 913c
000002b0: c957 b0bd 46a0 4cbc 1e53 98bd d4a6 bf3c
000002c0: ed7b 443d 362b c9bd 7463 9dbc 2bfc 30bc
000002d0: 7e4c c1bd 8b62 3bbd 1e34 0abe 22f6 1ebd
000002e0: 3aa0 7b3d 5448 21ba 6f54 d3bd d57d a4bd
000002f0: 1b9e 86bd fe3b a4bd 17fb c3bd 229a 0abd
00000300: 2f21 6f3c e390 9bbd 8257 773d ef9d f4bc
00000310: 57df 10bd 69b5 a23d a695 10be fd58 c3bc
00000320: 9c15 ad3b 2ba3 9ebd 8086 07bd 1d10 0abe
00000330: 2e71 20bd 5af4 81bd 0f10 02be 4e42 47bd
00000340: c64b 083d 5080 dcbd 24fb cc3b 57c3 b4bd
00000350: c12e 903c 2d34 c9bd a422 d33c c667 23be
00000360: 3fa0 983d 39da 4d3c 4321 a3bd 323b b73c
00000370: 36ea 153d a716 eabd 7083 e6bd 3183 4bbd
00000380: ff6d 583b 4aea 4cbd b13a 21bd 406e 8ebd
00000390: c021 adbd ee36 ccbd fd66 efbd 081f 4fbd
000003a0: 9933 00be ce2c c6bd 7129 16be 388b 853d
000003b0: cb8c e53d 36c0 9abd 94ab 813d 05b0 f73c
000003c0: 3894 8bbd a83f dbbd 5ede 58bd 9dce 75bd
000003d0: 1678 0b3c bfaa ac3d 50bb 1bbe 9677 3fbd
000003e0: abf6 043b de95 5d3d 3fd3 273d 93a5 8ebd
000003f0: 7ae4 303d 973b 813d 35b9 d1bd c736 80bd

layers.2.bias f4 [256]
-0.086239174 -0.06787592 -0.15554789 -0.10200171 -0.30488133 -0.30455375 -7.9762554 -0.17008217
0.6448405 -0.08037268 -1.0531769 -0.06028044 0.015667526 -0.06476642 -1.0923202 -0.022516986
-0.24014732 -10.445519 -0.0822505 -0.030523885 -0.12461007 -0.9872023 -2.2939692 1.6054885
-0.020644996 -3.6047149 5.8427224 -2.7864385 -0.4871521 -0.09531068 -0.32050323 0.00013033702
-0.07505996 2.9995005 -0.007862889 -0.3887253 -1.6959658 -0.11059636 -0.21623947 -0.37721443
-0.05673717 -0.16342919 0.011753526 -0.39351594 -0.11910584 -0.060662508 -0.02148414 -0.08925024
-0.88043857 0.0071675135 -0.0410119 0.016001297 -1.8239789 -0.56144834 -0.22158645 -0.030152457
-1.8846577 -0.1209173 0.018008726 -0.080446936 -0.0671954 -2.378435 -0.0067519313 -0.09913671
-0.04460924 0.0120465355 -0.04070272 -2.1858613 -0.12702584 0.17710191 -0.0052056564 -0.03739809
0.01610066 -7.3000565 -0.012731588 -0.1466054 -2.1018226 -0.12621024 -0.49681556 -4.8261337
-0.21674569 -0.17556834 -0.10351124 -0.1653479 -4.788862 -1.7946236 -0.08829315 -0.008217799
-0.09832135 -0.08266027 1.4564885 -0.19815254 0.019617463 -0.06539542 -0.1881489 -1.5870036
3.109778 -4.948068 1.7654593 -0.20809552 -4.2915907 0.00073665846 -2.7039645 1.4015378
-0.09447487 -0.17098051 -0.09340003 -3.5335069 -0.044083625 -0.14585534 -0.8627477 3.2242315
-0.0055782003 -0.18732771 0.020299528 -1.6466941 -0.05161462 -0.40397373 -2.268869 -0.13988075
-0.05675701 -2.6721923 -0.0075845015 -0.10163044 -0.07212763 -2.3160806 -0.13679308 1.084169
0.027830947 -0.080030516 0.06003847 2.2164123 -3.2574577 -1.7644764 -7.04 -0.10239795
0.015401795 -0.06600422 -0.102994636 0.12663801 -0.009190561 -0.100317754 -8.733687 -0.1249136
-0.13716714 -0.023800718 -0.1541631 -0.07413448 -0.05401811 -0.17335606 -0.0500368 0.00807075
-0.5555642 -3.9050226 -0.062522955 -0.10473671 -0.03455972 -0.048553832 -3.5359306 0.36158913
-3.642426 1.5391276 -0.15621871 -0.13532153 0.02621423 -0.08012153 -0.079369985 -2.9671614
-0.26934275 -0.09712228 0.0055477177 -0.019358175 -0.028609175 -0.094246544 -0.00878858 -0.06109588
-0.03887808 -0.053122424 -2.3760347 -0.10605688 -0.40663353 -0.101028666 0.0040428494 -0.12465137
-0.1817743 -3.7413876 -0.14907496 -0.14611207 -0.10659074 -0.111783735 0.0061870306 0.0626824
-0.0712957 6.9510183 1.5225104 -2.3635163 0.032042198 -0.085801266 -0.83875227 -0.024021903
-0.012358646 -0.6066055 -0.035402108 0.5898346 -0.12665302 -0.10049541 -0.043983456 -0.15215333
-0.5611717 -0.14372018 0.0413207 -0.33187407 -0.124565706 -0.05239869 -0.16781853 -0.19244345
-0.07383597 -8.284349 -0.027357802 -0.11018317 -1.7486565 -0.082589135 0.05845714 -6.6739135
0.7356261 -0.03916422 -0.01588552 -0.13806143 -0.0760261 -0.012315493 0.06569307 -0.16998515
-0.11917359 0.010305416 -0.15843594 -0.11461516 -0.045531694 -0.09560891 -0.06408418 -0.037079267
-5.072224 -0.087150715 -0.113736846 0.089781374 -0.053480584 -0.0936249 -0.057251275 -0.058014605
-0.073242664 -0.07328757 -0.14686278 -0.1699104 -0.10481979 0.0095016295 1.5822998 -0.035961695
00000000: 2a9e b0bd 8802 8bbd f247 1fbe 46e6 d0bd
00000010: 6819 9cbe 78ee 9bbe 7c3d ffc0 052a 2ebe
00000020: 4414 253f 6f9a a4bd 80ce 86bf 9fe8 76bd
00000030: 2f59 803c 42a4 84bd 26d1 8bbf 8b75 b8bc
00000040: 2ee9 75be d920 27c1 f372 a8bd 3a0d fabc
00000050: 9033 ffbd 4ab9 7cbf 64d0 12c0 a680 cd3f
00000060: b21f a9bc a6b3 66c0 95f7 ba40 0255 32c0
00000070: 006c f9be 3f32 c3bd 0019 a4be 14ab 0839
00000080: 09b9 99bd d1f7 3f40 59d3 00bc 0107 c7be
00000090: 6815 d9bf 5880 e2bd e16d 5dbe 4022 c1be
000000a0: 3c65 68bd fb59 27be dc91 403c ec7a c9be
000000b0: c3ed f3bd 4079 78bd 82ff afbc d4c8 b6bd
000000c0: 6c64 61bf 76dd ea3b 18fc 27bd 2715 833c
000000d0: 2478 e9bf 14bb 0fbf 8fe7 62be 4902 f7bc
000000e0: 773c f1bf 7da3 f7bd 0987 933c 5dc1 a4bd
000000f0: be9d 89bd 4738 18c0 4e3f ddbb 3008 cbbd
00000100: 2eb8 36bd d55e 453c e5b7 26bd 27e5 0bc0
00000110: 1013 02be 345a 353e 3694 aabb bd2e 19bd
00000120: 88e5 833c 109a e9c0 2798 50bc ba1f 16be
00000130: 4384 06c0 423d 01be 9c5e febe b06f 9ac0
00000140: 95f2 5dbe 30c8 33be b3fd d3bd f650 29be
00000150: 5c3e 99c0 3ab6 e5bf 0ad3 b4bd f2a3 06bc
00000160: b45c c9bd ca49 a9bd 376e ba3f 80e8 4abe
00000170: cdb4 a03c 09ee 85bd 1baa 40be ef22 cbbf
00000180: 9a06 4740 9356 9ec0 92fa e13f fe16 55be
00000190: b654 89c0 501c 413a c10d 2dc0 9765 b33f
000001a0: 0a7c c1bd 8415 2fbe 8448 bfbd fa24 62c0
000001b0: 0891 34bd 1a5b 15be 09dd 5cbf cf59 4e40
000001c0: 56c9 b6bb d6d2 3fbe 324b a63c dfc6 d2bf
000001d0: da69 53bd a5d5 cebe 2635 11c0 e63c 0fbe
000001e0: 0a7a 68bd 3305 2bc0 6987 f8bb 9f23 d0bd
000001f0: a7b7 93bd aa3a 14c0 7c13 0cbe 0dc6 8a3f
00000200: bafd e33c 0ae7 a3bd e6ea 753d b3d9 0d40
00000210: 307a 50c0 5dda e1bf ae47 e1c0 04b6 d1bd
00000220: cf57 7c3c 382d 87bd daee d2bd 65ad 013e
00000230: 0294 16bc 6573 cdbd 2fbd 0bc1 b4d2 ffbd
00000240: 8b75 0cbe b9f9 c2bc efdc 1dbe d1d3 97bd
00000250: 1842 5dbd 4084 31be 63f3 4cbd 2e3b 043c
00000260: 7539 0ebf e4eb 79c0 090c 80bd 3380 d6bd
00000270: 7e8e 0dbd 62e0 46bd b04c 62c0 3622 b93e
00000280: 821d 69c0 2202 c53f ccf7 1fbe ba91 0abe
00000290: 3abf d63c c216 a4bd bb8c a2bd f9e5 3dc0
000002a0: 4be7 89be 0ce8 c6bd a1c9 b53b 0995 9ebc
000002b0: ca5d eabc 5504 c1bd fafd 0fbc ac3f 7abd
000002c0: 9f3e 1fbd e696 59bd f410 18c0 5934 d9bd
000002d0: 4532 d0be 1ee8 cebd e179 843b 3849 ffbd
000002e0: 0b23 3abe e572 6fc0 1ba7 18be 679e 15be
000002f0: 3f4c dabd dfee e4bd 93bc ca3b a15f 803d
00000300: 7b03 92bd be6e de40 9fe1 c23f da43 17c0
00000310: ae3e 033d 93b8 afbd 78b8 56bf 95c9 c4bc
00000320: eb7b 4abc 804a 1bbf cd01 11bd 66ff 163f
00000330: 54b1 01be 8ad0 cdbd ff27 34bd 15ce 1bbe
00000340: f3a8 0fbf 622b 13be e53f 293d 66eb a9be
00000350: 4e1c ffbd 02a0 56bd 9fd8 2bbe e50f 45be
00000360: 5037 97bd b28c 04c1 781d e0bc b7a7 e1bd
00000370: fad3 dfbf 7e24 a9bd c170 6f3d b390 d5c0
00000380: fe51 3c3f a96a 20bd 5a22 82bc fa5f 0dbe
00000390: 92b3 9bbd ecc6 49bc 178a 863d 9610 2ebe
000003a0: 4811 f4bd 0cd8 283c 083d 22be 5abb eabd
000003b0: 717f 3abd 9bce c3bd 913e 83bd 6ee0 17bd
000003c0: a94f a2c0 137c b2bd ddee e8bd 4cdf b73d
000003d0: 750e 5bbd 69be bfbd 5080 6abd b9a0 6dbd
000003e0: 4000 96bd cb17 96bd 3263 16be fefc 2dbe
000003f0: c2ab d6bd b9ac 1b3c cd88 ca3f 924c 13bd

layers.4.weight f4 [256, 256]
0.060400918 -0.009752564 -0.07955425 -0.03692417 0.009059423 -0.08992539 -0.03451664 0.010041416
-0.037732236 -0.023029432 -0.044209648 0.027449608 0.013538198 -0.0427073 -0.07687469 0.034201253
-0.023433786 0.003200212 -0.047776185 0.05858373 -0.012754083 -0.05747383 -0.06718215 -0.073966846
-0.056876436 -0.0704358 -0.037730906 -0.03387012 -0.092908196 -0.0012626052 -0.07695815 0.010778882
-0.0035651922 0.027332786 -0.03586218 -0.036174446 -0.066195585 -0.036700398 -0.050841317 -0.028136278
0.019199068 -0.04910506 -0.047147222 -0.05921109 -0.008741036 0.053045668 -0.029759467 0.031315964
-0.05114221 -0.05779408 -0.04660093 -0.033413652 -0.029733812 -0.0023868165 -0.050518386 -0.002564618
-0.013231732 0.03557948 0.051631466 0.015016653 -0.01578091 -0.005481505 0.0348459 -0.012829
-0.00888355 0.00940226 -0.025461413 -0.025650756 -0.007706985 -0.1306373 0.0048860237 -0.038367398
-0.031023555 -0.010512505 -0.034691524 -0.010939829 0.033612132 -0.016881369 -0.011580676 -0.00019141925
0.036965013 -0.034807254 -0.020857193 0.055588737 -0.005927941 -0.05308797 -0.04500766 0.011318892
-0.018663645 0.034724988 -0.12697083 -0.009102374 -0.010532789 -0.0603872 -0.042514995 0.003837717
-0.022076312 -0.033235088 -0.03444053 -0.044944588 0.0042816815 -0.04130862 0.008000663 -0.010891175
0.047070988 0.02954699 -0.014915428 0.0004369463 -0.026584245 0.024124453 -0.043022264 -0.08833211
0.021584474 -0.019321686 0.019413628 0.048967525 -0.026831718 0.0011817039 0.008745336 -0.02823817
0.042085625 0.016271546 0.020221159 -0.013293572 -0.033577967 -0.039678045 0.05987051 -0.08870742
-0.05345212 0.04015085 -0.026801322 0.0090873195 -0.021713149 0.03970628 -0.0027055645 -0.053191673
-0.016256034 -0.0027099103 -0.010914922 0.04090112 0.010856755 0.05869901 -0.06716539 0.058189705
-0.05376334 -0.021482386 0.0041463776 0.046522006 0.04682967 -0.0031120458 0.023509094 -0.05011029
-0.10838988 -0.022889435 -0.021629259 -0.030190773 -0.004075341 -0.041218054 0.028134352 -0.04938163
-0.0825278 -0.005482913 -0.014041655 0.04639209 0.062386617 -0.057318747 0.014763221 -0.08714328
0.009233353 -0.049353994 -0.047517523 -0.005199231 -0.009095937 0.02185663 0.0287158 0.051623844
-0.036738474 0.014139086 -0.040002227 -0.009591326 0.02740997 -0.034820743 -0.056210153 0.057990685
-0.108934976 0.033039156 0.00856933 -0.017731221 -0.008838707 -0.017203256 -0.045863524 0.051968895
0.016574997 -0.11969556 -0.09076661 0.02214558 -0.062185623 0.06123287 -0.048645087 -0.017473973
0.043395367 -0.03408086 0.027031714 -0.059626818 -0.046661522 0.036201738 0.022870786 -0.047250614
-0.076408215 0.020656884 0.0053534806 -0.0023086504 -0.066753164 0.01670894 -0.046854764 0.02951195
-0.047483373 -0.057009038 -0.033657305 0.018084962 0.032539137 -0.038313992 -0.043036 -0.0498935
0.00083225046 -0.018915057 0.024159923 -0.009230457 0.014126919 -0.065993294 -0.019741356 -0.023585401
-0.018781126 0.036020465 0.017978564 -0.02861292 -0.051151104 0.0029408708 0.037968393 0.05290639
0.010340455 0.014522343 -0.036037683 0.0021085802 -0.062010087 -0.013609834 -0.010442831 0.057824194
-0.014172245 -0.013394724 -0.061512716 -0.06209527 -0.03382603 -0.07483416 -0.07181996 -0.0054395795
00000000: f466 773d 38c9 1fbc 57ed a2bd cc3d 17bd
00000010: f96d 143c ce2a b8bd 5261 0dbd c084 243c
00000020: 1e8d 1abd 38a8 bcbc 2d15 35bd 00de e03c
00000030: 51cf 5d3c daed 2ebd 7a70 9dbd 9d16 0c3d
00000040: 36f8 bfbc a6ba 513b f6b0 43bd 7ef5 6f3d
00000050: 80f6 50bc ae69 6bbd cc96 89bd ee7b 97bd
00000060: 44f7 68bd a540 90bd b98b 1abd 65bb 0abd
00000070: a746 bebd 007e a5ba 3c9c 9dbd e899 303c
00000080: 00a6 69bb 02e9 df3c 39e4 12bd a82b 14bd
00000090: 8d91 87bd 2853 16bd fc3e 50bd 0d7e e6bc
000000a0: 5d47 9d3c 6322 49bd 721d 41bd 5487 72bd
000000b0: 9036 0fbc 6a46 593d 20ca f3bc 2b45 003d
000000c0: 7e7a 51bd 7cb9 6cbd 9ee0 3ebd c1dc 08bd
000000d0: 5394 f3bc 236c 1cbb 5eec 4ebd 2613 28bb
000000e0: e8c9 58bc cabb 113d 847b 533d 6808 763c
000000f0: f846 81bc 329e b3bb 93ba 0e3d ba30 52bc
00000100: 4f8c 11bc f00b 1a3c 7494 d0bc 8921 d2bc
00000110: e08a fcbb c9c5 05be f01a a03b 2227 1dbd
00000120: 1c25 febc a43c 2cbc b318 0ebd f83c 33bc
00000130: e0ac 093d cc4a 8abc e0bc 3dbc b7b7 48b9
00000140: a068 173d 0d92 0ebd b4dc aabc 04b1 633d
00000150: 2c3f c2bb c572 59bd f459 38bd e072 393c
00000160: 80e4 98bc ca3b 0e3d a404 02be 2022 15bc
00000170: b891 2cbc 9258 77bd 3424 2ebd 3582 7b3b
00000180: 62d9 b4bc 8421 08bd 8311 0dbd d117 38bd
00000190: 594d 8c3b 3a33 29bd 3615 033c e670 32bc
000001a0: 82cd 403d 870c f23c d75f 74bc f115 e539
000001b0: 34c7 d9bc a5a0 c53c 1d38 30bd 77e7 b4bd
000001c0: ecd1 b03c 8348 9ebc 5409 9f3c 2c92 483d
000001d0: 31ce dbbc 67e3 9a3a 9948 0f3c bc53 e7bc
000001e0: fa61 2c3d e84b 853c d8a6 a53c 48cd 59bc
000001f0: 0d89 09bd 7285 22bd c83a 753d 3cac b5bd
00000200: 9cf0 5abd 3875 243d 728e dbbc fbe2 143c
00000210: c6df b1bc 0da3 223d d74f 31bb 83df 59bd
00000220: 602b 85bc c098 31bb 80d4 32bc ef87 273d
00000230: 88e0 313c 606e 703d 028e 89bd 5458 6e3d
00000240: f336 5cbd d4fb afbc 56de 873b dc8d 3e3d
00000250: 78d0 3f3d 77f3 4bbb 2596 c03c 7340 4dbd
00000260: 83fb ddbd a082 bbbc d82f b1bc a452 f7bc
00000270: 708a 85bb 43d4 28bd 037a e63c 6444 4abd
00000280: 5604 a9bd 02aa b3bb f80e 66bc a205 3e3d
00000290: 1c89 7f3d 10c7 6abd 70e1 713c 2d78 b2bd
000002a0: 7d47 173c 6a27 4abd bca1 42bd 505e aabb
000002b0: 2007 15bc ad0c b33c 663d eb3c 8673 533d
000002c0: 157b 16bd a0a7 673c 60d9 23bd f024 1dbc
000002d0: e08a e03c 32a0 0ebd 9e3c 66bd a487 6d3d
000002e0: 4d19 dfbd 1154 073d 6066 0c3c 1141 91bc
000002f0: 39d0 10bc d8ed 8cbc 64db 3bbd 56dd 543d
00000300: 4ac8 873c f222 f5bd d8e3 b9bd a66a b53c
00000310: 5ab6 7ebd 51cf 7a3d 1240 47bd 9425 8fbc
00000320: 57bf 313d 5f98 0bbd 9d71 dd3c 403b 74bd
00000330: 2720 3fbd 4648 143d 845b bb3c dc89 41bd
00000340: e97b 9cbd a038 a93c 406c af3b ba4c 17bb
00000350: e2b5 88bd 30e1 883c c8ea 3fbd 0cc3 f13c
00000360: ed7d 42bd 4f82 69bd 3edc 09bd ea26 943c
00000370: c247 053d 22ef 1cbd 8446 30bd 205d 4cbd
00000380: 622b 5a3a c0f3 9abc 08eb c53c 583b 17bc
00000390: 9874 673c 7e27 87bd a0b8 a1bc 2c36 c1bc
000003a0: e0da 99bc 328a 133d c847 933c a465 eabc
000003b0: d283 51bd a0bb 403b bf84 1b3d 5fb4 583d
000003c0: 036b 293c 1fef 6d3c 409c 13bd 1b30 0a3b
000003d0: 4afe 7dbd c8fb 5ebc 6818 2bbc 10d9 6c3d
000003e0: b432 68bc 8b75 5bbc c2f4 7bbd 9c57 7ebd
000003f0: 2a8d 0abd a742 99bd 5816 93bd 803e b2bb

layers.4.bias f4 [256]
-0.116193205 -0.05646849 -0.045978293 -0.16494961 -1.3671604 -0.021310031 -0.007179054 -0.0529055
-2.9466436 -4.7552123 -0.15804228 0.64552236 -0.04453805 -0.13324904 -0.038188424 -0.18174599
-0.031412613 -4.2736397 -0.12802131 -0.092874356 -2.6546385 -0.09758169 -2.1262162 -6.87551
-0.07954474 -0.17290235 0.14575252 -2.3003678 -0.004709643 -0.27249098 0.030786723 -0.23103012
-2.8451133 -0.20731997 0.009677749 -2.3360257 -1.6515687 3.7929895 -0.95024765 -0.0901726
-0.12170644 3.5274098 0.01885294 -0.09039552 -0.08196893 1.9147303 -0.06873809 -0.09804006
-0.09443333 -0.76058626 -0.07382314 -0.013202313 0.031778928 -0.079242915 -3.0200512 -0.1429041
-9.079436 0.77935 -0.13444707 -0.012930591 -1.6494715 -10.308736 -2.1268141 -8.433604
-0.10889207 -0.048147008 -2.2984757 -0.18841557 -0.1263129 -0.39336804 -0.0783857 -0.10395753
-1.0008277 -2.793984 0.015779067 -0.10749906 -0.1614144 0.035324045 2.9967215 -0.2126707
-0.43296778 -6.0233383 -0.20694365 -0.13782944 -0.087911695 -0.09123292 -0.046512507 -0.07472184
-0.0852189 -0.07457515 0.4865064 -0.048595786 -3.3132653 -0.99596965 -0.1225133 -0.08326217
-0.0047697206 -1.2485306 -0.036475234 -0.07932625 -0.0598648 -0.15519941 -0.67273587 -0.036236256
0.10468373 0.6675121 -0.07398503 -0.0634627 -6.6750636 1.6192633 -0.11749132 -0.23991899
-0.11469112 -2.3797946 0.026346538 -0.07742458 -0.3645212 -0.26643574 -4.7285852 -1.7707635
-0.041189767 -1.203411 0.0011047481 -2.7665758 0.17962562 -0.043332376 -0.09476693 -0.08990816
0.110055275 -1.075954 -0.06210666 -2.4736035 -0.15828262 -2.8714674 -0.0018771755 -1.0760598
-0.011155977 -0.15239136 -0.023975553 -0.06811734 1.6776339 -8.798712 -0.07383675 -3.1981556
0.026205236 -6.970713 -5.476001 -8.723814 -0.0187865 -0.111634284 -0.17054485 0.012887305
-5.6908827 -0.103676334 -0.050383404 -0.098442115 -0.023386903 -0.07656286 0.96842426 0.017617373
-0.008935294 -0.15693304 -0.104188256 -0.06384005 -6.697926 -0.087993816 -0.11467757 -0.12417603
-6.5386105 -2.6102836 -0.0029194392 0.051355973 -0.051084556 -0.13815178 -0.11702889 -0.117075935
-0.105469555 0.17354259 -0.12502567 -0.06513149 -0.13674447 -0.088115744 -0.12784946 -0.0023607365
-0.08719294 -0.058765844 0.43988213 -0.1311701 -2.1485593 -0.024141273 -1.2005228 -0.041701816
-0.9588828 0.028314082 -0.11885265 -3.4459548 -0.057810266 0.34722537 -0.12655862 -0.087283835
-2.6434224 -3.707363 -0.31590244 -0.07464316 -0.035776086 -1.6541492 -0.019426009 -0.71355414
-0.032022826 -0.08482735 0.42908782 -0.06054838 -3.7597542 -0.37093174 5.6338763 -0.5456139
-0.096953966 -0.1199261 -0.10614882 -2.6748056 -0.22128811 -0.640572 -0.3938281 -0.07699884
-0.116919026 -0.0095204245 -1.3326368 -0.034441363 -5.1307907 -0.08740443 -2.0186026 -1.2728047
-2.9700289 -0.0065219686 -0.0064362967 0.005735839 -7.797717 -0.07135873 -0.15791152 -0.09976497
-0.015012426 -0.09100448 -1.9071147 -0.07627293 -0.12239101 -0.14925744 -0.09545905 -0.06961435
0.0069863717 -4.5304 0.026034292 -0.05862599 -3.1514823 -0.12973572 -1.8663291 0.002356456
00000000: b4f6 edbd 814b 67bd bc53 3cbd 8de8 28be
00000010: 1dff aebf 6092 aebc 453e ebbb 70b3 58bd
00000020: cf95 3cc0 b32a 98c0 d6d5 21be f440 253f
00000030: 886d 36bd 7072 08be 776b 1cbd 9f1b 3abe
00000040: 83aa 00bd a8c1 88c0 0518 03be e934 bebd
00000050: 99e5 29c0 e9d8 c7bd ed13 08c0 2e04 dcc0
00000060: 5ae8 a2bd 500d 31be 2640 153e 3a39 13c0
00000070: 5953 9abb f083 8bbe 7034 fc3c 2993 6cbe
00000080: 5616 36c0 b04b 54be 6c8f 1e3c 7281 15c0
00000090: 9a66 d3bf 57c0 7240 6e43 73bf 69ac b8bd
000000a0: 3a41 f9bd 15c1 6140 7b71 9a3c 4921 b9bd
000000b0: 54df a7bd e215 f53f 8ec6 8cbd 3ac9 c8bd
000000c0: 4366 c1bd c8b5 42bf 9630 97bd 844e 58bc
000000d0: 9f2a 023d 1c4a a2bd 8548 41c0 7455 12be
000000e0: 5f45 11c1 7b83 473f 7eac 09be d4da 53bc
000000f0: e221 d3bf 95f0 24c1 b91d 08c0 0bf0 06c1
00000100: ce02 dfbd cc35 45bd 3a1a 13c0 03f0 40be
00000110: 2b58 01be 8967 c9be af88 a0bd afe7 d4bd
00000120: 1f1b 80bf a2d0 32c0 1a43 813c 7828 dcbd
00000130: d149 25be f2af 103d 49ca 3f40 59c6 59be
00000140: f4ad ddbe 30bf c0c0 09e9 53be 2923 0dbe
00000150: 0c0b b4bd 53d8 babd e683 3ebd c407 99bd
00000160: 3f87 aebd dbba 98bd 5e17 f93e 600c 47bd
00000170: 8a0c 54c0 def7 7ebf 41e8 fabd 5b85 aabd
00000180: 514b 9cbb dacf 9fbf 0e67 15bd cd75 a2bd
00000190: cb34 75bd 98ec 1ebe 6b38 2cbf 786c 14bd
000001a0: 6c64 d63d 13e2 2a3f 7785 97bd bbf8 81bd
000001b0: 1f9a d5c0 0544 cf3f 4a9f f0bd 53ad 75be
000001c0: 2ee3 eabd 8e4e 18c0 b2d4 d73c c790 9ebd
000001d0: 86a2 babe 446a 88be 9250 97c0 61a8 e2bf
000001e0: 9ab6 28bd 5f09 9abf 32cd 903a 940f 31c0
000001f0: c7ef 373e 4a7d 31bd 2a15 c2bd c521 b8bd
00000200: a964 e13d dcb8 89bf 8e63 7ebd 854f 1ec0
00000210: d714 22be 1fc6 37c0 8f0b f6ba 54bc 89bf
00000220: 8fc7 36bc 7b0c 1cbe 6168 c4bc 1b81 8bbd
00000230: b5bc d63f 86c7 0cc1 b937 97bd 95ae 4cc0
00000240: 5dac d63c 1510 dfc0 663b afc0 be94 0bc1
00000250: 25e6 99bc 84a0 e4bd 4fa3 2ebe 4625 533c
00000260: b61b b6c0 4254 d4bd d45e 4ebd 059c c9bd
00000270: e495 bfbc fdcc 9cbd a7ea 773f 4f52 903c
00000280: 5765 12bc 0eb3 20be a760 d5bd 92be 82bd
00000290: 6955 d6c0 1a36 b4bd 13dc eabd 0150 febd
000002a0: 4c3c d1c0 e30e 27c0 1054 3fbb a45a 523d
000002b0: 0a3e 51bd a977 0dbe d8ac efbd 82c5 efbd
000002c0: 6c00 d8bd 26b5 313e bb06 00be a963 85bd
000002d0: be06 0cbe 0776 b4bd f8ea 02be 96b6 1abb
000002e0: 3692 b2bd 74b4 70bd 3b38 e13e 7451 06be
000002f0: ff81 09c0 ebc3 c5bc bbaa 99bf 86cf 2abd
00000300: 5879 75bf eff2 e73c 0569 f3bd 868a 5cc0
00000310: 75ca 6cbd 86c7 b13e 9598 01be dec1 b2bd
00000320: d52d 29c0 6f45 6dc0 f7bd a1be 83de 98bd
00000330: f289 12bd 29bb d3bf 4b23 9fbc 7cab 36bf
00000340: 5e2a 03bd f6b9 adbd 66b1 db3e 9401 78bd
00000350: d09f 70c0 c4ea bdbe b748 b440 5aad 0bbf
00000360: cd8f c6bd d19b f5bd 8d64 d9bd 0430 2bc0
00000370: 5a99 62be 87fc 23bf d6a3 c9be 91b1 9dbd
00000380: 3e73 efbd 8efb 1bbc d893 aabf 6312 0dbd
00000390: 702f a4c0 1801 b3bd c930 01c0 44eb a2bf
000003a0: f414 3ec0 3db6 d5bb 92e7 d2bb b4f3 bb3b
000003b0: e686 f9c0 8724 92bd 8fb3 21be 9451 ccbd
000003c0: aef6 75bc 8f60 babd 561c f4bf fb34 9cbd
000003d0: 23a8 fabd f1d6 18be 0980 c3bd f891 8ebd
000003e0: efed e43b 09f9 90c0 de45 d53c ce21 70bd
000003f0: e3b1 49c0 71d9 04be dfe3 eebf c56e 1a3b

layers.6.weight f4 [128, 256]
0.0210579 -0.038822588 0.013452884 0.025318246 0.26449367 -0.01516735 -0.6456123 0.02003587
-3.8533561 -4.1116495 -0.03665787 -0.09698001 -0.0011405294 0.046797574 0.09080846 -0.07822902
-0.014671378 -13.625884 0.035002586 -0.044081163 -0.029885063 -0.019096935 -2.3442445 -16.749708
0.018595498 -2.9626539 -0.09643797 0.007684791 0.011954361 0.08840977 0.00065555243 -0.02231392
-0.4931093 -0.0057908585 -0.029990954 -2.3285918 -0.2242417 -0.8348147 -0.35985225 0.008781181
0.050233055 0.13400757 0.44279107 -0.034911256 0.07351708 1.3146201 -0.018553186 0.03984083
0.020963576 -0.014326181 0.0014667278 -0.069845326 0.029587973 -0.044054277 -0.21551464 0.05594359
-0.47325832 -0.38457292 -0.029328542 -0.065051496 -0.1285348 0.20545855 -7.0720353 -4.155965
0.0015373508 -0.0076701734 0.17215638 0.66055834 0.06579552 -2.776428 -0.026054591 -0.0005240197
-0.9295116 -1.8901973 -0.017446645 -0.046205472 0.075934246 0.04282255 -0.5863429 -0.07624193
-0.9522687 0.94097 0.75687873 -0.050443955 0.04385054 -0.000958904 0.008063659 -0.050953496
-0.05433322 -0.058650624 0.14033946 -0.023207244 0.12518317 1.3775706 -0.054710466 0.08316858
-0.09412313 0.019052036 -0.056354843 -0.045075238 0.0041102436 -0.031477723 1.0451111 0.06544601
-0.037574958 -0.6357603 0.04209262 0.021801844 -1.1679624 -0.2636436 -0.026630152 1.7111046
0.0011200557 0.32053617 0.06388717 7.80963e-05 0.0944431 -6.348264 0.12807335 -0.24238577
0.016666632 -0.7135477 -0.0023921402 -11.388504 -0.0662333 0.050338328 -0.094586246 -0.005562359
-0.09774832 -12.512412 0.03156567 -0.48006415 0.019227026 -0.95630443 -0.040609922 -1.5283338
0.02122036 0.020528728 0.046592917 0.022249168 0.13928677 -0.4993895 -0.04243615 -1.8160499
-0.03066261 -1.6235927 1.8802327 -0.9707967 0.07030207 -0.045158725 0.036969144 0.004293764
-0.03581819 -0.03877037 -0.024785638 -0.0691143 0.1245357 -0.03934169 0.048004013 -0.021343548
0.0109353755 0.017283693 -0.015117248 0.025003469 -14.708092 -0.03333772 0.026277145 0.006609958
0.8562209 -2.1801395 0.021210847 -0.0048984247 0.037437238 -0.058550935 0.07184211 -0.06820307
0.03418243 -7.9379635 -0.08071397 -0.034594603 -0.0126275495 0.00014434296 -0.05432501 0.040854383
-0.05872382 -0.04564955 -0.32484704 -0.01992763 0.6311076 0.03837256 -0.5872638 -0.043984022
-0.25170064 -0.070916936 0.056223337 -0.29891157 0.010069512 -0.26221445 0.03389944 -3.0791895
-0.99385893 -4.605814 -1.4562305 0.025848577 0.014022528 1.3926783 -0.16036284 -9.273764
-0.032384396 0.02433426 -2.3426197 -0.006046506 0.8958357 0.9910774 -0.28046063 -2.3195648
0.010197434 0.022034138 -0.051542412 -2.1001513 0.15746482 -1.0897079 -1.5308262 0.027933093
0.015051551 -0.040958304 1.0762243 -0.031304475 1.7125185 0.082194656 -0.21717048 -5.8374434
-2.944666 0.031714577 0.015781427 0.0072076074 -5.13452 -0.042110622 0.050868828 0.023965571
-0.059801232 -0.05137418 -12.049789 0.07040418 -0.10673667 0.005134813 0.018595984 0.016248643
0.02570641 1.144286 -0.017269343 -0.046112232 -1.3200475 0.0493445 -0.15958355 0.0031871037
00000000: 9e81 ac3c 6f04 1fbd 7c69 5c3c 3668 cf3c
00000010: b76b 873e 7a80 78bc d946 25bf 4422 a43c
00000020: 639d 76c0 a292 83c0 9026 16bd 759d c6bd
00000030: d17d 95ba d0ae 3f3d c9f9 b93d 8936 a0bd
00000040: 3860 70bc 9f03 5ac1 df5e 0f3d 738e 34bd
00000050: 85d1 f4bc 2d71 9cbc 1a08 16c0 67ff 85c1
00000060: 9655 983c 1f9c 3dc0 4581 c5bd b3d0 fb3b
00000070: 39dc 433c 2e10 b53d 61d9 2b3a afcb b6bc
00000080: d278 fcbe 3ec1 bdbb 97af f5bc a607 15c0
00000090: 9e9f 65be 6bb6 55bf 8e3e b8be f1de 0f3c
000000a0: 2dc1 4d3d 4839 093e 83b5 e23e 1bff 0ebd
000000b0: 1f90 963d 7945 a83f dafc 97bc 2330 233d
000000c0: cebb ab3c 5cb8 6abc 383f c03a 110b 8fbd
000000d0: 7a62 f23c 4272 34bd dfaf 5cbe 1b25 653d
000000e0: ea4e f2be bee6 c4be 6942 f0bc b839 85bd
000000f0: a09e 03be ba63 523e 1d4e e2c0 aafd 84c0
00000100: ef80 c93a 1456 fbbb c349 303e 5a1a 293f
00000110: cdbf 863d ffb0 31c0 7070 d5bc 5e5e 09ba
00000120: 79f4 6dbf fcf1 f1bf 44ec 8ebc f341 3dbd
00000130: 6a83 9b3d b366 2f3d 911a 16bf bb24 9cbd
00000140: e2c7 73bf 69e3 703f cec2 413f 529e 4ebd
00000150: a09c 333d f55e 7bba 701d 043c 9db4 50bd
00000160: 838c 5ebd a33b 70bd 26b5 0f3e 1e1d bebc
00000170: 0430 003e 3c54 b03f 1518 60bd 4a54 aa3d
00000180: a1c3 c0bd 0413 9c3c 56d4 66bd d0a0 38bd
00000190: 39af 863b c9ee 00bd 33c6 853f 8f08 863d
000001a0: 33e8 19bd 30c1 22bf 5069 2c3d c899 b23c
000001b0: cb7f 95bf 4bfc 86be 7a27 dabc 7a05 db3f
000001c0: d5ce 923a 511d a43e 47d7 823d a2c7 a338
000001d0: 626b c13d fb24 cbc0 a925 033e fa33 78be
000001e0: 7688 883c 10ab 36bf 74c5 1cbb 5037 36c1
000001f0: 53a5 87bd 902f 4e3d 6fb6 c1bd 7344 b6bb
00000200: 4530 c8bd d732 48c1 014b 013d f8ca f5be
00000210: ff81 9d3c 5ed0 74bf 9756 26bd 71a0 c3bf
00000220: 52d6 ad3c dd2b a83c 37d8 3e3d e343 b63c
00000230: 31a1 0e3e fbaf ffbe 87d1 2dbd 5374 e8bf
00000240: 2730 fbbc e3d1 cfbf 77ab f03f 2286 78bf
00000250: 88fa 8f3d 5bf8 38bd f56c 173d b4b2 8c3b
00000260: 18b6 12bd aecd 1ebd 400b cbbc cc8b 8dbd
00000270: 930c ff3d c024 21bd db9f 443d aad8 aebc
00000280: 4a2a 333c 8896 8d3c 55ae 77bc 13d4 cc3c
00000290: 5854 6bc1 228d 08bd 2b43 d73c 5998 d83b
000002a0: 4b31 5b3f 6887 0bc0 5fc2 ad3c f782 a0bb
000002b0: ca57 193d 1bd3 6fbd f521 933d 0dae 8bbd
000002c0: e002 0c3d cc03 fec0 5e4d a5bd 12b3 0dbd
000002d0: c8e3 4ebc c55a 1739 e783 5ebd ed56 273d
000002e0: 6388 70bd 06fb 3abd 5a52 a6be 453f a3bc
000002f0: 4590 213f 8c2c 1d3d ec56 16bf 9728 34bd
00000300: e8de 80be e63c 91bd 714a 663d f00a 99be
00000310: 98fa 243c f940 86be 24da 0a3d 7111 45c0
00000320: 8a6d 7ebf d462 93c0 c365 babf 65c0 d33c
00000330: bfbe 653c 4843 b23f 2836 24be 5661 14c1
00000340: 80a5 04bd a458 c73c 7bed 15c0 c521 c6bb
00000350: 7d55 653f 40b7 7d3f 8998 8fbe c073 14c0
00000360: 2313 273c f080 b43c 231e 53bd e168 06c0
00000370: 753e 213e 8c7b 8bbf 1df2 c3bf f1d3 e43c
00000380: c89a 763c e5c3 27bd b8c1 893f 1f39 00bd
00000390: ce33 db3f ac55 a83d f061 5ebe 56cc bac0
000003a0: 6875 3cc0 25e7 013d 0d48 813c cb2d ec3b
000003b0: fd4d a4c0 307c 2cbd d55b 503d 7253 c43c
000003c0: 23f2 74bd bb6d 52bd f0cb 40c1 1130 903d
000003d0: c198 dabd ef41 a83b 9b56 983c e01b 853c
000003e0: 4096 d23c f777 923f 7078 8dbc 2ee0 3cbd
000003f0: 51f7 a8bf 751d 4a3d df69 23be bade 503b

layers.6.bias f4 [128]
-1.7483392 -4.967924 -0.19045754 -0.094472006 0.42122874 0.036212552 1.7923679 -0.16231547
-0.27384347 -3.9297152 -0.56481934 -0.1949985 -2.8036416 0.97472596 -0.1067331 0.4785153
-1.0025725 -0.15046127 1.3786796 0.3178044 -0.0058050244 -0.155467 -0.17415616 0.7266373
-0.79858583 0.28626266 -3.1351044 -1.3455155 -0.10133681 -0.42531738 0.17050824 -0.18679258
-0.2455271 -0.15624388 -0.47562137 -0.16880031 -0.23569825 -0.15870486 -0.18898919 -0.1981719
-1.315343 -0.17444818 -0.21446823 0.65945435 0.37709668 -0.12540253 -0.33433184 -0.15353271
-0.14847973 -0.0551413 -0.85564715 -0.25650376 0.533661 -1.8399124 -4.5388637 -0.26046303
-1.7981344 -0.22848494 -4.841304 -3.5844274 -1.536406 -0.19177406 -0.9544614 -0.005225129
-0.16256301 1.1135309 -1.4843284 -0.13011837 -0.71575785 0.2194851 -0.18236105 -2.2317991
-0.23599361 -0.15949969 -0.22014035 -4.9201465 0.041699916 -0.1894628 -1.0718069 -6.9212036
-0.22043702 0.11310725 -0.21632163 -5.4111195 0.226536 -1.7143905 -0.14792466 -1.7927371
0.25694004 -1.0256239 -2.07597 -4.7797537 0.9957349 -1.0471092 -0.2318035 -0.17409234
-0.2038339 -1.2803801 -3.6046653 -0.13524702 -0.26073232 -0.18721975 -0.18557186 -0.15981886
-0.23965913 0.5185788 -0.31067187 -0.095340684 -1.9612713 0.7851476 -0.17133304 -5.85178
-0.5307629 0.67871 0.58858395 -0.13487774 -1.1422153 -4.3676367 -0.16088611 -3.5255613
-0.17654057 0.5697715 -1.6970221 -1.2199409 -0.25783896 -0.772812 0.13713081 -0.034372896
00000000: 94c9 dfbf 3cf9 9ec0 4d07 43be 8a7a c1bd
00000010: 4bab d73e 9d53 143d 506c e53f 0736 26be
00000020: 3635 8cbe 7480 7bc0 0098 10bf b0ad 47be
00000030: dd6e 33c0 a487 793f e296 dabd f5ff f43e
00000040: 4c54 80bf 8512 1abe 9378 b03f 42b7 a23e
00000050: 1338 bebb be32 1fbe fe55 32be e704 3a3f
00000060: 1f70 4cbf 0591 923e 8da5 48c0 da39 acbf
00000070: ac89 cfbd 33c3 d9be b699 2e3e 8e46 3fbe
00000080: 756b 7bbe 65fe 1fbe a584 f3be fdd9 2cbe
00000090: e25a 71be 8783 22be 6286 41be 93ed 4abe
000000a0: 295d a8bf 8ba2 32be 8f9d 5bbe 00d2 283f
000000b0: d112 c13e 8569 00be 8b2d abbe ae37 1dbe
000000c0: 120b 18be d8db 61bd b10b 5bbf 7654 83be
000000d0: 029e 083f 4082 ebbf 5f3e 91c0 695b 85be
000000e0: 4529 e6bf f5f7 69be f6eb 9ac0 4267 65c0
000000f0: f4a8 c4bf 6b60 44be 9557 74bf 8f37 abbb
00000100: eb76 26be 2e88 8e3f 79fe bdbf c03d 05be
00000110: e83b 37bf b4c0 603e dbbc 3abe ccd5 0ec0
00000120: 4fa8 71be e353 23be 796c 61be d771 9dc0
00000130: 88cd 2a3d 8902 42be f830 89bf 807a ddc0
00000140: 3eba 61be c6a4 e73d 6b83 5dbe e427 adc0
00000150: 0ef9 673e 2671 dbbf 9079 17be 6978 e5bf
00000160: a58d 833e a547 83bf b1dc 04c0 bef3 98c0
00000170: 7be8 7e3f ad07 86bf e65d 6dbe 4345 32be
00000180: d5b9 50be 7fe3 a3bf d6b2 66c0 327e 0abe
00000190: b57e 85be 89b6 3fbe 8d06 3ebe 8ea7 23be
000001a0: 3469 75be 95c1 043f 6210 9fbe fa41 c3bd
000001b0: f00a fbbf 6fff 483f ee71 2fbe c841 bbc0
000001c0: 14e0 07bf f0bf 2d3f 70ad 163f 641d 0abe
000001d0: 1c34 92bf aec3 8bc0 54bf 24be cca2 61c0
000001e0: 0dc7 34be 8cdc 113f 0538 d9bf 0627 9cbf
000001f0: 7803 84be 02d7 45bf 056c 0c3e 98ca 0cbd

layers.8.weight f4 [11, 128]
0.021982275 0.03562395 -0.061040338 0.030745134 0.025476512 -0.016396012 0.03032701 0.0428853
-0.05604211 -0.058025543 0.0105396435 -0.024079502 -0.02905649 -0.03460383 0.062779374 0.03709913
0.0086554075 0.012671567 0.031335335 -0.0017844263 0.022053393 -0.022445848 -0.0328482 -0.008113053
-0.010616447 -0.011332443 0.027993597 0.033790983 -0.041994046 0.027570812 -0.026894651 -0.045375448
-0.0036450485 -0.07765334 -0.0035481846 -0.018966509 0.021149648 0.07702381 0.027247733 -0.03934332
-0.061036725 -0.03925267 -0.0069545275 -0.00032126295 -0.024673318 -0.020955743 -0.14510103 0.05475815
-0.08494478 -0.0027966702 -0.03302906 0.0007387349 -0.038068708 0.013466514 -0.035297096 0.012495968
-0.018327016 0.008301157 -0.030107772 0.028360838 -0.028972164 0.024190985 0.0015150176 0.0316652
0.06589955 0.031440422 0.02581351 -0.004531068 0.023919223 0.007480064 -0.078090094 0.017154094
-0.0025038999 0.01494386 0.0069605196 0.028523892 0.004288979 0.034473922 0.008709172 0.023727166
0.018049989 -0.01129126 -0.024187988 0.0343595 0.044457953 0.03384425 0.05158179 -0.015027207
-0.01386098 -0.038266357 0.021812923 -0.0050198883 -0.055683248 0.00710225 -0.0005850263 0.10043622
-0.054845043 0.028172983 0.029176958 -0.027046237 0.0067422455 0.015308569 -0.024672111 0.034561973
-0.02334954 -0.016268598 0.031620737 0.02118707 0.030434653 -0.008943118 0.009783032 0.03534473
0.06546182 0.04274992 0.018259156 -0.098336756 0.027320268 0.0019930624 0.023896627 0.02246222
0.011172022 0.07328693 0.030385112 -0.018531287 -0.06693136 0.04085172 -0.01857518 0.015705561
0.021665636 0.033538282 -0.02231448 -0.023838287 0.02886197 0.020896299 0.026541995 -0.012361096
0.050620906 -0.014521836 -0.04210849 0.0020216762 -0.019204391 0.037182674 0.021263853 0.033922967
0.029979846 -0.010512123 0.00040429225 -0.0062298197 0.022416446 -0.13343614 -0.01517239 -0.020426545
0.017173668 -0.0031973317 0.02529564 0.044203937 -0.026206829 0.024833893 -0.0033100047 0.0042745485
-0.07028471 -0.097859845 -0.001130724 -0.0041971607 -0.006019542 -0.023083538 -0.03810995 0.0006385378
-0.03160715 0.055628408 -0.004948035 -0.0077414596 -0.012741342 0.06838806 -0.07593149 0.032655135
-0.0562276 0.0111646885 0.05029733 -0.0006389727 0.08180164 0.051388443 0.0027501213 0.013633334
-0.002652952 -0.0421173 -0.025615377 0.030465886 -0.011118004 -0.05962875 0.010578 0.03824664
-0.026438521 0.03616614 0.015705448 -0.057539504 0.023141451 -0.025623532 0.012672609 0.023509137
0.0047738133 0.033699792 -0.131435 0.027368959 0.0025538465 -0.09430764 0.00825279 0.024312144
-0.0050933184 0.0062042344 0.00940886 0.034959406 0.042155713 0.03153884 0.07397552 -0.022387251
-0.016661784 -0.036984254 0.025606794 -0.04649812 -0.06097783 0.0069981655 -0.018881362 0.012840929
-0.014011408 0.024697796 0.02786784 -0.023093231 -0.016619777 -0.019210672 -0.089141056 0.08258526
0.003960057 0.023434509 0.0064677624 -0.004443519 0.026960745 -0.020008238 -0.11016209 0.036144417
0.011695341 0.03536198 -0.035527676 0.024278328 0.01981462 0.039155405 -0.002085243 0.023541037
-0.040611323 -0.07833036 0.010492086 -0.025412727 0.03823402 0.026084384 -0.011746323 -0.00395419
00000000: 2c14 b43c 6bea 113d 6f05 7abd 38dd fb3c
00000010: 1eb4 d03c ee50 86bc 5a70 f83c 7fa8 2f3d
00000020: 698c 65bd 31ac 6dbd 78ae 2c3c 6042 c5bc
00000030: e007 eebc bfbc 0dbd 7992 803d 42f5 173d
00000040: 69cf 0d3c 679c 4f3c 7b59 003d 69e3 e9ba
00000050: 51a9 b43c 5be0 b7bc d68b 06bd 9cec 04bc
00000060: 9bf0 2dbc b6ab 39bc d452 e53c 6a68 0a3d
00000070: f301 2cbd 2fdc e13c 2c52 dcbc 9bdb 39bd
00000080: c4e1 6ebb b708 9fbd a988 68bb a75f 9bbc
00000090: 0742 ad3c a9be 9d3d a336 df3c 7626 21bd
000000a0: a501 7abd 68c7 20bd cee2 e3bb 2f6f a8b9
000000b0: b31f cabc 61ab abbc 5d95 14be 154a 603d
000000c0: 87f7 adbd 5748 37bb 7b49 07bd a9a7 413a
000000d0: efed 1bbd a7a2 5c3c b093 10bd e3bb 4c3c
000000e0: 8a22 96bc 9301 083c 93a4 f6bc fd54 e83c
000000f0: 0857 edbc 2c2c c63c 8e93 c63a 5eb3 013d
00000100: 58f6 863d acc7 003d db76 d33c 5a79 94bb
00000110: 3ff2 c33c 531b f53b b3ed 9fbd be86 8c3c
00000120: 7818 24bb 17d7 743c 1215 e43b f0aa e93c
00000130: 908a 8c3b 8734 0d3d eab0 0e3c 795f c23c
00000140: 92dd 933c fafe 38bc e325 c6bc 8cbc 0c3d
00000150: 8b19 363d 45a0 0a3d 6d47 533d ad34 76bc
00000160: 2a19 63bc 2fbd 1cbd 04b1 b23c e07d a4bb
00000170: 1e14 64bd feb9 e83b 735c 19ba 81b1 cd3d
00000180: 32a5 60bd 07cb e63c 8404 ef3c 1290 ddbc
00000190: 0eee dc3b cbd0 7a3c 2b1d cabc db90 0d3d
000001a0: 8947 bfbc b945 85bc bf84 013d 8290 ad3c
000001b0: 1852 f93c 2886 12bc 0349 203c a3c5 103d
000001c0: d910 863d 8a1a 2f3d 3a94 953c c864 c9bd
000001d0: c1ce df3c 0a9e 023b dcc2 c33c b102 b83c
000001e0: db0a 373c 7517 963d 33ea f83c edce 97bc
000001f0: 4f13 89bd 2254 273d fa2a 98bc f3a8 803c
00000200: 227c b13c 705f 093d dbcc b6bc 8348 c3bc
00000210: f06f ec3c b72e ab3c 996e d93c 3286 4abc
00000220: de57 4f3d ffec 6dbc f479 2cbd 197e 043b
00000230: 8752 9dbc dc4c 183d 8831 ae3c cff2 0a3d
00000240: 4b98 f53c 0a3b 2cbc 30f7 d339 8423 ccbb
00000250: b2a2 b73c 7ca3 08be 9e95 78bc 9255 a7bc
00000260: cbaf 8c3c 538a 51bb cd38 cf3c 300f 353d
00000270: b4af d6bc 7370 cb3c aaec 58bb 8311 8c3b
00000280: 6ef1 8fbd be6a c8bd cd34 94ba 5688 89bb
00000290: 943f c5bb b019 bdbc 2e19 1cbd 8c63 273a
000002a0: 8076 01bd 9dda 633d 2023 a2bb 12ac fdbb
000002b0: 10c1 50bc 0a0f 8c3d f881 9bbd 64c1 053d
000002c0: e94e 66bd 19ec 363c 9304 4e3d bb80 27ba
000002d0: 9e87 a73d b07c 523d 613b 343b 595e 5f3c
000002e0: 26dd 2dbb 3183 2cbd 57d7 d1bc 9893 f93c
000002f0: 4a28 36bc 473d 74bd 594f 2d3c 82a8 1c3d
00000300: 9995 d8bc f222 143d b6a8 803c 8bae 6bbd
00000310: 2493 bd3c 71e8 d1bc c6a0 4f3c 3c96 c03c
00000320: a66d 9c3b cb08 0a3d e696 06be de34 e03c
00000330: 6f5e 273b 5d24 c1bd b636 073c 432a c73c
00000340: dae5 a6bb e44c cb3b 9e27 1a3c 9831 0f3d
00000350: 78ab 2c3d df2e 013d 7a80 973d 7865 b7bc
00000360: 4b7e 88bc cd7c 17bd 57c5 d13c d074 3ebd
00000370: e4c3 79bd de50 e53b 16ad 9abc c362 523c
00000380: 1b90 65bc 0853 ca3c 194b e43c 042e bdbc
00000390: 3326 88bc b35f 9dbc 968f b6bd 7622 a93d
000003a0: 5ec3 813b baf9 bf3c 86ef d33b f09a 91bb
000003b0: c8dc dc3c 51e8 a3bc a99c e1bd 2b0c 143d
000003c0: d19d 3f3c b9d7 103d 7885 11bd 58e3 c63c
000003d0: 4552 a23c 6b61 203d 92a8 08bb 22d9 c03c
000003e0: 0f58 26bd ab6b a0bd 00e7 2b3c 5a2e d0bc
000003f0: 479b 1c3d ebae d53c a673 40bc 2692 81bb
