Simulation/saved_models/model_withNorm64.pth (torch, 14882 bytes, 6 tensors)

layers.0.weight f4 [64, 8]
00000000: 1b9f 17be e830 3f3f 84d3 83be 29cf 3bc0
00000010: 9fd5 d4be 2754 4d3f 9506 0bbe 607a 8a3f
00000020: 02b5 123e bfc1 6a3f 64bc 43be f431 933e
00000030: dc58 38c0 8e33 403e 9697 cd3d 3f25 afbe
00000040: fbbc 0740 6784 833f 8552 ea3d 8de2 94bf
00000050: f653 01bf a1fd 00be ff6f 5b40 1c00 d6bf
00000060: 6e10 83be 7b15 29bf fffb 1a3f 77ec c3bf
00000070: 1d1c 56c0 8362 0dbf 69d0 f93e ac46 9ebf
00000080: 69f5 9cc0 e187 4cc1 eb2e 17c0 fcce 45c0
00000090: 1e87 2f40 fbeb a1bf 2648 9a3f 14e0 45c0
000000a0: ef6a 493e 1fac 9d3f d4c3 083f dfff 0d3f
000000b0: 0fe9 cb3f 7221 5a3f e480 913f 91d3 95bf
000000c0: 145e 82bf c9a3 1240 1ebe 8d3e 355b dbbf
000000d0: 7904 acbf 7818 60be e191 a0bf 510e 95bf
000000e0: 14fe 583f bc0d c0bf cc5a 2fbe d218 1640
000000f0: a462 313f 800b 7a3d cbe2 1fbf fe4b 43bf
00000100: 0c32 16c0 7f3f ebbf 6942 8b3e e2ad 08be
00000110: c60f 853f 1d1c 903d 3277 74c0 c34f 1940
00000120: ecab 6c3f 6878 0440 4159 123e 47d7 73bf
00000130: aa98 82be 5d1c 9c3e aa53 58c0 a445 44c0
00000140: 57ca 933f bdac 9e3f e582 31be 6d27 b03d
00000150: 926a 5640 e370 32bf baed 0d40 aefe 1e3d
00000160: 06ae a5bf 5d32 e7be a0b0 11bf e837 313f
00000170: b8e7 ba3e 44e7 31be 25b5 4a40 22dc f53e
00000180: 00ce 4cc0 e04f 933f 3477 e8be 259c 243f
00000190: 3544 4e3f 4c39 eabe df9f a4bf bca5 da3e
000001a0: c89d 1fbf 7db1 0a3d 1105 193f c829 edbc
000001b0: 3d28 a4bf 3d40 39bf 2c10 a7be a443 ae3f
000001c0: 9b10 1cc0 1841 c4be 4776 0dc0 9527 eabe
000001d0: 9d4d 95bd 0bf2 853f 804a 963f 648d edbf
000001e0: 94d4 823e bff2 443f 8823 6fbe 45a2 06c0
000001f0: 7a13 0a3f 0006 883f 79b8 c3bf 76f9 893f
00000200: 1422 903d b63c ce3f 1f8c 123e ff80 f93f
00000210: aa95 0340 cd8b 61be e510 8b3f bab7 1bc0
00000220: e4ff 0a3f cba2 663f c1e8 26bf 470a ad3f
00000230: e389 3d40 02ea 093f 7b8c 5cbe 665b 9e3f
00000240: 4ad6 993e 24fe 6ac0 7961 f7bd a973 dfbe
00000250: d29b 5c40 7522 5f3e 580d cebe 8fc3 2d3e
00000260: e30b 86bf 0bcb 2940 07c4 0cbf e111 37c0
00000270: 05ab 88be befa 453f f436 013f 755d 9a3f
00000280: 1c4e 023f 649d e3bf 64a1 803e d011 3cc0
00000290: 4ce9 27bf 9d7c 0ac0 58c6 e43f 0c87 a03f
000002a0: c782 f6bf b5d9 9abf d01d 3cc0 5222 1bbf
000002b0: 8e30 ea3d 4d60 443f d87a b83f 9746 bcbf
000002c0: c539 0540 b726 063e baff d53d bc7f ab3e
000002d0: 257b 5fbf 8678 253f 0552 cc3f e4e9 eebe
000002e0: ee5c 0fc0 3efc 28bf e4f7 fe3f de70 38bf
000002f0: 497e 3fc0 bcc5 a3bd e433 b7be f93a 30c0
00000300: c83e dd3f 8f94 e0c0 62e4 ad3e 1b17 29be
00000310: 2c72 ecbf 4ac8 88c0 94f5 afbd 3530 debf
00000320: e4b2 5e3f 5d8e 8f40 be37 87be 2bac b5be
00000330: 26af 2fbe c3ad 6b3e cbea 2ebe 0086 31c0
00000340: 1331 7c3e 666a acbf cf20 0b3f 8385 7440
00000350: 6b79 3a3f be0e 54bf 07c7 2bbe fd76 babf
00000360: 279a 013f 114d e0bf c01a 2ebe 91ea 973e
00000370: 938f c740 29d4 d5be 18d4 22bf 52b8 bac0
00000380: 6fe0 b6be 0520 873f 1d49 4a3f 33c0 63bc
00000390: 7d25 0b40 4a61 963f 9d67 2f3f e25f c4bf
000003a0: 1064 98c0 b831 50c0 8699 003e 2c3f 65c0
000003b0: 9c61 23bf 3c42 1b3f 507d efbe 6f36 7140
000003c0: 95a3 32c1 d324 09c0 53cb c2bf 5b81 c3be
000003d0: 5243 a040 4777 d73f 0758 2ec0 a275 a5bf
000003e0: 5e5c 303f 28c4 06c0 e9d1 58be 441e f2bd
000003f0: 543b d340 b4b6 0bbf f68b 21bf 2b1b d1c0
-0.14806788 0.74684 -0.2574731 -2.934519 -0.4156923 0.8020653 -0.1357673 1.0818596
0.14326862 0.91701883 -0.19114834 0.2874905 -2.8804235 0.18769667 0.10038678 -0.34208104
2.1209095 1.0274781 0.114415206 -1.1631638 -0.5051874 -0.12596752 3.4287107 -1.6718783
-0.25598472 -0.660484 0.60540766 -1.5306538 -3.345466 -0.5522844 0.48791817 -1.2365317
-4.9049573 -12.783174 -2.3622386 -3.0907583 2.742622 -1.265014 1.2053268 -3.0918016
0.19669698 1.2318152 0.5342381 0.55468553 1.5930499 0.85207283 1.1367459 -1.170519
-1.018496 2.2912467 0.2768411 -1.7137209 -1.3438865 -0.21884334 -1.2544519 -1.1644994
0.8476269 -1.5004191 -0.1712448 2.345265 0.6929114 0.061046124 -0.62455434 -0.7628783
-2.3468046 -1.8378752 0.27199104 -0.13347581 1.0395439 0.07036612 -3.819775 2.3954933
0.9244983 2.069849 0.1429186 -0.9525036 -0.25507098 0.3049039 -3.3801064 -3.0667505
1.1546124 1.2396466 -0.17335089 0.0860127 3.3502545 -0.697035 2.2176347 0.0388171
-1.2943733 -0.45155612 -0.56910133 0.6922593 0.36504912 -0.17373377 3.1673062 0.4801951
-3.2000732 1.1508751 -0.45403445 0.6430076 0.80572826 -0.4574684 -1.2861289 0.4270457
-0.6235013 0.033860672 0.59773356 -0.028950587 -1.282478 -0.72363645 -0.32629526 1.3614392
-2.4385135 -0.38330913 -2.210344 -0.45733324 -0.07290194 1.0464491 1.1741486 -1.8558774
0.2555281 0.769329 -0.23353398 -2.1036541 0.5393597 1.0626831 -1.5290672 1.0779254
0.0703775 1.6112278 0.14311264 1.9492491 2.0560098 -0.22025986 1.0864531 -2.4330888
0.5429671 0.9009215 -0.65198904 1.3518761 2.961541 0.5387269 -0.21537964 1.2371643
0.30046302 -3.6717615 -0.12079138 -0.4364293 3.4470105 0.21790488 -0.40244555 0.16969131
-1.0472378 2.6530178 -0.54986614 -2.8604662 -0.26692978 0.7733573 0.50474477 1.2059771
0.50900435 -1.7782407 0.2512313 -2.9385872 -0.6559036 -2.1638558 1.787303 1.2541213
-1.925866 -1.2097689 -2.9393196 -0.60599244 0.11435042 0.76709443 1.4412489 -1.4709042
2.081651 0.13100706 0.104491666 0.3349589 -0.8729728 0.6463703 1.596253 -0.4666282
-2.240047 -0.6600989 1.99194 -0.7204722 -2.9920828 -0.07996699 -0.35781777 -2.7535994
1.7284784 -7.0181346 0.33963305 -0.1651272 -1.8472342 -4.2744493 -0.08591762 -1.7358462
0.86991715 4.4861283 -0.26409715 -0.35482916 -0.17156658 0.23015504 -0.17081754 -2.7738037
0.24628095 -1.346997 0.54346937 3.820649 0.7284152 -0.82834995 -0.16775142 -1.4567562
0.5062584 -1.7523519 -0.17002392 0.29671147 6.236276 -0.41763428 -0.6360488 -5.835
-0.35718104 1.0556647 0.7901781 -0.013900804 2.174163 1.174844 0.68517476 -1.5341761
-4.7622147 -3.2530346 0.12558565 -3.5819807 -0.63820815 0.6064794 -0.46775293 3.7689474
-11.164937 -2.1428726 -1.52183 -0.38184628 5.008218 1.6833276 -2.7241228 -1.2926524
0.6889094 -2.1057224 -0.21173824 -0.11822179 6.600992 -0.5457566 -0.6310419 -6.5345664

layers.0.bias f4 [64]
00000000: 527c 4940 0c90 b740 7af3 87c0 8491 1041
00000010: efb1 b13f eecd 9fc0 f700 a740 24db 0c40
00000020: 3840 b340 42ef 2440 799d c6c0 34ad ed3e
00000030: 0818 9a40 0668 4940 408b 7440 30ea 09bf
00000040: 97bf d4c0 5340 12c1 884e 773f 909c b2c0
00000050: db7f 8740 ed2e ae40 0e2d 69c0 8300 7540
00000060: ff02 37c0 1bc9 0ac1 ee1e 1e40 51b9 d8c0
00000070: 5d98 2ac0 2971 f43e 6bb4 6ec0 bc79 9fc0
00000080: 90d5 e93f 16c3 0841 9bfd 1540 72a5 3bc0
00000090: fd88 1440 aea1 8cc0 d0f7 ba40 65c6 9fc0
000000a0: abe9 7740 2cbc 63bd 87eb 26c1 69d4 d83f
000000b0: c53b 953f c3d1 02c1 f0d5 6c40 2b65 8a3f
000000c0: 6f3f 6740 5e04 00c0 7401 53bf a5fd 78bf
000000d0: 38ea 1040 2870 30c1 7e1a 83c0 e165 de40
000000e0: 6040 373f bf89 d940 364e 6b3e 477d 373f
000000f0: ef01 0e40 e1d0 9540 f3a6 0340 f8a4 92be
3.148213 5.736334 -4.2484713 9.035526 1.3882426 -4.993888 5.218868 2.2008753
5.601589 2.5771031 -6.2067227 0.46421206 4.8154335 3.146974 3.8209991 -0.53872967
-6.6483874 -9.140704 0.96604204 -5.5816116 4.2343574 5.4432282 -3.643375 3.8281562
-2.8595579 -8.674098 2.4706378 -6.7726216 -2.6655495 0.47742584 -3.7297618 -4.98361
1.8268299 8.547628 2.3436038 -2.931973 2.320861 -4.3947363 5.8427505 -4.992968
3.873637 -0.055599377 -10.432502 1.6939822 1.1658865 -8.176211 3.7005577 1.0812124
3.6132467 -2.0002666 -0.8242409 -0.9726203 2.2642956 -11.027382 -4.096984 6.9499364
0.71582603 6.7980647 0.22979054 0.71675533 2.218868 4.681748 2.0570648 -0.28641486

layers.2.weight f4 [32, 64]
00000000: e454 0b3d 486a b03d de7b 20bc 82dc 7bbc
00000010: 8873 45bd f201 0fbe 3aa0 edbd 8772 2abd
00000020: 14bc dabd 66f5 fe3d 28c1 2abd 83cf 44bc
00000030: 3423 a0bd 1db9 58bc 90f7 4cbc 171d 20be
00000040: 48da cabd 97ee 8a3c 19f2 a4bd 6fb1 32bb
00000050: 7d4a 12bd 6f66 23bd 1f76 e2bd b2ea ad3d
00000060: 0a7c 863d cde9 a53d 5842 3bbe c0b0 d93c
00000070: 6cc9 0ebe d42d fcbd f86c a93c 721d cc3d
00000080: ce75 c3bd a2dd b0bd 4d21 723d d0ad 883d
00000090: b213 07be ec59 e4bd be16 c6bd 93b2 903b
000000a0: 66c1 463c 0c39 7fbd e838 c53c c2c4 edbd
000000b0: b836 c7bd 0858 c83d 38af 1ebd 480c 8a3d
000000c0: 3462 a4bd 7d87 813d 10b3 133c c318 bebd
000000d0: aebc bfbd 4003 b1bc 1390 27be 9a62 e7bc
000000e0: 33d3 00be 72b7 23be 16f9 a23d c617 55bc
000000f0: 4612 5fbc a092 a63c a812 cfbd 304f 1ebd
00000100: 8f8b e1bd 67ad 88bf 3a5e a4c0 3dff 9fbd
00000110: 94bd b33f d236 a0be 1b7c 343f 3e0a 123f
00000120: bf1f a6be 47c1 7c3e 6b2b 50bf 517d 08bf
00000130: 12e6 863e 4c61 3b3d 9a2c d2c0 07fc 2b3e
00000140: e9a5 f8be b4c6 0ebf 198f 3e3f 2d46 393e
00000150: 03f3 f8be cdb4 95bf 629f 2cbf 5447 cc3d
00000160: db05 65c1 1ae6 c5be 2cf7 b0be a185 8a3f
00000170: 5ea4 5cbe 86d6 1ac0 78b8 843f 880f 2ac0
00000180: d66f 353e 19f1 633f 157a 893f c2f9 45bf
00000190: dcd9 cebf ddc9 073d 9fe1 c0be 952c babf
000001a0: cd8b 76bf 01dc 70c0 4b1e 51bf f015 5cbf
000001b0: 6246 f1be 8afb 883e cc28 c43e a7fd 2f3d
000001c0: 23b8 65be fcee 5fbf e9a6 66c1 e35f 3bbf
000001d0: 2661 54c0 342a 39c1 bf58 bebf ada6 ebbe
000001e0: 54ff 293e 6994 edbe 1464 0f3d c856 b53f
000001f0: 6038 e4be a53b 48bf 8ffb 61bf 3cd9 57bd
00000200: 1e23 65bd 551b 81bf 2d36 d2be b7dd 9d3d
00000210: 6cea a1bd 2345 293d c73b 1a3f 66c7 f7bd
00000220: 7a90 4fbe 2594 9cbf 1eda 40bf 4122 503f
00000230: 6b09 2fbd 6dcb 4dbf 1689 a8be 462a f4be
00000240: a881 a1bd eaf2 3dbe 5787 fb3e 9a58 80c0
00000250: e6f2 103e af46 6f3f e35b 1ebf a6fa e4be
00000260: 046a 6bbf 8f51 66bf 0730 ad3e 8da7 6e3f
00000270: 8cd4 113e e2af 00be 7875 f2be 9a3a 92bf
00000280: 6403 83bf 740b d63d ea6d c2bf 0cca 51bf
00000290: 4dba 9bbd ad46 8dbf 79b8 ccbe dd38 a5c0
000002a0: ed6e 19c0 7e37 6ac0 1541 06c0 6d5f e03e
000002b0: a888 c6bf feca 9cbf 6b65 67bf 7339 8cbf
000002c0: 7c6b 6bbe b315 143e ee0c 1940 8b56 183f
000002d0: 2087 85bf 2e99 d5be bf98 abbf 07bd b23e
000002e0: fd66 a1bf faba acbe c059 fa3b 8fb3 26be
000002f0: 3850 59bf fe26 1dbd 0859 8d3c 38ad eb3d
00000300: 2723 263d dc01 3ebc 8f9e 2bbe fa41 2cbe
00000310: 036d a63d 09b0 fdbc f1b0 0bbe 9a28 2c3d
00000320: 005e 35be 4e07 2b3d d9a7 adbd d60a b6bd
00000330: 7ce9 dcbd 5e04 25be f4a4 1cbd e930 f7bd
00000340: 43dc 36bd 6a80 8c3d 5647 41bd 5f2a 8fbd
00000350: 2cd6 5fbd b00e 5c3c c01b 7d3d 5710 8abd
00000360: 485d f53c b032 cebb 5b29 4cbd 61d6 0ebd
00000370: 426b 643c ff83 23bd daf3 abbc 8de8 563d
00000380: fc57 03be 8482 13bd e8f2 633c b693 0f3b
00000390: 6d94 c9bd d5be 7abd 8353 f6bd d6de 08be
000003a0: 309b 8ebd d56e 99bd ef18 5fbd f8a1 4abd
000003b0: abf6 5abd dab7 5d3d 6695 ba3b 75dd 813d
000003c0: e9cd 96bd 0498 e2bc fe8c 97bd 2bfa eebd
000003d0: d19d d9bd 590b 763d 9348 49be af31 31be
000003e0: 20dc cebd e614 c93c c2b8 e9bd 7038 51bd
000003f0: 67a3 02be c536 0e3c a378 753d a858 48bd
0.034016505 0.086140215 -0.009795157 -0.015372397 -0.048205882 -0.13965586 -0.116028264 -0.041613128
-0.10680404 0.1244915 -0.041688114 -0.012012365 -0.078192145 -0.013227728 -0.012510195 -0.15636097
-0.09904915 0.016959472 -0.08053989 -0.0027266403 -0.03571557 -0.03989261 -0.11057686 0.0849203
0.06566627 0.081012346 -0.18287027 0.026573539 -0.13944024 -0.123134285 0.020681843 0.09966554
-0.09543954 -0.08636023 0.05911379 0.06673777 -0.13191107 -0.11149964 -0.096723065 0.004415819
0.012131071 -0.062310264 0.024074987 -0.11609794 -0.09727234 0.09782416 -0.03874132 0.06740624
-0.08026543 0.063246705 0.00901486 -0.09282067 -0.0936216 -0.021607995 -0.16363554 -0.02824526
-0.12580566 -0.15987948 0.079576656 -0.013006156 -0.013615197 0.020333588 -0.1011098 -0.038649738
-0.11012947 -1.0677918 -5.1365023 -0.07812355 1.404223 -0.31291825 0.7050187 0.5704688
-0.32446095 0.24683104 -0.8131625 -0.5331622 0.26347405 0.045747086 -6.5679445 0.1679536
-0.4856408 -0.55771947 0.744371 0.18093176 -0.48622903 -1.1695801 -0.674307 0.09974542
-14.31393 -0.38652116 -0.34563577 1.082203 -0.21547076 -2.4193435 1.0368795 -2.657198
0.17718443 0.8903976 1.0740381 -0.77334225 -1.6160235 0.033151496 -0.37672135 -1.4544855
-0.9630707 -3.763428 -0.8168685 -0.85970974 -0.4712401 0.2675441 0.38312376 0.04296651
-0.22433524 -0.87474036 -14.41575 -0.73193187 -3.3184295 -11.5728035 -1.4870833 -0.460256
0.16601306 -0.4640229 0.03500755 1.4167109 -0.4457426 -0.7821601 -0.8827447 -0.052697405
-0.055941693 -1.0086466 -0.41056958 0.077083044 -0.079060405 0.0413257 0.60247463 -0.12098579
-0.20269957 -1.223271 -0.7533282 0.8130227 -0.04273359 -0.8038853 -0.32917088 -0.47688502
-0.07886058 -0.18549696 0.49126694 -4.0108156 0.14155158 0.9346723 -0.6185896 -0.4472248
-0.9195864 -0.899682 0.33825704 0.9322441 0.14241236 -0.12567094 -0.47355247 -1.1424134
-1.023541 0.10451403 -1.5189793 -0.81948924 -0.076038934 -1.1037194 -0.3998449 -5.1631913
-2.3973954 -3.659637 -2.0977223 0.43822804 -1.5510454 -1.2249448 -0.90389127 -1.0955032
-0.22990221 0.14461403 2.3914142 0.59507054 -1.0431862 -0.4171843 -1.340599 0.3490984
-1.2609555 -0.33736402 0.0076400936 -0.16279434 -0.8488803 -0.038367264 0.017254367 0.11507648
0.040560868 -0.011597123 -0.16759704 -0.16822043 0.08126261 -0.03096773 -0.13641717 0.04203091
-0.1771164 0.041755013 -0.0847928 -0.088887855 -0.10786721 -0.16114947 -0.03824325 -0.12069876
-0.04464365 0.068604305 -0.047187172 -0.069905035 -0.05464761 0.013431236 0.061794043 -0.06741398
0.029951707 -0.0062926635 -0.049844127 -0.034872416 0.013941588 -0.039920803 -0.0209903 0.05246787
-0.12826532 -0.03601314 0.013912894 0.002190811 -0.09842763 -0.061217148 -0.12027647 -0.13366255
-0.069631934 -0.07491843 -0.054467138 -0.04947087 -0.053457897 0.054130413 0.005694079 0.06341068
-0.07363493 -0.027660377 -0.07399939 -0.116688095 -0.10625804 0.060069416 -0.19656591 -0.17304109
-0.10100579 0.024546098 -0.11412193 -0.051079214 -0.12757646 0.00868005 0.0599295 -0.048912674

layers.2.bias f4 [32]
00000000: a540 1ebe 44d1 3bbf c6b6 49be ee4f 7cbd
00000010: d4c2 1dbe efaf 38bd 1079 9bbf 4d5a 85bf
00000020: ee18 78bc b687 e0bd 5f00 3940 38c3 8d3f
00000030: 1865 15bf 293d 17be e3f6 7abf 472a cebe
00000040: 1dfb 7e40 26bc abc0 5afa be3d 436c 00bd
00000050: d9c1 99bd ec2a 83bf 06d7 193f a68c 7fbf
00000060: 48af 5cbe 4b32 5abe 4510 90be cfea 99bd
00000070: 7934 03c0 acc7 b43c 14f8 8bbe dea9 c1bd
-0.15454347 -0.7336619 -0.19698629 -0.061599664 -0.15406352 -0.04508966 -1.214632 -1.0418183
-0.015142662 -0.10963385 2.8906476 1.1075201 -0.5835738 -0.14769424 -0.9803297 -0.4026663
3.9840767 -5.3667173 0.093250945 -0.031353246 -0.07507677 -1.0247474 0.60093725 -0.9982399
-0.2155124 -0.21308248 -0.28137413 -0.07515489 -2.0500777 0.022067867 -0.27337706 -0.09456228

layers.4.weight f4 [11, 32]
00000000: 457b f2bb e264 2e3d df57 753c 5645 3e3d
00000010: 30e5 b8bc 7e02 f6bc dbb1 4e3c 45ff 553c
00000020: c304 80bd 2d5e 43be e1f8 2d3c 7552 bcbb
00000030: 5471 0abd ad0d e53d 90b7 75bc 68f1 29bd
00000040: c804 703c 03a6 293d cd23 2c3c a0a5 233d
00000050: 1bf6 06be 1ed7 813c 82b7 c6bb 5f46 b0bd
00000060: 5361 733d 1293 8b3d d44a c93d 9305 973d
00000070: e206 fabb cec2 babd feaa 56bc ce77 8dbd
00000080: fcf7 1cbe 4ec5 003d 3d3f 333d 0b9e 3dbc
00000090: e032 e9bc 5b51 3ebc 43b1 65bc 144b 9e3c
000000a0: b82f 63bd 83c8 1c3e 58df 893c decb 653c
000000b0: f91a 12bd 470c 433c 3c4d 15bc 9c6d 1dbd
000000c0: 48e0 1abc 8b4c 203d 9a73 923a 77fb 6b3d
000000d0: f84a 853c 5bb3 c3ba 7b84 34bc e7d9 3fbd
000000e0: b894 413c 4a15 583d 4cc4 143d 80d0 2a3a
000000f0: 9ce3 fb3c f672 903d 97c0 80bc 7fd7 8c3c
00000100: e74b b3bc bb73 093c 2818 f43c 7d8b fbbc
00000110: 8563 c1bb 4c12 98bd 67c3 26bd 3d53 ae3c
00000120: 32a4 3fbc 3d7f 8cbd a34f 8f3c c2d0 0fbd
00000130: f131 acbc af04 153d 1eaa 84bc b2be e23c
00000140: e58f 25bc 6ecc 233d a013 b8bc c23e 983d
00000150: 5f18 bfbd 59e6 4abd ebd6 3d3c c7fd 283d
00000160: 3793 67bd 509f 83be 0a92 2c3e 1531 a63b
00000170: 0064 1ebd 8640 8a3d 0669 87bc b5ba 18bd
00000180: 671c 203e b903 de3c c330 573d 5381 6d3d
00000190: ba67 02bc 6a4b 263c 17c5 7dbd 98d2 8b3c
000001a0: 19e0 8a3d fd70 0c3d 0744 e1bb 0ed1 2c3c
000001b0: 3088 bcbc 5197 ecbc 6993 b2bb f090 ca3a
000001c0: f48d 69bc 09f1 ee3c 2340 833b 772c 153d
000001d0: ad23 97bc b6f4 1bbc 7a17 b83b 6b75 d3bc
000001e0: 60d7 d73c fdd5 2b3e eb5a bb3b ed28 10be
000001f0: fd5c bb3b 761a 35bd 5436 10bc 0ff7 7bbc
00000200: 05ee 08be 7fab 8cbd 6458 383d 2fd3 193d
00000210: fac5 3cbc 3629 e1bd e9d0 90bd c818 0bbd
00000220: 0728 cf3d 55f5 543d ff9c 163d f1aa c6bb
00000230: 19fb bdbc 79e3 60bd d5c6 5eba 0897 a0bc
00000240: f78f 14bd 71d9 083d cf49 ddb8 3c4d af3d
00000250: 2f5d 333d e040 8c3d 2fe0 a5ba 8967 f93c
00000260: b829 5a3c 9314 7cbe c5c8 433e a0d2 4a3c
00000270: dfea 77bb 3c99 e5bc cee9 04bc 5d3d cd3d
00000280: 6f54 1f3d e0bd 993c 7d7f f03c 3788 f83b
00000290: 65ec 31bc 4cf8 94bd 27e5 99bd 77c3 363c
000002a0: 9e36 2c3e 34c0 033e 26b9 533d 8e60 553c
000002b0: 66ac d9bc 4b0c 9f3b a7d9 e6bc 97dc 233d
000002c0: fc16 4fbc c453 b0ba 17c2 cc3b 1b25 ad3d
000002d0: f975 2ebe 29f3 aabc 2ac6 083c 5a0e 87bd
000002e0: 1424 23bd c6f8 d43d 4075 d33d 3dcc d8bb
000002f0: 10c9 963d 3894 30bc 68dc 69bc 5cdb 683d
00000300: 63bb f23d d911 cfbb da38 913c baa7 87bd
00000310: 9681 ad3c 957b a23c 4d6e 92bd dd75 50bc
00000320: 67a7 7f3e 1778 223e 0581 9c3b 7b82 fdbb
00000330: b9d9 a0bc 8b9a 2dbd 473b a23b 57ce 78bd
00000340: 850d afbc 6186 083d b0d7 0d3c 312e ca3d
00000350: b05d b7bd 9911 293d 23ff a0bb 38fa 953c
00000360: 7bef 873c 65dc 1c3d 7f66 343e 9b8b 913c
00000370: b66d db3c b901 ba3d 9068 90bc a69f 8b3d
00000380: d2aa 2f3d 2baf ab3d 2887 fd3c 7335 103d
00000390: f905 8eba 9957 2cbd 6471 7ebd a567 b43b
000003a0: 9686 933e a2fe b4bd 8300 1ebc 5964 13bc
000003b0: 65bb b23b 782d aebd 4a8e 13bd d541 833c
000003c0: 8539 5dbc 37c2 083d 1277 febb c73f cc3d
000003d0: 3d58 893c b483 a9bc 8e90 84bd 2347 293d
000003e0: 67c1 463d 16b7 463e 7843 a2bd 8470 cbbd
000003f0: 1360 acbc 97ce 19be db1b 88bc 2b09 3c3e
-0.007399949 0.042576678 0.014974563 0.046452843 -0.022570223 -0.030030485 0.012615646 0.013061349
-0.06250908 -0.19078894 0.010618419 -0.0057471343 -0.033799484 0.11184249 -0.014997378 -0.04148999
0.014649577 0.041418087 0.010506582 0.039952874 -0.1317982 0.015849646 -0.0060643563 -0.08607172
0.059418987 0.06815161 0.098287255 0.0737411 -0.007630215 -0.09119187 -0.013102291 -0.069076166
-0.15328974 0.031438164 0.04376148 -0.011573325 -0.028466642 -0.011616076 -0.014019313 0.01932291
-0.05546543 0.15310864 0.016830131 0.0140256565 -0.035670254 0.011904783 -0.009112652 -0.03843461
-0.009452887 0.039135497 0.0011173368 0.057612862 0.0162711 -0.0014930771 -0.011017914 -0.046838667
0.0118152425 0.052754678 0.036320016 0.0006516054 0.030748181 0.07053177 -0.015716834 0.0171926
-0.021886779 0.008389409 0.029796675 -0.030706162 -0.005901756 -0.07425365 -0.040713694 0.021279925
-0.011696862 -0.06860206 0.017494028 -0.035111196 -0.021019908 0.03638142 -0.0161944 0.027678821
-0.010105108 0.03998988 -0.022470295 0.07433845 -0.0933082 -0.049536083 0.011586885 0.041257646
-0.05653688 -0.25707483 0.16852584 0.005071769 -0.038669586 0.06750588 -0.016529571 -0.037287433
0.15635835 0.027101384 0.052536737 0.05798466 -0.007959301 0.010149816 -0.061955538 0.017068192
0.067810245 0.03428744 -0.0068745646 0.010547889 -0.023014158 -0.028880747 -0.0054497016 0.0015454572
-0.014255036 0.029167669 0.0040054484 0.036419358 -0.018449629 -0.009518793 0.005618033 -0.025812825
0.026347816 0.16780849 0.0057176254 -0.14078112 0.005717872 -0.04421469 -0.008802015 -0.015378728
-0.13372047 -0.06868648 0.04500617 0.037554916 -0.011521811 -0.109941885 -0.070710965 -0.03395918
0.101150565 0.05199178 0.036770817 -0.0060628583 -0.023191022 -0.054904435 -0.0008498256 -0.019603267
-0.036270108 0.033410493 -0.00010551849 0.08559653 0.04379004 0.068483114 -0.0012655313 0.030444877
0.013315611 -0.24617223 0.19119556 0.0123793185 -0.0037829203 -0.02802717 -0.008112384 0.1002147
0.03889888 0.018767297 0.029357666 0.0075845974 -0.0108595835 -0.07273921 -0.075144105 0.011155001
0.1681771 0.12866288 0.051690243 0.013023509 -0.026571464 0.0048537604 -0.028179957 0.040005293
-0.012639757 -0.0013452698 0.0062487232 0.08454343 -0.1703719 -0.0208679 0.008348027 -0.06594534
-0.03982933 0.10399012 0.10325098 -0.006616144 0.073625684 -0.010777526 -0.01427374 0.056849822
0.118521474 -0.0063192663 0.017727304 -0.06623788 0.021179955 0.01983432 -0.071499445 -0.012723413
0.24966203 0.15866123 0.0047761225 -0.0077365017 -0.019635068 -0.04238371 0.004950914 -0.060743656
-0.021368751 0.03333128 0.008657381 0.098720916 -0.08953416 0.041276548 -0.004913227 0.01830779
0.016593685 0.038296122 0.17617224 0.017766764 0.026785713 0.0908236 -0.017627984 0.0681756
0.042887516 0.0838302 0.030948237 0.035207223 -0.001083552 -0.042075727 -0.062119856 0.0055055195
0.28813618 -0.0883763 -0.009643677 -0.008996093 0.005454468 -0.08504766 -0.03602437 0.016022602
-0.013502483 0.033388343 -0.007765659 0.09973102 0.016765708 -0.020692684 -0.06472884 0.041327607
0.048524287 0.19405779 -0.07923025 -0.0993357 -0.021041906 -0.15020214 -0.016614845 0.18362872

layers.4.bias f4 [11]
00000000: d34e 4bbb a8f6 083e 6cfa 823e f309 b13e
00000010: 750e c83e 5ccb cc3e cd25 c93e 8ff9 b43e
00000020: 4faf 8b3e 50c9 1d3e dd0b 8f3c
-0.0031022325 0.13375342 0.25581682 0.34577903 0.3907353 0.399989 0.39286652 0.35346648
0.27282187 0.15408826 0.017461712
