Simulation/saved_models/model_large_dataset_test5.pth (torch, 540340 bytes, 10 tensors)

layers.0.weight f4 [128, 6]
0.16021943 -0.0024286308 -11.496603 -0.0837949 -0.026542261 0.20265132 -0.59551936 -0.3836663
-0.111810036 -0.081717886 -0.049361605 -1.6702973 0.45530507 -5.251608 -0.012846967 0.007872728
0.003764584 -0.00068543706 -0.52278453 -0.06467054 0.018947812 -0.93781376 0.06330927 1.5033059
-0.0013045343 -0.0006869401 7.936117e-05 -0.0042830673 1.7502465 -1.7480757 0.036061477 0.58865505
-4.4477487 -0.017896576 -1.286084 0.16397405 -0.024595652 1.0698794 0.90946275 -0.9312524
-4.556953 0.18758442 1.9256935 1.8254055 -0.06369966 -0.09336051 -0.17593768 -0.35541046
0.83507687 0.6219062 -0.5985043 -0.16020346 0.17465742 0.48166722 0.0019198132 0.0001741871
1.5539485 -1.5557742 -0.00027135902 -0.0021051397 -0.04646497 -0.04540649 -0.16852574 -0.1481168
-0.27268308 -0.20143105 -0.48323786 -0.63823336 0.5623684 0.48311153 -0.13027127 0.093732476
-0.13121592 -0.005184392 0.02652115 -0.2026347 0.023572724 -0.5897524 -0.0811936 -0.21719356
0.54963785 -0.047687244 -0.17842916 0.12565558 -0.48523125 -0.49873915 0.24117646 -0.37902218
-0.15795588 -0.13819505 2.3690596 -2.3638635 0.0046887207 0.0026609593 0.0015852546 0.0062592453
0.34843156 0.24889389 -0.3262261 0.2392157 -2.3286672 -0.46139115 0.042154234 0.07727233
-0.012866819 -0.06630218 -0.07088027 -0.06743592 -3.9573326 4.697791 -0.00093574106 0.002621788
-0.0010671639 -0.0044155396 -0.675089 -0.49496412 0.14522512 0.2118471 -0.49465513 -0.6283664
-0.7895762 0.17540795 -0.10690586 -0.17618793 0.0072615156 -0.13217564 -0.009774963 -0.067428626
0.8941338 -0.89285916 1.1276063 -1.0843154 0.036306325 -0.47121373 -0.24680921 -0.0017785992
-0.3692949 -0.12670289 0.11057356 0.19852927 -0.32623744 -0.2076157 0.05143509 -2.1034677
0.0011488311 0.0047548427 -0.57948685 0.5858638 0.91755074 -0.91824466 0.014176861 0.15569071
-0.5610228 -0.70391876 -0.65037864 -0.5465741 -0.36401513 -0.4571874 -0.9923193 1.2637837
-0.11352978 -0.41123873 0.46574506 0.30016762 -1.209528 -0.21760873 1.1798129 -0.24130885
0.0928184 -0.462264 -1.2438974 -1.1049947 0.5163978 0.7433749 -2.3248496 2.8536382
-0.0068110996 0.010349587 0.0013780276 0.0034809473 0.14422162 0.03136213 -0.081778154 -0.17091341
-0.25235942 -0.25037074 -0.008462733 -0.0015705546 1.0909151 -1.0906252 1.7277737 -1.7191925
-0.32519728 0.085100524 -0.27371264 -0.058626227 -0.23974119 -0.38801587 -0.2546874 0.018412387
0.30002788 -0.88942134 0.9869304 -2.9867108 -0.74760795 0.30052203 -0.19471273 -1.4680167
0.11408296 -4.4364505 -0.86414784 -0.9089391 -0.43390316 -0.25629893 -0.8911644 -0.023061343
0.99417156 -2.240511 0.3069807 -1.5708741 -0.29787254 -0.24509001 -28.230238 0.93359345
-1.1186777 0.9238442 -5.4363117 -4.9187 -0.0036601594 -0.003786922 -1.0128758 1.0019332
-1.5831048 1.5852114 0.95623904 0.466458 0.7349989 -1.1641282 -0.5625962 -4.3495727
2.3031664 0.30302733 -0.35263744 -0.032830577 -0.7149871 0.14459403 -0.1786854 0.1245806
-0.10325787 -0.18734396 -0.71999085 0.04897365 -0.0020530256 -0.003758987 -1.1562651 1.1497762
00000000: 9010 243e aa29 1fbb 16f2 37c1 a99c abbd
00000010: 286f d9bc d483 4f3e f573 18bf e96f c4be
00000020: a9fc e4bd b55b a7bd 652f 4abd 4dcc d5bf
00000030: bf1d e93e 2c0d a8c0 167c 52bc 9dfc 003c
00000040: 3db7 763b e7ae 33ba 35d5 05bf fd71 84bd
00000050: 7138 9b3c 9014 70bf 4aa8 813d 546c c03f
00000060: e8fc aaba c513 34ba b46e a638 f958 8cbb
00000070: 1408 e03f f2c0 dfbf 33b5 133d 19b2 163f
00000080: f553 8ec0 d79b 92bc 679e a4bf d0e8 273e
00000090: d27c c9bc cff1 883f 8dd2 683f 8f66 6ebf
000000a0: 8fd2 91c0 2116 403e 207d f63f e3a6 e93f
000000b0: f874 82bd cc33 bfbd 0229 34be 5cf8 b5be
000000c0: 99c7 553f 3f35 1f3f 9437 19bf 600c 24be
000000d0: 65d9 323e 169d f63e 3ea2 fb3a fea5 3639
000000e0: c9e7 c63f 9c23 c7bf 3145 8eb9 62f6 09bb
000000f0: 0d52 3ebd 28fc 39bd 0392 2cbe eeab 17be
00000100: 1e9d 8bbe f143 4ebe f46a f7be 4363 23bf
00000110: 60f7 0f3f 655a f73e d565 05be d0f6 bf3d
00000120: 775d 06be d5e1 a9bb e242 d93c 797f 4fbe
00000130: 961b c13c 03fa 16bf d548 a6bd fd67 5ebe
00000140: 11b5 0c3f b353 43bd 22b6 36be dbab 003e
00000150: 3b70 f8be bd5a ffbe f6f6 763e 320f c2be
00000160: 30bf 21be 0183 0dbe ac9e 1740 8a49 17c0
00000170: d7a3 993b 7d63 2e3b 51c8 cf3a 5b1a cd3b
00000180: 9f65 b23e 0ade 7e3e 1b07 a7be f6f4 743e
00000190: e208 15c0 763b ecbe eba9 2c3d f540 9e3d
000001a0: 5acf 52bc 70c9 87bd ad29 91bd d81b 8abd
000001b0: f044 7dc0 4e54 9640 854c 75ba 4ed2 2b3b
000001c0: 14e0 8bba 3bb0 90bb a2d2 2cbf f06b fdbe
000001d0: e5b5 143e 72ee 583e 7043 fdbe 9fdc 20bf
000001e0: aa21 4abf 249e 333e 76f1 dabd 9c6a 34be
000001f0: 02f2 ed3b 0d59 07be 2b27 20bc 0518 8abd
00000200: f4e5 643f 6b92 64bf 6755 903f d9ca 8abf
00000210: f1b5 143d ed42 f1be 8ebb 7cbe e31f e9ba
00000220: 3914 bdbe 67be 01be 6474 e23d 424b 4b3e
00000230: 9808 a7be 3699 54be 9aad 523d 379f 06c0
00000240: 6094 963a 83ce 9b3b 4059 14bf 2cfb 153f
00000250: 9be4 6a3f 1512 6bbf 1146 683c 636d 1f3e
00000260: 319f 0fbf 0534 34bf 377f 26bf 48ec 0bbf
00000270: 3160 babe 7814 eabe a308 7ebf aac3 a13f
00000280: 4d82 e8bd e28d d2be 2376 ee3e 92af 993e
00000290: d0d1 9abf d3d4 5ebe 1c04 973f ab19 77be
000002a0: 9317 be3d dead ecbe 0838 9fbf 7770 8dbf
000002b0: a532 043f d14d 3e3f 56ca 14c0 02a2 3640
000002c0: a52f dfbb 5091 293c ef9e b43a 9b20 643b
000002d0: d5ae 133e 9475 003d 4e7b a7bd ed03 2fbe
000002e0: 4135 81be 9830 80be 46a7 0abc 11db cdba
000002f0: 1ba3 8b3f 9b99 8bbf b027 dd3f 800e dcbf
00000300: 4280 a6be 2f49 ae3d 1024 8cbe 0e22 70bd
00000310: b77e 75be 04aa c6be 6366 82be 93d5 963c
00000320: 419d 993e 1eb1 63bf 78a7 7c3f 4526 3fc0
00000330: 3c63 3fbf 06de 993e c662 47be f9e7 bbbf
00000340: 54a4 e93d 67f7 8dc0 cb38 5dbf 3cb0 68bf
00000350: 8e28 debe 9d39 83be 5a23 64bf 24eb bcbc
00000360: 0782 7e3f 8864 0fc0 932c 9d3e 6712 c9bf
00000370: c082 98be e0f8 7abe 87d7 e1c1 fbff 6e3f
00000380: d530 8fbf 0e81 6c3f 44f6 adc0 fe65 9dc0
00000390: 49df 6fbb 022e 78bb eaa5 81bf 593f 803f
000003a0: 2ea3 cabf 35e8 ca3f 15cc 743f 95d3 ee3e
000003b0: e328 3c3f 2702 95bf 4e06 10bf b32f 8bc0
000003c0: 1467 1340 6626 9b3e e58c b4be 5b79 06bd
000003d0: 6509 37bf 7510 143e 4ef9 36be 1d24 ff3d
000003e0: dd78 d3bd 18d7 3fbe 5251 38bf 9898 483d
000003f0: 0e8c 06bb 5659 76bb 7f00 94bf de2b 933f

layers.0.bias f4 [128]
-0.32864222 2.7611492 1.6228821 -8.783351 -3.5017467 -1.4904374 -7.4633226 -13.755928
-7.3617053 -0.036159877 0.2637552 -2.9414172 -0.22314535 -4.2138147 1.5206778 -0.07774226
-0.61918426 -0.5563038 -14.032709 4.216104 -0.64297587 -9.285796 0.112060875 -0.31582978
-0.005355824 2.6620774 -3.837086 -10.592556 -5.716854 -6.24237 -0.6175055 -10.389323
-0.1668107 -5.240845 1.2002383 5.3751245 -1.524609 5.663074 -9.454685 -4.828121
-11.495808 -0.5474262 -14.41383 2.775574 -0.5380159 -1.4330775 -4.868969 -1.5694435
0.0073897047 -0.040814716 -7.3505883 0.010694868 -13.723488 0.10306575 -1.9513607 -3.511807
0.53327173 2.0307786 -5.0253077 -11.604114 -0.72851413 -0.07245301 -0.0022782357 -0.44448057
-1.2499517 -1.7578182 -1.4628717 -0.001698628 0.29502827 -6.9916964 -5.7081575 -3.5746615
-11.755486 0.118584715 -3.0613134 -8.157635 -8.882593 -0.14966369 -1.1891586 -3.0368903
-6.576001 -15.246141 -3.6103454 1.8399416 -0.62297493 -0.3451533 0.008265383 -1.50955
-0.03652012 -16.595583 -2.0832064 -10.158367 -0.033987045 -6.1708536 1.9435714 -0.016528562
9.45213 9.62812 -4.392853 -0.104201734 -9.851101 -3.958095 -0.35499695 -0.67937875
-1.4308438 -2.7057784 -4.965346 -0.5176742 -2.6973279 -18.21002 -2.087231 -15.300883
3.0031502 -1.4988031 -0.11787619 -1.248573 -4.854478 -0.4154954 0.009030311 -4.5632534
-3.0290577 -0.5667715 -2.8310125 -1.0808072 0.2056269 -7.5681763 -9.892232 -0.95646393
00000000: cb43 a8be abb6 3040 9aba cf3f 9b88 0cc1
00000010: 9e1c 60c0 a7c6 bebf 8ad3 eec0 4818 5cc1
00000020: 1793 ebc0 611c 14bd ec0a 873e 2e40 3cc0
00000030: 3780 64be 92d7 86c0 92a5 c23f 5637 9fbd
00000040: dc82 1ebf ed69 0ebf fa85 60c1 53ea 8640
00000050: 119a 24bf 9f92 14c1 2c80 e53d 71b4 a1be
00000060: e87f afbb 7a5f 2a40 d192 75c0 1c7b 29c1
00000070: 78f0 b6c0 7fc1 c7c0 d714 1ebf ab3a 26c1
00000080: 6dd0 2abe 01b5 a7c0 69a1 993f 0501 ac40
00000090: 6326 c3bf e737 b540 6446 17c1 f87f 9ac0
000000a0: d4ee 37c1 2024 0cbf 0c9f 66c1 01a3 3140
000000b0: 69bb 09bf 156f b7bf 98ce 9bc0 86e3 c8bf
000000c0: 5625 f23b 552d 27bd 0538 ebc0 8739 2f3c
000000d0: 6893 5bc1 2314 d33d 30c6 f9bf 72c1 60c0
000000e0: 7f84 083f 47f8 0140 52cf a0c0 73aa 39c1
000000f0: e77f 3abf 3e62 94bd 744e 15bb f592 e3be
00000100: 6bfe 9fbf 3000 e1bf 613f bbbf 7fa4 deba
00000110: f20d 973e fabb dfc0 3aa9 b6c0 41c7 64c0
00000120: 7816 3cc1 8bdc f23d 8fec 43c0 ac85 02c1
00000130: 1a1f 0ec1 7041 19be 5936 98bf 695c 42c0
00000140: 9a6e d2c0 32f0 73c1 e60f 67c0 3583 eb3f
00000150: 497b 1fbf efb7 b0be 876b 073c ef38 c1bf
00000160: 1f96 15bd c1c3 84c1 4153 05c0 ac88 22c1
00000170: 0036 0bbd a277 c5c0 f3c6 f83f e866 87bc
00000180: ed3b 1741 c80c 1a41 4092 8cc0 b867 d5bd
00000190: 1c9e 1dc1 6e51 7dc0 29c2 b5be c4eb 2dbf
000001a0: e425 b7bf 792b 2dc0 1de4 9ec0 4c86 04bf
000001b0: 05a1 2cc0 1fae 91c1 3195 05c0 6bd0 74c1
000001c0: 9d33 4040 c8d8 bfbf 1269 f1bd 3dd1 9fbf
000001d0: e257 9bc0 d0bb d4be dff3 133c 2c06 92c0
000001e0: 15dc 41c0 f017 11bf 4f2f 35c0 e457 8abf
000001f0: dc8f 523e 802e f2c0 9546 1ec1 d2da 74bf

layers.2.weight f4 [256, 128]
-0.0951489 -0.033354633 -0.03146282 -0.033760168 0.06678341 0.006529726 -0.051858466 0.08933371
0.0449196 -0.08300817 -0.06064687 -0.08073719 -0.063716784 0.05645296 -0.048955154 -0.11575227
-0.07928807 -0.011080274 -0.102447964 0.04255991 -0.05239819 -0.05081708 0.05778862 0.08148447
-0.09034944 -0.087395586 0.020646572 -0.025727537 -0.10639639 0.014482847 0.0044482113 0.105847254
-0.033574812 0.013161502 0.047949035 0.025269266 0.08706982 0.0824228 -0.049756113 -0.051647812
0.03721835 0.02804965 -0.08166371 -0.05659781 -0.017024701 -0.02709736 0.020447757 0.02547662
0.015107614 -0.08009614 0.12999615 -0.061799556 -0.083328724 0.008005276 -0.051837586 -0.062679194
-0.05477004 0.009376724 0.018291578 -0.04271275 -0.05887764 -0.18153633 0.02053719 -0.057537887
-0.1077748 -0.017986357 0.024767501 -0.012567678 -0.007703781 -0.023666553 -0.04482711 0.009544803
-0.005956933 0.046186466 -0.079611875 0.030122383 -0.0749042 -0.052808344 -0.006074477 -0.027558828
-0.03706294 -0.06728725 -0.04326214 -0.09426952 -0.056934934 -0.038412772 -0.04725209 -0.058359664
0.054790147 -0.04345228 0.015015102 -0.062701 -0.08391988 -0.08000554 -0.065168396 0.036582083
-0.12774388 -0.10796294 0.022419957 -0.08293525 -0.103404194 -0.04303794 -0.032956902 0.010391412
-0.08915712 -0.068167225 -0.06741771 -0.04587426 0.067601606 0.028902413 0.07499491 -0.038755063
-0.03950984 0.011207048 -0.05138701 -0.09017503 -0.0032336887 0.06919014 -0.103430346 -0.08581947
-0.062401295 -0.11466893 -0.07443336 -0.09726575 0.025275895 0.0045345044 -0.03043062 -0.018938698
0.026845908 0.014087341 -0.13170145 -0.0010437573 -0.03444681 -0.085075505 -0.023417497 -0.11273014
0.06854711 -0.045221575 0.019989798 -0.0090525625 0.062102403 -0.034674972 0.000288225 -0.07630082
-0.07894859 -0.03526452 0.017457368 0.009704906 -0.035752617 0.01331178 -0.113077514 -0.037911683
0.025993472 -0.088208035 -0.040237367 -0.023394506 0.04129565 -0.015372058 -0.08040891 0.050135184
-0.0075599705 -0.07904323 0.047267463 -0.09230242 0.07798307 -0.052078396 -0.089007355 -0.09618278
0.045285564 -0.004612288 0.07638345 0.017739508 -0.08610494 -0.012489384 -0.07437728 0.02339498
0.047969747 -0.099276975 -0.019212462 -0.0134014655 -0.09438418 -0.045748275 -0.13496444 -0.03880895
0.04709869 -0.00061524403 -0.10318839 -0.08031813 -0.06573125 -0.08019255 -0.09569376 -0.0338384
0.014595314 -0.07595994 0.06038619 -0.029860465 -0.035369243 0.079447575 -0.14119586 -0.023846144
0.005282117 -0.077459656 -0.033087254 -0.13482709 -0.039170437 -0.063454345 -0.12701438 -0.048647217
0.03327539 -0.10766661 0.0062555242 -0.088263206 0.017600419 -0.09824405 0.025773354 -0.15957555
0.074524395 0.012564235 -0.079653285 0.022367094 0.036600314 -0.11430102 -0.112555385 -0.04968566
-0.010917413 -0.06837449 -0.039362613 -0.06954622 -0.08453703 -0.099714145 -0.11689565 -0.050566703
-0.12519683 -0.096765146 -0.14664246 0.065206945 0.11208495 -0.075561926 0.06331554 0.0302353
-0.06991955 -0.10705501 -0.05294644 -0.060011495 0.008512517 0.08431005 -0.15208173 -0.046744905
0.0020288627 0.054098003 0.040972944 -0.069651745 0.043186642 0.06310194 -0.102404036 -0.06260448
00000000: 6ddd c2bd de9e 08bd 28df 00bd 1a48 0abd
00000010: bec5 883d 50f7 d53b 8b69 54bd 98f4 b63d
00000020: 9dfd 373d 3000 aabd da68 78bd 8a59 a5bd
00000030: f27d 82bd 383b 673d 3385 48bd 870f edbd
00000040: c961 a2bd 0a8a 35bc 3dd0 d1bd 4d53 2e3d
00000050: 7c9f 56bd 9225 50bd c3b3 6c3d 54e1 a63d
00000060: 2109 b9bd 75fc b2bd 0023 a93c 8ec2 d2bc
00000070: 5ae6 d9bd 7749 6d3c 4dc2 913b 72c6 d83d
00000080: be85 09bd 57a3 573c 3566 443d 7e01 cf3c
00000090: a951 b23d 49cd a83d 11cd 4bbd a88c 53bd
000000a0: 4572 183d 61c8 e53c 4e3f a7bd 1bd3 67bd
000000b0: 6377 8bbc 48fb ddbc 0e82 a73c 58b4 d03c
000000c0: ed85 773c 7209 a4bd b61d 053e 8821 7dbd
000000d0: 40a8 aabd 9028 033c a653 54bd f35d 80bd
000000e0: 8d56 60bd d5a0 193c 38d8 953c 91f3 2ebd
000000f0: ae29 71bd a9e4 39be 9c3d a83c d9ac 6bbd
00000100: 09b9 dcbd 2058 93bc 37e5 ca3c a9e8 4dbc
00000110: 0070 fcbb 5ce0 c1bc a29c 37bd ce61 1c3c
00000120: 6032 c3bb 052e 3d3d 8d0b a3bd 37c3 f63c
00000130: 6067 99bd 904d 58bd 680c c7bb 0dc3 e1bc
00000140: 4fcf 17bd e6cd 89bd a433 31bd 6110 c1bd
00000150: 9b34 69bd b656 1dbd 688b 41bd 8b0a 6fbd
00000160: a26b 603d 05fb 31bd e701 763c 6269 80bd
00000170: 30de abbd f2d9 a3bd 0277 85bd 18d7 153d
00000180: 4bcf 02be ad1b ddbd 0faa b73c f5d9 a9bd
00000190: 94c5 d3bd 8d48 30bd d1fd 06bd be40 2a3c
000001a0: 0298 b6bd 429b 8bbd 4c12 8abd a6e6 3bbd
000001b0: b672 8a3d c1c4 ec3c ee96 993d a1bd 1ebd
000001c0: 12d5 21bd c49d 373c 2f7b 52bd b0ad b8bd
000001d0: 4bec 53bb 8fb3 8d3d 4ad3 d3bd 1ec2 afbd
000001e0: 8098 7fbd 8bd7 eabd 8470 98bd 4433 c7bd
000001f0: 650f cf3c 2e96 943b a349 f9bc 5425 9bbc
00000200: f3eb db3c 97ce 663c bfdc 06be afce 88ba
00000210: 1918 0dbd 113c aebd 0dd6 bfbc 0fdf e6bd
00000220: 6d62 8c3d 423a 39bd a5c1 a33c 3351 14bc
00000230: 175f 7e3d 5807 0ebd e81c 9739 9b43 9cbd
00000240: ccaf a1bd 8871 10bd c102 8f3c 5301 1f3c
00000250: 5671 12bd a719 5a3c 2f95 e7bd 4849 1bbd
00000260: 43f0 d43c 6aa6 b4bd f0cf 24bd d6a5 bfbc
00000270: a125 293d 16db 7bbc 6dad a4bd 8d5a 4d3d
00000280: a1b9 f7bb 6be1 a1bd 879b 413d 0d09 bdbd
00000290: 96b5 9f3d 2850 55bd 7d49 b6bd 7afb c4bd
000002a0: 5b7d 393d ad22 97bb ed6e 9c3d 7252 913c
000002b0: c957 b0bd 46a0 4cbc 1e53 98bd d4a6 bf3c
000002c0: ed7b 443d ba51 cbbd 7463 9dbc d291 5bbc
000002d0: 7e4c c1bd 8b62 3bbd 1e34 0abe 22f6 1ebd
000002e0: 8eea 403d 5448 21ba 6f54 d3bd d57d a4bd
000002f0: 1b9e 86bd fe3b a4bd 17fb c3bd 229a 0abd
00000300: 2f21 6f3c e390 9bbd 8257 773d ef9d f4bc
00000310: 57df 10bd 69b5 a23d a695 10be fd58 c3bc
00000320: 9c15 ad3b 2ba3 9ebd 8086 07bd 1d10 0abe
00000330: 2e71 20bd 5af4 81bd 0f10 02be 4e42 47bd
00000340: c64b 083d 5080 dcbd 24fb cc3b 57c3 b4bd
00000350: c12e 903c 2d34 c9bd a422 d33c c667 23be
00000360: 3fa0 983d 39da 4d3c 4321 a3bd 323b b73c
00000370: 36ea 153d a716 eabd 7083 e6bd 3183 4bbd
00000380: f3de 32bc ed07 8cbd b13a 21bd 406e 8ebd
00000390: c021 adbd ee36 ccbd fd66 efbd 081f 4fbd
000003a0: 9933 00be ce2c c6bd 7129 16be 388b 853d
000003b0: cb8c e53d 36c0 9abd 94ab 813d 05b0 f73c
000003c0: fb31 8fbd a83f dbbd 5ede 58bd 9dce 75bd
000003d0: 1678 0b3c bfaa ac3d 50bb 1bbe 9677 3fbd
000003e0: abf6 043b de95 5d3d 3fd3 273d 93a5 8ebd
000003f0: 7ae4 303d 973b 813d 35b9 d1bd c736 80bd

layers.2.bias f4 [256]
-0.12739782 -0.07374619 -0.16048263 -0.118458405 3.0053892 -0.3169315 -21.052088 -0.20409685
3.127151 -0.0940684 -1.7286481 6.6604695 -0.042476308 -0.06476642 -7.060764 -0.28134155
-0.2507917 -28.965689 3.6870139 -0.030523885 -0.12461007 -13.58731 -7.0814285 1.6854004
-0.03573509 -15.565885 9.772085 -11.320647 -0.4871521 -0.09531068 -0.3166089 1.769373
-0.08997551 4.9161425 -0.020619895 -0.39167905 -21.918596 -0.11059636 -0.1569485 -0.37721443
-0.057663817 -0.18936436 4.682393 -0.39351594 -0.11910584 -0.060662508 -0.06989148 -0.09267408
-9.010795 -0.055858698 -0.059999306 1.884746 -5.548481 -5.8170967 -0.24512984 -0.030152457
-4.7714157 -0.15895382 0.018008726 -0.080446936 -0.0671954 -1.4460909 -4.974966 -0.14079282
-0.067201816 -0.05502723 -0.059672907 -3.8360858 -0.13084671 2.7849884 -0.02578773 -0.08417005
-0.008410403 -24.952494 -0.04937736 -0.16598041 -3.5194752 -0.12621024 -0.50200456 -17.419195
-0.22820719 -0.08234185 -0.10351124 -0.17411081 -10.959188 -3.4272578 0.5609634 -0.050459437
-0.09832135 -0.11168316 -0.7799483 -0.19815254 0.0066943998 -0.09389053 -0.19275823 -13.922014
7.41016 -20.47411 7.1624365 -0.21379045 -22.898956 -0.021103732 -3.5775084 -2.1877728
-0.09447487 -0.17098051 -0.09340003 -9.062503 -0.06901107 -0.16975723 -10.013783 6.7417493
-0.007938491 -0.21331355 -0.006263386 -13.637517 -0.11354857 1.1862334 -9.412389 -0.15468071
-0.07535038 -2.0533452 -0.030153336 -0.98964244 -0.07212763 -1.4426507 -2.3036418 1.4170637
0.015292615 -0.080030516 0.008970316 5.5837555 -17.107983 -4.835379 -10.118375 -0.11629894
0.015401795 -0.06600422 -0.1180995 5.8797708 -0.016618721 -0.15771613 -18.636652 -0.17129785
-0.20459643 -0.056798846 -0.17660524 -0.07413448 2.4149265 -0.17843871 -0.05621409 -0.49331093
-16.92577 -7.353303 -0.093179286 -0.11485079 -0.042776484 -0.0706608 -11.534997 1.9080136
-8.178578 0.3089023 -0.19882771 2.6129336 2.554469 -0.092016146 -0.092861116 -8.922864
-0.29448032 -0.11910217 0.0055477177 -1.5588304 -0.05337913 -0.094246544 -0.00878858 -0.07198156
-0.03887808 -0.068097755 -3.1575353 -0.12208678 -0.45530057 -0.14639191 0.0040428494 -0.14064531
1.0906737 -10.242725 -0.16109253 -0.14611207 -0.10659074 -0.111783735 -2.0555608 -6.4565783
-0.0712957 11.990371 3.0908089 -12.322314 0.016053133 -0.12636268 0.6326861 -0.037151307
-0.07596166 -1.3557179 -0.051774733 1.3529449 -0.14081869 -0.13095015 -0.08308704 -0.15215333
0.74892664 -0.17361651 0.020656386 1.779143 -0.13896452 -0.08444395 -0.17294283 -0.19244345
-0.0936753 -18.403595 0.013016292 -0.12793115 -11.800084 -0.13331155 -0.03700884 -20.179781
1.7538612 -0.062044613 -0.017334806 -0.13806143 -0.09336787 -0.029282225 0.0063782986 -0.19249637
-0.11917359 0.010305416 -3.0033727 -0.11461516 -0.056481015 0.13743803 -0.06408418 -0.04027609
-25.501848 -0.11309956 -0.14327405 5.4861426 -5.115259 -0.13303775 -0.057251275 -0.5536922
-0.073242664 -0.10282872 -0.1732843 0.6179489 -0.12862392 -1.4264213 3.6341898 -0.04808003
00000000: 9374 02be 3e08 97bd 8f55 24be 529a f2bd
00000010: 4c58 4040 d844 a2be ad6a a8c1 c4fe 50be
00000020: 3e23 4840 efa6 c0bd 5744 ddbf 9122 d540
00000030: a3fb 2dbd 42a4 84bd c7f1 e1c0 000c 90be
00000040: c567 80be bbb9 e7c1 09f8 6b40 3a0d fabc
00000050: 9033 ffbd 9f65 59c1 109b e2c0 33bb d73f
00000060: f55e 12bd dd0d 79c1 765a 1c41 5f21 35c1
00000070: 006c f9be 3f32 c3bd 901a a2be d17a e23f
00000080: 1545 b8bd 0a51 9d40 0eeb a8bc 288a c8be
00000090: 4959 afc1 5880 e2bd 1cb7 20be 4022 c1be
000000a0: e530 6cbd bbe8 41be 2ad6 9540 ec7a c9be
000000b0: c3ed f3bd 4079 78bd 4423 8fbd e8cb bdbd
000000c0: 372c 10c1 17cc 64bd d5c1 75bd 5b3f f13f
000000d0: 288d b1c0 a825 bac0 5103 7bbe 4902 f7bc
000000e0: 70af 98c0 cac4 22be 0987 933c 5dc1 a4bd
000000f0: be9d 89bd 8219 b9bf ec32 9fc0 fe2b 10be
00000100: 1ba1 89bd 3c64 61bd 946b 74bd 6e82 75c0
00000110: aefc 05be 403d 3240 ca40 d3bc 5961 acbd
00000120: c9cb 09bc b59e c7c1 ea3f 4abd c5f6 29be
00000130: 153f 61c0 423d 01be 5f83 00bf 835a 8bc1
00000140: 25af 69be d8a2 a8bd b3fd d3bd 1b4a 32be
00000150: d658 2fc1 3158 5bc0 4c9b 0f3f 8eae 4ebd
00000160: b45c c9bd 24ba e4bd b1aa 47bf 80e8 4abe
00000170: b25c db3b ae49 c0bd 6a62 45be 92c0 5ec1
00000180: 0820 ed40 faca a3c1 ae32 e540 e2eb 5abe
00000190: 1031 b7c1 bce1 acbc e6f5 64c0 7804 0cc0
000001a0: 0a7c c1bd 8415 2fbe 8448 bfbd 0300 11c1
000001b0: ad55 8dbd d7d4 2dbe 7538 20c1 69bc d740
000001c0: 7210 02bc de6e 5abe 173d cdbb 4533 5ac1
000001d0: 278c e8bd 7fd6 973f 2599 16c1 9f64 1ebe
000001e0: 4d51 9abd 026a 03c0 2104 f7bc 3559 7dbf
000001f0: a7b7 93bd c7a8 b8bf de6e 13c0 5862 b53f
00000200: e08d 7a3c 0ae7 a3bd 3bf8 123c 20ae b240
00000210: 26dd 88c1 6dbb 9ac0 dde4 21c1 232e eebd
00000220: cf57 7c3c 382d 87bd 27de f1bd 1527 bc40
00000230: fc23 88bc 5680 21be dd17 95c1 b468 2fbe
00000240: ba81 51be e8a5 68bd 01d8 34be d1d3 97bd
00000250: 288e 1a40 a3b8 36be bf40 66bd 4093 fcbe
00000260: fa67 87c1 424e ebc0 c8d4 bebd e436 ebbd
00000270: 6536 2fbd 9cb6 90bd 598f 38c1 ca39 f43f
00000280: 75db 02c1 7128 9e3e 7e99 4bbe 4e3a 2740
00000290: 6c7c 2340 f672 bcbd f82d bebd 0dc4 0ec1
000002a0: 20c6 96be d7eb f3bd a1c9 b53b c187 c7bf
000002b0: 13a4 5abd 5504 c1bd fafd 0fbc 116b 93bd
000002c0: 9f3e 1fbd d676 8bbd 0f15 4ac0 a208 fabd
000002d0: 281d e9be c3e7 15be e179 843b 5305 10be
000002e0: 329b 8b3f 34e2 23c1 71f5 24be 679e 15be
000002f0: 3f4c dabd dfee e4bd 4f8e 03c0 4a9c cec0
00000300: 7b03 92bd 8fd8 3f41 d0cf 4540 3328 45c1
00000310: dc81 833c 3865 01be b7f7 213f f82b 18bd
00000320: c991 9bbd 2a88 adbf be11 54bd 4c2d ad3f
00000330: c632 10be cc17 06be 8a29 aabd 15ce 1bbe
00000340: a8b9 3f3f 87c8 31be 9537 a93c f5ba e33f
00000350: b74c 0ebe f3f0 acbd ed17 31be e50f 45be
00000360: d6d8 bfbd 903a 93c1 4942 553c 6200 03be
00000370: 25cd 3cc1 d382 08be 9596 17bd 3170 a1c1
00000380: 867e e03f 7e22 7ebd b901 8ebc fa5f 0dbe
00000390: a737 bfbd 47e1 efbc 0c01 d13b c51d 45be
000003a0: 4811 f4bd 0cd8 283c 4237 40c0 5abb eabd
000003b0: a358 67bd 8ebc 0c3e 913e 83bd 8bf8 24bd
000003c0: c903 ccc1 bea0 e7bd 6fb6 12be 7b8e af40
000003d0: 34b0 a3c0 0c3b 08be 5080 6abd c6be 0dbf
000003e0: 4000 96bd dd97 d2bd 7171 31be e631 1e3f
000003f0: fdb5 03be f994 b6bf 9196 6840 91ef 44bd

layers.4.weight f4 [256, 256]
0.060400918 -0.009752564 -0.07955425 -0.03692417 0.009059423 -0.08992539 -0.03451664 0.010041416
-0.037732236 -0.023029432 -0.044209648 0.027449608 0.013538198 -0.0427073 -0.07687469 0.034201253
-0.023433786 0.003200212 -0.047776185 0.05858373 -0.012754083 -0.05747383 -0.06718215 -0.073966846
-0.056876436 -0.0704358 -0.037730906 -0.03387012 -0.092908196 -0.0012626052 -0.07695815 0.010778882
-0.0035651922 0.027332786 -0.03586218 -0.036174446 -0.066195585 -0.036700398 -0.050841317 -0.028136278
0.019199068 -0.04910506 -0.047147222 -0.05921109 -0.008741036 0.053045668 -0.029759467 0.031315964
-0.05114221 -0.05779408 -0.04660093 -0.033413652 -0.029733812 -0.0023868165 -0.050518386 -0.002564618
-0.013231732 0.03557948 0.051631466 0.015016653 -0.01578091 -0.005481505 0.0348459 -0.012829
-0.00888355 0.00940226 -0.025461413 -0.025650756 -0.007706985 -0.1306373 0.0048860237 -0.038367398
-0.031023555 -0.010512505 -0.034691524 -0.010939829 0.033612132 -0.016881369 -0.011580676 -0.00019141925
0.036965013 -0.034807254 -0.020857193 0.055588737 -0.005927941 -0.05308797 -0.04500766 0.011318892
-0.018663645 0.034724988 -0.12697083 -0.009102374 -0.010532789 -0.0603872 -0.042514995 0.003837717
-0.022076312 -0.033235088 -0.03444053 -0.044944588 0.0042816815 -0.04130862 0.008000663 -0.010891175
0.047070988 0.02954699 -0.014915428 0.0004369463 -0.026584245 0.024124453 -0.043022264 -0.08833211
0.021584474 -0.019321686 0.019413628 0.048967525 -0.026831718 0.0011817039 0.008745336 -0.02823817
0.042085625 0.016271546 0.020221159 -0.013293572 -0.033577967 -0.039678045 0.05987051 -0.08870742
-0.05345212 0.04015085 -0.026801322 0.0090873195 -0.021713149 0.03970628 -0.0027055645 -0.053191673
-0.016256034 -0.0027099103 -0.010914922 0.04090112 0.010856755 0.05869901 -0.06716539 0.058189705
-0.05376334 -0.021482386 0.0041463776 0.046522006 0.04682967 -0.0031120458 0.023509094 -0.05011029
-0.10838988 -0.022889435 -0.021629259 -0.030190773 -0.004075341 -0.041218054 0.028134352 -0.04938163
-0.0825278 -0.005482913 -0.014041655 0.04639209 0.062386617 -0.057318747 0.014763221 -0.08714328
0.009233353 -0.049353994 -0.047517523 -0.005199231 -0.009095937 0.02185663 0.0287158 0.051623844
-0.036738474 0.014139086 -0.040002227 -0.009591326 0.02740997 -0.034820743 -0.056210153 0.057990685
-0.108934976 0.033039156 0.00856933 -0.017731221 -0.008838707 -0.017203256 -0.045863524 0.051968895
0.016574997 -0.11969556 -0.09076661 0.02214558 -0.062185623 0.06123287 -0.048645087 -0.017473973
0.043395367 -0.03408086 0.027031714 -0.059626818 -0.046661522 0.036201738 0.022870786 -0.047250614
-0.076408215 0.020656884 0.0053534806 -0.0023086504 -0.066753164 0.01670894 -0.046854764 0.02951195
-0.047483373 -0.057009038 -0.033657305 0.018084962 0.032539137 -0.038313992 -0.043036 -0.0498935
0.00083225046 -0.018915057 0.024159923 -0.009230457 0.014126919 -0.065993294 -0.019741356 -0.023585401
-0.018781126 0.036020465 0.017978564 -0.02861292 -0.051151104 0.0029408708 0.037968393 0.05290639
0.010340455 0.014522343 -0.036037683 0.0021085802 -0.062010087 -0.013609834 -0.010442831 0.057824194
-0.014172245 -0.013394724 -0.061512716 -0.06209527 -0.03382603 -0.07483416 -0.07181996 -0.0054395795
00000000: f466 773d 38c9 1fbc 57ed a2bd cc3d 17bd
00000010: f96d 143c ce2a b8bd 5261 0dbd c084 243c
00000020: 1e8d 1abd 38a8 bcbc 2d15 35bd 00de e03c
00000030: 51cf 5d3c daed 2ebd 7a70 9dbd 9d16 0c3d
00000040: 36f8 bfbc a6ba 513b f6b0 43bd 7ef5 6f3d
00000050: 80f6 50bc ae69 6bbd cc96 89bd ee7b 97bd
00000060: 44f7 68bd a540 90bd b98b 1abd 65bb 0abd
00000070: a746 bebd 007e a5ba 3c9c 9dbd e899 303c
00000080: 00a6 69bb 02e9 df3c 39e4 12bd a82b 14bd
00000090: 8d91 87bd 2853 16bd fc3e 50bd 0d7e e6bc
000000a0: 5d47 9d3c 6322 49bd 721d 41bd 5487 72bd
000000b0: 9036 0fbc 6a46 593d 20ca f3bc 2b45 003d
000000c0: 7e7a 51bd 7cb9 6cbd 9ee0 3ebd c1dc 08bd
000000d0: 5394 f3bc 236c 1cbb 5eec 4ebd 2613 28bb
000000e0: e8c9 58bc cabb 113d 847b 533d 6808 763c
000000f0: f846 81bc 329e b3bb 93ba 0e3d ba30 52bc
00000100: 4f8c 11bc f00b 1a3c 7494 d0bc 8921 d2bc
00000110: e08a fcbb c9c5 05be f01a a03b 2227 1dbd
00000120: 1c25 febc a43c 2cbc b318 0ebd f83c 33bc
00000130: e0ac 093d cc4a 8abc e0bc 3dbc b7b7 48b9
00000140: a068 173d 0d92 0ebd b4dc aabc 04b1 633d
00000150: 2c3f c2bb c572 59bd f459 38bd e072 393c
00000160: 80e4 98bc ca3b 0e3d a404 02be 2022 15bc
00000170: b891 2cbc 9258 77bd 3424 2ebd 3582 7b3b
00000180: 62d9 b4bc 8421 08bd 8311 0dbd d117 38bd
00000190: 594d 8c3b 3a33 29bd 3615 033c e670 32bc
000001a0: 82cd 403d 870c f23c d75f 74bc f115 e539
000001b0: 34c7 d9bc a5a0 c53c 1d38 30bd 77e7 b4bd
000001c0: ecd1 b03c 8348 9ebc 5409 9f3c 2c92 483d
000001d0: 31ce dbbc 67e3 9a3a 9948 0f3c bc53 e7bc
000001e0: fa61 2c3d e84b 853c d8a6 a53c 48cd 59bc
000001f0: 0d89 09bd 7285 22bd c83a 753d 3cac b5bd
00000200: 9cf0 5abd 3875 243d 728e dbbc fbe2 143c
00000210: c6df b1bc 0da3 223d d74f 31bb 83df 59bd
00000220: 602b 85bc c098 31bb 80d4 32bc ef87 273d
00000230: 88e0 313c 606e 703d 028e 89bd 5458 6e3d
00000240: f336 5cbd d4fb afbc 56de 873b dc8d 3e3d
00000250: 78d0 3f3d 77f3 4bbb 2596 c03c 7340 4dbd
00000260: 83fb ddbd a082 bbbc d82f b1bc a452 f7bc
00000270: 708a 85bb 43d4 28bd 037a e63c 6444 4abd
00000280: 5604 a9bd 02aa b3bb f80e 66bc a205 3e3d
00000290: 1c89 7f3d 10c7 6abd 70e1 713c 2d78 b2bd
000002a0: 7d47 173c 6a27 4abd bca1 42bd 505e aabb
000002b0: 2007 15bc ad0c b33c 663d eb3c 8673 533d
000002c0: 157b 16bd a0a7 673c 60d9 23bd f024 1dbc
000002d0: e08a e03c 32a0 0ebd 9e3c 66bd a487 6d3d
000002e0: 4d19 dfbd 1154 073d 6066 0c3c 1141 91bc
000002f0: 39d0 10bc d8ed 8cbc 64db 3bbd 56dd 543d
00000300: 4ac8 873c f222 f5bd d8e3 b9bd a66a b53c
00000310: 5ab6 7ebd 51cf 7a3d 1240 47bd 9425 8fbc
00000320: 57bf 313d 5f98 0bbd 9d71 dd3c 403b 74bd
00000330: 2720 3fbd 4648 143d 845b bb3c dc89 41bd
00000340: e97b 9cbd a038 a93c 406c af3b ba4c 17bb
00000350: e2b5 88bd 30e1 883c c8ea 3fbd 0cc3 f13c
00000360: ed7d 42bd 4f82 69bd 3edc 09bd ea26 943c
00000370: c247 053d 22ef 1cbd 8446 30bd 205d 4cbd
00000380: 622b 5a3a c0f3 9abc 08eb c53c 583b 17bc
00000390: 9874 673c 7e27 87bd a0b8 a1bc 2c36 c1bc
000003a0: e0da 99bc 328a 133d c847 933c a465 eabc
000003b0: d283 51bd a0bb 403b bf84 1b3d 5fb4 583d
000003c0: 036b 293c 1fef 6d3c 409c 13bd 1b30 0a3b
000003d0: 4afe 7dbd c8fb 5ebc 6818 2bbc 10d9 6c3d
000003e0: b432 68bc 8b75 5bbc c2f4 7bbd 9c57 7ebd
000003f0: 2a8d 0abd a742 99bd 5816 93bd 803e b2bb

layers.4.bias f4 [256]
-0.116193205 -0.05646849 -0.045978293 -21.426003 -8.80538 -0.052594643 1.4744833 -0.0529055
-0.35141957 -9.559985 -0.15804228 -1.9313966 -0.04453805 -0.17433952 -2.2983425 -0.19799037
-0.061481085 -17.869171 -0.15811855 -0.10115926 -1.698642 -11.426256 -16.436586 -8.012314
-6.643861 -5.3367734 0.111336716 -2.20596 -0.031237904 -0.27249098 0.0047954833 -2.4782484
-12.947113 -4.4641213 0.009677749 -13.442823 -12.576922 2.1957693 -3.1387935 -0.12460326
-0.14998592 7.8710713 19.946232 -0.13591745 -0.08196893 0.87186587 -0.103833914 -2.6477845
-1.1877104 -0.2365905 -0.07382314 -0.013202313 0.00081757415 -8.045443 -5.89598 -0.15824205
-19.52042 -4.198839 -0.13444707 -0.6164194 -11.839767 -22.872553 -8.423328 -8.6980715
-0.13196011 -0.07702342 -11.918495 0.9271034 -0.1263129 -4.73209 -0.09355451 -0.10395753
-6.2285886 -28.082764 -0.02738757 -0.13602918 -14.024032 0.035324045 6.5941844 -2.1665342
-10.628103 -1.7043846 0.43957588 -0.19805771 -3.4125304 -6.2982054 -0.07822412 -0.100493744
-11.081669 -0.1381321 4.241832 -0.13990596 -7.7682076 3.0033667 1.4524437 -0.10628366
-0.03325802 2.8035645 -0.036475234 -0.07932625 -0.075491495 -0.18053794 -14.894448 -15.234361
0.07816358 4.502366 -0.13076705 -0.09433723 -7.1536584 2.6981924 -0.11749132 -13.327967
-0.12464447 -4.786817 -0.024780035 -0.07742458 -0.42430222 -4.5062346 -8.158381 -8.7170315
-0.041189767 -2.8171594 -0.047338456 -18.331612 0.18091738 -0.05127394 -0.09476693 -0.11403385
0.80108345 -6.956017 -0.0692848 3.2453191 0.48754084 -0.71766853 -0.707284 4.376927
-9.227855 -0.15239136 -0.09529437 -0.11066858 2.6852322 -20.686289 -0.09642686 -8.834891
0.0043410277 -21.815529 -13.897101 -21.147573 -0.0187865 -0.111634284 5.2476864 -0.043570142
-7.9306135 -0.13326637 -0.07504751 -0.098442115 -0.08553147 -0.14399257 0.94417167 -0.00812911
-0.023208266 -0.19657472 -0.104188256 -0.06384005 -31.321667 -0.10648082 -11.339412 -0.12417603
-15.839981 -16.455944 -0.04530713 0.03851858 -0.0596052 -0.13815178 -0.11702889 -0.117075935
-3.0008063 -0.7889015 -0.16952094 -0.06513149 -0.13674447 -17.06831 -0.12784946 -0.5334996
-0.08719294 -0.09325887 -3.4970043 -0.15765744 -2.3018186 -2.3934484 0.89227617 -0.06252004
-8.78772 -0.017995553 -0.12768053 -7.4774327 -0.61033994 0.32496682 -0.1543264 -5.7777247
-5.176278 -15.22563 6.6668477 -0.07464316 -0.035776086 -4.956759 -0.04481264 -18.478683
-0.15572578 -0.08482735 -0.5887952 -0.07825673 -1.228362 -10.074522 10.918657 -17.177542
-0.14300866 -0.1199261 -0.12493704 -24.36286 -0.2455782 -2.4418118 1.4264569 -0.0817533
-0.116919026 -0.03413438 -6.780261 -0.08112183 -26.296154 -0.11050067 -2.5094166 -12.893384
-11.028214 -0.0065219686 1.7933176 2.4070852 -12.078052 -0.08049112 -0.15791152 -0.13711967
-0.04556569 -0.113966696 -10.832068 -0.08658856 -0.14556564 -0.16223669 -0.13831155 -0.098031394
0.0069863717 -13.282838 0.026034292 -0.05862599 -8.136334 -2.658212 -2.5604904 -0.011906923
00000000: b4f6 edbd 814b 67bd bc53 3cbd 7468 abc1
00000010: d6e2 0cc1 7b6d 57bd debb bc3f 70b3 58bd
00000020: 44ed b3be b3f5 18c1 d6d5 21be 0138 f7bf
00000030: 886d 36bd 0f86 32be 0b18 13c0 fdbd 4abe
00000040: 97d3 7bbd 10f4 8ec1 d4e9 21be 962c cfbd
00000050: 1a6d d9bf f2d1 36c1 217e 83c1 7032 00c1
00000060: 829a d4c0 d9c6 aac0 8104 e43d 732e 0dc0
00000070: a2e6 ffbc f083 8bbe 6e23 9d3b 9f9b 1ec0
00000080: 6027 4fc1 15da 8ec0 6c8f 1e3c ce15 57c1
00000090: 133b 49c1 7c87 0c40 fee1 48c0 fe2f ffbd
000000a0: e995 19be d1df fb40 e291 9f41 f22d 0bbe
000000b0: 54df a7bd 9a32 5f3f e0a6 d4bd 4d75 29c0
000000c0: e506 98bf c844 72be 9630 97bd 844e 58bc
000000d0: 7952 563a 22ba 00c1 deab bcc0 340a 22be
000000e0: d229 9cc1 e45c 86c0 7eac 09be a9cd 1dbf
000000f0: b06f 3dc1 fdfa b6c1 f4c5 06c1 4d2b 0bc1
00000100: 8d20 07be 74be 9dbd 28b2 3ec1 a656 6d3f
00000110: 2b58 01be 486d 97c0 8299 bfbd afe7 d4bd
00000120: 9950 c7c0 80a9 e0c1 e65b e0bc 3c4b 0bbe
00000130: 6f62 60c1 f2af 103d 8f03 d340 7fa8 0ac0
00000140: b60c 2ac1 4629 dabf 1710 e13e a4cf 4abe
00000150: e666 5ac0 e68a c9c0 f833 a0bd aacf cdbd
00000160: 844e 31c1 8072 0dbe 16bd 8740 8243 0fbe
00000170: 2895 f8c0 2937 4040 ade9 b93f 3fab d9bd
00000180: 9039 08bd 9a6d 3340 0e67 15bd cd75 a2bd
00000190: 499b 9abd f0de 38be a94f 6ec1 f1bf 73c1
000001a0: 3a14 a03d 6213 9040 cce7 05be e133 c1bd
000001b0: c5ea e4c0 2faf 2c40 4a9f f0bd 5a3f 55c1
000001c0: 9a45 ffbd 9b2d 99c0 80ff cabc c790 9ebd
000001d0: 243e d9be 1333 90c0 bb88 02c1 f678 0bc1
000001e0: 9ab6 28bd 574c 34c0 f8e5 41bd 24a7 92c1
000001f0: 6842 393e 9f04 52bd 2a15 c2bd 948a e9bd
00000200: ce13 4d3f b197 dec0 30e5 8dbd 4fb3 4f40
00000210: f49e f93e 20b9 37bf 9010 35bf c90f 8c40
00000220: 4ba5 13c1 7b0c 1cbe b229 c3bd 35a6 e2bd
00000230: d8da 2b40 857d a5c1 727b c5bd b75b 0dc1
00000240: 2e3f 8e3b 3486 aec1 875a 5ec1 3b2e a9c1
00000250: 25e6 99bc 84a0 e4bd 0ced a740 9b76 32bd
00000260: 96c7 fdc0 fb76 08be 82b2 99bd 059c c9bd
00000270: 202b afbd ca72 13be 3cb5 713f f52f 05bc
00000280: 431f bebc e24a 49be a760 d5bd 92be 82bd
00000290: c692 fac1 9e12 dabd 3b6e 35c1 0150 febd
000002a0: 9070 7dc1 c6a5 83c1 f893 39bd a9c5 1d3d
000002b0: 9524 74bd a977 0dbe d8ac efbd 82c5 efbd
000002c0: 360d 40c0 73f5 49bf e696 2dbe a963 85bd
000002d0: be06 0cbe e68b 88c1 f8ea 02be 6e93 08bf
000002e0: 3692 b2bd 82fe bebd ebce 5fc0 f470 21be
000002f0: ff50 13c0 422e 19c0 366c 643f 820a 80bd
00000300: 809a 0cc1 696b 93bc afbe 02be 2147 efc0
00000310: 3d3f 1cbf 0d62 a63e bd07 1ebe 1fe3 b8c0
00000320: 12a4 a5c0 2e9c 73c1 d156 d540 83de 98bd
00000330: f289 12bd c59d 9ec0 758d 37bd 58d4 93c1
00000340: 9476 1fbe f6b9 adbd 48bb 16bf 1145 a0bd
00000350: f73a 9dbf 3e31 21c1 d2b2 2e41 9b6b 89c1
00000360: dd70 12be d19b f5bd fede ffbd 23e7 c2c1
00000370: da78 7bbe a546 1cc0 2496 b63f 466e a7bd
00000380: 3e73 efbd 7ed0 0bbd e6f7 d8c0 3423 a6bd
00000390: 865e d2c1 2d4e e2bd 489a 20c0 4d4b 4ec1
000003a0: 9173 30c1 3db6 d5bb 6e8b e53f af0d 1a40
000003b0: b33f 41c1 87d8 a4bd 8fb3 21be 1969 0cbe
000003c0: 17a3 3abd 5f67 e9bd 2750 2dc1 5855 b1bd
000003d0: 290f 15be 6021 26be 8ba1 0dbe afc4 c8bd
000003e0: efed e43b 8186 54c1 de45 d53c ce21 70bd
000003f0: 6d2e 02c1 2520 2ac0 13df 23c0 4115 43bc

layers.6.weight f4 [128, 256]
0.0210579 -0.038822588 0.013452884 -18.808935 -3.9196389 -0.01516735 -0.603993 0.02003587
0.12827307 -4.8379416 -0.03665787 -0.3136738 -0.0011405294 0.058607444 -0.1650847 -0.07822902
-0.014671378 -0.5500831 0.035002586 -0.044081163 0.068272986 -3.6377609 -2.5161765 -28.850924
-12.749147 -5.3739944 -0.09643797 0.2732225 0.011954361 0.08840977 0.00065555243 -0.97721666
0.024326107 -2.5273595 -0.029990954 -1.3358718 -4.076433 -0.502322 -0.56218404 0.008781181
0.02945727 0.18337542 -6.803399 -0.034911256 0.07351708 -0.72377753 -0.018553186 -0.66486144
-0.34341785 -0.4741664 0.0014667278 -0.069845326 0.029587973 0.23024914 -0.6515414 0.05594359
-0.97918135 0.14502178 -0.029328542 -2.779053 1.561481 0.19234769 -0.21562384 -0.96903396
0.0015373508 -0.0076701734 0.4398608 0.788313 0.06579552 -4.4446445 -0.026054591 -0.0005240197
-0.25076404 -3.6661952 -0.017446645 -0.046205472 -1.6565659 0.04282255 -0.48948857 -0.76627403
-1.6136781 -0.6666865 1.199266 -0.050443955 -17.462849 -0.1206565 0.008063659 -0.050953496
-0.9119728 -0.080741875 -1.9036337 -0.004278559 -6.2916265 -2.1964335 0.70338124 0.08316858
-0.09412313 -0.28156048 -0.056354843 -0.045075238 0.0041102436 -0.031477723 1.826682 -0.02516165
-0.037574958 -0.058320284 0.04209262 0.021801844 -9.199322 -0.51657504 -0.026630152 -0.06843524
0.0011200557 -6.58595 0.06388717 7.80963e-05 0.0944431 -1.0504533 0.20437875 -0.36039218
0.016666632 -1.7838827 -0.0023921402 -18.96164 -0.0662333 0.050338328 -0.094586246 -0.005562359
-2.5935688 -10.634276 0.03156567 0.53992844 0.07200485 -1.2864584 -0.037786074 -0.057848148
-2.3054147 0.020528728 0.046592917 0.022249168 0.6273098 -0.5157498 -0.04243615 -6.277675
-0.03066261 -3.1754515 -0.75916815 -1.4870877 0.07030207 -0.045158725 -0.48225114 0.004293764
0.12777616 -0.03877037 -0.024785638 -0.0691143 0.1245357 -0.03934169 -0.06925755 -0.021343548
0.0109353755 0.017283693 -0.015117248 0.025003469 -22.84788 -0.03333772 -0.35947484 0.006609958
0.57631826 -0.4411698 0.021210847 -0.0048984247 0.037437238 -0.058550935 0.07184211 -0.06820307
0.03418243 -12.7927475 -0.08071397 -0.034594603 -0.0126275495 -6.949025 -0.05432501 0.040854383
-0.05872382 -0.04564955 0.26815704 -0.01992763 -0.15772597 -5.8757467 -0.62219846 -0.043984022
-6.9481277 -0.029790418 0.056223337 0.36293933 0.65909165 0.50379795 0.03389944 -9.493777
-5.305704 0.8860745 -23.107988 0.025848577 0.014022528 0.79557705 -0.16036284 -9.767056
-0.00755099 0.02433426 0.1531257 -0.006046506 0.21891554 -0.47814196 -0.0032712833 -4.532364
0.010197434 0.022034138 -0.051542412 -1.9480056 0.15746482 -0.11694374 -3.2478635 0.027933093
0.015051551 -0.040958304 0.6315257 -0.031304475 0.33863816 0.082194656 0.10949265 -9.900915
-3.1607993 0.031714577 -0.59574836 -7.984429 -10.05712 -0.042110622 0.050868828 0.023965571
-0.059801232 -0.05137418 -11.844472 0.07040418 -0.10673667 0.005134813 0.018595984 0.016248643
0.02570641 0.6743573 -0.017269343 -0.046112232 -1.3093009 -0.3534752 0.1250136 0.0031871037
00000000: 9e81 ac3c 6f04 1fbd 7c69 5c3c b378 96c1
00000010: 5ddb 7ac0 7a80 78bc 499f 1abf 4422 a43c
00000020: 045a 033e 6bd0 9ac0 9026 16bd da99 a0be
00000030: d17d 95ba 5c0e 703d f70b 29be 8936 a0bd
00000040: 3860 70bc 3fd2 0cbf df5e 0f3d 738e 34bd
00000050: b5d2 8b3d 13d1 68c0 0909 21c0 b1ce e6c1
00000060: 82fc 4bc1 c3f7 abc0 4581 c5bd d2e3 8b3e
00000070: 39dc 433c 2e10 b53d 61d9 2b3a df2a 7abf
00000080: 8b47 c73c 42c0 21c0 97af f5bc d9fd aabf
00000090: 2472 82c0 2d98 00bf 4beb 0fbf f1de 0f3c
000000a0: 5f50 f13c c4c6 3b3e 72b5 d9c0 1bff 0ebd
000000b0: 1f90 963d 7c49 39bf dafc 97bc 5c34 2abf
000000c0: 77d4 afbe f0c5 f2be 383f c03a 110b 8fbd
000000d0: 7a62 f23c 6ec6 6b3e 6bcb 26bf 1b25 653d
000000e0: a1ab 7abf 9780 143e 6942 f0bc 01dc 31c0
000000f0: 9cde c73f cbf6 443e 7fcc 5cbe 9c12 78bf
00000100: ef80 c93a 1456 fbbb 6f35 e13e e1ce 493f
00000110: cdbf 863d 873a 8ec0 7070 d5bc 5e5e 09ba
00000120: 2564 80be f1a2 6ac0 44ec 8ebc f341 3dbd
00000130: 5a0a d4bf b366 2f3d 3f9e fabe 892a 44bf
00000140: 018d cebf f7ab 2abf 8c81 993f 529e 4ebd
00000150: eab3 8bc1 c11a f7bd 701d 043c 9db4 50bd
00000160: 0d77 69bf ff5b a5bd 45aa f3bf 2733 8cbb
00000170: 0155 c9c0 5e92 0cc0 cb10 343f 4a54 aa3d
00000180: a1c3 c0bd b228 90be 56d4 66bd d0a0 38bd
00000190: 39af 863b c9ee 00bd b7d0 e93f ce1f cebc
000001a0: 33e8 19bd 40e1 6ebd 5069 2c3d c899 b23c
000001b0: 6c30 13c1 433e 04bf 7a27 dabc c627 8cbd
000001c0: d5ce 923a 1ac0 d2c0 47d7 823d a2c7 a338
000001d0: 626b c13d 4175 86bf aa48 513e 5385 b8be
000001e0: 7688 883c 4556 e4bf 74c5 1cbb 70b1 97c1
000001f0: 53a5 87bd 902f 4e3d 6fb6 c1bd 7344 b6bb
00000200: 08fd 25c0 ff25 2ac1 014b 013d c038 0a3f
00000210: 4777 933d abaa a4bf 92c5 1abd 2ef2 6cbd
00000220: ea8b 13c0 dd2b a83c 37d8 3e3d e343 b63c
00000230: 6097 203f 2e08 04bf 87d1 2dbd b7e2 c8c0
00000240: 2730 fbbc 993a 4bc0 d858 42bf e458 bebf
00000250: 88fa 8f3d 5bf8 38bd 9fe9 f6be b4b2 8c3b
00000260: c1d7 023e aecd 1ebd 400b cbbc cc8b 8dbd
00000270: 930c ff3d c024 21bd e7d6 8dbd aad8 aebc
00000280: 4a2a 333c 8896 8d3c 55ae 77bc 13d4 cc3c
00000290: 75c8 b6c1 228d 08bd 160d b8be 5998 d83b
000002a0: 9889 133f 02e1 e1be 5fc2 ad3c f782 a0bb
000002b0: ca57 193d 1bd3 6fbd f521 933d 0dae 8bbd
000002c0: e002 0c3d 18af 4cc1 5e4d a5bd 12b3 0dbd
000002d0: c8e3 4ebc 6a5e dec0 e783 5ebd ed56 273d
000002e0: 6388 70bd 06fb 3abd e14b 893e 453f a3bc
000002f0: eb82 21be 1e06 bcc0 6648 1fbf 9728 34bd
00000300: 1057 dec0 090b f4bc 714a 663d 2fd3 b93e
00000310: 3bba 283f e7f8 003f 24da 0a3d 83e6 17c1
00000320: 54c8 a9c0 c7d5 623f 29dd b8c1 65c0 d33c
00000330: bfbe 653c f0aa 4b3f 2836 24be dd45 1cc1
00000340: 4c6e f7bb a458 c73c fccc 1c3e c521 c6bb
00000350: 652b 603e 06cf f4be 0763 56bb 2009 91c0
00000360: 2313 273c f080 b43c 231e 53bd 3f58 f9bf
00000370: 753e 213e 3380 efbd ffdc 4fc0 f1d3 e43c
00000380: c89a 763c e5c3 27bd abab 213f 1f39 00bd
00000390: fb61 ad3e ac55 a83d af3d e03d 266a 1ec1
000003a0: 894a 4ac0 25e7 013d f782 18bf 7180 ffc0
000003b0: f7e9 20c1 307c 2cbd d55b 503d 7253 c43c
000003c0: 23f2 74bd bb6d 52bd f582 3dc1 1130 903d
000003d0: c198 dabd ef41 a83b 9b56 983c e01b 853c
000003e0: 4096 d23c aea2 2c3f 7078 8dbc 2ee0 3cbd
000003f0: 2c97 a7bf b4fa b4be 9103 003e bade 503b

layers.6.bias f4 [128]
-7.434921 -4.6814103 -0.3128028 -0.4999292 0.5198321 -0.11249911 1.2689279 -0.304911
-3.1423078 -5.890009 -1.4465108 0.31123778 -2.6554792 0.7393654 -1.2885103 -0.6360711
-2.3552735 -0.259039 1.5853349 0.55399853 -1.6866593 0.90410113 -0.43435508 0.69411075
-0.9774279 0.46219066 -5.322935 -1.1992414 -0.84256154 -2.0496998 0.026518809 -0.32893887
-0.29965845 -0.1875362 -0.26361582 -0.2316216 -0.5601406 -8.861175 -0.31925592 -3.5531018
-1.0684184 0.45052356 -0.27767116 0.6777976 0.4107061 -5.39965 -0.3429891 -0.44287935
-0.17988437 -0.42823565 -1.6080474 -0.37243128 -0.8735491 0.08018995 -2.1546633 -0.3273323
-1.6514499 -0.4392093 -3.5929408 -4.0752497 -2.7355762 -0.27512127 0.25259423 -0.38716844
-0.49819335 0.5842016 -2.9125822 -0.21071735 0.3370482 -0.10399067 -0.18236105 -2.4195008
-0.2675074 -0.887482 -0.3849598 -4.31647 0.45811516 -6.170389 -0.9486235 -8.150835
-1.9032544 -0.091382004 -3.418522 -12.241123 -0.67874247 -1.9219335 -0.23771365 -2.9132998
-0.15384737 -1.390143 -5.539307 -1.8816614 -9.776726 -0.34249055 -0.3832459 -0.23663965
-0.3027 -0.5624742 -3.8434644 0.9520079 -0.20695467 -0.37378615 -0.3432318 -0.33056873
-0.36878803 0.5934022 -3.4990904 -8.3367195 -9.182322 0.469502 -4.465788 -8.698057
-0.60238093 0.8346447 0.7246274 -0.35787174 -3.7640395 -3.924833 -0.35728195 -4.6127124
-0.3898281 0.3596533 -3.8237884 -1.7201163 -0.39540184 -0.8887352 -0.3105928 0.65325695
00000000: dfea edc0 1dce 95c0 b027 a0be b8f6 ffbe
00000010: b713 053f ef65 e6bd 3b6c a23f 4b1d 9cbe
00000020: 921b 49c0 f47a bcc0 4427 b9bf 8f5a 9f3e
00000030: 5ff3 29c0 0d47 3d3f e8ed a4bf 8ed5 22bf
00000040: cdbc 16c0 c3a0 84be 41ec ca3f d9d2 0d3f
00000050: 74e4 d7bf 2c73 673f ca63 debe 3eb1 313f
00000060: b738 7abf 41a4 ec3e 7c55 aac0 be80 99bf
00000070: 1db2 57bf 482e 03c0 f93d d93c ad6a a8be
00000080: d56c 99be 7d09 40be a7f8 86be 362e 6dbe
00000090: 6065 0fbf 5fc7 0dc1 8375 a3be 0566 63c0
000000a0: efc1 88bf 06ab e63e ea2a 8ebe 2584 2d3f
000000b0: 1248 d23e efc9 acc0 449c afbe 15c1 e2be
000000c0: 9c33 38be b441 dbbe 7fd4 cdbf 50af bebe
000000d0: eaa0 5fbf a13a a43d 01e6 09c0 1998 a7be
000000e0: b662 d3bf 0be0 e0be bef2 65c0 7268 82c0
000000f0: ae13 2fc0 b2dc 8cbe 0854 813e f13a c6be
00000100: 3313 ffbe 3c8e 153f bf67 3ac0 4ac6 57be
00000110: 9591 ac3e 0ff9 d4bd dbbc 3abe 1ad9 1ac0
00000120: bbf6 88be 0532 63bf 7319 c5be 8620 8ac0
00000130: 128e ea3e d473 c5c0 fdd8 72bf d269 02c1
00000140: d79d f3bf 7d26 bbbd 10c9 5ac0 a4db 43c1
00000150: 11c2 2dbf eb01 f6bf 356b 73be 8173 3ac0
00000160: 2a8a 1dbe 35f0 b1bf 0142 b1c0 48da f0bf
00000170: 786d 1cc1 ec5a afbe ce38 c4be aa51 72be
00000180: 7ffb 9abe 4ffe 0fbf 52fb 75c0 cab6 733f
00000190: edeb 53be e660 bfbe 14bc afbe 4e40 a9be
000001a0: c9d1 bcbe 35e9 173f 19f1 5fc0 3463 05c1
000001b0: caea 12c1 9162 f03e bce7 8ec0 3e2b 0bc1
000001c0: a335 1abf 46ab 553f 2e81 393f f73a b7be
000001d0: 06e6 70c0 7730 7bc0 a9ed b6be 579b 93c0
000001e0: 8c97 c7be 7a24 b83e f3b8 74c0 c52c dcbf
000001f0: 1c72 cabe 2684 63bf 0506 9fbe d93b 273f

layers.8.weight f4 [11, 128]
0.02691258 0.031686503 0.03465864 0.028532013 0.021451099 -0.0092182215 0.024219617 0.0898076
0.0038884338 -0.05181055 0.02911548 0.028700069 -0.00014628333 -0.016464463 0.027414503 0.022858663
0.015739823 0.04810195 0.02728032 -0.017722912 0.021130592 -0.0040495656 0.0071320394 -0.006800633
0.005064872 0.040201288 0.03759371 0.024387218 0.021394035 0.023855787 -0.016272502 0.007288561
2.7737746e-05 -0.06841319 -0.0010773074 -0.022034692 0.0035197306 0.034023426 -0.15800641 -0.05482801
-0.037053965 2.0917616e-05 0.050511453 -0.0028454952 -0.01427556 0.004916189 -0.05473324 0.05420154
-0.054039374 0.0030931768 -0.020420404 -0.001153805 0.0036997902 0.0016142159 -0.027334943 -0.03897594
-0.015597054 -0.013309567 -0.019644726 0.02666514 -0.02710095 0.03649139 0.0027999063 0.006730329
-0.28132766 0.021156466 0.024187967 -0.034948636 0.0053803506 -0.0061788256 -0.078090094 0.018796634
0.027970638 0.0131497625 0.014863431 0.019308913 0.005837722 -0.0013523033 0.0059406105 0.030505357
0.01603198 0.0034851474 -0.032364715 0.028377874 0.033706173 0.029049024 -0.04022617 -0.014643674
-0.014895603 -0.008570465 0.025047584 -0.00619786 -0.025175303 0.010981443 -0.018902415 0.03969027
-0.017257426 0.016072778 0.028596118 0.026362212 -0.06442428 0.0037638282 -0.035392277 -0.02502862
-0.031623974 -0.0031315505 0.019995332 -0.016119508 0.025680365 -0.010572468 -0.035999272 -0.029266128
0.06984421 0.030065594 0.01611615 0.076899275 0.018723061 0.007506553 -0.18893696 0.021780526
0.031982917 0.062513836 0.02485084 -0.01373566 0.025204862 0.020970758 -0.021537084 0.01718297
0.027636543 0.029268375 -0.063923374 -0.002355442 0.0018509997 0.012719352 0.026464278 -0.062792934
0.0689316 -0.033832323 -0.047904015 0.025787469 0.014113073 0.059930358 0.023302495 0.026264377
0.020572849 -0.04124757 0.009235948 -0.024124244 0.020569002 0.03314157 0.020411704 -0.012748014
0.025614029 -0.0056434995 0.023982534 0.022421652 0.020766342 0.023612166 -0.0068641873 -0.029229056
-0.09989276 -0.08381537 -0.0022323509 0.04492446 0.054211177 0.009733589 -0.16338259 0.07227618
-0.009076348 -0.07314042 0.03977822 -0.011978129 -0.016027996 0.03775926 -0.10791985 0.007725614
-0.08719874 0.0025816166 0.010753365 -0.0030128113 0.00017190643 0.0068253586 -0.006668719 0.023500264
0.02865433 0.016587881 -0.01859558 0.02524467 -0.00239843 -0.024841204 0.0013516526 0.017812463
-0.13793616 0.02660812 0.022294387 -0.043050107 0.0046702605 -0.006178324 0.012672609 0.01437055
0.029937379 -0.04965426 -0.063098274 0.021389093 0.00720257 0.05480811 0.0039504515 0.02702525
0.012292203 0.0068545933 0.011101811 0.026963303 0.03237497 0.030113313 -0.020813921 -0.020218518
-0.008669706 -0.025212701 0.023116812 -0.038416766 -0.033201337 0.010601249 -0.07541203 -0.04879895
-0.06574809 0.014988738 0.033412363 0.021371257 0.009981489 -0.10603119 -0.07601566 -0.0015437644
-0.02127292 0.010307134 0.009770328 0.07523487 0.021691613 -0.022480583 0.040225223 -0.041042984
-0.0010461002 0.030560093 -0.0455273 -0.040436395 0.020136325 0.024104629 -0.15613729 0.015227869
-0.08148246 -0.012746429 0.021891596 -0.010862946 0.01565156 0.03183415 -0.005519322 0.012935977
00000000: c577 dc3c b5c9 013d 38f6 0d3d f8bb e93c
00000010: 37ba af3c 0608 17bc 3868 c63c 0ced b73d
00000020: 18d5 7e3b 4d37 54bd 9683 ee3c 681c eb3c
00000030: a263 19b9 7be0 86bc 6194 e03c 1742 bb3c
00000040: cdf0 803c 8d06 453d fa7a df3c a42f 91bc
00000050: 101a ad3c 38b2 84bb e2b3 e93b d8d7 debb
00000060: 3af7 a53b 1baa 243d ddfb 193d b4c7 c73c
00000070: 8b42 af3c 366d c33c e94d 85bc e2d4 ee3b
00000080: 5bae e837 371c 8cbd 7034 8dba 1982 b4bc
00000090: 48ab 663b 265c 0b3d 6fcc 21be 5693 60bd
000000a0: e6c5 17bd 3d78 af37 19e5 4e3d 7d7b 3abb
000000b0: 0ae4 69bc fb17 a13b f62f 60bd 6f02 5e3d
000000c0: 6458 5dbd e5b6 4a3b b148 a7bc 453b 97ba
000000d0: 2e78 723b 1994 d33a 88ed dfbc 3ca5 1fbd
000000e0: c98a 7fbc 5f10 5abc faed a0bc da70 da3c
000000f0: d002 debc ff77 153d a27e 373b 178a dc3b
00000100: 2e0a 90be 5350 ad3c d825 c63c 4d26 0fbd
00000110: a74d b03b bf77 cabb b3ed 9fbd 66fb 993c
00000120: ae22 e53c 1a72 573c c085 733c ba2d 9e3c
00000130: 5d4a bf3b c53f b1ba 74a9 c23b 5fe6 f93c
00000140: 8055 833c 1267 643b dd90 04bd b778 e83c
00000150: 7c0f 0a3d 38f8 ed3c 32c4 24bd 05ec 6fbc
00000160: b00c 74bc 236b 0cbc 9730 cd3c 6b17 cbbb
00000170: 703c cebc 83eb 333c 3dd9 9abc 4492 223d
00000180: 725f 8dbc 0fab 833c 6842 ea3c 91f5 d73c
00000190: e0f0 83bd 8faa 763b 7ef7 10bd d208 cdbc
000001a0: 2488 01bd b33a 4dbb 40cd a33c 0f0d 84bc
000001b0: a15f d23c 2538 2dbc f973 13bd 85bf efbc
000001c0: 7b0a 8f3d 1f4c f63c 0406 843c 5e7d 9d3d
000001d0: 1b61 993c 88f9 f53b b178 41be 136d b23c
000001e0: 8500 033d 4107 803d fd93 cb3c 890b 61bc
000001f0: 6d7a ce3c deca ab3c 8a6e b0bc 4dc3 8c3c
00000200: 0866 e23c 3bc4 ef3c 42ea 82bd c25d 1abb
00000210: 3e9d f23a d464 503c 9dcb d83c 9599 80bd
00000220: 032c 8d3d c393 0abd 0037 44bd 3e40 d33c
00000230: 853a 673c 8979 753d e0e4 be3c 6428 d73c
00000240: 6488 a83c 36f3 28bd 6052 173c 35a0 c5bc
00000250: 5380 a83c 74bf 073d 7236 a73c 0cdd 50bc
00000260: 83d4 d13c 1bed b8bb 0577 c43c 9dad b73c
00000270: 2d1e aa3c 4d6e c13c faec e0bb c671 efbc
00000280: 9394 ccbd 65a7 abbd a24c 12bb b602 383d
00000290: 8a0c 5e3d a279 1f3c c44d 27be 8905 943d
000002a0: f6b4 14bc a5ca 95bd 7dee 223d ea3f 44bc
000002b0: 254d 83bc 74a9 1a3d 1505 ddbd 2627 fd3b
000002c0: 4195 b2bd 5730 293b e22e 303c 9672 45bb
000002d0: c841 3439 42a7 df3b 4585 dabb a083 c03c
000002e0: 7cbc ea3c 4fe3 873c c255 98bc e9cd ce3c
000002f0: fa2e 1dbb c87f cbbc ef29 b13a 71eb 913c
00000300: 233f 0dbe 46f9 d93c b8a2 b63c 4f55 30bd
00000310: fc08 993b 8a73 cabb c6a0 4f3c 7572 6b3c
00000320: 3c3f f53c 4462 4bbd ab39 81bd 2e38 af3c
00000330: 8903 ec3b 787e 603d ca72 813b 0f64 dd3c
00000340: 3c65 493c 7f9c e03b 5fe4 353c 25e2 dc3c
00000350: 9e9b 043d 32b0 f63c f581 aabc 4ea1 a5bc
00000360: 620b 0ebc de8a cebc 785f bd3c e65a 1dbd
00000370: 20fe 07bd dcb0 2d3c 9f71 9abd 68e1 47bd
00000380: efa6 86bd 5393 753c 67db 083d c612 af3c
00000390: 6689 233c e126 d9bd 19ae 9bbd 2358 caba
000003a0: 8c44 aebc 41df 283c ba13 203c bd14 9a3d
000003b0: 9cb2 b13c 3329 b8bc 34c3 243d b01c 28bd
000003c0: 4c1d 89ba 2959 fa3c d67a 3abd a2a0 25bd
000003d0: eff4 a43c 1277 c53c 74e2 1fbe 507e 793c
000003e0: 47e0 a6bd 66d6 50bc 0156 b33c 7ffa 31bc
000003f0: b337 803c 8764 023d 6edb b4bb 6cf1 533c

layers.8.bias f4 [11]
0.013832509 0.05815855 0.082017295 0.0052340943 -0.014761286 0.104405195 -0.016998252 0.004128094
0.08156532 0.059962045 0.014134244
00000000: bfa1 623c a937 6e3d aff8 a73d c482 ab3b
00000010: 52d9 71bc 64d2 d53d eb3f 8bbc f644 873b
00000020: b80b a73d c39a 753d 5193 673c
