Simulation/saved_models/model2.pth (torch, 14462 bytes, 6 tensors)

layers.0.weight f4 [64, 8]
000000 95 8d b1 3d 59 60 a5 3d 1c c5 c6 bd c7 a9 96 be
       0.08669583 0.080750175 -0.097055644 -0.29426405
000010 cd e9 a7 3e b6 5f b3 3d e4 51 e9 be a7 84 d0 3d
       0.32795563 0.0875849 -0.4557029 0.101815514
000020 94 d3 d4 be 2d 1f 92 3e 54 02 c6 3e 88 90 f7 3b
       -0.4156767 0.2853941 0.3867365 0.0075550713
000030 ca cd 93 3d d9 f5 e2 3c 88 79 35 bd 11 c2 bb 3e
       0.072169855 0.02770512 -0.044305354 0.36671498
000040 3d 56 28 3e 7f 72 04 bc 9c de e9 3a 4a 1d fb bd
       0.16439147 -0.008083939 0.0017842832 -0.12261446
000050 99 75 e6 bd 4c ff a4 3b 1e 3c b4 be c8 f3 67 3d
       -0.11252899 0.0050353166 -0.35202116 0.056628972
000060 cf 19 8c 3d 32 53 ee 3b 0e 5f e7 3d 4a 27 21 3e
       0.0684086 0.0072731012 0.11297427 0.15737644
000070 d9 3d fd bd bd 32 ea 3d 4e 8c 90 3e d5 1c 86 be
       -0.12365312 0.11435459 0.28232044 -0.26193872
000080 fd 62 dd be 2e f6 8b be 2d 6e 2a 3e 61 18 ae 3e
       -0.43239585 -0.27336258 0.16643591 0.34002975
000090 e9 3f 81 be cc 73 24 3e da c6 a1 be ed 6d ed 3e
       -0.25244072 0.16059798 -0.31597024 0.4637293
0000a0 ba 59 84 be 1e e9 c8 bd 3d 79 dc 3d c4 97 84 be
       -0.25849706 -0.098100886 0.10765312 -0.25897038
0000b0 be 5b b2 be 10 76 e4 bd d5 6d e2 3c 8a 6d c5 3e
       -0.3483562 -0.11155331 0.027640263 0.38560134
0000c0 f6 d1 3c bd 2e a8 cd be d8 cd 37 be 47 89 db 3e
       -0.04609867 -0.40167373 -0.17949617 0.42878172
0000d0 d9 ff d1 be 10 35 f1 bd 8f e9 31 3d c2 e3 1e be
       -0.4101551 -0.11777699 0.04343563 -0.1551657
0000e0 ea f9 a9 3e b7 cb 83 be e8 0d 61 be 2a f7 97 bd
       0.33198482 -0.2574136 -0.21977961 -0.0742019
0000f0 a1 1a bd 3e 95 09 b7 3e db e4 71 3e d9 6e 05 be
       0.3693438 0.35749498 0.23622458 -0.13030566
000100 e3 e6 a8 bd 75 b8 c3 bb 93 22 81 be 67 ae 80 3e
       -0.08247163 -0.0059729167 -0.2522169 0.25133058
000110 e3 dd a9 3d 0d 3a 54 bb 06 41 ba 3e 78 f8 2e be
       0.08294275 -0.0032383234 0.36377734 -0.17086971
000120 69 1a a2 3d d5 33 5a 3e 3a ea c5 bd 1f 34 88 be
       0.079151936 0.21308835 -0.09663816 -0.26602265
000130 9d 52 6f be 39 29 23 3b e1 98 8b 3e ef 8d fa bc
       -0.23371358 0.0024896397 0.27265075 -0.030585257
000140 21 f9 56 3e 37 ee 4b be 20 c0 79 3e e0 f4 8d 3e
       0.20993473 -0.1991509 0.24389696 0.27725887
000150 f1 d6 7a 3e 6e 21 64 be 93 a8 6f 3e 09 11 2a 3e
       0.24496056 -0.22278377 0.2340415 0.16608061
000160 58 1e 86 3d 09 f0 df 3d 05 69 a6 3b a1 52 da be
       0.06548756 0.10934455 0.0050784373 -0.42641166
000170 83 69 85 bd bc 4c b2 3c 61 83 b1 be 10 0c 5d 3e
       -0.065142654 0.021765105 -0.34670547 0.21586633
000180 cc 45 21 3d 51 32 b9 be c6 74 7a be aa 44 96 3e
       0.039373204 -0.361712 -0.24458608 0.29349262
000190 de e0 d4 3e d0 ad 89 be fc ef a4 3e 30 3f af bd
       0.4157781 -0.2689042 0.32214344 -0.08556974
0001a0 10 f3 1d be d8 64 e7 3e 02 b0 c2 bd 05 47 a9 be
       -0.15424752 0.45194125 -0.09506227 -0.33061996
0001b0 56 b1 0e 3e 81 3a 02 be dd 13 e1 be 37 a8 a7 be
       0.13934836 -0.1271763 -0.43960467 -0.32745525
0001c0 c0 c8 a6 be 1c b9 ac 3e 71 a8 3a 3e 59 32 71 be
       -0.32575035 0.33734977 0.18228318 -0.23554362
0001d0 61 ef 89 be c1 33 0d 3e 35 b5 bc 3e 6d 2f e9 bb
       -0.26940444 0.13789274 0.36857 -0.0071162493
0001e0 cd 42 0a bf 8b 7c 29 3e d0 80 17 3e e9 aa 88 bd
       -0.5400818 0.16551416 0.14795232 -0.066732235
0001f0 d8 6a 9a 3e a4 4f 06 be b3 9f fc be 2d 3e 92 3e
       0.3015964 -0.13116318 -0.4934059 0.2856306
000200 03 f4 a2 be cb 5e 6a be fb 62 61 be cb e1 89 be
       -0.3182679 -0.22887723 -0.22010414 -0.2693008
000210 66 12 8a 3d 02 fc 4d be 09 0f e5 3c e7 03 e5 3e
       0.067417905 -0.20115665 0.02796127 0.4472954
000220 45 ca 0e bd 91 f1 e2 3e fc da 54 3e 4d b0 0d bd
       -0.034860868 0.44324926 0.20786661 -0.03459196
000230 e5 1a 40 3c bd 1b 6b be 1c 15 a6 be ec 04 96 be
       0.011725162 -0.229598 -0.3243798 -0.2930063
000240 c1 e7 c8 be 3c c7 02 3e 30 e5 77 be 52 c5 91 be
       -0.39239314 0.12771314 -0.24208522 -0.28470856
000250 14 2d f1 3e 0e 0b 6d 3e 04 60 cf 3d 93 39 3d be
       0.47104704 0.23148748 0.101257354 -0.18478994
000260 13 7b 8c 3e 7d a3 05 be 81 39 0c bb 37 d8 7d 3e
       0.27437648 -0.13050647 -0.002139658 0.2478951
000270 90 ca 82 bc 55 5a 11 3e a3 54 88 bd 23 52 27 bd
       -0.01596573 0.14194615 -0.06656768 -0.040849816
000280 b9 de 55 be a9 9a 90 ba f1 e9 37 be 98 5b 9e 3e
       -0.20885743 -0.001103242 -0.17960335 0.30929255
000290 2e 6c 15 be b4 08 f6 3d 37 74 31 3e 1e 60 77 3e
       -0.14592049 0.12013379 0.17329489 0.2415776
0002a0 3f ac 06 be b3 8c fb bb ce 6b 67 3d b0 a3 aa 3e
       -0.13151644 -0.0076766848 0.056499295 0.3332801
0002b0 57 db 0a be 6f 4c 78 be 3b 52 f3 bc 31 2b a0 3e
       -0.13560234 -0.24247907 -0.029702296 0.31282952
0002c0 40 f1 4f bd bf 11 93 be 19 6e bd 3d b2 2a 0d 3e
       -0.050767183 -0.28724477 0.09249515 0.13785818
0002d0 69 b9 86 3e 4d 3a c8 3d b4 fc 11 3e b0 92 c8 3b
       0.26313332 0.09776745 0.14256555 0.006121002
0002e0 d6 37 86 3e d6 c0 a6 be 73 50 36 be 14 cb 90 b9
       0.26214474 -0.32568997 -0.17804126 -0.00027617125
0002f0 2b e1 9d 3e 1b 39 e8 3d e8 91 b9 be 8a e4 fd 3d
       0.30835852 0.11339017 -0.3624413 0.12397106
000300 f0 f6 92 3e 41 3a 6a 3e f9 ad 77 3e d3 04 8d be
       0.28704023 0.22873785 0.24187459 -0.27542743
000310 7b f7 9c be be 7a 6c be b9 fb a2 3e af 57 45 be
       -0.30657563 -0.23093697 0.31832674 -0.1927173
000320 22 01 3f be fe a4 b6 bd 90 61 69 3b 01 cc 93 be
       -0.18652776 -0.089181885 0.003561113 -0.2886658
000330 48 95 57 3e ce c8 5e 3e 63 6e d4 bd c9 b3 9f 3e
       0.2105304 0.21756288 -0.10372617 0.31191853
000340 45 65 95 be 27 2a c2 3e ee 81 09 be bc 6d c8 3d
       -0.29178825 0.37922785 -0.1342847 0.09786555
000350 3d 91 82 be c8 11 03 3e 41 4e b7 be 53 c3 b4 3b
       -0.25501433 0.12799752 -0.3580189 0.0055164485
000360 40 5c 92 be a3 08 8b bd 3c 79 33 3e ed 98 09 be
       -0.28586006 -0.06788757 0.17526716 -0.13437243
000370 c7 e9 8d bc 15 fb 3d be 7f 57 48 be 9a 0a 5a 3e
       -0.017323388 -0.18552811 -0.19564627 0.21293107
000380 53 9c 07 3e a6 c2 23 3e 20 4e c4 bc b0 31 95 be
       0.13243227 0.15992221 -0.023963034 -0.2913947
000390 7f fa 9c 3d fc 6a 1d be 2a 9f 53 bd ef 52 11 be
       0.07664966 -0.15372843 -0.051665463 -0.14191793
0003a0 b1 f0 9d 3e be f5 af bd 0d 6a 44 3e 54 e9 ab 3d
       0.30847695 -0.085917935 0.1918108 0.08394113
0003b0 63 1c 50 3e 59 e7 2e 3d 69 f2 ec 3a 09 cf 7b be
       0.20323329 0.0427011 0.0018077615 -0.24590696
0003c0 8f ce 62 3d 59 66 e9 3d b2 98 8c bc 43 c3 59 be
       0.05537277 0.113964744 -0.017162655 -0.21265893
0003d0 92 ff 83 3d 1a 2a b2 3e eb 7c 8c 3e 11 07 7e 3e
       0.064452305 0.34797746 0.27439055 0.24807383
0003e0 9f 57 f6 be 14 6b 80 3e 19 a7 30 be 5b 84 d5 bd
       -0.48113725 0.25081694 -0.17251243 -0.104256354
0003f0 36 a5 6b 3e 06 bb 79 3e 24 3e 8b bd 70 95 00 3e
       0.23012242 0.2438775 -0.06798962 0.12557006

layers.0.bias f4 [64]
000000 c3 a9 01 3f c6 87 2a 3f 50 18 96 3f d9 f5 aa 3f
       0.5064966 0.66613424 1.172617 1.3356277
000010 6f a1 16 3f b4 5e 0d 3f 1f c8 c0 3e 58 35 01 3f
       0.5884008 0.5522263 0.3765268 0.5047202
000020 54 89 ad 3f 89 74 8c 3f a9 a2 57 3f 8d 07 5f 3f
       1.3557534 1.0973064 0.84232575 0.87120897
000030 ac 66 89 3f 59 c0 63 3f 28 c9 67 3f 1d 5c 5e 3f
       1.0734458 0.88965374 0.90541315 0.86859304
000040 74 33 8e 3f 99 6a ac 3f f2 ed 9d 3f d9 8e 6c 3f
       1.1109452 1.3470031 1.233824 0.9240547
000050 13 80 4c 3f 0b dd 3b 3f 2d 4a 92 3f c5 4b 35 3f
       0.79882926 0.7338416 1.1428887 0.7081874
000060 0c d9 10 3f 40 73 8f 3f 14 df b3 3f e4 e8 71 3f
       0.5658119 1.1207047 1.4052453 0.9449599
000070 f7 5d bc 3f db ab b7 3f 5d ba 37 3f f3 81 94 3f
       1.4716176 1.4349321 0.7176874 1.1602157
000080 62 c7 10 3f 99 8d 56 3f 17 2b 77 3f 40 dd 1a 3f
       0.56554234 0.8380981 0.96550125 0.6049385
000090 05 61 b0 3f 71 8f 8e 3f a9 99 44 3f b1 0c 3b 3f
       1.3779608 1.1137525 0.76796967 0.7306624
0000a0 a2 d1 d4 3e 0b 09 87 3f a9 4e c1 3f 05 ad 8a 3f
       0.41566187 1.0549635 1.510213 1.0834051
0000b0 ce 47 af 3f 2e 16 b7 3f 0a a4 2c 3f bb 04 2f 3f
       1.3693788 1.4303644 0.67437804 0.68366593
0000c0 84 1b 42 3f 23 e1 9d 3e f3 30 bd 3f f9 b6 b1 3f
       0.75823236 0.30835828 1.4780563 1.3883964
0000d0 9d ce bd 3e ac 83 a6 3f 8e a0 6a 3f 2b cd ad 3f
       0.37071696 1.3008933 0.91651237 1.3578237
0000e0 90 34 a1 3f 93 af a8 3f 56 a3 98 3f bd 1f 98 3f
       1.2594166 1.3178581 1.1924846 1.1884686
0000f0 33 f7 e6 3e b8 76 9a 3f be dc 06 3f 4b d6 54 3f
       0.45110473 1.206748 0.52680576 0.83139485

layers.2.weight f4 [32, 64]
000000 c3 17 18 3d eb c8 21 3d 9c 47 32 3f 73 b3 a5 3e
       0.037132036 0.03949825 0.6964052 0.3236347
000010 dd 7b c5 3d 53 0b 18 3e 55 10 90 3e 95 61 b7 3d
       0.09642766 0.1484807 0.2813746 0.08954159
000020 34 ba 70 3e f2 54 9f 3e 59 2a 1f 3e ce 3d a4 3d
       0.23508531 0.31119496 0.15543498 0.08019601
000030 7b 2b 6f 3e 99 ae 1c 3e ee 24 23 3e 80 20 21 3e
       0.2335643 0.15300979 0.15932056 0.15735054
000040 98 5b 3b 3e c9 2e 6a 3e cf 47 9f 3e 0a 5b 2e 3e
       0.18296659 0.2286941 0.31109473 0.17026916
000050 f6 e5 19 3e 0b 30 af 3d 5b a4 15 3e 3b 00 4e 3e
       0.1502913 0.08554085 0.14613478 0.20117275
000060 39 21 16 b9 8e 51 c3 3d be ea 6e 3e ff 58 29 3e
       -0.00014317491 0.0953704 0.23331735 0.16537856
000070 5a 9e dc 3e 33 ce 6c 3e 92 2d 35 3e 25 04 68 3d
       0.43089563 0.23125534 0.17693165 0.056644578
000080 9c bd 65 3d 53 87 ca 3c ef 50 f9 3d 99 d6 ba 3d
       0.05608903 0.02472273 0.1217364 0.091229625
000090 39 d9 10 3f dd 98 bc 3e e4 b8 c6 3d d7 39 ef 3c
       0.56581455 0.36835375 0.09703234 0.029202385
0000a0 aa b8 cf 3a fc c1 1b 3e 9b 44 c7 3e 29 9b 58 3e
       0.0015847881 0.15210718 0.3891953 0.21152939
0000b0 5b c2 77 3e ba 74 0b 3e 49 b1 49 3e b9 60 7e 3e
       0.24195234 0.13618746 0.19696535 0.24841584
0000c0 8b 47 b6 3e fb 40 f9 3c 59 1e c4 3e fe 71 a0 3e
       0.35601458 0.030426493 0.38304403 0.3133697
0000d0 7e fe 2a 3e cd a4 b8 3e e1 80 5e 3e 68 14 0e 3f
       0.16698644 0.36063233 0.21728851 0.5549989
0000e0 90 3b e9 3d 09 f9 be 3e f0 c9 3f 3e fa be 51 3e
       0.11388314 0.37299374 0.18729377 0.20483008
0000f0 75 3a a9 3d 5b 1d 64 3e b7 0c 43 3e e5 3e 11 3e
       0.08263103 0.22276823 0.19047819 0.14184149
000100 35 f6 b4 bc b2 f9 09 be a7 9c 00 3d e0 57 14 3d
       -0.022090057 -0.13474157 0.031399395 0.036216617
000110 1e f9 03 be 76 f7 9a 3c 0e 21 36 3b d3 71 a8 bc
       -0.12888 0.018916827 0.0027790698 -0.020562088
000120 76 fc 90 3c 70 46 68 3b c4 67 4d 3d a8 09 2d 3d
       0.017698508 0.0035442375 0.050147787 0.042245537
000130 3c 73 4b bd 11 92 93 bc 9a 21 01 be be ff cd 3c
       -0.049670443 -0.018013986 -0.12610474 0.025146361
000140 6f 29 cf bd 18 97 22 be 77 1b 80 bd c9 1b 70 3d
       -0.10115325 -0.1587795 -0.062552385 0.058620248
000150 4f b3 ea bd 99 7d 69 3d 1b 92 33 bd c6 39 a3 bd
       -0.11459982 0.057004545 -0.04384051 -0.07970004
000160 f5 ff ba 3c 03 42 99 3d e5 7a 03 be 73 72 83 3d
       0.022827128 0.07483294 -0.1283985 0.06418314
000170 ec 2e 2e 3d bf 45 f7 bc 17 82 de bd 6a d7 15 3c
       0.042525217 -0.030184625 -0.108646564 0.009145597
000180 03 b8 46 bd 4b e9 e0 3b 96 66 15 bb ed 98 65 3d
       -0.04851533 0.006863748 -0.0022796742 0.056054045
000190 2c 94 29 bd ca 6c 80 bd 58 e2 96 3d dc df 0c 3c
       -0.041401073 -0.0627075 0.073673904 0.008598294
0001a0 49 50 fa bc 12 51 1c be f0 b4 8a bd e9 66 a1 3d
       -0.030555861 -0.15265301 -0.06772792 0.07880957
0001b0 42 6b b1 3d 3c 30 46 3c dd 03 64 bc 35 18 cb bd
       0.08663036 0.012096461 -0.013916937 -0.099167265
0001c0 6b c0 86 bc 28 78 9f 3d bc 3e b5 bc 06 ad 58 b9
       -0.016449174 0.0778659 -0.02212464 -0.00020663821
0001d0 af 1a b0 bd 20 f2 91 bc 9c 36 5d 3c 00 f8 7e 3d
       -0.085988395 -0.01781565 0.013501789 0.06224823
0001e0 e6 af f3 bd 8d 7f 99 3c 54 d8 d9 bd a7 33 97 3d
       -0.11898784 0.018737579 -0.106369644 0.07382899
0001f0 14 87 86 bd f3 c4 87 bd bd 7a e6 bd 73 5c 28 3d
       -0.06568733 -0.06629362 -0.11253879 0.04110379
000200 fc 95 31 bd 93 4e 52 3c f8 87 11 3d cf 48 5e bd
       -0.043355927 0.012836116 0.03553006 -0.054268654
000210 e8 14 07 be 88 9e ff bc ce 8b be 3d 32 9d 8b 3d
       -0.13191569 -0.031203523 0.093040094 0.06817092
000220 78 4c 93 3d b8 61 e5 bc 28 11 4c 3d b1 f1 cb 3d
       0.0719232 -0.028000697 0.04982105 0.09958208
000230 80 69 ea bd 78 a0 e2 bd 53 2e c2 bd 05 10 fa bc
       -0.11445904 -0.11065763 -0.09481492 -0.030525217
000240 e0 ad 43 bc ca 70 43 bd 8f 2c 82 bd f0 ea 58 3d
       -0.0119433105 -0.047714986 -0.06356155 0.05295843
000250 4c 87 da bd 8d eb 92 bd 44 da be bd c3 ef 70 bd
       -0.10670337 -0.07173834 -0.093189746 -0.058822405
000260 60 22 f3 bd 1a 70 80 3d 48 78 f9 bd 14 25 67 3d
       -0.11871791 0.06271382 -0.12181145 0.056431845
000270 10 36 d1 bd 30 66 c7 3d e0 07 ad bd b2 34 0f bd
       -0.1021539 0.097362876 -0.08448768 -0.034962364
000280 80 14 d4 bd 80 c1 c1 bb a3 d8 a2 bd 73 3d ab 3d
       -0.103554726 -0.0059129596 -0.079514764 0.0836133
000290 f0 cd 6f 3c c7 23 bc bd a1 a1 ed bd 66 0e ea 3d
       0.014636502 -0.091865115 -0.11603094 0.114285275
0002a0 f0 32 61 3d ea ec 85 3d 70 31 9f 3d 8a d5 bb bd
       0.05498022 0.065393284 0.07773101 -0.09171589
0002b0 a2 7b fe bd a7 38 d7 bd f0 93 01 3c 5c af be bd
       -0.12425925 -0.105088525 0.007908806 -0.09310791
0002c0 cb bc f3 ba 28 34 a6 bd dc 5a f5 bd c0 47 70 3d
       -0.0018595693 -0.08115417 -0.11980221 0.058662176
0002d0 0f 04 31 bd bc f9 9a bd da 25 ea 3d 88 54 da bd
       -0.04321676 -0.07567164 0.11433001 -0.10660654
0002e0 e8 17 c5 3d d4 d1 1a 3d d6 3a 98 bc fc f7 89 bd
       0.096237004 0.037797764 -0.018582743 -0.067367524
0002f0 de 4d c2 3d b4 5e 6c 3d aa 8a 9a 3d 08 a8 91 bc
       0.09487508 0.057707503 0.07545979 -0.017780319
000300 0d 84 50 3d 94 f1 5f bd ad 0e 1f bd 29 97 d3 bd
       0.050907183 -0.054673746 -0.038832355 -0.10331566
000310 d1 27 d3 bd 8b d3 c6 bc 9e 5e 32 bd 03 b4 5b bd
       -0.10310329 -0.024270793 -0.043547265 -0.05363847
000320 e3 6d 07 3d fa 08 3f 3c 6e 98 7d bb 45 3e c2 bd
       0.03306378 0.011659855 -0.0038695592 -0.09484533
000330 0b 91 2c be 7a 9c 99 3c ac 50 a0 3c 21 15 fc bd
       -0.16852205 0.018751372 0.019569717 -0.123087175
000340 7f 08 8b bd 5c a8 d4 3b 58 3a 13 3d 10 31 ae 3b
       -0.0678873 0.0064897966 0.035944313 0.0053159073
000350 1d 76 92 bd 94 ca 73 bc 7b 92 7a 3d 87 9b 8e bd
       -0.071514346 -0.014879841 0.06117485 -0.06963258
000360 52 35 3a 3a bc f5 16 be 61 fa 05 3c 17 9f ba bd
       0.0007103282 -0.14742178 0.008177371 -0.09112375
000370 5e 46 12 be a8 5c 03 3d 4b d7 c8 bc 7b 95 85 3d
       -0.14284655 0.032070786 -0.024516722 0.06522652
000380 37 4a d1 3d dd 64 85 bd b6 5d 0e be fd 26 34 bc
       0.102192335 -0.06513379 -0.13902935 -0.010995624
000390 25 fa 04 be 51 c4 26 bd e8 2f 94 bd e0 8a 0c 3d
       -0.12986048 -0.040714566 -0.072357 0.03431213
0003a0 29 1c 32 be 7b 41 26 3d 0f 86 93 3c be 2f 30 3d
       -0.17393555 0.04058979 0.01800826 0.04301428
0003b0 07 54 85 3d 30 2c a6 bd 1c 2d 1c be 09 bf 94 3d
       0.065101676 -0.08113897 -0.15251583 0.072629996
0003c0 9f 5d 71 3b 9f a2 94 bd 6e 26 86 bd af 9b 03 be
       0.0036829484 -0.0725758 -0.06550299 -0.12852357
0003d0 ce e7 ac 3c 1a 84 96 3d 31 66 e6 bd b8 59 8b 3c
       0.021106627 0.07349415 -0.1124996 0.017010555
0003e0 97 11 55 bd cd cd 0b bd 52 07 02 be c9 9b f5 bd
       -0.052018728 -0.034131814 -0.12698105 -0.11992604
0003f0 30 1f 13 3d 94 ef 87 3d 66 2c be bd d9 26 dd bd
       0.035918415 0.06637493 -0.09285812 -0.10798425

layers.2.bias f4 [32]
000000 c0 9c 64 3f c6 ef a8 3d 4c 62 e5 bd 51 b1 ca bd
       0.8930168 0.08248858 -0.11200389 -0.09897102
000010 42 ec 40 3f d7 72 3d 3c 98 11 53 3f c7 40 71 3f
       0.753605 0.0115630245 0.8244872 0.9423947
000020 4f 38 85 bd 7e 6a 42 3f 01 4c 73 3f 7c f2 4b 3f
       -0.06504881 0.75943744 0.9503785 0.79666877
000030 23 5b 52 3f 61 c0 f0 bd b3 34 22 3d 5b fd 80 3f
       0.82170314 -0.11755443 0.03960104 1.0077318
000040 5f 03 65 3f 39 1a 5f 3f 9f 63 41 3f df d8 81 3f
       0.8945827 0.8714939 0.75542635 1.0144309
000050 78 4f 53 bd 1f ae 63 3f 12 1c 73 3f d1 05 97 3d
       -0.05158946 0.8893756 0.94964707 0.07374156
000060 02 12 3b 3f 41 f1 73 3f e6 78 46 3f 69 a4 72 3f
       0.7307435 0.9529 0.77528226 0.9478212
000070 c4 32 78 3f 3d 8a e8 bc 5e 31 45 3f 6e b5 4e 3f
       0.9695246 -0.02838623 0.77028453 0.8074559

layers.4.weight f4 [11, 32]
000000 ba a3 0e be d3 ec 9c 3c 81 fd 63 bd 9e 06 71 3d
       -0.13929644 0.019155895 -0.055661682 0.0588442
000010 db ad ec bd 6a 53 65 3d 95 9a 9e be c1 97 6a be
       -0.11556598 0.055987753 -0.30977312 -0.22909452
000020 bc 60 b0 3d 0a 00 5e be ef 5d eb be 7a ef c7 be
       0.086122006 -0.21679702 -0.45970103 -0.39049894
000030 df e4 e0 be 82 bb a2 3d ce 7c 6d 3d 26 d5 fd be
       -0.43924615 0.079459205 0.05798035 -0.49576682
000040 b1 d0 b0 be c7 af c0 be 02 de a4 be a6 63 54 be
       -0.3453422 -0.37634107 -0.3220063 -0.20741138
000050 06 3c b6 3d 66 68 ab be 88 30 95 be 21 ea 15 bb
       0.08898167 -0.33478087 -0.2913859 -0.0022875147
000060 54 c3 8e be ec ba ab be 69 bf 99 be ed df b5 be
       -0.278834 -0.33541048 -0.30028847 -0.35522404
000070 a5 68 3f be fb fa 11 3e c9 97 64 be c1 1e b3 be
       -0.18692262 0.14255898 -0.22323526 -0.349844
000080 ad 07 af be d0 cf c5 3d 79 67 a8 ba 4e 72 1b bd
       -0.34185544 0.09658778 -0.001284822 -0.037950806
000090 27 56 a5 be a5 f7 03 3e d8 ea fc bd 7a 00 37 be
       -0.32292292 0.12887438 -0.123494804 -0.17871276
0000a0 aa 68 25 3d d7 cd ab be 24 85 75 be d2 9e 5e be
       0.04038302 -0.3355548 -0.2397657 -0.21740273
0000b0 b4 de 2c be b8 7b ba bd ae d6 0f 3e ab ec ae be
       -0.1688183 -0.09105629 0.14046738 -0.34164938
0000c0 83 bb c9 bd 73 75 c3 be dc dd 93 be 17 e4 63 be
       -0.09850218 -0.38175544 -0.28880203 -0.22254978
0000d0 e0 87 35 3c ae 7b 8d be 23 3e bc be 53 b1 06 be
       0.011079758 -0.27633423 -0.36766157 -0.13153581
0000e0 bd af be be 55 c0 b8 be 34 9f d1 be 84 6f 31 be
       -0.37243453 -0.36084238 -0.40941775 -0.17327696
0000f0 25 a1 c0 be de 5b bc 3d 68 36 d0 be 2a 06 45 be
       -0.37622944 0.0919721 -0.4066651 -0.19240633
000100 8a e6 27 be f8 69 13 3e 2e ed 65 3c 7f 9d 6b 3d
       -0.16396537 0.14395893 0.014033599 0.057523247
000110 05 1d b1 be f5 d4 95 3d 35 ba 20 be 74 4f ab be
       -0.34592453 0.07316009 -0.15696032 -0.33459055
000120 2a 4d 0f 3e b2 be cf bd 1e 4e 3a be 6b 10 09 be
       0.1399428 -0.10143794 -0.18193862 -0.13385169
000130 64 fb be be 17 0a 89 3d 91 57 e8 3d 4c be be be
       -0.3730117 0.066913776 0.11344827 -0.3725456
000140 b2 a6 c4 be e5 bb d2 be ad 4b 98 be 9c 4b ae be
       -0.38408428 -0.41158977 -0.29745236 -0.3404206
000150 db 2a 01 3e 9f 0b c8 be 1a 47 0d be 43 fa 99 3d
       0.12614004 -0.39071366 -0.13796654 0.07518437
000160 a7 26 55 be 51 ce ae bd 70 c4 bf be 23 25 c4 be
       -0.20815526 -0.085354455 -0.37454557 -0.38309583
000170 5a 07 c4 be 71 29 19 3d b6 9b 42 be 8f 70 a8 be
       -0.3828686 0.037393037 -0.19004712 -0.32898375
000180 cd 28 27 be 9a 1d 83 3d 1f 39 1b 3e 29 f7 f0 3d
       -0.16324158 0.064021304 0.15158509 0.11765892
000190 ed ad ce be ec c9 a2 3d 16 cc 95 be 1e e6 86 be
       -0.4036707 0.0794867 -0.29257268 -0.2634744
0001a0 90 e0 cb bd 29 05 40 be e8 79 b8 be 1f bc bb be
       -0.09954941 -0.18751968 -0.36030507 -0.36666963
0001b0 64 ea a4 be e6 8b 4f 3b 79 d1 9d 3c 24 ce 21 bf
       -0.32210076 0.003166908 0.019264923 -0.6320517
0001c0 95 1b f7 bd 0c 8a 25 be f4 96 a4 be 48 fa b4 be
       -0.12065808 -0.16165942 -0.32146418 -0.353472
0001d0 d0 62 65 3d 1e c2 ee bd 11 2a c9 be 8b 14 35 bb
       0.056002438 -0.11658119 -0.39289907 -0.0027630653
0001e0 3e 8b 93 bd 52 a2 88 be cd c7 27 be b6 ce 22 be
       -0.07204293 -0.2668634 -0.16384812 -0.15899166
0001f0 68 a5 ea bd d2 91 84 3d 2b f0 b8 be dd 35 b1 be
       -0.1145733 0.064731255 -0.36120734 -0.34611407
000200 df 20 9d be 27 c2 81 3c 93 f1 e0 3d fd 90 a7 bc
       -0.3068914 0.01583965 0.109835766 -0.020454878
000210 e5 6a 5e be 14 51 9f bd ee 9d 89 be 65 f3 97 be
       -0.21720465 -0.07779136 -0.26878303 -0.29677883
000220 20 05 b4 3d 23 b3 e4 bd e6 25 0a be d4 da 0c be
       0.0879004 -0.1116698 -0.1349102 -0.13755351
000230 3d 52 96 be 3a 94 bf bc 5f d1 36 3d d1 9e 25 bf
       -0.29359618 -0.02338611 0.044633266 -0.6469546
000240 9a aa 8c be a5 92 44 be 81 91 90 be b8 d7 50 be
       -0.2747391 -0.19196565 -0.2823601 -0.2039479
000250 45 c9 03 3e e4 78 89 be 40 9b 60 be d4 38 90 3d
       0.12869747 -0.26850045 -0.21934223 0.07042089
000260 02 7e 59 be 36 ca 8c be 04 a3 71 be e7 d2 b0 be
       -0.21239474 -0.27498025 -0.23597342 -0.34535906
000270 f4 45 bc be 59 15 19 3e 4b 88 78 be f4 87 ac be
       -0.3677212 0.1494955 -0.24270742 -0.33697474
000280 28 f1 8b be f0 f4 77 bc 5e 04 5f bc df 3a b0 bd
       -0.27332425 -0.015134081 -0.013611881 -0.08604979
000290 40 d4 0e be f4 bd 01 3e 58 e5 82 be a9 b5 b0 be
       -0.13948154 0.12670118 -0.255656 -0.34513596
0002a0 a6 a3 d0 bd b6 dd 0d be 47 bb 3b be 28 02 48 bd
       -0.101874635 -0.13854107 -0.1833316 -0.04883018
0002b0 22 79 a0 be 1a 89 7d 3d 48 a2 8f bd 33 3a 3c bf
       -0.31342417 0.06189833 -0.070133746 -0.73526305
0002c0 b7 1b c5 be da af b4 be 66 bb b9 bd 79 a9 3e be
       -0.38497707 -0.35290414 -0.090689465 -0.18619336
0002d0 53 f2 81 bd 04 57 c6 be 1a 13 4f bd c1 5d 67 bd
       -0.06345048 -0.38738263 -0.050555326 -0.056485895
0002e0 77 6d 97 be a1 6a c0 be 37 72 bb be 82 0f 94 be
       -0.29575703 -0.3758135 -0.36610577 -0.28918082
0002f0 c5 60 8c be e2 ef 9c bb 58 e4 93 be 48 e0 1c be
       -0.2741758 -0.0047893384 -0.2888515 -0.15319932
000300 22 9e 8f be 63 9a 4c be c6 45 07 3d 1b dc c1 bd
       -0.28050333 -0.19980769 0.033025526 -0.0946581
000310 3e 73 5e be b0 7e 2a 3e 3c b7 b2 be b1 b1 89 be
       -0.21723649 0.1664989 -0.34905422 -0.2689338
000320 7b 8c d8 3d 61 27 57 be 7f 72 96 be ca f2 0b be
       0.105736695 -0.21011116 -0.2938423 -0.13666835
000330 90 83 a4 be 83 08 dd 3d 1a 39 db bd c1 6b 22 bf
       -0.32131624 0.10792639 -0.10704251 -0.6344567
000340 96 7c b6 bd 53 c9 ce be f8 38 0c be f5 44 92 be
       -0.08910482 -0.40387973 -0.13693607 -0.28568235
000350 84 cb 6a 3d db 93 67 be cf 0e 9a be ed 3c b3 bd
       0.057322994 -0.22614996 -0.30089423 -0.08751855
000360 a7 e6 be bd 20 fe 73 be 3f e6 a4 be 20 13 38 be
       -0.09321337 -0.2382741 -0.32206914 -0.17976046
000370 f5 01 72 be 68 02 09 3e 8e b4 b1 be 07 70 a3 be
       -0.23633559 0.13379824 -0.34708065 -0.31921408
000380 c4 61 cb be 8a 02 56 3d 2a b1 2b be 0c 39 7e bc
       -0.39723027 0.052248515 -0.16766801 -0.015516531
000390 af 54 a0 be 55 44 ee 3d 5d f1 11 be 8c bb 5b be
       -0.31314608 0.11634127 -0.14252229 -0.21458262
0003a0 5c 2e 1e be 18 84 95 be b8 52 63 be b8 cf 46 be
       -0.15447372 -0.29202342 -0.22199523 -0.19415176
0003b0 9a bb 8d be 76 9e 64 bc c2 92 40 be c4 fb 33 bf
       -0.2768219 -0.013953796 -0.18805984 -0.7030604
0003c0 43 ec 9e be 3d e0 97 be ee 1a 94 be 4e 3a 95 be
       -0.31039628 -0.29663268 -0.28926796 -0.29146045
0003d0 2e b6 e2 3d 37 42 d6 bd 02 08 16 be f6 30 94 3d
       0.11069904 -0.10461848 -0.14651492 0.07235901
0003e0 ed 6c 45 be f3 fd b2 be 76 5e ef bd 90 ba 81 be
       -0.19279833 -0.34959373 -0.11687939 -0.25337648
0003f0 09 0c ad be 1a ce 3d be ec ce a7 be d9 a5 3e be
       -0.33798245 -0.18535653 -0.32775056 -0.18617953

layers.4.bias f4 [11]
000000 39 5d 11 bf a5 66 2b bf 3d f1 17 bf 22 ba 24 bf
       -0.5678287 -0.669535 -0.59352475 -0.64346516
000010 69 75 21 bf 83 5a 57 bf 88 2a 51 bf 5c 10 2e bf
       -0.6306978 -0.84122485 -0.8170552 -0.6799371
000020 c3 eb 17 bf 88 ea 22 bf bc 40 25 bf
       -0.5934412 -0.63639116 -0.645519
