Simulation/saved_models/model1.pth (torch, 14334 bytes, 6 tensors)

fc1.weight f4 [64, 8]
000000 38 8f 13 bd 0c 58 96 be 47 00 e0 bd 37 4d 8b bd
       -0.036025256 -0.2936405 -0.10937553 -0.06801837
000010 2e c5 86 be 61 da 9a 3d e5 13 43 be 15 33 97 bb
       -0.2632231 0.07561184 -0.19050558 -0.0046142437
000020 3d 16 10 bf 9f 41 06 be 46 fe b9 bc 8d 3f 30 bf
       -0.5628393 -0.1311097 -0.022704255 -0.6884697
000030 2c 7e e6 3d fc b2 cc 3c b8 b2 93 bf 01 0f 87 3e
       0.11254534 0.02498769 -1.1538916 0.26378635
000040 98 b4 df bb 9e 0d 15 bd a8 1e fb 3c 57 51 e2 3d
       -0.0068269484 -0.03638994 0.030654266 0.110506706
000050 4a d9 14 bf ca 1e 8d bb 8a 5f d1 3e ee 4e b1 bd
       -0.58144057 -0.004306649 0.40893203 -0.08657633
000060 07 94 07 bf 9f 5a 3a bd 5c b9 9c bc 40 99 fa be
       -0.52960247 -0.04549658 -0.019131355 -0.48945045
000070 0f c2 4d bd ff c4 11 bd 27 e7 da be 33 e6 a4 bd
       -0.050233897 -0.03558826 -0.4275448 -0.080517195
000080 df 2c 1e 3e 7b 65 45 be 3c 4e 74 be 1e 8b b7 be
       0.15446804 -0.19276993 -0.23857969 -0.35848325
000090 40 af 1a be d2 1a 92 bd bc 3b 81 bd 35 72 02 be
       -0.15105915 -0.07134022 -0.063102216 -0.12738879
0000a0 42 bd 3b be 49 90 83 bb 03 df 73 3c 92 df 88 3c
       -0.18333915 -0.004015003 0.014884713 0.01670817
0000b0 42 4b be 3c b0 a5 7b 3b 50 11 ff be e3 aa 8e bd
       0.023229245 0.0038398318 -0.49817896 -0.06966188
0000c0 85 be 87 3e dd b4 e7 bd 0b 50 94 bc 6b be 0b 3f
       0.26512542 -0.11313794 -0.018104574 0.5458743
0000d0 4e 3f cd bd e5 e2 bc 3c 00 39 6a bd f1 b9 ca be
       -0.1002184 0.02305741 -0.057183266 -0.39594987
0000e0 27 75 2b 3f 70 88 88 bf da d6 eb bb 6f a5 7b 3e
       0.66975635 -1.0666637 -0.007197243 0.24574827
0000f0 fa 8a 63 bf b2 f9 1d 3d 41 27 d9 3e ac 8f 54 3e
       -0.88883936 0.038568206 0.4241276 0.20757931
000100 6c 86 47 bd 8f 23 01 3f 64 1f e7 bc 43 4b 08 bf
       -0.04871218 0.50444883 -0.02821321 -0.5323984
000110 f5 19 1c 3e 81 18 a8 3d 5e 80 c4 be b6 58 6c bf
       0.15244277 0.08207799 -0.38379186 -0.9232286
000120 25 12 6c be ea 56 d1 be 8b 9c f9 3c 08 26 a3 be
       -0.23053797 -0.40886623 0.030470153 -0.31864953
000130 18 78 66 3e bf ce d1 bd 08 7d f4 be 4a d8 d2 3d
       0.2250675 -0.10244512 -0.4775164 0.1029516
000140 de 31 3a bf af 07 0e 3e e2 ed f5 3c 18 51 8c be
       -0.7273234 0.13870119 0.030020658 -0.2740562
000150 fa 16 94 bd 0f 55 9a bc 4c 0b 8d bf c2 e1 84 3e
       -0.07230945 -0.018839387 -1.1019073 0.2595349
000160 3f 1a 0d bf b9 76 25 3e 46 3d a4 3c 3a f8 ed be
       -0.55118173 0.1615857 0.020048749 -0.46478444
000170 4e 07 09 bf 4d 9d 29 3d 5d d6 42 bd f1 16 0a bd
       -0.5352677 0.04140978 -0.047567714 -0.033713285
000180 2b 95 d5 be 26 93 50 3d 68 90 1d bc ff 58 30 be
       -0.4171537 0.05092158 -0.009616949 -0.1722145
000190 5b 57 03 3d a2 80 98 3a c3 14 f3 be 5b b5 1e 3c
       0.03206573 0.0011635015 -0.47476777 0.009686793
0001a0 42 6d b9 3d e0 ae 0d bd 9b 84 60 3c 4a f8 b7 3d
       0.090540424 -0.034590602 0.013703491 0.08982904
0001b0 cd db ff 3d ff be 15 be d3 96 12 3e 82 51 e6 3d
       0.124930955 -0.1462364 0.14315347 0.11246015
0001c0 0e 23 24 3f f9 f3 2c 3e 78 f7 1c bd 0c 0b 8b be
       0.6411599 0.16889943 -0.038321942 -0.27156866
0001d0 a6 56 b8 be f0 72 4b bc 82 e1 49 bf e0 e6 d7 be
       -0.36003608 -0.01241754 -0.7885972 -0.4216833
0001e0 a6 8a a0 3d b7 fc 4b be 14 c3 a5 3b b4 ea 80 bd
       0.07838945 -0.19920622 0.0050586555 -0.06294766
0001f0 a9 59 ae be 97 14 88 be ac 8e 56 bb 34 39 91 be
       -0.3405278 -0.2657821 -0.0032738848 -0.28363955
000200 13 1a e1 3d bd 50 69 3e 28 50 9a 3d 45 df 45 bf
       0.109913014 0.22784705 0.0753482 -0.7729381
000210 25 dc f3 be e8 36 50 bc ed ce 24 bf 50 70 d0 3d
       -0.47628894 -0.012708403 -0.64378244 0.10177672
000220 61 35 bb be 77 3d 00 be 22 95 c0 bc 00 a6 77 be
       -0.36564162 -0.12523447 -0.023508612 -0.24184418
000230 86 ce c0 3d 8e 6a 4b bd 96 c5 0c bf 93 fd c6 3d
       0.09414391 -0.049662165 -0.5498899 0.09716334
000240 ae 6c 3c bf df 5a 6f be e0 aa a1 3d 56 ff 4e bf
       -0.7360333 -0.23374508 0.0789392 -0.8085836
000250 18 57 17 3e 9f 41 f0 3c c0 71 c3 be 89 30 bc 3e
       0.14779317 0.029328166 -0.38172722 0.3675578
000260 7c f7 16 bf 1c d7 0b 3e 92 4a a5 3d 94 a2 2c bf
       -0.5897138 0.13656276 0.08070864 -0.67435575
000270 85 b1 e8 3d c6 78 e3 3c b1 51 64 bf 47 e2 91 bd
       0.11361984 0.02776755 -0.8918715 -0.07123237
000280 4b 07 4c bd e4 7a 86 be b4 5e e3 bc b9 bf a9 be
       -0.049811643 -0.26265633 -0.027755119 -0.33154085
000290 a7 22 71 3e 8e df 36 3d fb 00 d7 3b 8b f7 8f ba
       0.23548375 0.044646792 0.006561396 -0.0010983808
0002a0 34 e1 59 be 12 2a 9a bd f4 e5 ac 3b d7 1f 4f be
       -0.21277314 -0.075275555 0.005276436 -0.2022699
0002b0 48 08 8d bd 02 45 1e 3c a1 50 a7 be fa 5d 52 bd
       -0.06886345 0.009660007 -0.32678702 -0.051359154
0002c0 6f de 9c 3d 7d 89 e1 3d 62 6c a2 bc 1e 8f 30 3f
       0.07659613 0.11012552 -0.019827072 0.6896838
0002d0 ff af 6b 3e 16 22 fa bb 8a ba 99 bd 03 42 ff be
       0.23016356 -0.007633458 -0.07506283 -0.4985505
0002e0 5d c7 2c be 8e 12 cb 3c fe 42 eb bb 14 59 30 be
       -0.16872926 0.024789121 -0.007179617 -0.1722148
0002f0 4d 45 49 bd dd 66 b0 bb f4 9a bc bd 81 42 83 bd
       -0.049138356 -0.005383356 -0.092092425 -0.06409169
000300 21 36 93 be fc 44 49 bd 5e 84 af 3b f2 24 d2 be
       -0.28752235 -0.049138054 0.0053563556 -0.41043812
000310 8f 87 4c bd 69 34 00 bc 43 98 e2 be 32 12 b7 bd
       -0.049933966 -0.007824996 -0.4425679 -0.08939017
000320 c9 20 ad 3c b2 dd f7 3d 3b 5a a9 3a aa a0 ee be
       0.021133797 0.12102832 0.0012920568 -0.46606952
000330 86 51 73 bc 5f 32 7a ba b3 a6 b8 be 64 38 97 3d
       -0.01485098 -0.0009544249 -0.3606468 0.073838025
000340 84 de 23 bf fc 91 03 bf a2 c0 30 bd 38 e9 28 bf
       -0.64011407 -0.5139463 -0.04315246 -0.65980864
000350 e5 07 5d 3e 14 f2 a6 3d 1f 26 9e be 01 04 17 3e
       0.21585043 0.081516415 -0.3088846 0.14747621
000360 3e 3a 7d be 0c ff b9 be 92 c6 03 bd 2c cb 9f 3e
       -0.24729249 -0.36327398 -0.032171793 0.31209695
000370 af 33 85 3a 7b 1e 9e 3c aa 7c 62 3e 89 1e 82 3c
       0.0010162498 0.019301644 0.22117868 0.0158837
000380 07 2b fc be 42 7a 30 3e f7 95 57 bc c8 3c 00 bf
       -0.49251577 0.17234138 -0.013158313 -0.50092745
000390 d8 cc e7 3c e1 2b 22 bc 06 fc 87 bd 88 18 05 3e
       0.02829592 -0.009898157 -0.066398665 0.12997639
0003a0 cb 55 76 3c a9 a3 81 3e a5 e0 b9 3c 8e dc 35 bf
       0.015035103 0.25320175 0.022690127 -0.71039665
0003b0 4f e7 e9 3e 12 00 4f bd b4 5d 58 3e cb 3b 47 bf
       0.45684287 -0.050537176 0.21129495 -0.7782561
0003c0 7f cc 88 be e4 e7 b9 3e 49 bd be 3c d7 92 f8 bd
       -0.26718518 0.3630973 0.023283618 -0.121373825
0003d0 26 cb a3 be be ea 1e be 3f aa 7e be 8e 44 cf be
       -0.31990927 -0.15519235 -0.24869631 -0.4048199
0003e0 38 2c 12 be a8 11 49 3e ae c9 43 be 64 1b f5 bd
       -0.1427468 0.19635642 -0.19119903 -0.11968115
0003f0 3e 73 8e be 63 81 03 be 3d 7d 59 be ba b7 28 bf
       -0.27822298 -0.12842326 -0.21239181 -0.65905344

fc1.bias f4 [64]
000000 2c a1 30 3e ce 97 db 3f e9 3f 12 3f 2d 49 0c 40
       0.17248982 1.7155702 0.5712877 2.1919663
000010 e6 c0 94 3c a3 0f a5 3f b1 2f a1 3f 86 1a 4f 3f
       0.018158387 1.2895397 1.2592679 0.80899847
000020 1a c0 eb 3e 69 26 15 3f 72 89 ce 3f 5b dc 65 3f
       0.46045 0.58261734 1.6135695 0.8978936
000030 58 32 bd 3f a8 7f b1 3f c8 f6 84 3e 0a 4f 1d 3f
       1.4780989 1.3867083 0.2596953 0.6144873
000040 8a e1 60 3e f3 4a 6d 3f 82 d9 de 3e c2 a0 90 3f
       0.21961036 0.9269249 0.4352532 1.1299059
000050 13 41 e5 3f 03 53 06 40 d3 17 b0 3f ae 61 9f 3f
       1.7910484 2.0988166 1.375727 1.2451684
000060 87 26 c7 3f 00 4f 9b 3f 22 ec b8 3f e1 3e ba 3f
       1.5558633 1.2133484 1.4447062 1.4550439
000070 74 13 85 3f 36 6e ce 3f 9c 0a 56 3e 33 80 19 3f
       1.0396562 1.6127384 0.20902485 0.5996124
000080 20 22 6a 3f dc 53 dd 3f 79 ec 34 3f 08 05 81 3f
       0.9145832 1.7291217 0.7067333 1.007966
000090 8f f4 1b 3f 29 cb 02 40 38 64 e7 3f 7c 8d 09 3f
       0.6092004 2.04365 1.8077459 0.53731513
0000a0 34 d8 8e 3f 3d 40 71 3f ca ae 71 3f 66 f1 f3 3f
       1.115973 0.94238645 0.9440733 1.9058044
0000b0 7b 4b 0a 40 41 38 ff 3f 34 a7 7e 3f d6 01 19 3f
       2.160857 1.9939042 0.9947388 0.59768426
0000c0 81 40 99 3e 2d 3e f3 3f bc 31 78 3e 13 b1 8b 3f
       0.29932025 1.900335 0.24237722 1.0913414
0000d0 76 a6 93 3f 0c 91 04 40 08 5a 44 3b 1d 15 9a 3e
       1.1535175 2.071353 0.002996089 0.30094233
0000e0 11 36 cf 3f b1 c2 c2 3e 66 1d 5d 3f ff da a6 3f
       1.6188375 0.38039163 0.86372983 1.3035582
0000f0 9e 57 ba 3f d4 8d b2 3f d8 e2 51 be 4c 1e 88 3f
       1.4557989 1.3949533 -0.2049669 1.0634246

fc2.weight f4 [32, 64]
000000 c5 9e 18 3c 42 b6 14 3e 82 69 d4 3c 44 0a fb 3d
       0.009315197 0.14522651 0.025929216 0.122578174
000010 47 6a 10 be 3d 8c 81 3e 4c 46 e7 bd f4 57 26 be
       -0.14103042 0.25302306 -0.11292705 -0.16244489
000020 fa 09 1a 3e b4 3b c2 be 15 c8 55 3e ff 35 8d 3e
       0.15042868 -0.37936175 0.20877106 0.27580258
000030 72 62 fa 3e 3b a2 cf be 26 ca f7 3d 33 5e ae be
       0.48903233 -0.4055346 0.12099104 -0.34056243
000040 69 62 f7 3c f9 c2 6c be 19 a6 64 bd 84 63 79 3e
       0.030198293 -0.23121251 -0.055822466 0.24354368
000050 12 18 85 be f6 01 e7 3e 0e a3 d0 bc 84 1f c7 ba
       -0.25994927 0.45118684 -0.025468376 -0.0015191888
000060 16 58 9b 3e 69 3e 36 3e 60 67 46 bb c8 46 75 3d
       0.30340642 0.17797245 -0.0030274019 0.059881955
000070 cf 95 9e 3e 12 61 ec bc f6 a9 c4 3c d4 f7 f2 bc
       0.3097367 -0.02885488 0.024006825 -0.02965919
000080 2c 7e 17 3e d0 f8 a2 bd 89 5c d4 3e e2 40 48 3d
       0.14794225 -0.079576135 0.4147685 0.048890002
000090 77 53 17 3c e0 67 ae 3e d4 3d 8d 3e 24 17 e8 bd
       0.009236208 0.34063625 0.27586234 -0.11332539
0000a0 fe 5f bc 3c 05 34 8a be 09 78 4a be cd 6d b0 3e
       0.022994991 -0.26992813 -0.19772352 0.3445877
0000b0 48 ae ba 3e 42 95 df 3e 69 17 37 be eb e1 14 3e
       0.3646109 0.43668562 -0.17880024 0.14539306
0000c0 88 31 46 3d 87 52 42 3f f3 d9 95 3e ef f7 08 3d
       0.04838708 0.75907177 0.29267845 0.033439573
0000d0 50 3f 59 3d 05 c4 79 3e ad 25 db bd 46 68 30 be
       0.053038895 0.24391182 -0.107005455 -0.17227277
0000e0 cf ab 40 3e 5c 0f e1 3d a0 c9 1c 3e c0 8e 82 3e
       0.1881554 0.10989258 0.15311289 0.25499535
0000f0 ae ee da 3e 5b 4a 1d bd 89 60 f6 bd b1 96 d6 be
       0.42760223 -0.03840099 -0.12030131 -0.41911843
000100 ef a8 73 bc 8c b4 4b be b8 9b 08 be 15 68 29 3e
       -0.01487182 -0.19893092 -0.13340652 0.1654361
000110 3a 6a bf 3d c6 a6 91 bd 70 fe 1f be a5 c8 47 3c
       0.09346433 -0.07111888 -0.15624404 0.0121938335
000120 39 9f 34 be 61 06 a3 bd e5 f2 d5 bd 46 73 d0 bd
       -0.17638864 -0.07960201 -0.10446719 -0.10178237
000130 a7 ea bc bd db 17 a8 3e 9d 3e 2e bd 38 69 cb 3c
       -0.09224444 0.328307 -0.04254018 0.024830446
000140 06 6e ac bc d4 6d 90 3d c6 3d a6 bd 76 4f f4 bd
       -0.021048557 0.07052198 -0.08117251 -0.119292185
000150 5e 3e 99 3d 35 86 04 bc 79 0d ec 3c ca 3b 85 3e
       0.07482599 -0.008088638 0.028815018 0.26022178
000160 30 9e 26 bd ee 1c 0c 3c 29 19 2c be fd b5 ae bd
       -0.040678203 0.008551819 -0.16806473 -0.08530805
000170 10 af d5 3d 9d 62 04 be 4d 19 e7 3d 4f ef 40 3d
       0.10433781 -0.12928243 0.112841226 0.047103222
000180 4a 7f 12 be 01 43 27 bd ce 89 3c bd 38 51 32 bd
       -0.1430637 -0.040835384 -0.04602986 -0.043534487
000190 77 62 14 bd e3 44 8f 3d 01 67 85 bc a4 c3 9c 3d
       -0.036226716 0.06995561 -0.016284468 0.07654503
0001a0 da 26 81 bc e7 4e de bc 8e 0b d9 3b 28 eb db bd
       -0.015765596 -0.027137233 0.006623692 -0.10738212
0001b0 87 20 cd bd 88 ca 1f be 7f f2 75 3c cd d4 16 3e
       -0.1001597 -0.15604603 0.015011429 0.14729615
0001c0 c0 94 4e 3e 10 da 84 be fa bc f0 3c 24 aa 68 3d
       0.20173931 -0.25947618 0.029386986 0.056802884
0001d0 6d 8a 8a bd f4 25 3b bd 5d 63 7d bd e6 bc 07 bd
       -0.06764684 -0.04569049 -0.06186234 -0.033139132
0001e0 8b 15 e7 3c f3 9f 9b 3d b5 f0 2f be 51 fa c7 bd
       0.028208515 0.07598867 -0.17181666 -0.09764541
0001f0 11 54 dc bd 0e f0 37 3d bd e2 c9 3d a0 fd eb 3d
       -0.10758222 0.04490667 0.098577 0.115229845
000200 79 15 1b bd 60 11 f2 bd 7d c2 6c bd d6 b4 6a be
       -0.037862275 -0.1181972 -0.057802666 -0.22920546
000210 21 ec 1b be 3a b3 be be 47 6b fb 3d 09 cb ce 3c
       -0.15226795 -0.37246114 0.12276321 0.0252433
000220 eb 62 b2 bd fa 46 c1 bd 2d 96 4c be 08 88 eb bd
       -0.08710273 -0.09437366 -0.19979163 -0.11500555
000230 b1 61 ed be f4 83 32 3e fa 9c 46 be a0 d5 cb bd
       -0.46363595 0.17433149 -0.1939582 -0.09952855
000240 0b 54 56 be 90 d4 bf 3c 89 10 5d be b0 69 f6 bd
       -0.20930497 0.023416787 -0.21588339 -0.12031877
000250 55 0b fb bd 78 8b 94 be 4e 85 5d 3d 67 69 bf be
       -0.12258021 -0.29012656 0.054082207 -0.37385103
000260 f9 19 72 be ec ef 7e be cf 74 ca bd 4d e7 fa 3c
       -0.2364272 -0.2489621 -0.09885561 0.030627871
000270 1d f0 8c be aa 92 82 bd 44 27 09 bd f9 8a ef bd
       -0.27526942 -0.0637563 -0.033484712 -0.11696429
000280 6b b4 19 be f9 3f c9 3d a7 ff 0a bb 4a a7 98 bc
       -0.1501023 0.09826655 -0.002120951 -0.018634457
000290 36 3f e7 bd 4a 4a d6 be ef 50 1b be 80 50 18 3e
       -0.112913534 -0.41853553 -0.15167592 0.14874458
0002a0 4a f6 8f 3d 60 3d ac bc 70 7d 2e 3e 80 f5 c7 be
       0.07029398 -0.02102536 0.17040038 -0.3905449
0002b0 c5 ac 8e be 16 6f a1 3d aa ca 76 bd 6f cc 47 3e
       -0.27866188 0.07882516 -0.06025187 0.19511579
0002c0 a7 49 1f 3e 4c 4d a1 bd 03 cf 40 be e4 46 2d 3e
       0.1555544 -0.07876071 -0.18828969 0.16921574
0002d0 10 33 78 3d 93 29 15 bc b0 38 c9 bd f9 4e 09 be
       0.060595572 -0.00910415 -0.098252654 -0.13409032
0002e0 82 a1 b0 be 4b 84 72 bc c6 b3 4f be b0 2b f7 bd
       -0.3449822 -0.014802049 -0.20283422 -0.120688796
0002f0 4f 6e d4 bd 91 86 b2 3d 43 e7 69 3d 15 04 41 be
       -0.10372602 0.08717073 0.057105314 -0.18849213
000300 8c 2e fd 3d e2 86 fe 3e 0d f9 4e be 0d c8 01 3f
       0.12362394 0.49712282 -0.20212193 0.5069588
000310 81 61 01 3e 9a d5 8d 3e f4 30 0f 3d b3 58 4e bd
       0.12634851 0.27702028 0.034958795 -0.05037756
000320 4d 7a ae bc 0f 9b 1b 3e ba bb cd 3e 71 9b 35 be
       -0.021298552 0.15195869 0.40182287 -0.17735077
000330 14 55 a8 3e a9 c6 71 be 4b 91 05 3d 44 6b 19 3e
       0.3287741 -0.23610939 0.032609265 0.14982325
000340 9f 58 dd 3d f8 08 53 3e 10 05 31 be dd 4b 9c 3e
       0.10807919 0.2060889 -0.17287087 0.3052663
000350 9c 50 cd bd f6 f1 91 3e e2 56 0e be 32 8f b5 3e
       -0.10025141 0.28504914 -0.1390033 0.35460812
000360 84 10 90 3e 5a 46 80 3e 66 7e 2d be 2f c8 da bd
       0.281376 0.25053674 -0.16942748 -0.10682713
000370 f3 9c af bd cd ff 5d 3d f3 65 41 3d 51 33 72 3e
       -0.085748576 0.05419903 0.047216367 0.23652388
000380 c3 92 47 3e 1d ac a9 3d b8 68 36 3e 5f 83 40 3d
       0.19489579 0.08284781 0.17813385 0.047000285
000390 b5 62 83 3e ec 29 7c 3e a0 3c 04 3f f5 1d 7d bd
       0.25661245 0.24625367 0.51655006 -0.061796147
0003a0 0b 2c 06 be 50 d3 fc 3d 4d 08 f0 be bd 4e 8b 3e
       -0.13102739 0.12344992 -0.46881333 0.2720851
0003b0 ea ca 9c 3e 3b d3 59 3f eb d1 36 3e 70 7a b0 be
       0.3062356 0.8508794 0.17853515 -0.34468412
0003c0 e5 a0 b6 be 9f 9b 9a 3e 52 e1 7b bd b7 d0 bc be
       -0.35669628 0.30196854 -0.06149418 -0.36877987
0003d0 49 3a cd bd 92 70 e7 3d f9 74 6c 3d dd 13 e7 bd
       -0.10020883 0.11300768 0.05772874 -0.112830855
0003e0 6a 9a 07 3f 10 af ef bc c7 4f 1a 3e 03 90 58 3d
       0.5296999 -0.029258281 0.15069495 0.052871715
0003f0 1a ab 3d 3f 7c a0 f4 bd f1 5d 5d 3d d3 c9 51 3e
       0.74089205 -0.119446725 0.054044668 0.20487146

fc2.bias f4 [32]
000000 55 5f 41 40 2e 2c ea 40 b8 e1 06 3e fd 1b 16 41
       3.0214436 7.317893 0.13172042 9.381833
000010 7e 2b 80 40 09 f7 3d 40 9d 72 0c 40 ee e0 f3 3f
       4.005309 2.9682028 2.1944954 1.9053018
000020 4b c1 b3 3f 8f 4f d6 bd c9 11 01 41 b0 fc 98 40
       1.4043363 -0.10464393 8.066842 4.7808456
000030 d8 ff 10 40 17 71 28 40 6d 9a fc 3c 1f cf b3 bd
       2.2656155 2.6319025 0.030835355 -0.087797396
000040 80 9b 4b 3f 2e b8 6a 40 b5 14 b6 40 7c 0d 95 bd
       0.7953415 3.6674914 5.6900277 -0.072779626
000050 0a 3b 49 40 c1 1b 1b bd 35 1e 5a 3f e8 5c c4 40
       3.1442285 -0.037868265 0.8520234 6.136341
000060 f9 83 29 3f 9e 42 56 bc 82 b7 8c 40 ac 78 92 40
       0.66217 -0.013077406 4.397401 4.5772305
000070 5e 54 23 40 01 1e 86 3f c6 7d 04 41 88 cf 18 40
       2.5520244 1.0477906 8.280706 2.3876667

fc3.weight f4 [11, 32]
000000 fe 40 8b bf a6 e4 7f bf fd c8 34 3e e3 08 16 c0
       -1.0879209 -0.99958265 0.17654796 -2.3442924
000010 f1 96 1a bf da 05 e5 bd ee e4 fa be a2 b8 0f bf
       -0.6038657 -0.11182757 -0.49002784 -0.561411
000020 64 2d a5 be 9c f0 84 bd 6a 7d aa bf 8f 97 83 bf
       -0.32261193 -0.06491205 -1.3319523 -1.0280627
000030 cd fd 22 bf 74 ee 6f be db cb 2e bd e9 a8 b0 bd
       -0.6366852 -0.23430806 -0.04267488 -0.08625967
000040 61 be d6 be 90 12 65 bf a4 54 90 bf a6 11 7d bd
       -0.41942123 -0.8948145 -1.127583 -0.06178441
000050 52 2a 4a 3d 4a 18 0c bd f6 60 b6 be 27 34 8a bf
       0.049356766 -0.03420285 -0.3562085 -1.0797166
000060 47 58 4d be 48 e9 06 3e 64 ee be bf ac 5e 89 bf
       -0.20053206 0.13174927 -1.4916501 -1.0732017
000070 97 0f 56 bd 4a fa 81 be dc 82 d1 bf e3 e9 12 bf
       -0.05226096 -0.25386268 -1.636806 -0.5738813
000080 00 1c 51 bf e8 a4 61 bf 6c 91 56 be a1 bb f0 bf
       -0.8168335 -0.8814225 -0.20953912 -1.880726
000090 41 45 30 bf ee 55 e2 be 4f b5 15 bf 63 e5 04 bf
       -0.68855673 -0.44206184 -0.5847978 -0.51912516
0000a0 d9 8f 3d be e6 67 4c 3d 45 b9 98 bf 38 da 80 bf
       -0.18511905 0.049903773 -1.193154 -1.0066595
0000b0 94 b9 dd be f2 bc bb be 13 b1 39 be d5 21 85 3d
       -0.43305647 -0.3666759 -0.18133955 0.065005936
0000c0 c9 d7 c6 be 37 2a 35 bf 05 ad 87 bf c1 b7 c0 bd
       -0.38836506 -0.7076754 -1.0599676 -0.09410048
0000d0 8c 61 a1 be 40 ba 43 3d a2 06 26 be 86 8c 8f bf
       -0.31519735 0.047785044 -0.16213468 -1.1214759
0000e0 07 46 ca bd 73 c6 16 be d3 06 90 bf 05 7c 53 bf
       -0.09876638 -0.1472414 -1.1252083 -0.82611114
0000f0 a7 2e 65 be 35 4e ab be 1c ad c0 bf 8f 1c 11 bf
       -0.22381078 -0.33458105 -1.5052829 -0.566842
000100 46 28 15 bf b5 76 90 bf 80 12 88 be 2d 83 ac bf
       -0.5826458 -1.1286227 -0.26576614 -1.3477532
000110 ff 28 3e bf 36 bc 09 bf d3 55 02 bf ad 71 d5 be
       -0.74281305 -0.5380281 -0.5091221 -0.4168829
000120 8f c8 77 be b8 9d c4 3d 10 ea 96 bf 3c 00 6b bf
       -0.24197601 0.09600395 -1.179018 -0.9179723
000130 8e 53 a1 be 18 28 b9 be 4b f0 68 bc d9 9a dc 3c
       -0.3150906 -0.36163402 -0.014217447 0.026929306
000140 71 70 de be 1f 4f 2d bf 03 4c 80 bf fb a5 cb bc
       -0.4344516 -0.67698854 -1.0023197 -0.02485942
000150 93 46 dc be 41 2e 22 3e 4d ee 59 be f8 bf 86 bf
       -0.43022594 0.15837957 -0.21282311 -1.0527334
000160 26 ca 4c be 69 e9 92 bd d5 65 24 bf 4f 13 57 bf
       -0.19998989 -0.07173426 -0.64217883 -0.8401384
000170 5d ee 19 bf 02 f7 3a be ab cc a2 bf bc cd f9 be
       -0.6012934 -0.18258289 -1.271871 -0.48789775
000180 f7 b2 5e be 34 42 9d bf f5 dc 15 3d 75 47 89 bf
       -0.21747957 -1.2285829 0.036587674 -1.0724932
000190 f3 62 4a bf 53 80 2e bf 83 0c 23 be 5d 2e a4 be
       -0.79057235 -0.6816456 -0.15922742 -0.32066622
0001a0 9a 04 85 be e1 39 23 3e 22 a9 9a bf 6c 30 65 bf
       -0.25980073 0.15940048 -1.2082865 -0.8952701
0001b0 dd e7 6b be b6 e6 09 bf 5f 47 aa bb e5 12 b1 bd
       -0.23037668 -0.5386766 -0.0051964964 -0.08646182
0001c0 63 d0 d9 be 1b cb 29 bf 2a 7d 68 bf 45 ed 5a bd
       -0.425418 -0.6632554 -0.90815985 -0.053448934
0001d0 0f f6 22 bf c3 2b 36 3e ce 4c 7d be 5c ee 91 bf
       -0.63656706 0.17790131 -0.2473633 -1.1400867
0001e0 66 a5 29 be e8 64 87 bb 07 5f 80 be a5 d3 48 bf
       -0.16567001 -0.004131902 -0.250725 -0.78447944
0001f0 a9 33 26 bf fd 17 f9 bd 0a 0c 90 bf ea 1b e7 be
       -0.6492258 -0.121627785 -1.1253674 -0.45138484
000200 d8 77 87 be cb 4a a8 bf f5 c4 ed 3d 2e f8 52 bf
       -0.2645862 -1.3147825 0.11609832 -0.8240994
000210 af 92 61 bf 05 f0 54 bf b2 08 34 be 34 7d 9e be
       -0.88114446 -0.8317874 -0.17581442 -0.30954897
000220 8b 17 b6 be 93 ff 98 3d 6d de 91 bf 0c d0 2f bf
       -0.35564837 0.07470622 -1.1396004 -0.6867683
000230 92 0c a7 be a9 ac 2c bf 7e 8c 6f 3c e4 3f f7 3d
       -0.32626778 -0.6745096 0.014620898 0.12072733
000240 4f 05 4c be 9c d8 25 bf 39 00 4e bf 38 6a b0 3d
       -0.199239 -0.64783645 -0.8046909 0.086140096
000250 0e 6d 7d bf 73 09 4c bc 3c 29 33 3d 5b d4 8e bf
       -0.9899453 -0.012453425 0.043740496 -1.1158556
000260 1c b5 54 be aa 52 60 3d b6 25 41 be 30 46 43 bf
       -0.20772213 0.054766335 -0.18862042 -0.7627897
000270 35 bb 35 bf 4d 23 77 3d 05 5b 88 bf 31 87 a2 be
       -0.7098878 0.0603364 -1.0652777 -0.31743768
000280 b0 bd 6b be 1e d7 a4 bf 5c 4b ba 3e 4a 1f 25 bf
       -0.23021579 -1.2878149 0.3638562 -0.6450087
000290 21 ae 54 bf 57 44 56 bf 0c bf 6f be f2 ec 85 be
       -0.830782 -0.8369803 -0.23412722 -0.26157337
0002a0 50 a0 0a be 8d db c5 3d 32 36 b1 bf ff 87 38 bf
       -0.13537717 0.096610166 -1.3844664 -0.72082514
0002b0 7a 8f e9 be cd 2a 2a bf 31 9f e4 bd 3b 6a 07 3e
       -0.45617276 -0.6647156 -0.11163176 0.13224117
0002c0 4c c5 0e be e9 2c 35 bf 1a 0c 5b bf a6 e9 76 be
       -0.1394245 -0.7077165 -0.8556534 -0.24112567
0002d0 95 09 74 bf 15 bd 7c bd 10 b7 00 3e f6 93 92 bf
       -0.9532712 -0.06170376 0.12569833 -1.1451404
0002e0 e0 1c 3a 3d 59 59 29 3d 93 77 f3 3b a7 9f 25 bf
       0.045437694 0.041344974 0.007430026 -0.64696735
0002f0 8d 92 3f bf 2f 1a 27 be 9c 8f 87 bf ca b6 08 be
       -0.74832994 -0.16318582 -1.0590701 -0.13350978
000300 7d 61 8e be 8e 3c b4 bf 1b 0d 8c 3e 51 c0 37 bf
       -0.27808753 -1.408098 0.2735375 -0.71777827
000310 5d 91 4d bf b6 e5 2c bf 05 f8 ec bd 3f a9 a2 be
       -0.8029993 -0.6753801 -0.115707435 -0.3176975
000320 eb 94 95 be 7e 30 dc bd 0d e3 ae bf 4f 9c 19 bf
       -0.29215178 -0.10751437 -1.366304 -0.60004133
000330 dd 4f f0 be c3 40 23 bf 83 e8 03 bb 15 c6 1b 3e
       -0.4693593 -0.63770694 -0.0020127601 0.15212281
000340 80 d6 34 be 05 db 1d bf 9c a2 56 bf d9 b0 8b 3d
       -0.1765995 -0.6166232 -0.8384187 0.068208404
000350 5a f3 63 bf 15 65 98 3d 05 d8 3b 3c 2d c7 9f bf
       -0.890432 0.07441155 0.011465077 -1.2482659
000360 bf ba 29 be 25 d3 96 3d 7b 17 11 be 4b 60 fd be
       -0.16575144 0.073644914 -0.14169113 -0.49487528
000370 3f 08 50 bf 63 e5 c1 bd d3 22 8a bf fc 0b 93 be
       -0.8126258 -0.0946758 -1.0791878 -0.2872008
000380 de d9 d5 be eb 59 9b bf 4a bc fc 3c f0 9f 79 bf
       -0.41767782 -1.2136816 0.030851502 -0.9750967
000390 f4 9a 3b bf b8 3e 34 bf 01 9c 79 be 2f 38 b9 be
       -0.73283315 -0.704082 -0.24375917 -0.36175677
0003a0 c4 6b 44 be 73 e1 93 bd 14 f5 9e bf 26 48 49 bf
       -0.19181734 -0.072207354 -1.2418542 -0.78625715
0003b0 cc c9 02 bf 44 d6 05 bf 6c e5 e2 3d 59 2f 2d bd
       -0.5108917 -0.5228007 0.11078915 -0.042281482
0003c0 16 3c 88 be 2b 22 29 bf 7a bc 71 bf e9 95 58 bd
       -0.26608342 -0.6606776 -0.9442822 -0.05287734
0003d0 e9 04 40 bf b4 eb 23 3e d4 16 17 be da ba 8a bf
       -0.7500749 0.16007882 -0.14754802 -1.0838273
0003e0 23 33 eb bd 69 69 1c bd 1d 1b 8b be 26 2a 38 bf
       -0.11484363 -0.038186464 -0.27169123 -0.71939313
0003f0 a9 c1 3e bf 02 63 1c be 35 50 91 bf 05 99 a6 be
       -0.7451425 -0.15272143 -1.1352602 -0.3253862

fc3.bias f4 [11]
000000 e1 1a 2a c0 5d 7f 11 c0 ca 27 07 c0 97 e7 14 c0
       -2.6578906 -2.2733986 -2.1118035 -2.3266351
000010 1a 06 02 c0 0b ae 12 c0 f1 dd 0e c0 d1 22 0f c0
       -2.0316224 -2.2918727 -2.2322962 -2.2365
000020 18 15 0c c0 fa d2 13 c0 6b 75 19 c0
       -2.1887875 -2.309752 -2.3977916
